NeurPiRL_SA/LunarLander/DQN/Oracle/64x64/15/Policy.pth (torch, 22209 bytes, 6 tensors)

fc1.weight f4 [64, 8]
-0.9231964 -1.1601343 -0.28772464 -0.5831745 0.59149694 0.090573095 0.18074098 0.10125043
0.86645013 -0.5461871 0.4912212 0.20670019 -0.7938647 0.026564412 0.41514513 -0.111255676
-0.085052855 -2.914259 0.022220232 -1.128762 0.46293572 0.03687813 0.043648887 -0.035389476
0.9186416 -0.67453724 -0.2268699 -1.6034904 -0.36962384 -0.3204299 0.19302489 -0.083158925
0.06739011 1.0596844 2.1359076 -1.3255844 -0.7476826 0.4514682 -0.4070918 -0.11487949
0.0061077606 -0.025253901 0.7041399 -2.2594235 0.570001 0.04471454 0.20357603 0.14180745
0.398664 -0.16106878 0.9470886 -0.2258527 -1.0907712 -0.28176475 -0.26310873 0.47228593
-0.24364963 0.34004697 0.14617845 0.18432055 0.1934475 0.4615457 0.26634106 0.44860005
-0.11859429 -1.0911425 -0.79451674 -1.0325152 0.40239617 0.21284078 0.16794792 0.12999053
-0.16240779 0.05121942 -0.023200268 -0.08944537 3.0644226 -0.25889826 0.21023558 0.3520871
-0.20862477 0.31585476 -1.4384875 0.5342234 -1.0555739 -0.5293861 -0.84290135 0.024685163
-0.58077335 -0.28459033 1.3994671 0.11860654 0.9976554 -0.63080645 -0.29609397 0.60400397
0.047478393 0.79318005 -0.4174728 -0.85725975 -0.7193695 -0.43083623 -0.011596705 0.35290152
-0.97439724 -0.9022961 -0.92350227 -0.957565 0.7467692 -0.17459446 0.08903397 0.12060632
0.09422098 0.5490007 -0.3696563 -0.5588071 0.45701703 0.250994 -0.19253062 0.21436025
-0.17621009 -0.14429829 0.4032039 -0.11034229 0.23472084 0.6854933 0.4480886 0.0031058486
0.015229828 0.41249081 0.4682853 0.08329925 -0.2678397 0.17665608 -0.3856111 -0.89250267
0.9388464 -0.981458 0.3915379 -0.65019447 -0.6694746 -0.14883372 0.21346977 0.14403464
-0.09898791 0.5026609 -0.5784067 -0.39531222 0.2714381 0.47543153 0.70502603 0.17472555
-0.9172004 -0.495351 -0.64745206 -0.85654765 0.7018264 0.33514592 0.024177907 0.25119257
-0.043526538 0.6205968 0.04705605 -0.21545327 -0.29828572 0.8714258 0.14809358 -0.29072675
-0.00079788186 0.022451071 -0.0897316 -0.28791666 -0.72728187 0.29682395 -0.014680712 -0.8617156
0.06496982 0.44683436 -0.19324636 -0.11584227 0.14016391 -1.3755729 -0.46453205 -0.47898737
0.107064664 -0.06341661 0.5127252 -0.4656973 0.6626089 -0.17380099 -0.041867018 0.46877974
0.0038773452 0.030275237 1.2860316 1.0837374 0.38860902 -0.037602242 -0.123871356 0.6674941
1.2722887 -0.34434864 0.67054033 -0.8763566 -0.083897084 -0.023441076 0.058408972 0.0026994091
-0.27222347 -4.694428 -0.4973712 -1.5622741 0.0217475 0.011315287 -0.010066304 0.04300512
0.18562134 0.03422415 2.283619 1.0182803 0.16026244 0.04002443 -0.30762506 0.68679506
-0.50994194 -0.24287881 -0.9504574 -0.18015431 0.73409164 -0.34967494 -0.5132113 0.09996076
0.76722986 -0.3102507 1.1429954 -0.7420639 0.09050884 0.5786259 -0.14451209 -0.7497562
0.10356235 -0.2883253 -1.0524201 -0.5200261 0.1832535 -0.3366017 0.043654624 0.394656
0.79640496 -0.4290876 0.23541641 0.28299004 -0.20083775 -0.35784298 -0.44365734 0.0152431205
00000000: 9956 6cbf 487f 94bf a550 93be ed4a 15bf
00000010: 586c 173f 637e b93d 2a14 393e 635c cf3d
00000020: adcf 5d3f ebd2 0bbf 5881 fb3e 37a9 533e
00000030: b83a 4bbf 9c9d d93c e78d d43e 04da e3bd
00000040: 3130 aebd 3883 3ac0 3407 b63c 467b 90bf
00000050: e905 ed3e 860d 173d 2dc9 323d 8ef4 10bd
00000060: 192c 6b3f 79ae 2cbf 9550 68be 2c3f cdbf
00000070: 563f bdbe 630f a4be 51a8 453e 3a4f aabd
00000080: d303 8a3d bda3 873f b6b2 0840 c0ac a9bf
00000090: 2068 3fbf d726 e73e 566e d0be f045 ebbd
000000a0: 9c23 c83b 45e1 cebc 8342 343f 659a 10c0
000000b0: 96eb 113f 9826 373d 3c76 503e f935 113e
000000c0: b01d cc3e 37ef 24be 6674 723f ee45 67be
000000d0: 649e 8bbf 7843 90be 30b6 86be 76cf f13e
000000e0: 4a7f 79be a31a ae3e ceaf 153e 87be 3c3e
000000f0: 1a17 463e b84f ec3e db5d 883e e8ae e53e
00000100: 90e1 f2bd 8faa 8bbf 7365 4bbf 7529 84bf
00000110: df06 ce3e eff2 593e 8afa 2b3e 3d1c 053e
00000120: 3a4e 26be 74cb 513d 7d0e bebc 222f b7bd
00000130: 801f 4440 508e 84be ff47 573e c344 b43e
00000140: bba1 55be b7b7 a13e 5c20 b8bf ddc2 083f
00000150: 0c1d 87bf d985 07bf 62c8 57bf 8a38 ca3c
00000160: 90ad 14bf d3b5 91be bd21 b33f fce7 f23d
00000170: 5866 7f3f 887c 21bf a199 97be 01a0 1a3f
00000180: b478 423d d90d 4b3f ffbe d5be 6075 5bbf
00000190: 9928 38bf 9196 dcbe 1b00 3ebc 82af b43e
000001a0: 1972 79bf e1fc 66bf a56a 6cbf fb22 75bf
000001b0: 442c 3f3f e4c8 32be 7157 b63d 7200 f73d
000001c0: eef6 c03d 4f8b 0c3f 9743 bdbe fb0d 0fbf
000001d0: 23fe e93e 4982 803e bf26 45be 4181 5b3e
000001e0: 6b70 34be eec2 13be be70 ce3e 23fb e1bd
000001f0: a95a 703e 7d7c 2f3f de6b e53e 7e8b 4b3b
00000200: 8786 793c ff31 d33e 17c3 ef3e cc98 aa3d
00000210: 4922 89be 55e5 343e d16e c5be 0e7b 64bf
00000220: 3d58 703f d540 7bbf a877 c83e 2573 26bf
00000230: b062 2bbf de67 18be d297 5a3e d17d 133e
00000240: 2cba cabd 62ae 003f 7612 14bf 5d66 cabe
00000250: eff9 8a3e c36b f33e 967c 343f 41eb 323e
00000260: a5cd 6abf a59e fdbe 6bbf 25bf b546 5bbf
00000270: e5aa 333f 3f98 ab3e bf10 c63c 509c 803e
00000280: e248 32bd 6fdf 1e3f d8bd 403d c89f 5cbe
00000290: e8b8 98be c315 5f3f d8a5 173e 23da 94be
000002a0: f228 51ba 4feb b73c 33c5 b7bd d069 93be
000002b0: 252f 3abf 4ff9 973e 5e87 70bc 6599 5cbf
000002c0: e60e 853d 79c7 e43e 60e2 45be b63e edbd
000002d0: 2187 0f3e c612 b0bf 25d7 edbe d53d f5be
000002e0: b844 db3d 91e0 81bd f541 033f e06f eebe
000002f0: bda0 293f e3f8 31be c07c 2bbd e603 f03e
00000300: 0f1b 7e3b c603 f83c af9c a43f e8b7 8a3f
00000310: c3f7 c63e cf04 1abd 44b0 fdbd e5e0 2a3f
00000320: 5bda a23f 774e b0be 88a8 2b3f e858 60bf
00000330: 3cd2 abbd 8007 c0bc 3f3e 6f3d 92e8 303b
00000340: e060 8bbe c138 96c0 70a7 febe 99f8 c7bf
00000350: d027 b23c c163 393c 24ed 24bc 2326 303d
00000360: 8513 3e3e 9f2e 0c3d d026 1240 0257 823f
00000370: d61b 243e a8f0 233d 0881 9dbe cdd1 2f3f
00000380: 8e8b 02bf 39b5 78be 2d51 73bf 5f7a 38be
00000390: 6eed 3b3f 9808 b3be d161 03bf 3ab8 cc3d
000003a0: 2d69 443f 2ed9 9ebe ac4d 923f e6f7 3dbf
000003b0: b35c b93d d420 143f fafa 13be 06f0 3fbf
000003c0: 7f18 d43d 609f 93be b4b5 86bf 6e20 05bf
000003d0: cea6 3b3e 0f57 acbe 31cf 323d 5a10 ca3e
000003e0: 32e1 4b3f 5fb1 dbbe 0011 713e 12e4 903e
000003f0: 69a8 4dbe 3237 b7be 0e27 e3be 48be 793c

fc1.bias f4 [64]
-0.2872076 -0.34316498 0.5507815 -0.08875426 0.52755713 0.04657207 -0.20438118 -0.33905622
-0.31099558 -0.08818113 -0.17657441 0.03856461 -0.2745385 -0.3102577 0.7801545 0.30889812
-0.5178171 -0.29567367 0.4067044 -0.21950686 0.6783421 -0.35934392 0.56021875 -0.17911354
-0.031051723 -0.081630744 0.41163585 -0.35808787 0.44540277 0.13532104 0.46349734 -0.489431
-0.3697534 0.19648924 0.59923774 0.3078653 -0.34905744 -0.119370595 0.8254119 0.34522006
0.18457673 -0.20188875 0.08987172 0.6193014 0.26095736 -0.31554106 -0.27461833 0.23128653
0.108256385 0.42661455 0.40386578 0.45407665 0.7785197 0.1701505 0.22785956 0.3250781
0.44653648 -0.2728107 0.49048784 -0.5715207 0.26796693 -0.40618342 0.8746974 0.1342392
00000000: e00c 93be 52b3 afbe 0400 0d3f cbc4 b5bd
00000010: fc0d 073f 5bc2 3e3d 4d49 51be c798 adbe
00000020: d03a 9fbe 4f98 b4bd eccf 34be edf5 1d3d
00000030: 4f90 8cbe 19da 9ebe 35b8 473f e527 9e3e
00000040: a98f 04bf 8a62 97be 8f3b d03e 68c6 60be
00000050: d4a7 2d3f edfb b7be 7f6a 0f3f 8a69 37be
00000060: 2f60 febc 052e a7bd efc1 d23e 4b57 b7be
00000070: d50b e43e 9991 0a3e 864f ed3e b396 fabe
00000080: 5150 bdbe 7a34 493e a567 193f 85a0 9d3e
00000090: a8b7 b2be 9278 f4bd 324e 533f afc0 b03e
000000a0: af01 3d3e edbb 4ebe aa0e b83d 898a 1e3f
000000b0: 349c 853e 998e a1be c69a 8cbe 60d6 6c3e
000000c0: 86b5 dd3d 396d da3e 7fc7 ce3e bc7c e83e
000000d0: 114d 473f ef3b 2e3e 0454 693e a370 a63e
000000e0: 6ea0 e43e d8ad 8bbe 3921 fb3e 2e4f 12bf
000000f0: f632 893e 46f7 cfbe 2bec 5f3f 0076 093e

fc2.weight f4 [64, 64]
0.8978648 1.0384057 -0.32883605 0.7489918 -0.11364358 -0.25240907 0.61387914 0.14321668
0.974247 -0.18280931 -1.245331 0.13695894 0.12812713 0.8220971 0.008492916 0.171869
-0.46289462 0.604042 -0.1269852 0.84742785 -0.3459558 0.21544172 -0.122108124 0.33135453
-1.2884276 0.72413355 -0.72985035 -0.12424029 0.51186985 0.5090278 0.3765517 1.0796189
0.65264016 0.17960699 0.12191468 0.4183994 0.36738467 1.25466 0.087821804 0.31359762
0.34146416 0.07017466 0.8280539 -0.13848613 -0.10874259 0.0543086 0.90574527 0.0038297125
0.13605708 0.1933333 0.19595684 0.047009386 -0.10851107 0.6501192 0.12154162 0.11143564
0.41441345 0.12974383 -0.04213467 1.1480343 0.3669931 0.6019243 -0.3576446 0.05139223
0.8101012 1.1190037 -0.1621109 0.76991445 0.06685388 -0.22173728 0.77749914 0.045051895
0.723486 0.036791198 -0.9767202 -0.12939684 0.08680412 0.8527344 0.07396255 0.0977506
-0.2745331 0.8432939 -0.112848416 0.7048155 -0.38114458 0.6238763 -0.06214065 0.15718095
-1.3291719 0.67108655 -0.85846037 -0.18775213 0.40058014 0.0808633 0.33980218 1.1551688
0.53289807 0.20616484 0.20199975 0.3093376 0.4464204 1.037874 -0.11983889 0.34221473
0.5098736 0.09217417 0.75810665 -0.114954084 -0.35275578 0.0004338695 1.077935 0.030378956
0.20084032 0.17431737 0.16260505 0.13452666 -0.21862708 0.63579404 1.7050705e-05 0.06351506
0.25353518 0.0038518724 0.04949357 1.2309278 0.16804299 0.54634035 -0.24461178 0.3800971
0.9449373 0.8165502 -0.29009017 0.022862332 -0.006261468 -0.7287245 0.35929483 0.14544493
0.5587873 -0.648283 -1.5332311 0.035038587 -0.4805544 0.5417648 0.021037308 0.25467107
0.24189696 0.5532266 -0.06857371 0.7168812 -0.16634095 -0.13306259 -0.20723195 0.09113574
-0.969892 0.35123852 -0.9857689 0.45558366 0.28118628 -0.22703685 0.2158412 0.81926477
0.41890475 0.20152727 -0.02677302 0.024611652 0.06781369 1.0089836 -0.031784218 0.15060395
0.91484505 0.11196785 0.5020983 -0.024592286 -0.3465425 -0.03784484 0.67028654 0.19292563
0.19866353 0.3430621 0.23661177 0.17775151 -0.2952555 0.14027219 0.26309735 -0.00060980127
0.43415225 0.2162497 0.38338345 0.5428632 0.36851236 -0.014878558 0.09322497 0.16029468
0.7981247 0.8784546 -0.25693077 0.42084157 0.5431534 -0.4318348 0.80814946 0.34584862
0.50458914 -0.49558294 -0.023816843 0.38408878 -0.26954877 0.77444106 0.18386963 0.22638518
1.0373789 0.47054303 0.14235052 0.9091492 0.04914332 0.9664192 -0.42992857 0.09833963
-1.1413198 0.07000244 -0.6551726 1.0033077 0.48100433 -0.7032879 0.21000376 0.9962721
0.66573375 0.28153247 -0.16245273 -0.04095229 0.27831393 1.5775641 -0.50574243 -0.017094614
0.38692942 0.15198229 0.61327744 -0.15774542 -0.2866484 -0.0659964 0.88334936 0.2023555
0.38256133 0.087295875 -0.024453372 0.09930984 -0.20969673 0.006993383 0.23871605 -0.0076808813
-0.59533274 0.35870272 0.14893296 0.47928965 0.48899046 -0.07439219 -0.036812972 0.32946542
00000000: 78da 653f 7aea 843f 335d a8be edbd 3f3f
00000010: f7bd e8bd c33b 81be 2f27 1d3f 65a7 123e
00000020: 4068 793f 5d32 3bbe 0267 9fbf f73e 0c3e
00000030: c233 033e f574 523f df25 0b3c 6dfe 2f3e
00000040: 8600 edbe 7fa2 1a3f 6908 02be 08f1 583f
00000050: 1e21 b1be c19c 5c3e d313 fabd 4da7 a93e
00000060: 32eb a4bf d160 393f 79d7 3abf b171 febd
00000070: e709 033f a54f 023f 62cb c03e f430 8a3f
00000080: 6d13 273f e5ea 373e 67ae f93d 7238 d63e
00000090: d819 bc3e b398 a03f ebdb b33d de8f a03e
000000a0: 64d4 ae3e bbb7 8f3d 57fb 533f 4fcf 0dbe
000000b0: 6fb4 debd b272 5e3d ecde 673f eafb 7a3b
000000c0: 8c52 0b3e 2af9 453e e9a8 483e ea8c 403d
000000d0: 0d3b debd 366e 263f d0ea f83d 5e38 e43d
000000e0: 002e d43e 91db 043e 6795 2cbd caf2 923f
000000f0: 85e6 bb3e b617 1a3f 311d b7be a980 523d
00000100: cb62 4f3f 833b 8f3f 6600 26be 1d19 453f
00000110: b0ea 883d 190f 63be 2f0a 473f 5688 383d
00000120: 6136 393f 5eb2 163d 560a 7abf 9b80 04be
00000130: 5cc6 b13d cd4c 5a3f ad79 973d 7731 c83d
00000140: 9a8f 8cbe 1ce2 573f 121d e7bd ca6e 343f
00000150: 6225 c3be 5bb6 1f3f 3287 7ebd 0bf4 203e
00000160: 4e22 aabf 54cc 2b3f 0fc4 5bbf 1842 40be
00000170: d718 cd3e a89b a53d 8dfa ad3e 92dc 933f
00000180: 026c 083f e01c 533e 06d9 4e3e 7f61 9e3e
00000190: 3791 e43e 0ed9 843f 186e f5bd c536 af3e
000001a0: 1487 023f d0c5 bc3d 4713 423f 0c6d ebbd
000001b0: 689c b4be fb78 e339 c6f9 893f 4add f83c
000001c0: 16a9 4d3e 4180 323e f081 263e 5bc1 093e
000001d0: c7df 5fbe 66c3 223f 1c08 8f37 2f14 823d
000001e0: 5dcf 813e b26f 7c3b c5b9 4a3d 0b8f 9d3f
000001f0: 7613 2c3e f6dc 0b3f 837b 7abe 169c c23e
00000200: 69e7 713f 6f09 513f b386 94be c949 bb3c
00000210: 002d cdbb b08d 3abf 7ef5 b73e 84ef 143e
00000220: af0c 0f3f e0f5 25bf eb40 c4bf 9f84 0f3d
00000230: 3a0b f6be 19b1 0a3f 6f56 ac3c 3f64 823e
00000240: d6b3 773e 42a0 0d3f 6070 8cbd 8785 373f
00000250: 4855 2abe 8f41 08be 9d34 54be 60a5 ba3d
00000260: d84a 78bf 89d5 b33e 5a5b 7cbf 4342 e93e
00000270: a6f7 8f3e 597c 68be 7a05 5d3e 56bb 513f
00000280: af7a d63e 2a5d 4e3e 1853 dbbc 609e c93c
00000290: e7e1 8a3d 6026 813f 2b30 02bd ec37 1a3e
000002a0: 4933 6a3f 664f e53d 8489 003f c375 c9bc
000002b0: 056e b1be 3103 1bbd e697 2b3f 4c8e 453e
000002c0: 746e 4b3e d6a5 af3e 5b4a 723e 7e04 363e
000002d0: bb2b 97be 83a3 0f3e b2b4 863e 12db 1fba
000002e0: 3449 de3e 9070 5d3e d64a c43e 15f9 0a3f
000002f0: a7ad bc3e 32c5 73bc bcec be3d 4a24 243e
00000300: e651 4c3f 67e2 603f 6e8c 83be 8c78 d73e
00000310: 1a0c 0b3f 7319 ddbe e2e2 4e3f 1213 b13e
00000320: c12c 013f 0cbd fdbe 8a1b c3bc 49a7 c43e
00000330: 4c02 8abe c541 463f 5248 3c3e 84d1 673e
00000340: d5c8 843f 04eb f03e 56c4 113e 01be 683f
00000350: 824a 493d 4067 773f 991f dcbe 4a66 c93d
00000360: c416 92bf 705d 8f3d 64b9 27bf 636c 803f
00000370: 3346 f63e ad0a 34bf 3a0b 573e b00b 7f3f
00000380: 876d 2a3f 0625 903e 025a 26be 97bd 27bd
00000390: 2a7f 8e3e 9fed c93f 5678 01bf 010a 8cbc
000003a0: 9d1b c63e 3fa1 1b3e c0ff 1c3f 0488 21be
000003b0: 94c3 92be 1f29 87bd 2f23 623f 4836 4f3e
000003c0: 14df c33e 2ec8 b23d 7052 c8bc f562 cb3d
000003d0: bdba 56be c028 e53b fb71 743e e7af fbbb
000003e0: ba67 18bf e2a7 b73e e281 183e 7465 f53e
000003f0: f55c fa3e ef5a 98bd 33c9 16bd b1af a83e

fc2.bias f4 [64]
-0.17362441 -0.049890522 0.019225387 0.040680103 0.16703321 0.028681654 0.011974101 0.46935964
-0.04158143 0.2701625 0.03451767 -0.06064447 -0.06557566 0.37235302 0.051471423 0.4060122
0.08100804 -0.05452975 0.75173056 -0.50104153 0.13730112 0.34046194 0.8551288 0.2953444
0.13791451 -0.24765983 0.34581146 0.37738007 0.082675695 0.61599 0.13135149 0.05986371
-0.033429135 -0.003972386 0.015080314 0.3293432 -0.007997647 -0.36003923 0.123990096 -0.15707882
0.49341425 0.08380971 0.2321585 -0.0015562805 -0.014266387 0.1438606 0.7300644 -0.07021063
-0.13623971 0.2047345 0.10454593 -0.41624847 -0.064075 0.24279882 -0.08293469 0.040961668
0.3214353 0.24813168 -0.056610867 -0.0827881 -0.047093168 -0.12281161 0.8630912 -0.14951244
00000000: 99ca 31be 015a 4cbd 8f7e 9d3c 2ea0 263d
00000010: c10a 2b3e caf5 ea3c 052f 443c e84f f03e
00000020: 4a51 2abd bd52 8a3e 6662 0d3d 5666 78bd
00000030: 884c 86bd 0ea5 be3e b3d3 523d d5e0 cf3e
00000040: 8be7 a53d 965a 5fbd 6a71 403f 4244 00bf
00000050: aa98 0c3e 0751 ae3e b9e9 5a3f 6237 973e
00000060: 7639 0d3e 8a9a 7dbe 330e b13e f637 c13e
00000070: e051 a93d 85b1 1d3f 0181 063e a633 753d
00000080: fdec 08bd ca2a 82bb 6c13 773c ac9f a83e
00000090: 9008 03bc 1057 b8be 85ee fd3d 45d9 20be
000000a0: cba0 fc3e 6da4 ab3d f5ba 6d3e 1cfc cbba
000000b0: 90bd 69bc 3150 133e 80e5 3a3f 97ca 8fbd
000000c0: 6c82 0bbe eca5 513e 2d1c d63d 851e d5be
000000d0: c139 83bd 41a0 783e aad9 a9bd 6cc7 273d
000000e0: 2b93 a43e 3b16 7e3e cce0 67bd cf8c a9bd
000000f0: c4e4 40bd a784 fbbd 8bf3 5c3f ca19 19be

fc3.weight f4 [4, 64]
-0.4847307 -0.50193244 -0.46467808 -0.7299106 -0.75995123 -0.71415865 2.6492949 0.69453084
-0.9518198 -0.79072237 -0.33904076 -0.51674575 -0.7281143 1.0041881 -0.5112135 -0.33937982
-0.6588213 -0.6054867 2.9948494 -1.0713261 -0.69402206 1.0472132 1.6618516 -0.116603054
-1.2741315 -1.1896914 -0.52707726 -0.5079475 -0.70113736 1.5068696 -0.5905614 -0.51076984
-0.5632353 -0.55538845 -0.48253837 -0.7452026 -0.5550455 -0.18365674 1.7534224 -0.58307797
0.46729195 -0.6087151 -0.42897052 -0.6936775 -0.58772373 -0.30755815 1.705926 -0.4320057
-0.55259734 -0.54446983 -0.52832127 -0.9806993 -0.45267487 -0.62567216 -0.53481996 -0.54461294
1.8378783 0.26362523 -0.29565808 0.34533206 -0.45058146 -0.042489782 1.8789735 -0.52148086
-0.50913924 -0.3292652 -0.5617648 -0.61281705 -0.2670729 -0.5544301 2.1180024 0.8308842
-0.8507177 -0.8317964 -0.8163119 -0.5297515 -0.47703445 0.9390167 -0.5555831 -0.10547113
-0.6330602 -0.46808785 2.9414556 -0.39058945 -0.68815815 0.4409679 1.9874693 0.054627858
-1.8005806 -1.3310492 -0.52355576 -0.2634446 -0.27777472 1.6928055 -0.3692757 -0.678782
-0.32561266 -0.4874191 -0.3948981 -0.42704955 -0.51820654 0.18026213 2.467 -0.5528132
0.6250792 -0.416258 -0.49264795 -0.53657484 -0.36292887 -1.3989453 1.6571665 -0.616024
-0.41638866 -0.5596974 -0.8271452 -0.83141047 -0.26461846 -0.41946745 -0.6172088 -0.39307034
2.1740122 -0.29359594 -0.39364514 0.22681206 -0.63758206 0.009875539 1.4099485 -0.4661749
-0.325536 -0.47406012 -0.8206766 -0.56998694 0.8919199 -0.12730451 1.9642441 0.84724885
-0.6047226 -0.34097165 -0.46106738 -0.72404647 -0.20167552 0.55117613 -0.4226382 -1.2799704
0.32514748 -0.10467323 2.3091798 -1.0589986 -0.022121353 -0.32845384 1.493181 -1.3923427
-0.7479034 -1.1558777 -1.1084597 -0.9539212 -0.40533262 1.9898419 -0.5788029 -0.46384466
-0.5684071 -0.17755827 -0.7205058 -0.58869284 -0.26873294 -1.5890623 2.0570507 -0.47522485
1.0761555 -0.3418201 -0.92369473 -0.48572457 -0.53598267 -0.049480077 1.9283649 -0.58661133
-0.8056819 -0.47455144 -0.27162445 -1.165437 -0.55416447 -1.1606885 -0.58095115 -0.22117293
1.9549837 0.46480247 -0.50657064 -1.2554561 -0.33805147 0.018968113 1.5846337 -0.72568554
-0.56486 -0.5173632 -0.41243264 -0.45316732 -0.5184223 -0.5053941 2.5714536 0.57209176
-0.7028799 0.018248666 -0.55414236 -0.5625571 -0.86163056 1.1032381 -0.34938455 -0.33855543
-0.44752613 -0.7101284 2.967307 -0.43619934 -0.61179626 1.2626113 1.7203826 -0.62932897
-1.0021808 -0.5038207 -0.37790054 -0.7664181 -0.6918572 1.4873551 -0.44613552 -0.38347423
-0.7262418 -0.54987437 -0.32772705 -1.3896304 -0.78190696 -0.42547762 1.7470574 -0.7761771
0.3852188 -0.61252785 -0.6055735 -0.61375326 -0.6685173 -0.31917292 1.9616165 -0.570581
-0.6226704 -0.7053847 -0.23129642 -0.23235632 -0.6214912 -0.55903023 -0.5262411 -0.6035602
1.6779819 0.19785151 -0.5173926 -0.56690574 -0.3759519 0.08559769 1.7839471 -0.6818547
00000000: 9f2e f8be a57e 00bf 49ea edbe 6cdb 3abf
00000010: 2a8c 42bf 1ad3 36bf 0c8e 2940 c6cc 313f
00000020: 76aa 73bf c86c 4abf c096 adbe 7349 04bf
00000030: b365 3abf 3c89 803f e3de 02bf 31c3 adbe
00000040: 83a8 28bf 2d01 1bbf 9dab 3f40 3721 89bf
00000050: 6eab 31bf 150b 863f 8eb7 d43f 95cd eebd
00000060: be16 a3bf cf47 98bf 89ee 06bf d908 02bf
00000070: bd7d 33bf 1ae1 c03f 082f 17bf d0c1 02bf
00000080: 3030 10bf f02d 0ebf 450f f7be 99c5 3ebf
00000090: 7617 0ebf 8310 3cbe 2570 e03f 9944 15bf
000000a0: e440 ef3e c1d4 1bbf 06a2 dbbe d994 31bf
000000b0: 1075 16bf 4378 9dbe c85b da3f da2f ddbe
000000c0: 0577 0dbf 6062 0bbf 1040 07bf 1c0f 7bbf
000000d0: 00c5 e7be 0d2c 20bf f6e9 08bf c16b 0bbf
000000e0: 993f eb3f e3f9 863e 7f60 97be 5dcf b03e
000000f0: 9db2 e6be c409 2ebd 3482 f03f c57f 05bf
00000100: f356 02bf 7395 a8be d1cf 0fbf 94e1 1cbf
00000110: c7bd 88be 22ef 0dbf 5a8d 0740 d4b4 543f
00000120: a3c8 59bf 9cf0 54bf d1f9 50bf cb9d 07bf
00000130: dc3d f4be 6663 703f b23a 0ebf 3f01 d8bd
00000140: 3c10 22bf 36a9 efbe cf40 3c40 57fb c7be
00000150: 222b 30bf 8bc6 e13e 6565 fe3f 76c1 5f3d
00000160: 6d79 e6bf d25f aabf c007 06bf 36e2 86be
00000170: 7d38 8ebe daad d83f b411 bdbe a8c4 2dbf
00000180: b4b6 a6be ff8e f9be 1530 cabe 3da6 dabe
00000190: 2fa9 04bf a396 383e 54e3 1d40 2a85 0dbf
000001a0: 3105 203f c51f d5be 5a3c fcbe f85c 09bf
000001b0: d0d1 b9be a410 b3bf 081e d43f c0b3 1dbf
000001c0: e530 d5be 5448 0fbf cabf 53bf 51d7 54bf
000001d0: 127c 87be 70c4 d6be 6501 1ebf 8440 c9be
000001e0: 0423 0b40 3552 96be db8b c9be 6c41 683e
000001f0: 9438 23bf 03cd 213c 3179 b43f 7aae eebe
00000200: a8ac a6be 02b8 f2be dd17 52bf aaea 11bf
00000210: dd54 643f 1d5c 02be 5a6c fb3f 4de5 583f
00000220: 1acf 1abf d693 aebe 0611 ecbe 1c5b 39bf
00000230: 0784 4ebe e119 0d3f 0964 d8be 12d6 a3bf
00000240: bb79 a63e eb5e d6bd 9ac9 1340 448d 87bf
00000250: d737 b5bc 1a2b a8be 8e20 bf3f 4938 b2bf
00000260: 9976 3fbf cdf3 93bf 02e2 8dbf 2e34 74bf
00000270: c287 cfbe 24b3 fe3f 6d2c 14bf 0c7d edbe
00000280: 2183 11bf d6d1 35be 1173 38bf 93b4 16bf
00000290: 5d97 89be 6566 cbbf b8a6 0340 ac50 f3be
000002a0: 77bf 893f 0b03 afbe 4277 6cbf e4b0 f8be
000002b0: 2936 09bf 9fab 4abd a9d4 f63f 292c 16bf
000002c0: 2b41 4ebf 68f8 f2be 5c12 8bbe 0a2d 95bf
000002d0: b9dd 0dbf 7191 94bf 37b9 14bf 287b 62be
000002e0: e83c fa3f 97fa ed3e 9dae 01bf c9b2 a0bf
000002f0: 1515 adbe 0463 9b3c 47d5 ca3f 87c6 39bf
00000300: aa9a 10bf ea71 04bf 5f2a d3be 8c05 e8be
00000310: 53b7 04bf 8261 01bf b292 2440 9b74 123f
00000320: f0ef 33bf 3a7e 953c 46dc 0dbf be03 10bf
00000330: d293 5cbf e836 8d3f 88e2 b2be 2357 adbe
00000340: 2522 e5be faca 35bf 5ce8 3d40 8555 dfbe
00000350: ae9e 1cbf 3f9d a13f 7f35 dc3f b41b 21bf
00000360: 7647 80bf 65fa 00bf 2e7c c1be fa33 44bf
00000370: 8e1d 31bf a761 be3f e06b e4be bc56 c4be
00000380: fcea 39bf 91c4 0cbf d7cb a7be 69df b1bf
00000390: 0e2b 48bf 34d8 d9be 949f df3f 8bb3 46bf
000003a0: 663b c53e a0ce 1cbf dd06 1bbf ef1e 1dbf
000003b0: f323 2bbf a26a a3be 4016 fb3f 9911 12bf
000003c0: 5467 1fbf 1794 34bf f8d8 6cbe d1ee 6dbe
000003d0: 0c1a 1fbf 9b1c 0fbf bdb7 06bf ec82 1abf
000003e0: 1cc8 d63f 9699 4a3e d773 04bf bc20 11bf
000003f0: c47c c0be d74d af3d 6158 e43f 088e 2ebf

fc3.bias f4 [4]
0.041523166 0.02673397 0.21641435 0.54537684
00000000: 3214 2a3d 3301 db3c b99b 5d3e d19d 0b3f
