NeurPiRL/LunarLander/DQN/checkpoint_complete.pth (torch, 22315 bytes, 6 tensors)

fc1.weight f4 [64, 8]
00000000: 399a 2b3e fd36 9fbe e334 2d3f 5de9 0fbf
00000010: a38b 09bf 4340 fbbe 59f6 8abe cf43 573f
00000020: 067e 21be a87a 7cbf 54f8 06bf 736e 35bf
00000030: 9e3f 873f 5d6f 8e3e 04b8 cf3e 0902 083f
00000040: 47a6 82be 158c febe a18f 7cbe fc03 4ebf
00000050: 1e7d 3e3f 531f 1c3f e4a8 693c 60dd 2a3f
00000060: 32c6 34bb ae1b ddbe 3c0a cfbd 9fd1 67bf
00000070: b22a 7abc 5be2 003d 556d 783d 398d 063f
00000080: c2af b8bb d1f2 ca3e 22c7 453e bc0e 04bf
00000090: ea34 8dbd b2c2 96bf a37d e33e a2d5 c6be
000000a0: 21ee cf3c 5de4 563b 9710 9bbe 6a4e 9d3f
000000b0: bc69 a7be ff93 723e f879 953e 0641 9a3f
000000c0: 840e d7be a422 543f 28eb 533f 5c60 80bd
000000d0: b4f3 a93e f596 25be 96cd a33d be34 653e
000000e0: e489 4dbe 9114 d73c c367 8b3e c7f1 72be
000000f0: 656a 813f ec6e 373f ce50 be3e 4ede 85bf
00000100: 9fbe 94bf 436e 473f b664 c3be 9567 953e
00000110: 8ff9 3f3e 5976 4dbf 699a fcbd 23a7 cfbc
00000120: c211 08be 84f6 e0be b441 82be d8ea 30bf
00000130: df6c 393f 2025 3f3f 5ef1 16be b3d5 573f
00000140: 14f7 88bc bfda 30bf 4960 1abf a20b e13e
00000150: 9456 e3be 6066 dbbe edb6 033f f4c1 7e3e
00000160: b298 93bd c368 e13d 3851 35bf 602a 41bd
00000170: fc98 573f b245 c53e 5bb4 c83d cc92 83bf
00000180: 6aed 98bf 188f c9bd 205f af3d d7ce ac3d
00000190: f85d 0cc0 08fb dd3d 0917 063e 91ca c4bd
000001a0: 3cdb b2be bf70 debe 0f08 90bf 9b2a efbe
000001b0: 1bc3 b43d 47ec 00bf 68bb b6be 2c31 613f
000001c0: eaba 563f 1745 37be 4379 9e3e f81c b1bf
000001d0: 20c3 343f cf2c bfbd f0d8 e1be a97f 77bd
000001e0: e384 edbe 903d 5f3f 642d 85be a688 773e
000001f0: 613f 053e b694 083e f557 603f 62ff 2dbf
00000200: b821 723e 1261 5f3e f9b5 2dbf 06d3 78bf
00000210: 3a85 10bf 8cc2 013f 1eb9 96bf 7866 aebe
00000220: 9b9d eebc c4f8 ff3e d738 1f3e 0f17 ed3e
00000230: 2c9d 70bf 1e7d 80bf 3b3d 75be ca67 8a3f
00000240: b18c 77bf 3d8c bbbe 1aca 44bf 5158 f2be
00000250: fb0a 39bf 4f4c d1be f9ce c43e 3315 de3e
00000260: 0955 953f 77a5 b6bf 6a45 10bd ee6c 40bf
00000270: 0f7f 1dbe c25b c3bd 27ab fa3e 571b cc3e
00000280: 3859 28be 2b29 963e 1a26 b7be b570 ee3e
00000290: c76e c73e 6317 9e3f fca1 0b3f cbd3 fdbe
000002a0: 113b f03e f620 cfbd aaa1 24bd cde4 94bf
000002b0: 3327 eb3e 27bb a73e bbac bc3d 2363 e03e
000002c0: ba2b 5abe 09b6 27bf 8899 5f3f dd24 6dbe
000002d0: 5e45 94bf 3e47 28bf bd6c 683e 2397 d13d
000002e0: 2dbb e2be bb9f 8cbd 4e06 46be 7a5f 703e
000002f0: 8236 96bf 9472 7abf e506 12bf ec8c 1abe
00000300: 5075 a5be 4849 ca3e 77ad 143f 0b94 49be
00000310: 4e82 f03e 5e08 3fbf 1802 92bd 94e7 c93e
00000320: 5a82 003f 684a 28bf 121f 983d a3b2 18bf
00000330: faaa a6bf 0253 88bf 2727 f7bd 1f9c e4be
00000340: 2aef 11bf 9dbc 583d e07d 603f b0aa e1be
00000350: d8b6 76bd 0357 3ebe a8b0 56bf 471d 7dbe
00000360: a5c8 2ebe 2848 1bbd 6acc 8bbf baad 4bbf
00000370: 0e43 8bbe 2ad2 97bd 539e 753c 955d d73e
00000380: e9e2 a9be d2a7 48c0 2e90 143f 64fe babe
00000390: 24c9 32bf 19b7 0f3f d9ab 9fbc e4e7 11bf
000003a0: 7937 ca3d 3354 f23d f7d8 4cbf 0207 33bf
000003b0: 54f7 51bd 8660 2e3e 861c 433f 9f35 c83e
000003c0: 4978 113e 2298 393e e13c 6a3f c757 fdbe
000003d0: 88bc 06bf f866 3bbf be51 1c3f 7255 3b3e
000003e0: 7bc2 bf3d 773c e8be c4d1 5fbf d0bd ad3e
000003f0: ce57 c4be 2ded ed3e 565a cf3e 7b26 9dbf
0.1675805 -0.3109664 0.67658824 -0.5621546 -0.53728694 -0.49072465 -0.27141073 0.8408784
-0.1577073 -0.9862466 -0.5272267 -0.7087166 1.056629 0.27819338 0.4057008 0.53128105
-0.25517485 -0.4971625 -0.24664165 -0.8047483 0.74409664 0.60985297 0.014261458 0.6674404
-0.0027583954 -0.4318518 -0.10109374 -0.9055423 -0.015268968 0.03146587 0.060651142 0.5255924
-0.0056361863 0.3963838 0.19314244 -0.5158498 -0.06894858 -1.1778166 0.4443179 -0.38834864
0.025382103 0.0032789924 -0.30286095 1.2289555 -0.32697856 0.23689269 0.29194617 1.2051094
-0.42003262 0.8286536 0.82780695 -0.06268379 0.33193743 -0.16170867 0.07998197 0.22383401
-0.20072132 0.026254924 0.272276 -0.23725043 1.0110594 0.7165363 0.37171024 -1.0458467
-1.1620673 0.7790262 -0.38162774 0.2918059 0.18747543 -0.8025871 -0.12334139 -0.025348252
-0.13288024 -0.43938076 -0.25440753 -0.69108343 0.7243175 0.74666023 -0.14740512 0.84310454
-0.016719379 -0.6908378 -0.6030317 0.43954188 -0.4440199 -0.42851543 0.51451 0.24878675
-0.07206859 0.1100631 -0.70827055 -0.047159553 0.8421781 0.38529736 0.09800025 -1.0279174
-1.1947453 -0.09841746 0.085630655 0.08437889 -2.1932354 0.10838896 0.13094725 -0.09608949
-0.34932888 -0.43445393 -1.1252459 -0.46712193 0.08826276 -0.5036053 -0.35689855 0.87965655
0.8387896 -0.1789745 0.3095189 -1.3836966 0.7061024 -0.093347184 -0.44110823 -0.06042448
-0.46390447 0.8720331 -0.26011193 0.24173221 0.13012458 0.13337979 0.8763421 -0.6796781
0.23645675 0.21814373 -0.67855793 -0.97196996 -0.5645329 0.5068748 -1.1775243 -0.34062552
-0.029127887 0.4999448 0.15549026 0.46306655 -0.93989825 -1.0038183 -0.23949139 1.0812924
-0.96699053 -0.3663043 -0.7687088 -0.47333005 -0.7228238 -0.4087853 0.38439158 0.4337555
1.1666576 -1.4269246 -0.03522245 -0.75166214 -0.153805 -0.09538986 0.48958704 0.3986461
-0.16440284 0.29328284 -0.35771257 0.46570364 0.38951704 1.2350887 0.54544044 -0.49575648
0.46920064 -0.10113709 -0.040193237 -1.1632324 0.45928344 0.32759973 0.09212633 0.43825635
-0.21305743 -0.6551214 0.87343645 -0.23158593 -1.1583669 -0.65733707 0.2269773 0.10233905
-0.4428343 -0.06866404 -0.19338343 0.23473921 -1.1735384 -0.9783108 -0.5704177 -0.1509282
-0.32316065 0.39509034 0.58077186 -0.1968538 0.46974415 -0.7462214 -0.071293056 0.39434493
0.501989 -0.65738535 0.07427801 -0.5964758 -1.3020928 -1.0650332 -0.120680146 -0.4465036
-0.5700556 0.05291425 0.8769207 -0.44075537 -0.060232967 -0.1858788 -0.83863306 -0.247182
-0.17068727 -0.03791061 -1.0921757 -0.7956196 -0.27199596 -0.074131325 0.014991361 0.42063585
-0.3318093 -3.135243 0.580325 -0.3652221 -0.69838166 0.5613876 -0.019491123 -0.5699446
0.09873862 0.11832466 -0.8001856 -0.6993257 -0.05126126 0.17029008 0.762154 0.3910341
0.14206041 0.1812444 0.91499144 -0.4948103 -0.52631426 -0.7320399 0.6106223 0.18294314
0.09363266 -0.4535863 -0.8742945 0.33933878 -0.3834824 0.46470013 0.40498608 -1.2277368

fc1.bias f4 [64]
00000000: ab1d bbbe d948 6cbe a3de 10be 4bf1 cc3e
00000010: a086 553d d197 903b 6466 b3be 05af e0bd
00000020: fcf3 963e ad19 e3bd 847e 3b3f df6a bb3e
00000030: 2f11 193e c1a2 a7be 7b21 e0be 1049 183f
00000040: 775b 77be 16a3 bb3d 7eaf 033f 0cfe ca3c
00000050: d5ce 3c3e 100b d23e cc2e 423f 37a9 c73e
00000060: 2f86 e83e 5c74 3dbd def0 773f cacb 3e3c
00000070: d655 1f3f 33a7 453e 156f 653e 134c 563f
00000080: 6366 cbba 6ff0 5a3e ae37 143f 6fcb f9bd
00000090: 71a5 443f f082 523e e556 04bf 702e ac3e
000000a0: 2193 db3e 9c07 edbc cf24 93be b32e cfbe
000000b0: 4563 483f 1b7b 69be da31 babe 1685 023f
000000c0: ebc3 1c3f dc70 8a3e baf5 afbc d150 06bf
000000d0: dbcd 243e 4902 203f 2148 3f3f 7324 9f3e
000000e0: c925 a1bd eefc 06bd 6d53 bfbe b70f e43e
000000f0: 5ea3 6c3d c532 28bd 13d6 663f 5073 083f
-0.36546072 -0.23074664 -0.14147429 0.40027842 0.05213034 0.004412629 -0.35039055 -0.10970882
0.2948302 -0.11088882 0.7323992 0.36604974 0.14947961 -0.3274136 -0.43775544 0.59486485
-0.24155985 0.091619655 0.51439655 0.024779342 0.18438275 0.41024065 0.75852656 0.38996288
0.45414874 -0.046253547 0.9685191 0.011645267 0.6224035 0.19302063 0.22405656 0.8370983
-0.0015518185 0.2138078 0.5789746 -0.12197005 0.76814944 0.20557761 -0.5169509 0.3362918
0.42885688 -0.028934292 -0.2873902 -0.40465316 0.78276473 -0.22800867 -0.3636616 0.50984323
0.6123645 0.2703923 -0.021479476 -0.52467066 0.16094153 0.62503487 0.74719435 0.31082496
-0.07868535 -0.032956056 -0.37368336 0.4454324 0.057772987 -0.041064043 0.901704 0.5330095

fc2.weight f4 [64, 64]
00000000: 2b6c 953f 11a5 96bf 2060 a3bd 67fc cbbe
00000010: 2c22 cf3e dc3c 15c0 83d9 c23e 9168 4dbf
00000020: f7c3 04be 6cb2 b43d 7fbe cbbd 7a92 573e
00000030: c294 d2be 2a52 593e 13c8 813f 6a57 5bc0
00000040: cd95 993f 0a46 043f f777 fd3c 9da7 293f
00000050: a145 c6be 0b26 b73a 32f2 b83e 42fd eb3e
00000060: cdf0 22bf 62df 113f 250c 73be e21f b23d
00000070: 1670 bc3e 7b5d 573c e9a1 bf3e fa55 bfbf
00000080: bea8 8c3e 927b 31bd 3c85 dbbc 4b1a 2940
00000090: d0c5 08bf e211 883e a9ad b33f dd2c 6cbe
000000a0: fac0 fa3d c268 a7bc e50e 583e f535 8fbf
000000b0: 8c78 d93e ab7e 5b3e 7c41 493f db06 e03d
000000c0: 8c37 e73d 77d8 113f cdb4 e1be f454 dcbe
000000d0: 8cd7 5c3e a75b f43d 382e 92bd b4a9 b03d
000000e0: 01ee 143f b5f0 afbe cfd6 163e de29 8abd
000000f0: 5c06 013f 4b37 513f 03fd 70bf aeec 68bf
00000100: 9acc d33e cf28 49be b855 e2be da18 e03d
00000110: efe0 e93e 7e21 50bf 1bec 893f 6445 3b3e
00000120: 5c4b e53e a7fa 39bf 5a29 e93c dc93 9a3d
00000130: b404 e0bd 7919 3a3e d6d4 af3e 160f 31be
00000140: ed7a 93bf 1038 9e3e f03a ac3d 1cdd f33e
00000150: e8ab 78be 4ea2 d03e 56af fe3e 449a 903d
00000160: b14c 3f3f 5e98 573e 8e9f 4e3f 3b24 693d
00000170: d8b2 123f d033 5abe a734 803e db3e b6bd
00000180: 7609 e6be 5cf2 09bf 7890 df3e 3fd3 bfbe
00000190: b1f0 313f 0071 00bf ea7a 0f3f b99d debe
000001a0: e47d d4bf 8eaf 3dbf 109b 64bd ce38 90be
000001b0: 2508 573e 3260 4bbf 5be4 e53e 25ad cebc
000001c0: 00b3 9d3e 787b 5e3e 2c0e 053e f000 e53e
000001d0: 119a a7be 7379 babe 8b04 853e 8563 abbe
000001e0: 425f c2bd 1c37 c6bc c9f0 89bd 5a26 efbb
000001f0: 4c60 13be e0b7 5cbe 5c62 173e a876 473f
00000200: b01d afbf d55d d63e 2652 8b3e 7b17 c03d
00000210: 8d71 a9bf 73c0 82bf a4c4 49bf da8b 4e3f
00000220: 9264 d4bf 9179 b03e ce02 7cbf 7939 143c
00000230: a44e 393f 306a 823d 0f86 353e 3e82 7fbe
00000240: 268f 63bd 6846 45c0 cd6b b83e 7480 6abe
00000250: 5a0e f6bb 0081 ca3e b93e e4be 8239 20c0
00000260: c561 163d 7edf 4bc0 7f36 3f3f 9509 c3bd
00000270: 1560 ba3f 1e57 1a3d 9155 c0bf b1af b43e
00000280: 8e3c 16bf c763 28be 9b49 3bbe 10a5 5cbe
00000290: 9e05 793e 324f 213f 8058 c5bf 8bab 96bc
000002a0: 238b 1dbe 6d06 6bbe e45d 753e f055 7f3e
000002b0: 505a 0ac0 24e3 69bf 1dd6 f23e 9d63 163f
000002c0: a4f1 15bf c16a f0bf 3e08 1a3e 4465 b43e
000002d0: da17 273e d590 f8bc c3d8 6f3f 43a2 4b3f
000002e0: 2017 203f 5b92 42bd 0d79 613e cf84 7cbf
000002f0: 0547 47c0 6eab 883e a288 bd3e ddee c7bf
00000300: 8273 53bf 92dd 2f3e debe 883e e381 c63e
00000310: 685c 61bd 36af 4bbf b6fe 1d3f 9365 b4be
00000320: c4c4 9fbd 8356 8abc 4515 9e3c 93f4 76be
00000330: 5aba f03b 926c 883e 556c de3d 7d8b bd3e
00000340: 284a 87be c161 17bf cd2d ae3e 3f5a d43d
00000350: 75c4 443f 1438 8a3d bdaa a63e 1d11 77bd
00000360: 8d74 01be 8f1c 61be 23dc 02bd 8b81 f93e
00000370: 6fd8 9d3e 4233 2f3f 66aa ccbe 9135 04be
00000380: 63af 8bbe 4d87 3cbf 1522 573d cc17 25bd
00000390: b408 e4ba 8d5d 8bbc 532f e83d 56dd 563e
000003a0: 2797 8ebe bd63 243f 9d0d c93e 6cc4 7d3d
000003b0: d44e 88bd dbb0 fa3e 1f51 b53d 18db a03e
000003c0: 6761 a93e 0705 12be 95cb e0be 83f1 0c3e
000003d0: 9670 11bf bdbc 903e 3d5d d03e 316d 913e
000003e0: 37e4 c2be 2a41 9bbf a3ea a73d 52a8 9c3e
000003f0: d646 33bf fe85 003f b4fb a53d e7f5 01bf
1.1673635 -1.1769124 -0.07977319 -0.39841005 0.4045576 -2.3318396 0.38056573 -0.8023768
-0.1296538 0.08823094 -0.099484436 0.2105197 -0.41129118 0.2122275 1.0139183 -3.4272103
1.199884 0.5166937 0.030940993 0.6627138 -0.38724998 0.001397313 0.3612228 0.46091658
-0.6364868 0.5698148 -0.23735102 0.086974874 0.36804265 0.013144846 0.37428215 -1.4948113
0.2747249 -0.043330736 -0.02679693 2.6422298 -0.5342684 0.26576144 1.4037372 -0.23063989
0.122438386 -0.020435695 0.21099432 -1.1188341 0.42474782 0.21435039 0.78615546 0.109388076
0.112898916 0.56970924 -0.44083253 -0.43033564 0.215666 0.11931544 -0.07137722 0.08626118
0.58175665 -0.34363332 0.1473038 -0.06746267 0.5040033 0.81724995 -0.94136065 -0.90986145
0.41367036 -0.19644473 -0.44206023 0.1094224 0.45679423 -0.81301105 1.0775179 0.18288189
0.44784057 -0.7264809 0.0284621 0.07547733 -0.10938397 0.1817378 0.34342068 -0.17290911
-1.1521889 0.30902147 0.08409679 0.4762963 -0.24284327 0.4074883 0.49743146 0.07060674
0.74726397 0.21054217 0.8071221 0.056919318 0.57304144 -0.21308827 0.2504017 -0.088987075
-0.44929093 -0.53885436 0.43664908 -0.37465855 0.6950789 -0.50172424 0.56046927 -0.43479708
-1.6600919 -0.74096 -0.05581194 -0.2816834 0.209992 -0.7944366 0.44900784 -0.025229046
0.3080063 0.21726787 0.12993687 0.44727278 -0.3273473 -0.36420783 0.2598003 -0.33474365
-0.09490825 -0.0241962 -0.06735379 -0.007298273 -0.14392203 -0.21554518 0.14783615 0.7791543
-1.3680935 0.41868463 0.27211112 0.093794785 -1.3237778 -1.0214981 -0.78815675 0.80682147
-1.6593192 0.34467748 -0.9844178 0.009046906 0.7238562 0.0636791 0.1772692 -0.24952027
-0.05555644 -3.0824223 0.36019745 -0.22900563 -0.007509035 0.39551544 -0.44579104 -2.50351
0.036714334 -3.1855159 0.7469253 -0.09523312 1.4560572 0.037680738 -1.5026113 0.35290292
-0.5868615 -0.16444312 -0.18289797 -0.21547341 0.24318549 0.6301147 -1.5417633 -0.018392345
-0.15385108 -0.2295167 0.23961598 0.24935126 -2.1617622 -0.91362214 0.4742898 0.5874575
-0.5857184 -1.8782579 0.15042207 0.3523351 0.16317692 -0.030342499 0.9369013 0.79544467
0.62535286 -0.047502857 0.22018833 -0.9864015 -3.1137097 0.2669329 0.37018305 -1.561977
-0.82598126 0.17174366 0.2670812 0.3877097 -0.055019766 -0.79564226 0.61716783 -0.35233745
-0.07801202 -0.016886955 0.019297251 -0.24116735 0.0073464336 0.26645333 0.108605064 0.37020484
-0.26423764 -0.59133536 0.34019318 0.103687756 0.7686227 0.06748977 0.32552138 -0.060319055
-0.12642117 -0.2198355 -0.03194822 0.48731646 0.30829188 0.6843759 -0.39973754 -0.12911059
-0.27282247 -0.7364395 0.052522738 -0.040305898 -0.0017397613 -0.017012382 0.113371514 0.2098287
-0.27849695 0.6421469 0.392682 0.0619549 -0.0665566 0.48963055 0.08853363 0.31417155
0.33082125 -0.1425973 -0.4390532 0.13764004 -0.5681242 0.28268996 0.40696135 0.2840362
-0.3806474 -1.2129261 0.0819905 0.30597168 -0.7002996 0.50204456 0.08104649 -0.5076584

fc2.bias f4 [64]
00000000: a826 d4be d739 423f eb9b 193d 5679 ac3c
00000010: bfa9 ab3e f8da d7bc f295 ba3e a7af 583e
00000020: f419 0b3e aa00 a23e 0d44 36be 284a ea3e
00000030: e7a6 0e3e 8ccb bbbe 439a 0c3f 4a22 efbe
00000040: f097 913e 85ba bb3e e7c4 cdbc 392e 56be
00000050: 7cde 9b3c 18dc 8e3d 9588 9b3e 4278 aa3e
00000060: 0c87 16bf 5789 663f fd39 173f df38 2fbd
00000070: da6f a8be 8c1d c73e 91cf cabc 0bbc 763e
00000080: 61b4 313d 6887 073e 3b1c c23d 0630 2abd
00000090: 22ec 9b3d b415 023d 9d71 e03d b6f9 c03d
000000a0: 9b59 513d a703 be3c 9d54 bb3e 86fb 15bf
000000b0: 2aa1 da3d 3e32 ccb9 40d3 a83d 3405 debd
000000c0: 7c5f 9dbe e8dc 133f 48f6 b63e 254f 103f
000000d0: 2e68 1cbf 82a8 d53e da2b c53e 50c5 06bf
000000e0: 6bea e6be 0800 c13e 99f8 44bd 3240 953e
000000f0: 9075 963e 69c8 f83c 5cf2 a03e 8bd2 b13e
-0.41435742 0.75869507 0.03750221 0.021053951 0.33527943 -0.02634953 0.36442524 0.21160756
0.13584119 0.31641132 -0.17799397 0.45759702 0.13930856 -0.3667873 0.54922885 -0.46705848
0.28436232 0.3666574 -0.025118304 -0.2091607 0.019026987 0.06975573 0.3037764 0.33294874
-0.58799815 0.90053314 0.5907286 -0.042778846 -0.32897836 0.3888973 -0.024757179 0.2409517
0.043384913 0.13235247 0.09478041 -0.041549705 0.07613398 0.03175898 0.1095917 0.094226286
0.051110845 0.023195101 0.36587992 -0.5858692 0.10675271 -0.00038947345 0.08243418 -0.10840836
-0.3073691 0.5775895 0.35734773 0.56370765 -0.61096466 0.41730124 0.3851002 -0.52644825
-0.45100722 0.37695336 -0.048088644 0.2915054 0.29386568 0.030369 0.31434906 0.34730944

fc3.weight f4 [4, 64]
00000000: 3abc f8be 5b7e 89be c734 dc3f 95ea 1dbe
00000010: 5a00 3dbf 5a48 47bf 7038 25bf 90e0 b93f
00000020: d92b 13bf 2999 0c40 9609 a33e 50b1 8e3f
00000030: 0472 0cbf 1964 82bf 2d85 d73f f9a3 5ebf
00000040: dc1b cabe d80b 633f 800f d1be 2239 02bf
00000050: 7b12 993f 8308 68be 60b6 3b3f e65c 24bf
00000060: 9d2f 57bf 41e7 edbf a1b7 6cbf a78a 00bf
00000070: 6e8f 95bf 1653 6a3f b557 17bf 678d f4be
00000080: f11a 24bf 7371 fd3f 00cf c13f b840 7cbf
00000090: 0d2a 09bf 9bd9 21bf e786 d1be 8162 0bbf
000000a0: 06e9 0dbf 822e 21bf 7ed3 7d3f 9b3a ea3e
000000b0: 34a7 e1be 4026 06bf f2c8 ebbe e858 abbd
000000c0: d129 f6be 7c9f 0940 8bb7 38bf d3a1 1640
000000d0: 3b61 013f 55f1 2040 83b4 e9be 5202 babe
000000e0: 21b2 15c0 9ce0 1240 107d 84bd ad62 bb3f
000000f0: faa9 ce3f 98b3 c6be 18cb 633f 246c bb3f
00000100: fc20 c4bf c1cf 173e ec87 c1bc eef0 73be
00000110: cf9a 98bf ad99 36bf daab 28bf 8718 993f
00000120: 05ca 55bf 1af8 e63f d00b af3e f6f5 8b3f
00000130: fe03 b2be 343e 89bf 71e8 913f c81e 1dbf
00000140: da0c b5be 0521 403f 8221 03bf aaf4 aabf
00000150: 0197 923f f855 63be 5328 9b3f 588c 14be
00000160: 0431 2bbf 42cc ccbf 40b7 9cbf 433c 3bbf
00000170: 05c8 f0be 2f83 803f 98ac e1be f7c9 1abf
00000180: e798 fcbe 3426 0140 146e c23f ab6d 3dbf
00000190: 3a1f 36bf 22c9 f1be 3345 0abf dc62 bdbe
000001a0: 5217 09bf 4a92 b4be a903 a93f 31da f1be
000001b0: 9df6 34bf 9cd0 bdbe b8fd 1cbf 80e4 acbb
000001c0: 503e 3fbf 1a97 0e40 7f86 8dbf 37bc 0340
000001d0: 3963 453f a3e6 3b40 f4c0 1fbf f8b1 79bf
000001e0: c7ef 98bf ee68 2340 b9ba 4bbb b9a0 873f
000001f0: 495d c53f e4f7 0cbe 18b3 b43f 89f6 8a3f
00000200: 3c43 cebf 10b9 113e ee3c 233f 7291 373e
00000210: 125d 9cbe 1da7 91bf d7f2 6bbf cd31 ca3f
00000220: f14a 6cbf b70d fc3f 9ccf a33f e053 a13f
00000230: 5955 333d 4a58 f1bf 0fca cd3f 1912 75bf
00000240: f830 98be 3327 c53f c080 cdbe 479e 09bf
00000250: 4aeb 983f 662c 833e 50e7 833f 4ae5 ecbc
00000260: 42bd a4bf 560b ddbf 8a77 92bf 0b39 f3be
00000270: 9881 243e b7d4 8d3f 68db d3be ee62 e5be
00000280: 38f7 c7be 5585 f83f 2a8b 8c3f 38e1 83bf
00000290: a5d7 0ebf e90f 44bf 82d9 39bf 15cc 13bf
000002a0: 3086 36bf 5e43 0abf c658 6b3f e8ec bbbf
000002b0: 9723 49bf 7433 b3be 905d 09bf f047 efbc
000002c0: e372 8dbf b2d0 0a40 9a8c 743e 9c0f d13f
000002d0: b6f0 9f3f 8eeb 3340 a678 e5be c060 ebbe
000002e0: f872 0b3f e36e 1f40 40be 3abf 168c d43e
000002f0: f0ab c43f 80ed 18bf 0bf2 e53f 4284 913f
00000300: 6520 58bf 6beb 64bf 2c78 ba3f 8019 2dbf
00000310: c0e8 a4be 3b24 71bf d8d4 d8be 32d2 0640
00000320: 6f79 9bbe ba97 0340 6225 453f 4d4a d13f
00000330: 3ae6 8e3d f832 8dbf 6269 c53f e4c7 6dbf
00000340: 70f3 f5be 0700 153f b956 36bf 1966 f3be
00000350: 6ae7 b53f cf72 eebe 8e62 003f 90ff 4dbf
00000360: bf4a f6be 8131 f0bf d24d 0dbf 9e97 96be
00000370: de9d 94bf 7105 6a3f 87fa 11bf 650f dcbe
00000380: 6629 25bf f7d1 1440 1535 c93f 9068 f8be
00000390: f5d0 11bf 26a9 5cbf bb5f cdbe 8912 26bf
000003a0: f63a f4be f019 26bf 1816 4d3f bdfa cd3e
000003b0: f263 8bbe 6dd8 37bf a29a 65bf ba98 b3bd
000003c0: 1ce2 41bf b8af 0240 70c1 8dbe 1def 2140
000003d0: 0ee0 b03e 9b50 1640 2b12 a6be da54 68bf
000003e0: 4b01 03c0 1b35 f73f 59d3 1bbf 9426 ab3f
000003f0: 7f62 da3f 2a96 22bf 9f47 9a3e e3e5 9a3f
-0.48581105 -0.26854214 1.7203606 -0.15421517 -0.7382866 -0.77844775 -0.6453924 1.4521656
-0.5748878 2.1968482 0.3184325 1.1147861 -0.54861474 -1.0186797 1.6837517 -0.8696895
-0.3947438 0.8868995 -0.40832138 -0.5086843 1.1958765 -0.22659497 0.7332516 -0.6420425
-0.8405703 -1.8586198 -0.92467695 -0.50211567 -1.1684396 0.9153303 -0.59118205 -0.4776413
-0.6410361 1.9800247 1.5141296 -0.9853625 -0.5357979 -0.63222665 -0.40923235 -0.5444718
-0.5543369 -0.6296159 0.99150836 0.45747837 -0.44072878 -0.52402115 -0.46051747 -0.08366567
-0.48078778 2.1503592 -0.72155064 2.353627 0.50538987 2.5147297 -0.45645532 -0.36329895
-2.3389971 2.294959 -0.06469166 1.4639488 1.6145623 -0.38808894 0.8898177 1.4642377
-1.5322566 0.14825346 -0.023624383 -0.23822376 -1.1922244 -0.7132824 -0.65887225 1.196061
-0.8351138 1.8044465 0.341887 1.0934436 -0.3476867 -1.0722108 1.139906 -0.61375093
-0.35361367 0.75050384 -0.51223004 -1.3355916 1.1452333 -0.22200763 1.2121681 -0.14506662
-0.66871667 -1.5999835 -1.2243423 -0.7313883 -0.47027603 1.0040034 -0.4407699 -0.60464424
-0.49335405 2.0179567 1.5189843 -0.73995465 -0.711414 -0.47223765 -0.5401184 -0.36989486
-0.5355121 -0.3526786 1.3204242 -0.4723678 -0.706888 -0.3707322 -0.61324644 -0.0052762628
-0.74704456 2.2279725 -1.105667 2.0583627 0.77104527 2.935952 -0.624038 -0.97537184
-1.1948174 2.5532794 -0.0031086637 1.0595924 1.5419093 -0.13766438 1.4117155 1.0856487
-1.6114268 0.14230752 0.63764846 0.17926577 -0.30539757 -1.1379124 -0.9216742 1.5796448
-0.9230185 1.9691685 1.2797732 1.2603722 0.043782566 -1.8855069 1.6077288 -0.9573074
-0.2972486 1.5402588 -0.4013729 -0.5375714 1.1946805 0.2561981 1.0304966 -0.028917927
-1.2870257 -1.7269084 -1.144273 -0.47504458 0.16065061 1.108054 -0.4137833 -0.4480204
-0.390558 1.941569 1.097997 -1.0303106 -0.557978 -0.76586777 -0.72597516 -0.5773328
-0.71298504 -0.54009044 0.9193233 -1.4681673 -0.7856993 -0.35000193 -0.5365839 -0.029209107
-1.1050686 2.1689878 0.2388176 1.6332889 1.2495334 2.811252 -0.4481861 -0.45972252
0.54472303 2.491143 -0.7294655 0.41513127 1.5364971 -0.59737396 1.7964491 1.1368487
-0.8442443 -0.8942172 1.4567924 -0.67617035 -0.32208824 -0.9419591 -0.42349887 2.1065793
-0.30366084 2.0561357 0.77010167 1.63508 0.06977506 -1.103118 1.5422785 -0.92883134
-0.4803729 0.58203167 -0.7122608 -0.47538832 1.4211247 -0.46571967 0.5015038 -0.8046808
-0.48103902 -1.8765107 -0.5519687 -0.2941255 -1.1610677 0.9141455 -0.570229 -0.42980495
-0.64516294 2.3253152 1.5719324 -0.48517275 -0.5695947 -0.861956 -0.401121 -0.6487203
-0.47701234 -0.6488333 0.8011184 0.4023036 -0.2722469 -0.71814615 -0.89689076 -0.08769365
-0.7573564 2.041975 -0.27686644 2.5302193 0.3454594 2.3486698 -0.32435736 -0.90754473
-2.046954 1.9313082 -0.60869366 1.3371148 1.7061309 -0.6351038 0.30132768 1.2101406

fc3.bias f4 [4]
00000000: 1381 1bbc 1657 14be 8138 553e 3b94 123d
-0.009491223 -0.14486346 0.20822336 0.035785895
