NeurPiRL_SA/LunarLander/DQN/Oracle/64x64/14/Policy.pth (torch, 22209 bytes, 6 tensors)

fc1.weight f4 [64, 8]
-0.17799672 0.07246364 0.4851018 -0.24489921 -0.1311982 0.85504484 0.18348578 -0.9312524
-0.29996613 0.2678251 -0.10259441 0.06788517 0.6459069 0.55379355 0.33818808 -0.7053283
-0.007807493 0.64271903 -0.06287218 -0.9130376 0.5088192 0.47392103 0.12907451 0.08934729
0.6846481 -0.45878467 -0.09357323 -0.03982441 -1.1807663 -0.6780637 0.40961996 0.16141216
0.5341032 0.1655792 0.53335696 -0.3079094 -0.032991417 -0.40166914 -0.8554116 0.018022604
0.30482596 -0.17824647 -0.6476085 0.11243002 0.6139185 0.79467803 0.4446321 0.0069906386
0.2908087 -2.4572735 2.8354979 1.0683799 -0.42022777 0.62727773 0.23959617 0.382175
0.05966171 0.051364604 -1.2642665 2.014979 0.59454507 -0.30621982 0.3069411 0.23228434
-0.33776015 0.72640395 0.9168255 -1.8301071 -1.3241909 -0.2837708 -0.07747852 -0.52610517
-0.09386342 -0.43258008 -0.018087028 -0.1250247 -0.52191466 1.0120156 0.29942465 0.057211254
0.40088084 -0.011780821 -0.94368094 0.7304093 -2.484077 -0.12009104 -0.25268665 -0.1437414
-0.14919412 -0.20260233 0.2883378 -0.7197294 0.8365308 0.20990004 -0.34406316 -0.2641859
-0.7908984 0.5852303 -0.89815253 1.0304819 -0.3436577 -0.46087316 -0.058496874 0.3768315
-0.55615515 0.013630939 -0.1026858 -0.0065074246 -0.008769915 0.6863086 -0.7536821 -0.3864099
0.023353038 -0.0768891 0.31198156 -0.3485904 0.39949182 -0.60734695 -1.3121157 0.07625962
0.9398304 -0.77927095 -0.0044167503 -0.15318394 -0.6099362 -0.30024767 0.4678329 0.03743613
-0.018282713 -4.219787 1.6026025 -1.0609294 -0.09778655 0.3763196 0.18105517 0.3911807
1.6846826 -0.6173703 -0.6986314 -0.49479833 -0.93143654 -0.20513342 0.11162582 -0.011842166
-0.36861962 -0.41502923 -1.2986792 -2.07325 -0.008666139 0.22090839 0.2614604 -0.08544993
0.8510078 -0.43779755 0.1132433 0.122999765 -0.46253097 -0.42495498 0.5525813 0.54106224
-0.3998037 0.053077083 -0.41322783 -0.60794663 1.1056745 0.92745316 0.029060654 -0.53208536
-0.27373672 0.34614748 0.15992182 -0.804331 0.46046048 -0.059695475 -0.12594992 0.63717514
-1.6433948 -0.6115997 -0.8136543 -0.089620866 0.02454145 -0.30206263 0.13784857 -0.08372139
-0.21661209 -0.20060247 -0.074125014 -0.49875706 0.52109295 0.25330028 0.37448213 0.5356379
-0.15449896 -0.67191863 0.06461064 -1.1383332 0.98980683 -0.21506135 -0.29611656 0.18278757
0.37023517 -0.5072349 -0.31355998 -0.40442154 -1.0767356 -0.08230736 0.4093424 0.08796063
0.3350178 -0.087124296 1.6266354 -0.41716555 -1.1869643 0.5283047 -0.9687804 -0.69922364
0.68036044 0.7837783 -0.047858767 -1.3846501 0.69033706 0.075276054 0.3877376 0.25232214
-0.30520368 -0.16401401 0.2101918 0.03139885 -0.017511291 0.6854346 0.46312702 -0.37719026
0.5903792 0.033185754 -0.09278743 -0.30614936 0.5789685 -0.31119022 -0.19545193 -0.30028838
-0.5082789 0.39938238 -0.90480274 -2.024721 -1.0782727 -0.50061864 0.18628384 -0.68748534
0.55690426 -0.069813594 0.30786443 -0.49407876 -0.27299735 -0.39645198 -0.40850067 -0.5023161
00000000: c644 36be d167 943d 435f f83e dcc6 7abe
00000010: d258 06be 38e4 5a3f b2e3 3b3e 8f66 6ebf
00000020: 2995 99be 5f20 893e 051d d2bd 6107 8b3d
00000030: 285a 253f 6ac5 0d3f fd26 ad3e 6590 34bf
00000040: 00d6 ffbb 3c89 243f 21c3 80bd d5bc 69bf
00000050: fa41 023f c7a5 f23e 1c2c 043e b6fb b63d
00000060: 1945 2f3f d3e5 eabe 52a3 bfbd ec1e 23bd
00000070: 5a23 97bf 9595 2dbf b5b9 d13e 3b49 253e
00000080: fdba 083f 988d 293e 158a 083f 4da6 9dbe
00000090: 0222 07bd 94a7 cdbe 41fc 5abf 24a4 933c
000000a0: 2612 9c3e 3e86 36be acc9 25bf b641 e63d
000000b0: c329 1d3f 0570 4b3f d2a6 e33e ba11 e53b
000000c0: e1e4 943e f843 1dc0 cc78 3540 acc0 883f
000000d0: 1828 d7be 4695 203f b358 753e 71ac c33e
000000e0: d65f 743d b163 523d 7cd3 a1bf 6af5 0040
000000f0: 1b34 183f d8c8 9cbe 6227 9d3e f2db 6d3e
00000100: e6ee acbe 9cf5 393f 13b5 6a3f f340 eabf
00000110: 167f a9bf 684a 91be 0fad 9ebd d4ae 06bf
00000120: 773b c0bd 237b ddbe 3f2b 94bc 7a06 00be
00000130: 339c 05bf ba89 813f 304e 993e 5956 6a3d
00000140: 4140 cd3e 5804 41bc 1395 71bf 1bfc 3a3f
00000150: 1efb 1ec0 4bf2 f5bd 2560 81be f230 13be
00000160: 58c6 18be fc76 4fbe 03a1 933e 3040 38bf
00000170: e226 563f 09f0 563e 0c29 b0be 6043 87be
00000180: 5178 4abf a7d1 153f 53ed 65bf d5e6 833f
00000190: e7f3 afbe 91f7 ebbe 6b9a 6fbd 0ff0 c03e
000001a0: 2f60 0ebf 4d54 5f3c ef4c d2bd 3c3c d5bb
000001b0: b1af 0fbc ecb1 2f3f 4ff1 40bf 85d7 c5be
000001c0: df4e bf3c 0878 9dbd 0cbc 9f3e 717a b2be
000001d0: 318a cc3e 177b 1bbf 68f3 a7bf 012e 9c3d
000001e0: ba98 703f 4d7e 47bf 63ba 90bb 40dc 1cbe
000001f0: c724 1cbf 10ba 99be cb87 ef3e a156 193d
00000200: a1c5 95bc 7f08 87c0 1422 cd3f 89cc 87bf
00000210: 5144 c8bd f6ac c03e 8766 393e d648 c83e
00000220: aea3 d73f fb0b 1ebf 82d9 32bf 3556 fdbe
00000230: a072 6ebf 7f0e 52be 149c e43d a505 42bc
00000240: b6bb bcbe b67e d4be 1f3b a6bf 21b0 04c0
00000250: 6cfc 0dbc cf35 623e 23de 853e 5f00 afbd
00000260: a6db 593f 0027 e0be 1aec e73d 4de7 fb3d
00000270: dcd0 ecbe b393 d9be f875 0d3f 0e83 0a3f
00000280: 12b3 ccbe 5b67 593d 9992 d3be 64a2 1bbf
00000290: be86 8d3f 926d 6d3f 9c10 ee3c bf36 08bf
000002a0: 3827 8cbe 3e3a b13e 8cc2 233e a3e8 4dbf
000002b0: 7ac1 eb3e 3e83 74bd 04f9 00be e91d 233f
000002c0: c35a d2bf cc91 1cbf a64b 50bf 258b b7bd
000002d0: 270b c93c f4a7 9abe 2d28 0d3e 1f76 abbd
000002e0: 8fcf 5dbe bc6a 4dbe dbce 97bd 165d ffbe
000002f0: 5966 053f 93b0 813e 1fbc bf3e 911f 093f
00000300: fa34 1ebe dc02 2cbf 9552 843d e7b4 91bf
00000310: fb63 7d3f 0b39 5cbe 979c 97be aa2c 3b3e
00000320: 778f bd3e 25da 01bf ef8a a0be 5710 cfbe
00000330: 79d2 89bf c390 a8bd 5495 d13e b424 b43d
00000340: 7487 ab3e 396e b2bd 9735 d03f b996 d5be
00000350: 72ee 97bf fa3e 073f fe01 78bf 5200 33bf
00000360: 1a2c 2e3f b2a5 483f 8e07 44bd 373c b1bf
00000370: eeb9 303f 552a 9a3d 8b85 c63e 5e30 813e
00000380: a843 9cbe 4af3 27be 853c 573e 159c 003d
00000390: d773 8fbc a478 2f3f fc1e ed3e 151f c1be
000003a0: 1723 173f c9ed 073d 5607 bebd 9cbf 9cbe
000003b0: 4837 143f 5354 9fbe 8d24 48be 66bf 99be
000003c0: 911e 02bf d97b cc3e 27a1 67bf 0795 01c0
000003d0: d704 8abf 8b28 00bf 31c1 3e3e 0aff 2fbf
000003e0: 4791 0e3f 6efa 8ebd 68a0 9d3e e4f7 fcbe
000003f0: 4fc6 8bbe c1fb cabe 0027 d1be ca97 00bf

fc1.bias f4 [64]
0.098895065 -0.140267 0.71484977 0.6541761 0.17126425 -0.18719994 0.8706452 0.108818054
0.40773955 0.5439081 -0.04717912 -0.46890497 0.250803 0.07459937 0.31679332 -0.1274365
0.25888342 -0.17184368 0.59555656 -0.011525402 -0.634471 0.70016056 -0.023031807 -0.15960035
-0.48846734 -0.15816268 0.06426089 0.51573175 0.39163002 0.19437498 0.3071822 -0.4439558
0.46724775 0.8804264 -0.39794058 0.3096844 0.94850546 0.61915326 -0.28246427 -0.2947168
0.46575004 -0.2834837 0.7742055 0.95942694 0.85194033 -0.4811954 -0.12242917 0.75341636
-0.5480024 -0.5654205 0.22140102 -0.59385943 -0.05488197 0.32102638 0.08257505 -0.3197468
-0.43800813 -0.28632128 -0.7571221 0.09125618 -0.32450187 0.31797108 0.12462014 -0.20445047
00000000: 7f89 ca3d 27a2 0fbe 6500 373f 1678 273f
00000010: e55f 2f3e 57b1 3fbe 9be2 5e3f 00dc de3d
00000020: 3dc3 d03e 903d 0b3f e53e 41bd 5014 f0be
00000030: 4069 803e 8ec7 983d bc32 a23e b77e 02be
00000040: 5e8c 843e caf7 2fbe 6576 183f 0ad5 3cbc
00000050: b16c 22bf b93d 333f 33ad bcbc 466e 23be
00000060: 6418 fabe 66f5 21be 379b 833d ff06 043f
00000070: bb83 c83e 3c0a 473e fc46 9d3e 2d4e e3be
00000080: 193b ef3e a063 613f debe cbbe f48e 9e3e
00000090: 41d1 723f d480 1e3f 289f 90be 1fe5 96be
000000a0: ca76 ee3e c724 91be 5532 463f 019d 753f
000000b0: c318 5a3f 3e5f f6be 25bc fabd e5df 403f
000000c0: e349 0cbf 66bf 10bf f3b6 623e 2c07 18bf
000000d0: ebcb 60bd 925d a43e 1c1d a93d dab5 a3be
000000e0: 9a42 e0be b498 92be c1d2 41bf 85e4 ba3d
000000f0: 1c25 a6be 1bcd a23e d838 ff3d 775b 51be

fc2.weight f4 [64, 64]
0.10952502 0.3329657 0.25385907 -0.2060371 0.14440067 0.007652143 -0.753048 0.297097
-0.07801975 -0.2553448 -0.65638715 0.58309776 0.011117051 0.45936173 0.7411081 -0.09390297
-0.9930832 1.2514277 0.15529923 -0.24817581 0.8645308 0.25358194 0.8083461 0.1611178
0.8970405 -0.23927097 -0.848147 0.23661922 0.08444493 -0.38367993 -0.00020574447 -0.43081236
0.2864749 0.014671169 0.6842224 0.19394054 0.16419013 -1.5107567 0.020989163 0.10394969
0.38481688 0.7289203 -0.15017574 0.45473424 0.021488015 0.18075407 0.08412055 0.107116535
-0.45634517 1.0664847 0.37730494 1.0130599 -0.68319136 -0.12184706 -0.79973036 0.055957526
0.90665364 -0.079321876 0.46065608 -0.14547348 0.55335784 0.19294682 0.19852753 1.1567724
0.21184602 0.2964238 -0.0037901883 0.15978965 0.39319313 0.16840738 0.135848 0.06476901
0.07878084 0.17250901 -1.0116712 0.8868118 0.108186506 0.43799034 0.56976396 0.098610446
-0.140575 1.403788 -0.26736808 0.16338693 1.0572326 -0.03650201 0.8710225 0.23595746
1.1460425 0.37129208 -0.33319905 -0.0047577713 0.23193595 0.35151523 0.086092375 0.6976042
0.49397564 -0.5692041 0.8524854 -0.08663014 0.029893816 -1.4049056 0.29640153 0.24656364
0.17685138 0.9162673 -0.17087878 0.107376374 -0.024339572 0.63471234 0.38923484 0.17150469
-1.0933285 0.93368495 0.2758989 0.23937653 -0.6592813 0.095670566 -0.19894086 -0.06268422
1.0743397 0.22505796 0.4803353 -0.48494595 0.35730258 0.45471537 0.20692445 1.4049902
0.6575963 0.532648 0.4144404 -0.33654085 -0.14131692 0.57236594 -1.24759 -0.119357385
-0.23012178 -0.09505913 1.0089029 1.7726231 -0.05368716 -0.10414979 -1.5880694 -0.060251612
-0.2836977 0.48516005 0.121223934 0.056139365 -0.015370855 -0.0066627315 0.61465156 0.121825404
0.75043136 -0.017645529 -1.7562281 0.45381734 0.015735151 -1.1764778 -0.0011757836 0.5388699
0.29624817 0.4602785 0.87827945 0.28029233 0.08617678 -0.41417927 0.3067584 0.28602454
0.30388382 0.50314933 -0.13027033 0.2174334 0.037859574 0.37722674 0.15171522 0.2608748
-0.60063314 0.25476414 0.6228562 1.8160722 -0.008330795 0.05277346 -0.15264152 0.06253279
0.89556235 0.15587398 0.8725269 0.2683573 1.6608247 -0.47527185 0.076107204 -0.50529885
-1.9658093 0.8195906 0.3544359 -0.65523404 -0.47579113 -1.0373042 -0.1390977 0.7800747
0.14675368 -1.324017 1.1278232 -0.8562328 0.7295556 -0.49767613 -0.5290166 -0.13613714
-0.28031543 -0.7088186 0.7006856 0.0068504564 -1.9638354 0.2745975 -0.36734295 -0.24882272
-0.9595957 -0.606765 0.156495 0.32909682 -1.830685 -0.33702883 -0.04946126 -0.6992892
1.531349 0.9144193 -0.67292935 -2.4671023 0.07871802 0.5201478 -0.40661767 -0.53945017
1.0913808 -0.4182183 -0.307433 -0.18592511 0.4015329 -0.4193747 -1.1322051 -0.54030955
1.2580293 -0.2624154 -0.86527497 -2.0631318 -0.48708922 -0.05766938 0.2487543 -0.047270104
-0.5017302 -0.213897 -0.7677931 1.7045815 -0.25607148 0.012676888 0.463763 -0.4285086
00000000: a74e e03d 7b7a aa3e d1f9 813e 64fb 52be
00000010: c5dd 133e d4be fa3b c1c7 40bf 191d 983e
00000020: d2c8 9fbd 8ebc 82be fd08 28bf e545 153f
00000030: 4b24 363c 7631 eb3e 43b9 3d3f 3350 c0bd
00000040: b33a 7ebf c82e a03f c306 1f3e cd21 7ebe
00000050: e451 5d3f 7ed5 813e c5ef 4e3f 11fc 243e
00000060: 72a4 653f 7303 75be 2920 59bf 4f4c 723e
00000070: 77f1 ac3d b271 c4be 1cbd 57b9 7093 dcbe
00000080: d7ac 923e 585f 703c 3329 2f3f 5998 463e
00000090: 7521 283e 7a60 c1bf 77f1 ab3c 93e3 d43d
000000a0: b806 c53e 859a 3a3f abc7 19be edd2 e83e
000000b0: a207 b03c 9817 393e 6547 ac3d ea5f db3d
000000c0: 13a6 e9be 9282 883f 1d2e c13e f2ab 813f
000000d0: a1e5 2ebf f48a f9bd 21bb 4cbf b833 653d
000000e0: 741a 683f 8273 a2bd 1ddb eb3e 00f7 14be
000000f0: dca8 0d3f da93 453e cd4a 4b3e 1e11 943f
00000100: 2aee 583e dcc4 973e cf64 78bb e69f 233e
00000110: 9c50 c93e fc72 2c3e bd1b 0b3e 9da5 843d
00000120: d957 a13d 34a6 303e 717e 81bf 1906 633f
00000130: e390 dd3d 4540 e03e 0ddc 113f 46f4 c93d
00000140: e5f2 0fbe 53af b33f 78e4 88be e74e 273e
00000150: 6653 873f 2283 15bd 55fb 5e3f d59e 713e
00000160: 85b1 923f ff19 be3e 1199 aabe 14e7 9bbb
00000170: 9e80 6d3e cef9 b33e 3351 b03d 3096 323f
00000180: 60ea fc3e 5cb7 11bf 7c3c 5a3f 256b b1bd
00000190: e0e3 f43c f2d3 b3bf f1c1 973e 2e7b 7c3e
000001a0: 8718 353e 7e90 6a3f d9fa 2ebe 25e8 db3d
000001b0: c863 c7bc 827c 223f ca49 c73e ed9e 2f3e
000001c0: 30f2 8bbf fa05 6f3f 9f42 8d3e 1f1f 753e
000001d0: a9c6 28bf eeee c33d 27b7 4bbe 9660 80bd
000001e0: f783 893f 9875 663e 82ee f53e d64a f8be
000001f0: 5df0 b63e 74d0 e83e 01e4 533e b8d6 b33f
00000200: 3b58 283f 9f5b 083f 8831 d43e 154f acbe
00000210: 62b5 10be 9386 123f 07b1 9fbf a571 f4bd
00000220: 0ba5 6bbe 5cae c2bd bb23 813f 50e5 e23f
00000230: 11e7 5bbd 7c4c d5bd dc45 cbbf 65ca 76bd
00000240: d340 91be e666 f83e 4144 f83d 64f2 653d
00000250: 0ad6 7bbc 0b53 dabb ce59 1d3f 997f f93d
00000260: 451c 403f 5b8d 90bc 15cc e0bf bf5a e83e
00000270: 01e7 803c d396 96bf c01c 9aba 61f3 093f
00000280: d7ad 973e a0a9 eb3e ecd6 603f 7a82 8f3e
00000290: 747d b03d 4e0f d4be 700f 9d3e cf71 923e
000002a0: a996 9b3e 65ce 003f 9665 05be dca6 5e3e
000002b0: a412 1b3d dd23 c13e 3c5b 1b3e 6291 853e
000002c0: 18c3 19bf 7270 823e 8173 1f3f 0e75 e83f
000002d0: e37d 08bc fc28 583d 0f4e 1cbe 3111 803d
000002e0: 9343 653f 6e9d 1f3e ec5d 5f3f 2166 893e
000002f0: e795 d43f d556 f3be 18de 9b3d 445b 01bf
00000300: a49f fbbf b1d0 513f 9f78 b53e 6bbd 27bf
00000310: e59a f3be 62c6 84bf a16f 0ebe fab2 473f
00000320: 9946 163e 6479 a9bf 835c 903f 1332 5bbf
00000330: 28c4 3a3f 68cf febe a26d 07bf 8967 0bbe
00000340: 8185 8fbe 2375 35bf 2260 333f cb79 e03b
00000350: f55e fbbf 0b98 8c3e 6014 bcbe 62cb 7ebe
00000360: 10a8 75bf f354 1bbf 3a40 203e 617f a83e
00000370: e353 eabf 0b8f acbe e497 4abd 9e04 33bf
00000380: 3e03 c43f 6217 6a3f 1945 2cbf 01e5 1dc0
00000390: ea36 a13d 6828 053f 3130 d0be 6819 0abf
000003a0: 5eb2 8b3f b620 d6be dc67 9dbe 2763 3ebe
000003b0: b895 cd3e 48b8 d6be 19ec 90bf ba51 0abf
000003c0: 1b07 a13f 505b 86be a982 5dbf 5a0a 04c0
000003d0: c263 f9be ba36 6cbd 72b9 7e3e 4c9e 41bd
000003e0: 6471 00bf d107 5bbe 178e 44bf ba2f da3f
000003f0: cd1b 83be b9b2 4f3c 5872 ed3e 7b65 dbbe

fc2.bias f4 [64]
0.33788145 0.08832796 0.03967117 0.14620686 -0.15255639 0.22683956 0.026656717 -0.120491005
0.76672 -0.02923619 0.32918262 -0.033517838 -0.008699633 0.043335233 -0.1794538 0.011433707
-0.059516 -0.14720981 -0.035468746 -0.17784378 0.951374 0.98208624 0.09245507 -0.00384862
-0.075706735 -0.02962729 -0.04928414 1.0336446 -0.10814163 0.041707803 0.09925141 0.34731114
0.17539154 0.13332015 -0.07807205 0.21154396 -0.0060337964 0.9274802 -0.13695458 0.03380587
0.59862536 -0.12313721 0.068967775 -0.105225556 0.124162905 0.13185908 0.29278952 0.10412376
0.13883327 -0.21528707 0.21112943 0.09465554 0.100659475 0.037228934 0.018527133 0.1021265
-0.12573484 0.45997715 -0.05803707 0.16079961 -0.10486727 0.67695135 0.16174188 -0.14275841
00000000: ccfe ac3e 4ae5 b43d 3d7e 223d 40b7 153e
00000010: be37 1cbe a148 683e 305f da3c fdc3 f6bd
00000020: c347 443f bc80 efbc a08a a83e 004a 09bd
00000030: e888 0ebc 4980 313d bdc2 37be 7154 3b3c
00000040: 0dc7 73bd 2bbe 16be ad47 11bd ae1c 36be
00000050: 3f8d 733f 016a 7b3f 1559 bd3d 2139 7cbb
00000060: 220c 9bbd eeb4 f2bc 2bde 49bd 774e 843f
00000070: 5c79 ddbd cdd5 2a3d 5344 cb3d c4d2 b13e
00000080: d799 333e 1485 083e 3de4 9fbd fb9e 583e
00000090: 27b7 c5bb 586f 6d3f d23d 0cbe 0678 0a3d
000000a0: 833f 193f 5d2f fcbd fa3e 8d3d 7f80 d7bd
000000b0: 1f49 fe3d 1106 073e 82e8 953e d63e d53d
000000c0: 4f2a 0e3e 3774 5cbe 5032 583e c4da c13d
000000d0: 8e26 ce3d 5e7d 183d 37c6 973c b327 d13d
000000e0: a2c0 00be 2082 eb3e 47b8 6dbd a7a8 243e
000000f0: a7c4 d6bd af4c 2d3f aa9f 253e 432f 12be

fc3.weight f4 [4, 64]
-0.85724795 -0.5427502 -1.571265 2.1180594 -0.47169912 2.3705454 0.032558955 0.023554757
1.1627773 -0.37257013 -0.65044564 -0.5345968 -0.06718735 -0.43735644 -0.49500084 -0.32106695
-0.58059263 -0.42525822 -0.35276297 -0.60729593 1.3249857 1.6987264 0.76291627 -0.45109984
-0.4907963 -0.43815672 -0.39773464 1.3499336 -0.37117192 -0.15316413 -1.1676193 -0.5897724
2.5048769 -0.6136974 -0.068527736 2.1518576 -0.44400772 1.4394867 -0.30951965 -0.5176567
0.039719842 -0.4061426 -0.6027231 -0.7974309 -2.062118 -1.6253842 1.9601053 -1.0880839
-0.6880902 -0.43251398 -0.39836246 -0.3978388 -1.7259094 -0.8049204 -0.4862855 -0.56471455
-0.4569092 1.3463987 -0.030223802 0.4650927 0.06568929 1.4197698 -0.42252216 -0.75031585
-1.2989552 -0.45492932 -1.386581 2.775646 -0.57694775 1.9649805 0.15854065 -0.090267
1.3089324 -0.7663296 -0.7637732 -0.62292486 -0.10206495 -0.29462475 -0.47008654 -0.5135522
-0.48453233 -0.5709968 -0.43782797 -0.48974803 1.5537561 1.453981 0.65272504 -0.668269
-0.42472622 -0.51740843 -0.45838803 1.3334842 -0.39203694 -0.7018864 0.431554 -0.95280653
2.373925 -0.7631487 0.08934698 1.934853 -0.4258719 1.3196884 -0.5959725 -0.39983487
-0.5085898 -0.52599585 -0.19853364 -1.3173184 -2.4001184 -1.1674279 2.217884 -0.126551
-0.6502191 -0.5418584 0.51877356 -0.42358357 -0.046936806 -1.0319871 -0.56868166 -0.23267323
-0.4332392 1.4699856 0.011275503 0.8188736 -0.08669544 1.0906836 -0.5009681 0.45740265
-0.7576879 -0.6276453 0.19977647 2.1510985 -0.5060963 1.8479784 0.34026712 0.030761939
1.2816199 -0.3825454 -0.9124663 -0.4897618 0.13359943 -0.5601031 -0.38402224 -0.46511477
-0.5156403 -0.5650083 -0.53864926 -0.38239402 1.0938861 1.4489394 -0.160465 -0.40971765
-0.25897685 -0.50297236 -0.2493776 1.6494011 -0.67571306 0.10294443 0.10056719 -1.7706746
2.4529853 -0.25140524 0.038826246 2.6426804 -0.23893277 1.3238605 -0.47280887 -0.4665939
-1.4796045 -0.5518303 -0.6071942 -1.0752957 -1.8796443 1.2983955 0.6788878 -0.37557724
-0.18439521 -0.5594856 0.05845462 0.06482986 -1.0809803 0.12484411 -0.5137157 -0.4844956
-0.53164905 1.6159116 -0.10847606 1.3581917 -0.017189905 1.341861 -0.042560656 -1.5373181
-0.2894684 -0.4997789 -0.2089511 1.4520955 -0.44525468 2.4832473 -0.72374237 0.038913503
1.662841 0.40845537 -0.15383261 -0.39857456 -0.05868183 -0.7344139 -0.5110371 -0.5477348
-0.5590408 -0.59390855 -0.7874673 -0.55055594 1.5663902 1.5159731 0.4988423 -0.3355946
-0.65945655 -0.4617723 -0.67378354 1.3718095 -0.70594645 -0.37292176 0.9575195 -0.7073019
2.633792 -0.44016433 0.029704303 2.2854037 -0.68685687 1.3161284 -0.66366667 -0.698433
0.5055617 -0.663869 -1.1620201 -0.5336408 -1.9282633 0.7831317 2.476423 -0.61888736
-0.6722509 -0.66920805 -0.7001832 -0.50991523 -0.6438481 -0.1038615 -0.645412 -1.0954154
-0.73058254 0.8849044 0.08996977 0.4619712 -0.052492365 1.1258793 -0.51178026 -0.40104192
00000000: 9a74 5bbf adf1 0abf 361f c9bf 498e 0740
00000010: 8c82 f1be 04b7 1740 8a5c 053d e8f5 c03c
00000020: e3d5 943f 83c1 bebe 9b83 26bf 56db 08bf
00000030: 8599 89bd 2fed dfbe c070 fdbe e362 a4be
00000040: b8a1 14bf 72bb d9be 599d b4be bf77 1bbf
00000050: 2299 a93f de6f d93f 7b4e 433f 8ff6 e6be
00000060: a749 fbbe 1456 e0be e0a3 cbbe a0ca ac3f
00000070: 3f0a bebe 0fd7 1cbe 8d74 95bf 53fb 16bf
00000080: e74f 2040 461b 1dbf 4558 8cbd 09b8 0940
00000090: fb54 e3be 1a41 b83f 5c79 9ebe 2685 04bf
000000a0: 46b1 223d ecf1 cfbe 104c 1abf 6e24 4cbf
000000b0: bef9 03c0 970c d0bf bbe4 fa3f 5546 8bbf
000000c0: ae26 30bf 7972 ddbe 2af6 cbbe 87b1 cbbe
000000d0: 99ea dcbf 430f 4ebf 6afa f8be 2291 10bf
000000e0: 01f0 e9be cb56 ac3f e897 f7bc a120 ee3e
000000f0: 1b88 863d 04bb b53f d354 d8be b314 40bf
00000100: 2a44 a6bf 7fec e8be 7c7b b1bf 2fa4 3140
00000110: d9b2 13bf 7b84 fb3f 7b58 223e e8dd b8bd
00000120: 198b a73f 2d2e 44bf a486 43bf 0178 1fbf
00000130: 6e07 d1bd 0ed9 96be 2faf f0be 2878 03bf
00000140: 9f14 f8be d92c 12bf fd2a e0be 41c0 fabe
00000150: 7be1 c63f 0d1c ba3f fd18 273f ad13 2bbf
00000160: b775 d9be e174 04bf d6b1 eabe 9caf aa3f
00000170: 11b9 c8be d4ae 33bf a5f4 dc3e 21eb 73bf
00000180: 63ee 1740 b75d 43bf 8dfb b63d 43a9 f73f
00000190: e20b dabe 8deb a83f a791 18bf 28b7 ccbe
000001a0: f132 02bf aaa7 06bf 674c 4bbe e49d a8bf
000001b0: 8a9b 19c0 476e 95bf d0f1 0d40 9696 01be
000001c0: c274 26bf 3bb7 0abf 58ce 043f f2df d8be
000001d0: cf40 40bd 2718 84bf 1f95 11bf e441 6ebe
000001e0: 87d1 ddbe 7d28 bc3f e3bc 383c b3a1 513f
000001f0: 618d b1bd 859b 8b3f 723f 00bf ae30 ea3e
00000200: d6f7 41bf 5dad 20bf 3492 4c3e 99ab 0940
00000210: 878f 01bf 8e8a ec3f 7e37 ae3e 7600 fc3c
00000220: 1f0c a43f fedc c3be 6497 69bf 0fc2 fabe
00000230: 4ace 083e eb62 0fbf 909e c4be 8623 eebe
00000240: 0101 04bf 62a4 10bf ebe4 09bf 26c9 c3be
00000250: 7604 8c3f d976 b93f f050 24be 83c6 d1be
00000260: 9d98 84be ccc2 00bf d75c 7fbe 931f d33f
00000270: 88fb 2cbf 88d4 d23d 2cf6 cd3d 77a5 e2bf
00000280: b6fd 1c40 30b8 80be 4508 1f3d ad21 2940
00000290: cbaa 74be 4374 a93f 0114 f2be 65e5 eebe
000002a0: ae63 bdbf c044 0dbf 1471 1bbf 4aa3 89bf
000002b0: 2f98 f0bf d331 a63f 97cb 2d3f a94b c0be
000002c0: 19d2 3cbe 733a 0fbf 1d6e 6f3d 85c5 843d
000002d0: 905d 8abf 45ae ff3d df82 03bf cf0f f8be
000002e0: 271a 08bf 31d6 ce3f b228 debd 3ad9 ad3f
000002f0: d8d1 8cbc 1ac2 ab3f 1554 2ebd d7c6 c4bf
00000300: 3435 94be 05e3 ffbe 47f7 55be 44de b93f
00000310: 6cf8 e3be 86ed 1e40 2e47 39bf c463 1f3d
00000320: f9d7 d43f 1021 d13e 4c86 1dbe f711 ccbe
00000330: 5c5c 70bd 8d02 3cbf 54d3 02bf 5938 0cbf
00000340: 4c1d 0fbf 640a 18bf 7597 49bf 3cf1 0cbf
00000350: 797f c83f 680b c23f 4268 ff3e 0ed3 abbe
00000360: 25d2 28bf 6b6d ecbe 147d 2cbf 7497 af3f
00000370: e8b8 34bf 9aef bebe ff1f 753f bd11 35bf
00000380: 0c90 2840 385d e1be 7056 f33c 0e44 1240
00000390: dad5 2fbf e576 a83f 0fe6 29bf 81cc 32bf
000003a0: 7e6c 013f 52f3 29bf 13bd 94bf af9c 08bf
000003b0: 55d1 f6bf 527b 483f b77d 1e40 676f 1ebf
000003c0: a318 2cbf 3851 2bbf 353f 33bf ce89 02bf
000003d0: 3bd3 24bf 57b5 d4bd b939 25bf 9236 8cbf
000003e0: 7507 3bbf 1889 623f 1242 b83d 7d87 ec3e
000003f0: 3c02 57bd d01c 903f 0804 03bf 5e55 cdbe

fc3.bias f4 [4]
-0.15427835 0.38025424 0.044740155 0.028968703
00000000: 25fb 1dbe afb0 c23e 7441 373d c64f ed3c
