NeurPiRL_SA/LunarLander/DQN/checkpoints/1000_220.pth (torch, 22315 bytes, 6 tensors)

fc1.weight f4 [64, 8]
00000000: fd89 e9be d477 9b3d 5dec 353f 4e2b 05c0
00000010: 840a d73b 64ff 3a3e 3eca 26bf 7182 5abe
00000020: fdfd 12bf 049a 913e 12d0 4c3f ccee 69be
00000030: 3222 21be acb4 4a3f 87c4 bcbd 2d6d 8cbe
00000040: b093 c53d 8070 47c0 a9bb 68bf b380 2a3f
00000050: 90ae 983f 563a 173f c606 9b3f f705 643f
00000060: ee39 063f 2fdc 26bf 8274 1b3f 505e 03bf
00000070: cb76 c2bf 8d58 59be 1594 3a3f a465 183f
00000080: 81d6 1d3f 7b13 dcbe 6ee8 3d3e 4ca1 74bf
00000090: 7e7c 48be e330 05bf 885d 8c3f 8009 02c0
000000a0: 9603 d13e d71b f73e d2e1 9e3f 5f07 6ebf
000000b0: 0e46 f13e cc21 f8b9 5673 223f 4021 003f
000000c0: eab1 513f 6f66 71bd 23c9 5d3f 21db 4d3f
000000d0: e346 abbf b23b 83bf 03ad 8d3f 4cd3 a33e
000000e0: 43bd 0240 94c0 103e ea97 d83f 6d01 ad3d
000000f0: 2889 bc3d 3fa1 6e3f f1b4 a3bc 56cc 2b3f
00000100: d8af 85bf 5046 18be 19aa 6f3e 32e0 f8be
00000110: 54db 043e e171 793f fada 933d aa6f b13d
00000120: 1c1c 95bf 4811 5dbf 46b0 e8be 9aa7 9fbf
00000130: 5cd1 d03e 3108 213e 3c94 5f3f ef51 d0be
00000140: 7f68 b63d 9095 8ebe b7d6 8b3d f6c8 94bf
00000150: 9c22 c9be bd7b 773f 4116 39bf 87e2 7d3e
00000160: 0ac5 dfbe 5b80 1a3e 896c b73f d342 e5be
00000170: f7ac 133e 8f77 3b3f 3c49 86bd eeee b8bf
00000180: ae62 683f 2e7e 57bf 3ef7 5c3f 25fa fa3e
00000190: d7d6 07c0 312f 9dbf 02b9 f7bd 3023 36bb
000001a0: 4935 32bf d33a 2b3f f1e0 1abf 7577 73bf
000001b0: 11f9 b7bc c470 90bf 9506 3f3d d7a3 8bbe
000001c0: 7ae4 c33f c787 d23f b119 03be 148e 92bd
000001d0: d1fd 13bf 2d7a 683f b535 a2be 5bae d33e
000001e0: e842 833e 1ef0 78be 2e36 f8be a3f7 53be
000001f0: 0ac8 0640 2805 babd a7c3 d23e 5605 4c3d
00000200: ae1a 173f 795e d23e 7388 3ebf f4a1 72be
00000210: 1a0c 0d3f f826 b0bf 5d66 973e 596b 38bf
00000220: 97f1 153f df9d eb3d db20 923e cdde eabe
00000230: dc7e e0be 646a 87bf 4dcc 0a3f 06b5 f03e
00000240: 4139 66be 3d9b 713f bf33 9dbe 3283 a13e
00000250: 93d1 353f 0155 843e ff67 cf3e 22f8 07bf
00000260: 6cb8 aabf 66d5 133e b868 a2bf fb26 ae3f
00000270: 9d17 92be 9a2e 4ebd 17fc 023f fa9d d83e
00000280: d563 ebbf 72bc ca3e 032b 43bf 1de0 6dbf
00000290: a535 113e 859a bfbe e293 a73e c80a 8ebe
000002a0: c452 dfbc 0c21 e6bf 051c 8ebf 9ce8 adbf
000002b0: 2793 7dbe f86d 303f 4af0 73bd bc66 3bbd
000002c0: 1234 8fbe 4dba c43d 445a abbe ebcf 233e
000002d0: bb9d b1bd 0dcc d9bf 6d9e 46be 305e c13e
000002e0: b648 c73e b1a0 a3be a762 a5bd 155c f53c
000002f0: 0a60 0abf 9e6c 86bf bb8a aebe 4301 383e
00000300: 6b5b e1bf b008 d7bf d724 83bd 2abb f0bf
00000310: 3a93 523f 40a8 563c 047e 9e3d 57d3 a93c
00000320: 1c49 53bf df50 0340 f068 d1bf e1fe 963f
00000330: 7c8b 173f b3e4 d73e d9d4 c9bf 6658 e4bd
00000340: d459 7abd cdea de3d bd0d 1a3f d446 3fbe
00000350: cecc 063f 505f 3c3f f0a3 173f 7e71 e6be
00000360: 2050 9dbe b0f7 a43f 2290 4f3e 5440 17bf
00000370: d703 b83f 54ca bcbe 5363 673f 803c cbbe
00000380: 3d9b 693f ca2d a2be 7596 c93e 9aee cfbf
00000390: ceb1 35bf 3189 123f 2be5 183e a6a6 e73e
000003a0: cd0f 403e fd35 233f e277 33bf 6db3 343f
000003b0: 1b14 533f fc2b 69be 5cc8 63bf 3ae9 243e
000003c0: 2eb3 22be 2058 a1bf b08c 913f 6076 0dbf
000003d0: 2a52 1c3f 0f88 93bf 7ef1 4c3f 68c5 60be
000003e0: cc75 97bf d1fe 603e 7418 e03c f17a 20bf
000003f0: b1c5 693f 09cb 623f 2ea2 083f 0fa8 4a3e
-0.4561309 0.07591215 0.71063787 -2.080768 0.006562533 0.18261486 -0.6515235 -0.21338822
-0.57418805 0.28437817 0.8000499 -0.22845 -0.157357 0.79181933 -0.09217172 -0.27427045
0.0964731 -3.1162415 -0.90911347 0.6660263 1.1928272 0.5907339 1.2111442 0.890716
0.52432144 -0.65179724 0.6072465 -0.51315784 -1.5192503 -0.21225186 0.72882205 0.5953009
0.6165543 -0.42983612 0.18545696 -0.9555862 -0.1957874 -0.5202772 1.0966043 -2.0318298
0.40823048 0.48263428 1.2412665 -0.9298 0.4712376 -0.00047327427 0.6345724 0.50050735
0.819121 -0.05893558 0.86635035 0.8041249 -1.3381008 -1.0252593 1.1068424 0.31997144
2.0428016 0.14135963 1.692136 0.084475376 0.09205848 0.9321479 -0.01998374 0.67108667
-1.0444288 -0.14870572 0.23404731 -0.48608547 0.12974292 0.9743939 0.07219501 0.08663876
-1.1649203 -0.86354494 -0.45446986 -1.2473023 0.4078473 0.15725781 0.8733556 -0.4068751
0.0890665 -0.27848482 0.06828063 -1.1623828 -0.39284217 0.96673185 -0.7229958 0.24793445
-0.43705016 0.15088026 1.4329997 -0.44777545 0.1442145 0.73229307 -0.06556937 -1.4447916
0.90775573 -0.8417691 0.8631476 0.4901897 -2.1224878 -1.2280027 -0.12095834 -0.002779197
-0.69612557 0.66886634 -0.60499483 -0.9510415 -0.022457631 -1.1284413 0.046637136 -0.27273437
1.53041 1.6447686 -0.12802769 -0.071560055 -0.5780917 0.90811425 -0.316816 0.4134396
0.25636983 -0.24310347 -0.48478836 -0.20699935 2.1059594 -0.09083015 0.41164896 0.049809776
0.59025085 0.41087702 -0.74426955 -0.23694593 0.5509659 -1.3761892 0.29570284 -0.720388
0.5857176 0.11504721 0.28540692 -0.45873109 -0.43846786 -1.0579343 0.5421799 0.4701311
-0.22482778 0.943775 -0.30703542 0.31545407 0.7102291 0.25846103 0.4050903 -0.53112996
-1.3337531 0.14436874 -1.2688208 1.3605646 -0.2853364 -0.05033741 0.5116591 0.42308027
-1.8389841 0.39596897 -0.76237506 -0.92920095 0.1418062 -0.37422577 0.32730013 -0.277426
-0.027261145 -1.7978835 -1.1102301 -1.3586612 -0.24763165 0.689178 -0.05955533 -0.045752272
-0.27969414 0.096058466 -0.33467305 0.15997283 -0.08672663 -1.7015396 -0.19396372 0.37767172
0.38922662 -0.31958535 -0.08075457 0.029951135 -0.54052794 -1.0501897 -0.34090218 0.17969231
-1.7606024 -1.6799526 -0.06403511 -1.8807118 0.822559 0.013101637 0.07738879 0.020730658
-0.8253343 2.051811 -1.6360149 1.1796533 0.5919721 0.4216667 -1.5768081 -0.11149673
-0.061120823 0.108846284 0.6017721 -0.18679363 0.5265626 0.73582935 0.59234524 -0.45008463
-0.30725193 1.2888088 0.20269826 -0.5908253 1.4376172 -0.36873114 0.9038593 -0.39694595
0.912525 -0.3167556 0.39372602 -1.624469 -0.70974433 0.5724059 0.1493117 0.4524433
0.18756028 0.63754255 -0.701048 0.7058628 0.82452554 -0.22770685 -0.889776 0.16104594
-0.15888664 -1.2605019 1.137106 -0.5525875 0.6106287 -1.1525897 0.8005599 -0.21950305
-1.1832824 0.21972205 0.02735541 -0.62687594 0.9131728 0.8859106 0.53372467 0.19790672

fc1.bias f4 [64]
00000000: a247 08bf d0a1 ee3e 042c cd3e ad42 383f
00000010: 2c26 aebe feaf c4be 3dd0 2bbf 35c2 a33e
00000020: 32a5 e83e 5718 2e3d 6bdd 3d3e 1126 2a3e
00000030: 1551 99bf de89 b43e ca39 883f 7c45 273f
00000040: b820 8cbd 72fb 18bf d496 673f f4b7 963e
00000050: c88f dbbd ce6e 5d3e c5ea 47be 8de8 ef3e
00000060: 7953 5cbe 6172 ab3e 42d9 453f 39d8 d8be
00000070: eab2 993e 0c18 5bbf 17ad 813f 80a2 42bf
00000080: 8d4a 133d 2de9 143f fd64 863e 1d40 4ebf
00000090: 5803 5e3f f174 77be f562 703e fa09 123e
000000a0: 33d9 cd3e c45d a5bd 4979 403f 8d18 d9be
000000b0: da93 e73f 6efb 1c3f a403 1c3d e398 e53e
000000c0: 09dd 843e 3617 ac3e 276b f93e 0cd8 43be
000000d0: 3f4f 9a3d 810b 46bf b468 46be b920 2d3e
000000e0: 5c07 45be e1fa 863f ebd4 ee3e e6d7 53bd
000000f0: 5ce2 753d f9e7 893f 6e00 abbe e12b 163f
-0.53234303 0.46607828 0.40072644 0.7197674 -0.34013498 -0.3841552 -0.6711462 0.31984106
0.45438534 0.04250368 0.18541496 0.16616084 -1.1977869 0.35261434 1.0642636 0.653404
-0.06842178 -0.59758675 0.9046452 0.2943722 -0.107207835 0.216243 -0.19523151 0.4685711
-0.21516217 0.33485702 0.77284634 -0.42352465 0.30019313 -0.8558357 1.0130948 -0.76029205
0.03595977 0.581683 0.26248923 -0.8056658 0.8672385 -0.24165703 0.23475249 0.14261618
0.40204772 -0.08074525 0.75185066 -0.42401543 1.8091996 0.6132115 0.03808941 0.44843206
0.25949886 0.3361146 0.48714563 -0.19125384 0.07534646 -0.77361304 -0.19375879 0.16907014
-0.19241089 1.0545312 0.4664682 -0.05171957 0.060030326 1.0773917 -0.33398765 0.58660704

fc2.weight f4 [64, 64]
00000000: 1643 e43d cb7c c13e 9aab 493f 0a39 8a3c
00000010: 6ac3 71bc f8e2 ab3b 33a5 923c 5379 6a3e
00000020: c6ba 073e 1245 c33c 3c8f f23e 4ae6 773f
00000030: e762 6dbf c23e a53e 1643 393e 326a 0e3d
00000040: 2757 1e3e 969b e2bb b65c f83e 50dc d2be
00000050: a5ed b3be 6296 513f e82a e03c 2852 0cbe
00000060: 8650 e3bf a537 43be 4819 bc3e 082c 523f
00000070: a9fa da3e e416 213f 595f 4f3f 412b 80bf
00000080: 55d7 07bc 0194 5c3f c9ab ac3d ba03 55be
00000090: 1344 1e3f 6401 bcbd 07f1 b53c 1dfd b03f
000000a0: b68b 0c3f 6ccd c73e 79a8 a73e bcd7 1ebb
000000b0: 372e 053f cec2 903d e44d 3d3f 7d48 003c
000000c0: 61c3 363f 5a59 a73e dfdc ae3c 1b87 7e3f
000000d0: 458b 333f 7806 ebbf 25cf d2be 10b9 8c3f
000000e0: d621 b9be d37d 823f ab1f 0dbe 9737 74bf
000000f0: 1969 cc3f 42f4 253f 2c82 ed3e cef9 503f
00000100: a9c6 803f 2726 953d 7a32 ff3d 3e15 913f
00000110: 843e b13f dfbb 093f 191b 6dbf a73c 46bc
00000120: 1f74 d33e 9bd3 103f f889 1bbe 27be a9bf
00000130: 9f92 37c0 f595 37be 3990 1fbf d32d 843e
00000140: 41df 5dbd 288c 0b3f dcd0 c3be 5e32 303f
00000150: eb8e ab3f 8e6a 8cbe d687 443f 9835 793f
00000160: 4a89 1240 4424 14be 9a33 05be bb8c 803e
00000170: c0a0 4ebe 3333 44bf 2996 02c0 15ba a63f
00000180: 3fc0 9bbf 6303 03bf 0d7b e43e 03d4 be3f
00000190: 5535 043f 11ad 493f fde6 d43e 02bb 13bf
000001a0: 7bbf 1bbe b27e e83d 0fb3 38be 6380 8e3f
000001b0: 6058 24bf cab5 683f c595 84be b4f2 523f
000001c0: d112 673e 4c0b 98bf db75 f9be 3684 5dbf
000001d0: a652 d03e 2dd0 0740 35d1 9e3f 5ad2 35bf
000001e0: 5cad ea3e 723f 99bf 9587 1b3f 3b92 cd3e
000001f0: a244 8dbf b31e 23bf e103 143f dd04 fbbd
00000200: ab46 d83e ee3c 8e3e 7aa4 3d3e 58eb 15bd
00000210: b1bd b6be b813 e5be b0af a13d 8362 ca3e
00000220: 9a4b e73c 9c6f 34be 63dc abbc 572b 043f
00000230: ae7f c13e 45c2 38be 1cca 04be f53b 56be
00000240: c5a1 9d3e 8fa2 0fbe 16ac 6a3e b25f 04be
00000250: fd1d ffb9 b362 97bd 9fe6 7c3b c009 0bbf
00000260: 9136 f6be a1cf e73e dade e8bc e705 f3bd
00000270: a1f1 1bbe a6f6 ab3e f6c3 ad3e e388 fbbe
00000280: 27e3 493e 3977 393e b58b fdbd 810d 2f3d
00000290: ad81 d73e e6be 763e ee72 10be 0193 503f
000002a0: 6ea7 6f3f fa6f 053f 649d 67bd de7f fa3e
000002b0: af64 c23e 817a 61be 1cd9 33bc 47c3 17bf
000002c0: d40a 4b3e 086c 7d3e 3a1f 2f3e 8783 b53e
000002d0: 6b53 e83e b0e9 f0be d790 38be 3bc5 073f
000002e0: 4bd1 973c 496f 013e 59fa 19bd 733a 353e
000002f0: 78a1 243f 75cd 69bd e87e 11be 9228 2c3f
00000300: dcd6 4a3f 6903 eb3e d8b9 47bf 589a 2f3f
00000310: 25d4 a03f 99bb 2c3e 7705 4cbf c643 a33e
00000320: e909 a93e 4ef3 bc3d 5989 823e cf78 80bf
00000330: bb9b 32bf 098e ed3e 340f b23e e8b7 ca3e
00000340: 0ced b83f 5cd4 023f 29e4 d23e e7f6 583f
00000350: 82bc 883f fd09 e9be 4def 6a3f 8e18 7b3f
00000360: fdbc d63f f8d1 ec3e 1d04 473e b631 fd3d
00000370: 3ad5 d83d d277 9dbf 7a75 3dbf a77f 313f
00000380: 3938 8bbf bc48 e0bb 3cdf 773e 95cd 413f
00000390: 4340 d23e 8d49 a5be 8d90 a73d 7323 06bf
000003a0: 2095 9b3d 57f0 fbb9 5da1 253f 91b9 063f
000003b0: 189b 5a3e e2fd e43e 7c32 4abe 241e fd3d
000003c0: 4390 1e3e 76da 9bbf cf8f c13e 3148 00c0
000003d0: 025e 06bf 0a9a b63f 3229 783f b405 b4bd
000003e0: 77af 373f 3be0 ecbd aa6c 653f 42ff b63f
000003f0: 1e97 ffbd 8cf6 71bf 2aff 6dbe 8c89 95bf
0.11145608 0.37790522 0.7877747 0.016872901 -0.014756063 0.0052455626 0.017901039 0.22897844
0.13254842 0.023836646 0.47374904 0.9683577 -0.9272904 0.32274443 0.18091998 0.034769244
0.15462933 -0.00691552 0.48508233 -0.4118371 -0.35142246 0.8187009 0.02736421 -0.13703215
-1.7758949 -0.19064195 0.36738038 0.82098436 0.42769364 0.62925553 0.81004864 -1.00132
-0.008291085 0.86163336 0.08431203 -0.20802203 0.61822623 -0.09179953 0.022209657 1.3827244
0.5490068 0.39023912 0.32745722 -0.0024237474 0.52023643 0.07068406 0.73946977 0.007829783
0.71391875 0.32685357 0.021345554 0.99424905 0.70134383 -1.8361349 -0.41173664 1.0993977
-0.36158627 1.0194649 -0.13781612 -0.95397323 1.5969573 0.6482583 0.46388376 0.8163117
1.0060626 0.072826676 0.124607995 1.1334608 1.3847203 0.53802294 -0.9261947 -0.012099422
0.4129953 0.56572884 -0.1518935 -1.3261155 -2.868324 -0.17928298 -0.6232944 0.2581621
-0.05416799 0.54510736 -0.38245285 0.68826854 1.340299 -0.27425045 0.7676977 0.973474
2.2896295 -0.14466959 -0.13007966 0.2510737 -0.20178509 -0.76640624 -2.040415 1.3025538
-1.2168044 -0.5117704 0.4462513 1.4908451 0.5164388 0.78779703 0.4158248 -0.57707226
-0.15209763 0.1135229 -0.18037055 1.113293 -0.6419735 0.9090239 -0.25895515 0.82401586
0.22565772 -1.1878448 -0.4872273 -0.8652986 0.40688056 2.122081 1.2407595 -0.71024096
0.45835388 -1.1972487 0.60753757 0.40150627 -1.103657 -0.6371872 0.5781842 -0.12256787
0.42241415 0.2778086 0.18519774 -0.036601394 -0.35691598 -0.44741607 0.07894838 0.39528283
0.028234292 -0.176207 -0.020979112 0.5162863 0.37792724 -0.18042858 -0.12967724 -0.2092131
0.30787483 -0.14026855 0.22917208 -0.1292713 -0.00048659733 -0.07391872 0.003858961 -0.5431175
-0.48088506 0.45275596 -0.028426576 -0.1186636 -0.15228893 0.33586615 0.3393857 -0.49127874
0.19715558 0.18111886 -0.123801626 0.042737488 0.42091122 0.2409626 -0.14106342 0.8147431
0.9361485 0.5212399 -0.056546584 0.4892568 0.3796744 -0.22019388 -0.010977056 -0.59282345
0.1982835 0.24748242 0.17101756 0.3545191 0.45376143 -0.4705329 -0.18024002 0.53035325
0.018532416 0.12640108 -0.037592266 0.17698078 0.6430888 -0.057080705 -0.14208567 0.67249405
0.792341 0.4590104 -0.7801795 0.68594885 1.2564741 0.16868438 -0.7969584 0.31887645
0.33015373 0.09226094 0.25495413 -1.0036868 -0.69768876 0.46397427 0.34777224 0.39593434
1.4447341 0.51105285 0.41189697 0.84751743 1.0682528 -0.45515433 0.91771394 0.9808434
1.6776425 0.46253943 0.19435163 0.12362997 0.10587545 -1.2302191 -0.7400738 0.69335407
-1.0876533 -0.006844608 0.24206251 0.7570432 0.41064653 -0.32282677 0.08181868 -0.5239784
0.07596803 -0.00048053518 0.64699346 0.526269 0.21348226 0.44724947 -0.19745821 0.123592645
0.15484719 -1.2176044 0.3780503 -2.0044062 -0.52487195 1.4265759 0.9693786 -0.0879015
0.71752113 -0.11566206 0.89618933 1.4296649 -0.12479995 -0.94516826 -0.23241869 -1.1682601

fc2.bias f4 [64]
00000000: 62cc 0d3f 6689 dabe 743f f73d f24f b73e
00000010: 5446 953d 28f6 463d 1d81 1fbf c683 983e
00000020: 3452 923e f16a 52bf d6fc 2bbf a2ab e0bd
00000030: bb14 adbd 5ef0 5abf 4d95 b23e 63b1 f83e
00000040: e72d 4ebf 09dc acbe eb65 353d da3e d43d
00000050: 50ea bc3c 6076 84bf 5dbe f5bb d468 1dbe
00000060: f323 1e3f 52f5 5cbf d613 763f e63e 27be
00000070: 5efa 6bbe be8e 683f 7cba c83e 4db7 ab3e
00000080: 5709 033f e2f6 13be 683a 03be e1ee 0e3f
00000090: 353a db3e 1959 60bf 8976 a33e fbb0 573e
000000a0: 8144 49bf ae30 26be 50a4 0ebf fbe9 0fbf
000000b0: 3378 be3e 6227 243f 4c42 4cbf 3d5b 173e
000000c0: c602 423e 08c1 dabd 5b53 a0bd da7f 8b3e
000000d0: b725 5dbf 6406 38be f334 173d bd16 b33e
000000e0: b497 1a3d 598e 74be 5bcb 81be 485b 9a3e
000000f0: fe2d 36bf 0f29 81be 8ad8 e53e 8dc8 993f
0.5538999 -0.42682952 0.120726496 0.3580318 0.07288805 0.048574597 -0.62306386 0.29788035
0.2857834 -0.8219443 -0.6718267 -0.10970236 -0.0845122 -0.8552302 0.34879532 0.48572835
-0.8053879 -0.33761624 0.04428665 0.103635505 0.023060948 -1.0348625 -0.0074994997 -0.1537202
0.61773604 -0.8631183 0.9612402 -0.16332588 -0.23044726 0.9084281 0.39204776 0.33538285
0.51186126 -0.14449647 -0.12815249 0.5583325 0.42817846 -0.8763595 0.31926373 0.21063606
-0.78620154 -0.16229507 -0.5571947 -0.562164 0.3720108 0.64122593 -0.7978866 0.14780898
0.1894637 -0.10681349 -0.07828399 0.2724598 -0.86385673 -0.17971188 0.03691573 0.34978285
0.03774233 -0.23882426 -0.2535046 0.30147767 -0.7116393 -0.25226638 0.4489177 1.2014328

fc3.weight f4 [4, 64]
00000000: 328f 883f d272 15bf 43aa 573e d298 b2be
00000010: e475 28bf 862f cb3d 04ca 0840 c3d5 1abf
00000020: f86a 9d3e 7cc3 b5bf 30c2 0ac0 5f9e c03d
00000030: 5e26 fb3f 1ed1 e8bf 585e af3e 0c8e dd3e
00000040: b232 b2bf fcc5 8fbf 94bd 33bf 7744 1040
00000050: d2fb 3f3d c61d b8bf 58f9 35bd 6530 9bbf
00000060: 0749 39bf f5c3 e9bf 4007 2140 d024 3b40
00000070: c230 c4be 4825 de3f b488 873f 50f4 fabd
00000080: 43c7 e23e 4ce2 173d c830 68bd 0c77 17bf
00000090: f7f2 0440 1b01 d1bf 3869 b3bf 049f 1040
000000a0: 70f5 883d 6f75 1c3d e43d b43e 77ca 56bf
000000b0: a5a9 5f3f 9ab6 2440 2ca7 f6bf 9d53 babf
000000c0: d3d8 0b40 d625 5c3d 127b 2fbf 43a7 2d40
000000d0: ae12 02c0 496e adbf 4d82 8dbf 445e bdbf
000000e0: bc13 02bf 4045 edbe e556 b9bf 5178 713f
000000f0: 8160 a1bf 7caf 62bf 68d1 403f 0c9b 4bbf
00000100: 5746 173f ef5d 86bf cd8e b83d 1c55 6abf
00000110: 225d 4bbf c5ca 26bb 7d90 0240 1db4 9fbf
00000120: b46e 243f 1271 d9bf fe82 20c0 c6dd 763d
00000130: e29f b63f 0b19 e2bf 9d1e 523c 74ba a73f
00000140: 039d c1bf 6e98 8dbf 704a 4abf 8640 1940
00000150: abc4 a3bd a553 22bf af3b bc3d 2d4c debf
00000160: a764 1ebf 566a 0bc0 4381 2240 4741 3c40
00000170: a6a9 64bf 9800 ba3f 8ada 933f 4c63 0d3f
00000180: 04ed d23c d75a 833d 59a3 103c cce9 2fbf
00000190: 60cb dd3f ba89 fcbf 2103 aabf 184d 2a40
000001a0: dd6d 1540 0efd fb3c 2a4c 743f 1f5b eabe
000001b0: 0589 663f 7686 1440 1ee8 4abf 0426 c1bf
000001c0: ca16 1440 51dd d53d 47b3 93bf 1423 2040
000001d0: c248 eabf 33b8 9dbf b491 3cbf 94fd 093e
000001e0: d385 15bf 07b5 8ebf 012d 90bf a6f9 b33f
000001f0: b243 9bbf 8906 4abf f8de fe3e 9f2b 0abf
00000200: 8588 423e 2bac 64bf 859e d0be b569 1bbf
00000210: 8cdc 15bf 9c0a 253d 7400 1f40 8baa 463c
00000220: eac9 783f 00aa 5cbf 9a61 34c0 d390 8fbd
00000230: 70de 0640 5769 1bc0 fe16 abbe 93bf 833f
00000240: ace6 9ebf c077 22bf dc5d fbbe 765a 1840
00000250: 927d 78bd 289f f4bf 5cca bf3d 20d2 fdbf
00000260: 0fa1 a4bf 6751 2ebf 8699 f13f 63f9 2b40
00000270: 0c5a 00bf 1c22 de3f d2a9 bf3f 590f bdbf
00000280: 768a 6a3f f349 f23c 40a9 98bc 4eb3 23bf
00000290: 1697 bb3f 82d2 21c0 6fa9 babf 6f5a 0540
000002a0: 267b 26c0 a459 bb3d e3d2 a63f 35d8 20c0
000002b0: 1967 d93f 71f1 fa3f 7e3c 03c0 e427 01bc
000002c0: 408a 1440 1d10 033e c5e1 d73e 709d 3540
000002d0: 11ed 01c0 99ad 80bf bc3f a5bf a0dd bdbe
000002e0: 5da8 13bf eb6a 9ebf 2019 9dbf 180c eb3f
000002f0: 92a1 0dbf b7ea 81bf 7785 7cbe 8a35 4dbf
00000300: 2631 6d3f e226 42bf f5d8 173e ab4d 16bf
00000310: e7bb b5be 30ed cb3d b07a e73f 971c 87bf
00000320: 2b76 42bd a7d8 e0bf 4769 0ec0 df5f 613d
00000330: 7f1c 0d40 febb ccbf 4af4 4e3f 2a8d 9d3e
00000340: 1e1b cdbf a316 49bf a395 e8be 220b 1f40
00000350: 262e 8cbd 5614 f3bf e870 f53d c6ce 54bf
00000360: 1cfa 07bf 6ac1 ccbf 2b0a 0f40 27d0 db3f
00000370: 1863 2e3d 4852 9d3f bb80 7d3f bb8b 02bf
00000380: 9679 963e 9577 d1bd 505d 5b3d c38f a2bf
00000390: 993d 0640 3769 e2bf 9a15 7bbf 6e0c f63f
000003a0: 44a8 793f c473 7d3d b0eb 773e 08be 9bbf
000003b0: 03f6 833f 1dae 3140 4138 b1bf cb71 abbf
000003c0: 9e40 0940 30b4 89bd 6446 19bf 36a1 0f40
000003d0: 4c9d d6bf 6f7f a5bf 2167 24bf 0564 c63e
000003e0: fbc1 a8be 701b 61bf 98e9 b9bf 56d4 ea3f
000003f0: a894 f3bf a3bd 1cbf 1d30 173f 37f3 85bf
1.06687 -0.58378327 0.21061043 -0.34882218 -0.65804887 0.09921174 2.13733 -0.60482424
0.30745673 -1.4200282 -2.1681023 0.09405207 1.9621084 -1.8188818 0.34251666 0.43272436
-1.3921721 -1.1232295 -0.7021115 2.2541788 0.046871014 -1.4384086 -0.044427246 -1.2124144
-0.72377056 -1.8262926 2.5160675 2.9241219 -0.3831845 1.7355127 1.0588593 -0.1225363
0.4429265 0.037081048 -0.056687146 -0.59166026 2.0773294 -1.6328462 -1.4016485 2.2597055
0.066874385 0.03819793 0.3520347 -0.83902687 0.8736823 2.573645 -1.9269767 -1.4556767
2.185109 0.05374702 -0.68547165 2.7133338 -2.03239 -1.3549281 -1.105539 -1.4794393
-0.5081136 -0.46341896 -1.4479643 0.94324213 -1.2607576 -0.8854902 0.7531953 -0.7953346
0.59091705 -1.0497416 0.09011612 -0.91536117 -0.79438984 -0.002545045 2.0400689 -1.2476841
0.6423142 -1.6987631 -2.5079951 0.060270093 1.4267542 -1.7663893 0.012824682 1.3103776
-1.5126041 -1.1062143 -0.7901983 2.3945632 -0.07996496 -0.6340888 0.09191071 -1.7366997
-0.61872333 -2.1783652 2.5391395 2.9414842 -0.8932136 1.4531431 1.1551068 0.5522964
0.025747783 0.06413811 0.008828008 -0.6871612 1.732769 -1.9729531 -1.3282205 2.6609554
2.3348305 0.030760314 0.9542872 -0.45772645 0.90052825 2.3207068 -0.7926043 -1.5089726
2.313891 0.104426034 -1.1539086 2.502141 -1.8303454 -1.2321838 -0.73659825 0.13475639
-0.58407325 -1.1148995 -1.1263734 1.4060562 -1.2130034 -0.7891622 0.49779487 -0.5397281
0.1899739 -0.8932521 -0.4074594 -0.6070817 -0.5853965 0.04029332 2.4844027 0.012125622
0.97183096 -0.861969 -2.8184571 -0.07010045 2.1073265 -2.4283044 -0.3341598 1.0292839
-1.2414145 -0.63463974 -0.49095047 2.3805213 -0.06066663 -1.9111071 0.09364769 -1.982975
-1.2861651 -0.6809296 1.8874977 2.6870964 -0.501374 1.7354159 1.49737 -1.4770309
0.91617525 0.029576277 -0.018635392 -0.6394547 1.4655483 -2.5284734 -1.4582957 2.0836446
-2.6012664 0.09147957 1.3033108 -2.5131962 1.6984588 1.9604932 -2.0505672 -0.007883046
2.320938 0.12799115 0.42164436 2.8377342 -2.0300944 -1.0052978 -1.2910075 -0.3708315
-0.57678777 -1.2376379 -1.2273293 1.8363066 -0.5532466 -1.0149754 -0.24660288 -0.8015982
0.9265312 -0.7584058 0.14828856 -0.5871226 -0.3549492 0.09957349 1.8084316 -1.05556
-0.047475975 -1.7566117 -2.2251756 0.05502307 2.2048643 -1.5994871 0.80841506 0.30771762
-1.60239 -0.78550166 -0.45426664 2.4850545 -0.068447396 -1.8990581 0.11984426 -0.8312801
-0.5311601 -1.5996525 2.2349956 1.7172898 0.042574972 1.2290735 0.9902455 -0.5099446
0.29389638 -0.102278866 0.053555787 -1.2700123 2.0975096 -1.7688359 -0.98079836 1.9222543
0.9752238 0.06187798 0.24211001 -1.2167368 1.0309452 2.776252 -1.3845292 -1.3394102
2.144569 -0.06723821 -0.5987303 2.2442145 -1.6766753 -1.2929515 -0.6421986 0.38748184
-0.32960495 -0.8793249 -1.4524412 1.834605 -1.9029741 -0.6122686 0.5905779 -1.0464848

fc3.bias f4 [4]
00000000: 8935 063f 0caa 803e 7390 4c3d b87b 09bc
0.5242544 0.25129735 0.049942445 -0.008391313
