NeurPiRL_SA/LunarLander/DQN/checkpoints/2000_220.pth (torch, 22315 bytes, 6 tensors)

fc1.weight f4 [64, 8]
-0.286371 0.2944229 0.42898318 -1.8597213 0.4424678 0.31520474 -1.4034896 -1.2649392
-0.9715354 0.5226858 0.57551175 -0.10549156 -0.710984 0.765014 -0.23011518 -0.18589333
-0.24746914 -2.4680965 -0.711006 0.936147 1.7615908 0.9300119 0.9488008 0.5878964
0.14819174 -0.49623063 0.06492194 -0.91436833 -1.1833342 0.0010464048 0.92161405 0.54616696
1.710473 -0.0622976 -0.86432207 -1.3133361 -0.29667416 -0.29194844 1.0123025 -2.6610756
0.034619786 0.84732366 1.7237571 -0.768661 0.38195884 0.23448697 0.17653205 0.57961863
0.45175806 -0.15808722 0.72436583 0.57211435 -1.9440963 -1.1550014 1.157146 0.4960253
2.1500533 0.045457628 1.6192055 -0.040144242 -0.6301197 1.132668 -0.45579004 0.43650737
-1.3378979 0.0238964 0.5302702 -0.4916635 -0.21314652 0.4134073 0.18329675 -0.33509684
-0.8604844 0.020551043 -0.70471734 -1.361349 0.103735216 0.12028085 0.94713026 -0.42677414
0.5109667 0.0015682601 -0.1516145 -1.3750993 -1.1695619 0.43463582 -0.13666178 0.30144158
-0.9690803 0.3340061 1.0726486 0.0493371 -0.44170842 0.7188164 -0.020488596 -1.2796232
1.2992556 -0.5460803 0.5961413 0.6122594 -1.9027252 -1.3820319 -0.033768587 -0.07852945
-0.856867 0.67971927 0.37776592 -1.2295717 0.4126535 -1.4572991 -0.28216335 -0.040989697
1.6016731 1.5444294 -0.113123916 0.2675854 -0.82577527 0.9100646 -0.3085084 0.51474375
0.6723545 -0.1741797 0.26792455 -0.1124746 2.990746 0.037131112 0.6053344 0.23586914
1.224356 0.09165511 -1.4618595 0.11927006 1.0025852 -1.6008236 0.03932194 -0.11850972
0.5537074 -0.14947197 -0.5946541 -0.11724551 0.23508753 -1.3277894 0.6681845 0.42634335
-1.0249327 0.7805497 0.08229234 0.4799363 1.7657831 0.51798725 0.43471465 -0.6597306
-0.8179947 -0.4946418 -1.8080072 0.61634934 -0.083908044 -0.8712718 0.6261154 0.39077413
-3.400993 0.23339112 -0.6457109 -0.34136453 0.9336226 -0.013943435 0.049647186 -0.05597227
0.8153023 -0.1928867 -1.2906827 -1.8704207 -0.27156088 0.5196433 -0.1743491 0.1649207
0.08888288 0.23674028 -0.115938865 -0.09563187 0.49014565 -2.2828777 -1.037993 1.0819225
0.8812686 -0.49415088 -8.1498365e-05 0.06830411 -0.39042273 -0.702115 -0.5915033 0.5635074
-1.9939401 -0.8337482 -0.5335933 -1.9081444 1.6751229 -0.020344099 -0.013803215 -0.03923972
-0.7385655 1.5305891 -1.038787 2.1006024 1.9603398 0.96416944 -1.8648102 0.1352972
-0.48794308 0.07785065 0.2249406 0.009593106 0.76306045 0.7899323 0.6681621 -0.23109648
-0.49089864 0.2723515 0.31172904 -0.069810346 2.5986855 -0.1741545 1.0475272 0.053207733
1.5303732 -0.008152548 0.4318725 -1.473812 -1.4189165 0.41337126 0.10487387 0.33254814
0.8971163 0.18362765 0.012021579 2.3607838 0.40802553 0.40667388 -0.889776 -0.28176343
-0.23616716 -0.7876117 0.774263 -0.6970718 0.6161473 -1.0479519 0.8131472 -0.20680305
-1.7637943 0.079451896 0.6620661 -0.81685865 0.84839934 0.9495777 0.43942475 -0.23256055
00000000: 389f 92be 99be 963e afa3 db3e 590b eebf
00000010: 248b e23e 8462 a13e 8ca5 b3bf 87e9 a1bf
00000020: 8bb6 78bf bdce 053f bd54 133f f60b d8bd
00000030: 0c03 36bf f5d7 433f 50a3 6bbe d25a 3ebe
00000040: 8d68 7dbe 4bf5 1dc0 7d04 36bf 54a7 6f3f
00000050: cf7b e13f 4315 6e3f 9ce4 723f 6180 163f
00000060: 93bf 173e f111 febe cbf5 843d 0b14 6abf
00000070: 7f77 97bf 8527 893a e6ee 6b3f 99d1 0b3f
00000080: c7f0 da3f c52b 7fbd 3644 5dbf 661b a8bf
00000090: ade5 97be 447a 95be 2193 813f 104f 2ac0
000000a0: 7acd 0d3d 34ea 583f 13a4 dc3f f8c6 44bf
000000b0: 1c90 c33e 5a1d 703e d1c4 343e e361 143f
000000c0: d54c e73e 9ee1 21be 0a70 393f 1676 123f
000000d0: 26d8 f8bf 16d7 93bf 5c1d 943f 07f7 fd3e
000000e0: 799a 0940 c731 3a3d 2042 cf3f 4a6e 24bd
000000f0: 864f 21bf 44fb 903f 505d e9be e57d df3e
00000100: 3d40 abbf 62c2 c33c cabf 073f 51bb fbbe
00000110: 1543 5abe 1faa d33e 25b2 3b3e d091 abbe
00000120: b548 5cbf a95a a83c 5b68 34bf af40 aebf
00000130: 2173 d43d ce55 f63d 2177 723f 2482 dabe
00000140: b7ce 023f 148e cd3a d540 1bbe 4103 b0bf
00000150: 34b4 95bf 9688 de3e 11f1 0bbe 8d56 9a3e
00000160: a615 78bf d902 ab3e 8d4c 893f b315 4a3d
00000170: 9b27 e2be 5a04 383f b3d7 a7bc b1ca a3bf
00000180: 024e a63f ebcb 0bbf b79c 183f 08bd 1c3f
00000190: 808c f3bf 6ce6 b0bf ee50 0abd 0cd4 a0bd
000001a0: a35b 5bbf 1502 2e3f 896a c13e 9b62 9dbf
000001b0: 5247 d33e c788 babf b777 90be d0e4 27bd
000001c0: a003 cd3f ddaf c53f 83ad e7bd f400 893e
000001d0: 0266 53bf fef9 683f d0f4 9dbe 3fc6 033f
000001e0: 6d1f 2c3f 2a5c 32be 682d 893e 1559 e6bd
000001f0: 6268 3f40 cb16 183d 32f7 1a3f ae87 713e
00000200: b3b7 9c3f adb5 bb3d 361e bbbf dc43 f43d
00000210: b654 803f cae7 ccbf 0b10 213d 39b5 f2bd
00000220: c5bf 0d3f 2e0f 19be 403b 18bf 6a1e f0bd
00000230: c9ba 703e 01f5 a9bf 240e 2b3f ad49 da3e
00000240: ff30 83bf 1bd2 473f e388 a83d 36ba f53e
00000250: 2e05 e23f d09a 043f eb92 de3e 1be4 28bf
00000260: 1a68 51bf b141 fdbe c86c e7bf 12c9 1d3f
00000270: fbd7 abbd ab0b 5fbf 1949 203f 8c13 c83e
00000280: dfa9 59c0 15fe 6e3e 4f4d 25bf 55c7 aebe
00000290: e401 6f3f 0173 64bc d95a 4b3d 2e43 65bd
000002a0: a7b7 503f 1784 45be 1735 a5bf f269 efbf
000002b0: 070a 8bbe 5807 053f 9288 32be f9e0 283e
000002c0: 3a08 b63d 0b6c 723e 5b71 edbd a4da c3bd
000002d0: 5ff4 fa3e ab1a 12c0 f4dc 84bf 707c 8a3f
000002e0: d29a 613f 5801 fdbe 1aea aab8 06e3 8b3d
000002f0: 7de5 c7be cfbd 33bf c36c 17bf 0542 103f
00000300: 6e39 ffbf 8670 55bf 9299 08bf 133e f4bf
00000310: 6d6a d63f aba8 a6bc e126 62bc d4b9 20bd
00000320: a112 3dbf 58ea c33f f9f6 84bf 4570 0640
00000330: 6aec fa3f cfd3 763f 1ab2 eebf 598b 0a3e
00000340: add3 f9be 2970 9f3d d456 663e 672c 1d3c
00000350: ee57 433f 0139 4a3f ac0c 2b3f 8ea4 6cbe
00000360: 1157 fbbe a871 8b3e f39a 9f3e baf8 8ebd
00000370: dd50 2640 8f55 32be 5f15 863f 5af0 593d
00000380: 45e3 c33f 4492 05bc 641e dd3e dfa5 bcbf
00000390: 0e9f b5bf 66a5 d33e 1dc8 d63d c043 aa3e
000003a0: 6aa9 653f e308 3c3e 28f6 443c 1517 1740
000003b0: b9e8 d03e 8f37 d03e 5cc8 63bf 4c43 90be
000003c0: ced5 71be eca0 49bf 1a36 463f 4c73 32bf
000003d0: d4bb 1d3f 4a23 86bf 6a2a 503f 2ec4 53be
000003e0: 03c4 e1bf adb7 a23d 2a7d 293f a61d 51bf
000003f0: b330 593f 8617 733f 48fc e03e 5a24 6ebe

fc1.bias f4 [64]
-0.52957475 0.26396263 0.6134742 0.913997 -0.11115202 -0.65273505 -0.5399133 0.29295102
0.61925566 0.05499307 0.29730368 0.05823685 -1.1151769 0.20298809 1.1537967 0.34742093
-0.09823489 -0.03438003 0.6195515 0.059927765 -0.08401204 0.12423196 -0.15823841 0.67429906
-0.24824648 0.12994654 0.8734221 -0.8331404 0.098332234 -0.2953974 1.1051805 -1.0495715
-0.15656005 0.66197336 0.18663354 -0.9605125 1.4465828 -0.6197153 0.28006822 0.3615033
0.47120434 0.043744385 0.4793782 -0.5427554 1.6397998 0.5519211 0.058157776 0.7069607
-0.34575406 0.73412716 0.5297449 -0.2583331 0.052610394 -0.88067913 -0.3086707 -0.12428652
-0.1659038 1.2217046 0.42304423 0.09350772 -0.2584193 1.0239664 -0.27884758 0.79398775
00000000: 3692 07bf 1c26 873e a50c 1d3f b5fb 693f
00000010: aca3 e3bd a519 27bf c237 0abf adfd 953e
00000020: 8a87 1e3f 6a40 613d 3038 983e c389 6e3d
00000030: 1ebe 8ebf 1cdc 4f3e 9caf 933f 28e1 b13e
00000040: 602f c9bd 13d2 0cbd ed9a 1e3f d176 753d
00000050: 810e acbd 536d fe3d 4009 22be dd9e 2c3f
00000060: 5334 7ebe b510 053e 9798 5f3f b048 55bf
00000070: 6962 c93d 543e 97be 8e76 8d3f 5c58 86bf
00000080: 4751 20be 1677 293f dd1c 3f3e 26e4 75bf
00000090: a029 b93f a9a5 1ebf 1a65 8f3e f616 b93e
000000a0: b241 f13e 502d 333d 0f71 f53e 05f2 0abf
000000b0: f6e4 d13f b44a 0d3f d936 6e3d 60fb 343f
000000c0: ad06 b1be c2ef 3b3f 5d9d 073f 3c44 84be
000000d0: ff7d 573d 3074 61bf 160a 9ebe ee89 febd
000000e0: b0e2 29be d160 9c3f 4199 d83e fa80 bf3d
000000f0: 894f 84be 5511 833f 1cc5 8ebe c842 4b3f

fc2.weight f4 [64, 64]
0.8559599 0.4882005 0.70268196 0.14224766 0.85621953 0.048550427 0.1550669 0.29101393
0.044927735 -0.014944634 0.36800224 1.1456918 -0.7739904 0.48699665 0.3444921 -0.12880442
0.11114894 0.185547 0.69876707 -0.17657559 -0.8862568 0.9804564 0.06606977 0.1720749
-1.9396632 -0.04593949 0.3606188 1.0171374 0.40453035 -0.2863669 0.75564176 -1.5796125
0.2824765 0.7395061 0.07251409 -0.075093165 0.23670994 -0.30172673 0.15440737 1.5912408
0.48402348 0.64833957 0.5641524 -0.18165931 0.8072138 0.18773168 0.7436675 0.044323426
1.9245182 0.2880646 -0.07185853 0.68950313 0.7162179 -1.9889715 -0.24859108 1.2061794
-0.4088545 1.0618252 0.06881445 -1.2889688 1.4643172 0.6935551 0.45175773 0.86306345
1.213407 0.18543474 -0.16640954 0.94883543 1.933704 0.3899221 -2.619275 -0.32030812
0.44353166 0.88921815 -0.32977024 -0.970577 -3.315621 -0.2144023 -0.97672355 0.26480645
-0.090122536 0.26824576 -0.4051498 0.0928739 2.2475474 -0.034521125 -0.10418309 0.9518151
3.4677432 -0.46359435 -0.17891917 0.83379716 -0.13018073 -1.1679037 -1.7286235 1.5693444
-3.3653204 -0.024611417 0.40141 1.9193197 0.7852809 -0.2774283 0.1498973 -0.69360346
0.015717443 -0.49892512 -0.11348073 1.0181403 -0.9384196 0.8381676 -0.43060353 1.0202283
1.105165 -1.0462141 -0.39480245 -0.084287755 -0.13605246 2.7494082 0.91785437 -0.778243
0.24705891 -1.2601014 0.5509809 0.79433906 -2.2154713 -0.7973186 0.48768592 0.48882532
0.5199745 0.1730807 -0.16509148 0.119870104 0.16913344 -0.050759375 0.19281976 0.78641206
-0.3034459 -0.6579544 -0.025650721 0.27808002 0.4049249 0.253436 0.41450807 -0.86528957
0.14115947 -0.3821743 0.54404163 -0.12453042 -0.92186034 0.71708745 -1.0587553 -0.5450591
-1.0605099 0.13015446 -0.06658464 0.059837375 0.14942627 0.55324185 0.32948983 -2.901974
-0.36862838 0.15841901 0.05339854 -0.3209761 -0.03250193 0.7066598 0.05635743 1.1751103
0.9767692 0.43483788 0.040955603 -0.082519 0.31045467 -0.06508732 0.124432765 -1.1865388
0.68875366 -0.09317923 -0.036685213 -0.79191256 0.7999681 -3.5831807 -0.020807268 0.913278
-0.41690528 0.09954039 0.23693089 0.7163458 0.87370884 0.19673981 0.081597336 0.5777399
0.033729196 0.011105133 -0.7151992 0.6119601 1.0265143 0.14423138 -1.6320779 0.40511417
0.03454409 -0.17287399 0.4627696 -1.3969404 -0.50141156 -0.0620793 0.54106987 0.66471595
1.6643993 0.4356107 0.18335572 0.71234363 1.1681587 -0.07317105 0.73010075 1.2335944
2.0902603 0.40252355 0.1607332 0.09403995 0.38531685 -0.39028835 -0.77157366 0.7623966
-1.3300874 0.20062663 0.32273042 0.3527003 0.5984662 0.05059059 -0.03626686 -0.8388068
0.043935873 0.34543934 0.37506148 0.31753215 0.17293061 0.34187427 0.38015553 0.44568282
-1.0187593 -0.6686849 -0.025495114 -1.463696 -0.5244321 1.766358 1.1162348 -0.28539634
0.64576614 -0.11929172 0.5310675 1.9082348 -0.51932484 -1.2120435 -0.6473377 -1.165404
00000000: 3020 5b3f 6af5 f93e f7e2 333f 5fa9 113e
00000010: 3431 5b3f d0dc 463d dcc9 1e3e c7ff 943e
00000020: 2506 383d 57da 74bc ca6a bc3e 07a6 923f
00000030: 3c24 46bf a057 f93e 4561 b03e 4ee5 03be
00000040: 0ea2 e33d 0800 3e3e 66e2 323f 3bd0 34be
00000050: bae1 62bf 31ff 7a3f 964f 873d 6734 303e
00000060: e246 f8bf 0c2b 3cbd 07a3 b83e 8f31 823f
00000070: 9a1e cf3e af9e 92be bd71 413f be30 cabf
00000080: c3a0 903e 4650 3d3f 4482 943d 72ca 99bd
00000090: 1764 723e ed7b 9abe f71c 1e3e c7ad cb3f
000000a0: edd1 f73e 95f9 253f 4b6c 103f e604 3abe
000000b0: 90a5 4e3f bc3c 403e fe60 3e3f 7b8c 353d
000000c0: 9d56 f63f 347d 933e 912a 93bd 4783 303f
000000d0: 0e5a 373f 9e96 febf a98e 7ebe 1664 9a3f
000000e0: 6155 d1be e3e9 873f 97ee 8c3d eefc a4bf
000000f0: bf6e bb3f d48c 313f ca4c e73e baf1 5c3f
00000100: ec50 9b3f 9be2 3d3e 4367 2abe e1e6 723f
00000110: 9d83 f73f dfa3 c73e 34a2 27c0 6dff a3be
00000120: 9516 e33e cda3 633f a5d7 a8be bc77 78bf
00000130: 2233 54c0 478c 5bbe 8e0a 7abf b694 873e
00000140: 2a92 b8bd 8257 893e cb6f cfbe ac34 be3d
00000150: d1d7 0f40 0666 0dbd f25d d5bd 28aa 733f
00000160: 81ef 5d40 3d5c edbe 9636 37be bb73 553f
00000170: 194e 05be de7d 95bf 8943 ddbf 47e0 c83f
00000180: 6961 57c0 e29d c9bc 9d85 cd3e 45ac f53f
00000190: 2b08 493f 150b 8ebe ae7e 193e ff8f 31bf
000001a0: dec1 803c 1d73 ffbe 9668 e8bd 6c52 823f
000001b0: 443c 70bf 2792 563f 1178 dcbe d796 823f
000001c0: 0c76 8d3f 58ea 85bf 8c23 cabe 0f9f acbd
000001d0: 5651 0bbe 4ef6 2f40 81f8 6a3f ef3a 47bf
000001e0: 03fd 7c3e 014b a1bf 160d 0d3f ce59 4b3f
000001f0: 48ca 0dc0 121d 4cbf f8b1 f93e 5047 fa3e
00000200: 0d1d 053f 113c 313e be0d 29be 757e f53d
00000210: 5131 2d3e 10e9 4fbd 8b72 453e 4d52 493f
00000220: 435d 9bbe b36f 28bf 7621 d2bc 8160 8e3e
00000230: 5152 cf3e 5dc2 813e 673a d43e 9e83 5dbf
00000240: 1c8c 103e 5aac c3be 5046 0b3f ce09 ffbd
00000250: 0aff 6bbf 0b93 373f 4b85 87bf fe88 0bbf
00000260: cabe 87bf 3647 053e 875d 88bd 0918 753d
00000270: 3303 193e 42a1 0d3f e4b2 a83e f1b9 39c0
00000280: dcbc bcbe 9838 223e 6db8 5a3d fb56 a4be
00000290: be20 05bd a8e7 343f 0cd7 663d 046a 963f
000002a0: 8c0d 7a3f 12a3 de3e 10c1 273d b9ff a8bd
000002b0: eaf3 9e3e 804c 85bd 9bd6 fe3d 81e0 97bf
000002c0: 2952 303f c1d4 bebd 3c43 16bd c8ba 4abf
000002d0: b6ca 4c3f d552 65c0 0174 aabc 96cc 693f
000002e0: 9c74 d5be d5db cb3d 039e 723e 7062 373f
000002f0: 62ab 5f3f 2976 493e 811c a73d c3e6 133f
00000300: a027 0a3d 4ef2 353c 4b17 37bf 6ba9 1c3f
00000310: d264 833f 64b1 133e eee7 d0bf 206b cf3e
00000320: 1b7e 0d3d e105 31be 23f0 ec3e f1ce b2bf
00000330: 825c 00bf dd46 7ebd 8e83 0a3f d32a 2a3f
00000340: 090b d53f 5e08 df3e 9ac1 3b3e 275c 363f
00000350: 3986 953f b4da 95bd e2e7 3a3f 6ce6 9d3f
00000360: d3c6 0540 9117 ce3e 3e97 243e 0498 c03d
00000370: 4048 c53e e0d3 c7be da85 45bf 6c2c 433f
00000380: 4e40 aabf 1171 4d3e ec3c a53e 2295 b43e
00000390: 1535 193f 1438 4f3d 8f8c 14bd 0bbc 56bf
000003a0: 1af6 333d 6ddd b03e 0f08 c03e 9393 a23e
000003b0: b914 313e 250a af3e bfa3 c23e 8a30 e43e
000003c0: b466 82bf ef2e 2bbf 21db d0bc 645a bbbf
000003d0: 2f41 06bf 0518 e23f c8e0 8e3f 781f 92be
000003e0: ee50 253f 384f f4bd 0af4 073f 0a41 f43f
000003f0: 79f2 04bf 3e24 9bbf ecb7 25bf f52b 95bf

fc2.bias f4 [64]
0.663541 -0.5352331 0.16617762 0.32923967 0.029445218 0.048574597 -0.69332916 0.35594428
0.4748977 -0.91246206 -0.77028704 -0.10970236 -0.014987523 -0.930134 0.5637005 0.58091307
-0.6344717 -0.18452795 0.06726591 0.1590593 0.023060948 -0.8893811 -0.0074994997 0.09348745
0.6056574 -0.8152455 0.90972996 -0.03640409 -0.2819234 1.045736 0.5275336 0.2865174
0.70944214 -0.14449647 -0.12815249 0.4715427 0.42621082 -0.97878116 0.26086435 -0.1422672
-0.8874149 -0.17879327 -0.44730115 -0.5990367 0.550125 0.75539666 -0.6810832 0.11629061
0.2891732 -0.10681349 0.06515151 0.19984302 -0.7700013 -0.45087752 0.085711196 0.1826082
0.08136049 -0.45786905 -0.19603011 0.3105389 -0.5050086 -0.5665458 0.43242162 1.5882583
00000000: d3dd 293f 0905 09bf 772a 2a3e 1a92 a83e
00000010: 1937 f13c 28f6 463d 057e 31bf 543e b63e
00000020: cb25 f33e 1d97 69bf 8831 45bf a2ab e0bd
00000030: 3a8e 75bc 431d 6ebf ad4e 103f b8b6 143f
00000040: bd6c 22bf e5f4 3cbe b6c2 893d 71e0 223e
00000050: 50ea bc3c 7bae 63bf 5dbe f5bb 5976 bf3d
00000060: 5d0c 1b3f eeb3 50bf 10e4 683f 741c 15bd
00000070: 4458 90be adda 853f 710c 073f 69b2 923e
00000080: 009e 353f e2f6 13be 683a 03be 0b6e f13e
00000090: 4e38 da3e 6791 7abf 0390 853e 7eae 11be
000000a0: 9f2d 63bf 9515 37be a804 e5be 785a 19bf
000000b0: fed4 0c3f ad61 413f 785b 2ebf c529 ee3d
000000c0: 820e 943e 08c1 dabd 286e 853d a6a3 4c3e
000000d0: ce1e 45bf 6bd9 e6be 5a89 af3d a5fd 3a3e
000000e0: 54a0 a63d d06d eabe 1ebc 48be f4fe 9e3e
000000f0: 3e48 01bf 2509 11bf 5e66 dd3e 0c4c cb3f

fc3.weight f4 [4, 64]
1.1096449 -1.2233242 0.22478871 -0.24332672 -1.8895863 0.09921174 2.2460275 -1.1779408
0.37818763 -2.1447234 -3.142734 0.09405207 1.6703395 -2.2796683 0.4570027 0.5240737
-1.5824898 -1.4086449 -1.3272567 2.881211 0.046871014 -2.03669 -0.044427246 -2.4201665
-0.6161273 -2.3008935 2.776681 2.3343503 -0.07450918 1.7523875 1.0934095 -0.2905625
0.5737996 0.037081048 -0.056687146 -0.9721052 1.9847952 -1.6499859 -1.4926231 3.1251383
0.43526217 3.8119924e-05 1.6315484 -0.7448696 0.94291294 2.6834161 -2.7341065 -1.0225452
2.0876505 0.05374702 -0.5810316 2.3933027 -2.368068 -1.4955524 -1.445222 -1.3750846
-1.7369745 -0.5621108 -2.545077 1.0215188 -1.2122223 -1.1012602 0.71281683 -1.1315897
0.46053126 -1.1933596 1.3211006 -0.85421556 -1.2929522 -0.002545045 2.2932727 -1.2591063
0.6745257 -2.0156734 -4.244793 0.060270093 2.0579255 -2.4879837 0.2793437 1.227239
-1.9520676 -1.168628 -1.0516165 3.056426 -0.07996496 -1.5444353 0.09191071 -1.7811799
-0.6840988 -2.855617 2.6798046 2.3683488 -1.0790963 1.4954784 1.4087902 0.6146533
-0.014409679 0.06413811 0.008828008 -1.0584403 1.7990484 -2.9609482 -1.5616417 3.0225267
2.0699952 0.015832603 1.6968362 -1.259759 0.71804047 2.4379604 -0.50154537 -1.5812259
2.3163264 0.104426034 -1.1353512 2.6040826 -2.7827647 -1.2362947 -0.9850917 0.0977256
-1.4287835 -1.4611796 -1.8667213 1.4523375 -1.5910245 -1.0247115 0.7641384 -0.948102
0.26087427 -1.4813337 -0.5556201 -0.5071763 -1.0992342 0.04029332 2.368085 -0.77494824
1.1222636 -1.4257289 -3.1203253 -0.07010045 2.2035627 -2.2763572 -0.5032231 1.0951176
-1.0668858 -0.18153308 -0.96295136 2.7268043 -0.06066663 -1.8938452 0.09364769 -2.9180305
-1.429091 -1.7586304 2.3049688 2.6064093 0.3797423 1.7383865 1.3425106 -1.6580755
0.90359616 0.029576277 -0.018635392 -0.8039513 1.4797732 -2.7817519 -1.9011462 3.1149282
-2.7258618 0.07457413 1.6673222 -2.5970702 1.7097386 2.0172465 -3.0210695 -0.19220854
2.2952847 0.12799115 1.035863 2.6888795 -1.6698055 -2.0637786 -1.5922663 -0.43269026
-2.0982087 -1.5362839 -2.7958148 1.7268271 -1.2608826 -2.6795688 -0.074379794 -1.0373535
1.0606318 -1.1397514 0.574029 -0.77486306 -1.241232 0.09957349 2.3398066 -1.6455297
0.4540075 -2.076362 -3.7387877 0.05502307 1.6519326 -1.6426755 0.94788706 0.47131592
-1.9113445 -1.6719574 -0.8727182 2.7900097 -0.068447396 -1.7139024 0.11984426 -1.547578
-0.5743205 -2.1065843 2.390587 2.1395578 -0.39013425 1.3595421 0.7352822 -0.5441435
0.4062438 -0.102278866 0.053555787 -1.5382371 2.0064542 -2.5613356 -1.1988437 3.2574022
0.9972711 0.05379619 1.602599 -1.0765066 1.1891056 2.6087031 -2.1738272 -0.7035977
2.0110197 -0.06723821 -0.8728542 2.259611 -2.8266633 -1.3716431 -0.8690761 0.5903481
-1.2781196 -1.0911903 -2.6638393 1.749269 -2.0516086 -1.3815315 0.73361546 -1.2089456
00000000: d808 8e3f e395 9cbf 032f 663e a42a 79be
00000010: f7dd f1bf 862f cb3d eabe 0f40 c4c6 96bf
00000020: cfa1 c13e 2643 09c0 8e22 49c0 5f9e c03d
00000030: afcd d53f 16e6 11c0 42fc e93e b229 063f
00000040: 078f cabf 7a4e b4bf 8ce3 a9bf c365 3840
00000050: d2fb 3f3d 2159 02c0 58f9 35bd 02e4 1ac0
00000060: 85ba 1dbf d741 13c0 24b5 3140 ff65 1540
00000070: 4598 98bd 3c4e e03f d8f4 8b3f 9cc4 94be
00000080: 88e4 123f 4ce2 173d c830 68bd e3db 78bf
00000090: c50d fe3f bd32 d3bf 460e bfbf 4402 4840
000000a0: afda de3e f5e2 1f38 94d6 d03f c6af 3ebf
000000b0: be62 713f 17bd 2b40 9afb 2ec0 c3e2 82bf
000000c0: 119c 0540 d625 5c3d 7dbe 14bf df2b 1940
000000d0: 6d8e 17c0 436e bfbf 09fd b8bf c602 b0bf
000000e0: 2e55 debf 7ee6 0fbf 8be2 22c0 21c1 823f
000000f0: 1a2a 9bbf 18f6 8cbf 2a7b 363f eed7 90bf
00000100: c1ca eb3e 02c0 98bf d319 a93f dfad 5abf
00000110: 757f a5bf c5ca 26bb fbc4 1240 652a a1bf
00000120: b7ad 2c3f cb00 01c0 58d5 87c0 c6dd 763d
00000130: 0db5 0340 203b 1fc0 2306 8f3e 2b16 9d3f
00000140: 5add f9bf 9a95 95bf 5f9b 86bf 7c9c 4340
00000150: abc4 a3bd 0eb0 c5bf af3b bc3d b4fd e3bf
00000160: 1921 2fbf 6ec2 36c0 eb81 2b40 0793 1740
00000170: d41f 8abf d66b bf3f 3d53 b43f eb59 1d3f
00000180: 9316 6cbc d75a 833d 59a3 103c f97a 87bf
00000190: 3847 e63f 2d80 3dc0 e0e3 c7bf 1471 4140
000001a0: cd7a 0440 60b3 813c ee31 d93f c83f a1bf
000001b0: 80d1 373f 8b07 1c40 4765 00bf 9c65 cabf
000001c0: b13e 1440 51dd d53d 3053 91bf 4aa9 2640
000001d0: d118 32c0 e83e 9ebf f82e 7cbf 5c24 c83d
000001e0: 61e2 b6bf ef07 bbbf b9f0 eebf 32e6 b93f
000001f0: b1a6 cbbf bf29 83bf 939e 433f d0b6 72bf
00000200: 5091 853e 589c bdbf 1e3d 0ebf 4ed6 01bf
00000210: b5b3 8cbf 9c0a 253d b48e 1740 0263 46bf
00000220: 55a6 8f3f 497e b6bf 69b3 47c0 d390 8fbd
00000230: 2c07 0d40 d6af 11c0 3bd3 00bf d02c 8c3f
00000240: b78f 88bf cfe3 39be fb83 76bf f683 2e40
00000250: 927d 78bd 8569 f2bf 5cca bf3d 03c1 3ac0
00000260: 74ec b6bf cd1a e1bf 9c84 1340 69cf 2640
00000270: 956d c23e 7383 de3f 63d7 ab3f d13b d4bf
00000280: 1452 673f f349 f23c 40a9 98bc c1cf 4dbf
00000290: 3569 bd3f 3908 32c0 c258 f3bf fc5a 4740
000002a0: 8574 2ec0 52ba 983d d06a d53f 6636 26c0
000002b0: b7d8 da3f 911a 0140 3459 41c0 51d2 44be
000002c0: f2e5 1240 1d10 033e 2997 843f 9a16 2c40
000002d0: 30bc d5bf f314 04c0 62cf cbbf 9489 ddbe
000002e0: 0d49 06c0 f3a4 c4bf a1ee 32c0 ac08 dd3f
000002f0: 9a64 a1bf 0e7e 2bc0 6f54 98bd 00c8 84bf
00000300: c8c2 873f 60e3 91bf 91f3 123f 6d5d 46bf
00000310: b1e0 9ebf 30ed cb3d 64bf 1540 b8a0 d2bf
00000320: ac73 e83e 1de3 04c0 4c48 6fc0 df5f 613d
00000330: 8772 d33f 3143 d2bf baa8 723f 5250 f13e
00000340: f0a6 f4bf b302 d6bf 766a 5fbf 858f 3240
00000350: 262e 8cbd 2761 dbbf e870 f53d 0917 c6bf
00000360: ab06 13bf 47d2 06c0 61ff 1840 84ee 0840
00000370: adbf c7be 7a05 ae3f 743b 3c3f fd4c 0bbf
00000380: 30ff cf3e 9577 d1bd 505d 5b3d f4e4 c4bf
00000390: bf69 0040 ecec 23c0 b673 99bf 4779 5040
000003a0: 294d 7f3f 6559 5c3d f721 cd3f f8ca 89bf
000003b0: 9d34 983f fef4 2640 fc1f 0bc0 fb1e 34bf
000003c0: 8cb4 0040 30b4 89bd 5f73 5fbf 779d 1040
000003d0: 0de8 34c0 0092 afbf c57b 5ebf 0e21 173f
000003e0: 6c99 a3bf 20ac 8bbf 587c 2ac0 0ce8 df3f
000003f0: 8e4d 03c0 06d6 b0bf 39ce 3b3f bbbe 9abf

fc3.bias f4 [4]
0.753048 0.17515881 0.27166933 0.011052389
00000000: c1c7 403f d55c 333e 3e18 8b3e 1415 353c
