NeurPiRL_SA/LunarLander/DQN/checkpoints/600_220.pth (torch, 22315 bytes, 6 tensors)

fc1.weight f4 [64, 8]
-0.19723698 -0.19828682 0.53794426 -2.0687091 -0.14171353 -0.15266752 -0.44259718 -0.010072869
-0.3766177 0.2297472 0.83942574 0.009613853 0.101974964 0.98660815 0.20587194 -0.16508995
0.15499458 -1.9242156 -0.69945407 0.64636374 1.3724232 0.68845075 0.9403111 0.8276106
0.7468563 -0.8897484 0.7681283 -0.49910903 -1.6226647 -0.3328274 0.7108872 0.5944318
0.55874926 -0.3846096 0.1581321 -0.77885765 -0.050085902 -0.7615627 0.76500493 -1.8662918
0.5755512 0.43826562 1.280492 -0.50464356 0.6534405 -0.048394896 0.5695341 0.5488917
0.52437353 -0.07015107 0.7262119 1.0328318 -1.4719461 -0.7851319 1.1394008 0.16429414
1.8240409 0.19442265 1.6487702 0.006806042 0.37068093 0.67932916 -0.17477639 0.46100584
-0.89955324 -0.19235624 0.13560477 -0.27888417 0.40286455 0.79126525 0.4472104 0.38319162
-0.9586083 -1.357062 -0.42001915 -0.64748156 0.7919905 0.29707798 0.79957926 -0.14463377
-0.14363702 -0.73002124 -0.5176118 -0.9784636 0.014326914 1.1382674 -0.6854565 0.10313803
-0.29669678 -0.05366354 1.5221803 -0.6745236 0.41428792 0.41673982 -0.01905096 -1.6277388
0.5860355 -1.1493506 1.5523844 0.66391397 -2.2644415 -0.96355456 -0.11063852 -0.016355311
-0.37560394 0.6942473 -0.84614164 -0.935036 -0.18598072 -1.1919779 0.08684705 -0.24875546
1.1713579 1.6169342 -0.048065983 -0.24493785 -0.6421216 1.0283933 -0.37830383 0.38540632
0.013883039 -0.22173686 -0.32314405 -0.5701079 1.7372867 0.14573546 0.31792328 -0.10012387
0.23182166 0.24124508 -0.95301706 -0.32075092 -0.007874935 -1.389388 0.04622379 -0.7205444
0.60912585 0.02978039 0.31513873 -0.25901777 -0.5517309 -0.5946414 0.48892283 0.5137668
-0.10894744 0.947916 -0.3983139 0.08415688 0.37350827 0.14705087 0.17767282 -0.4149767
-1.0141435 0.122005254 -1.340093 0.99545634 -0.30291712 0.15519832 0.37349045 0.3426031
-1.2052242 0.28753576 -0.46516025 -1.1062508 -0.15668178 -0.3897911 0.53691113 -0.36727265
-0.11554615 -1.909896 -0.65528136 -1.268881 -0.43677723 0.86480457 0.009704032 0.20984253
-0.48269746 0.037256252 -0.2817328 0.0955902 -0.32013315 -1.7505791 -0.06384657 0.35615882
0.3583111 -0.20471236 -0.2874115 0.1206778 -0.72336817 -0.95140165 -0.29667658 0.32336473
-0.6831032 -1.6828945 -0.26303753 -1.6569234 0.8930751 -0.07152831 0.15059596 0.08153324
-0.32589963 1.4787443 -1.2534677 0.4442322 0.4635398 0.59659034 -1.0346338 -0.033237245
-0.1334484 0.20011052 0.8476484 -0.45187166 0.28065324 0.7080884 0.51991534 -0.4518429
-0.04341524 1.1561407 0.30289873 -0.7873623 1.1108074 -0.4667881 0.955514 -0.21828716
0.54253215 -0.45454013 0.5941446 -1.3608738 -0.313362 0.7207466 0.07294011 0.46898252
0.23021154 0.7279755 -0.6686313 0.13985729 0.9244553 -0.2915808 -0.889776 0.28832018
-0.13123056 -1.0818602 0.8276278 -0.36194083 0.6707437 -1.392003 0.82435745 -0.35874397
-0.7554778 0.19703296 -0.13063957 -0.74588925 0.9209184 0.50115407 0.45426223 0.31711054
00000000: 7ef8 49be b30b 4bbe b7b6 093f bb65 04c0
00000010: 5a1d 11be e054 1cbe 199c e2be ad08 25bc
00000020: 09d4 c0be da42 6b3e 9be4 563f 6c83 1d3c
00000030: 40d8 d03d 5a92 7c3f 18d0 523e 570d 29be
00000040: e6b6 1e3e b24c f6bf 6c0f 33bf 1878 253f
00000050: 90ab af3f 4f3e 303f 3ab8 703f 4ade 533f
00000060: f931 3f3f 8dc6 63bf 0ea4 443f 388b ffbe
00000070: 7ab3 cfbf 5a68 aabe b4fc 353f af2c 183f
00000080: 310a 0f3f 8deb c4be 62ed 213e 3763 47bf
00000090: e026 4dbd c6f5 42bf 5dd7 433f a6e2 eebf
000000a0: 5357 133f 5a64 e03e 29e7 a33f 5230 01bf
000000b0: e047 273f ba39 46bd fdcc 113f 2b84 0c3f
000000c0: 583d 063f 5dab 8fbd 06e9 393f d533 843f
000000d0: bb68 bcbf 67fe 48bf e3d7 913f b93c 283e
000000e0: 2c7a e93f bb16 473e e70a d33f 3805 df3b
000000f0: e4c9 bd3e 84e8 2d3f 95f8 32be f508 ec3e
00000100: 1f49 66bf 09f9 44be fadb 0a3e e8c9 8ebe
00000110: 4344 ce3e 5c90 4a3f c3f8 e43e b131 c43e
00000120: 5b67 75bf 35b4 adbf c00c d7be 5ac1 25bf
00000130: e4bf 4a3f 9b1a 983e 3ab1 4c3f e01a 14be
00000140: 9515 13be ace2 3abf 3582 04bf 977c 7abf
00000150: 6fbb 6a3c bfb2 913f 147a 2fbf 083a d33d
00000160: a4e8 97be 4dce 5bbd ced6 c23f 94ad 2cbf
00000170: 8c1d d43e ec5e d53e c210 9cbc bf59 d0bf
00000180: 6c06 163f ec1d 93bf 88b4 c63f 44f6 293f
00000190: 9cec 10c0 83ab 76bf 7396 e2bd 93fb 85bc
000001a0: 294f c0be 31ba 313f bd9c 58bf 855e 6fbf
000001b0: bb71 3ebe bb92 98bf dedc b13d c0b9 7ebe
000001c0: 0eef 953f b3f7 ce3f d6e0 44bd fdd0 7abe
000001d0: 1562 24bf 64a2 833f 0ab1 c1be fa53 c53e
000001e0: b075 633c fd0e 63be 2373 a5be 97f2 11bf
000001f0: 695f de3f ad3b 153e d7c6 a23e be0d cdbd
00000200: a862 6d3e f308 773e edf8 73bf 7739 a4be
00000210: df05 01bc 77d7 b1bf 2855 3d3d 9975 38bf
00000220: acef 1b3f 01f6 f33c dd59 a13e fa9d 84be
00000230: 3c3e 0dbf 6b3a 18bf 1854 fa3e 3986 033f
00000240: d61f dfbd 9faa 723f cdef cbbe 715a ac3d
00000250: 7a3c bf3e 8194 163e ddef 353e d377 d4be
00000260: 74cf 81bf e4dd f93d 2b88 abbf 3ad6 7e3f
00000270: f417 9bbe 4fec 1e3e 243a bf3e ac69 af3e
00000280: c944 9abf e337 933e 7c29 eebe a099 8dbf
00000290: 3071 20be b392 c7be 0273 093f 290b bcbe
000002a0: 76a3 ecbd 7977 f4bf 85c0 27bf b16a a2bf
000002b0: 44a1 dfbe d563 5d3f a9fd 1e3c f6e0 563e
000002c0: 1f24 f7be 039a 183d 483f 90be cbc4 c33d
000002d0: 7ee8 a3be fa12 e0bf fec1 82bd 735a b63e
000002e0: 8d74 b73e 1ea0 51be 9a27 93be ec25 f73d
000002f0: a82e 39bf 0f8f 73bf fee5 97be 1090 a53e
00000300: dadf 2ebf 1669 d7bf dbac 86be 1116 d4bf
00000310: 92a0 643f 6f7d 92bd d435 1a3e e6fa a63d
00000320: 51dc a6be 7e47 bd3f a171 a0bf 6772 e33e
00000330: 1755 ed3e 25ba 183f e16e 84bf c723 08bd
00000340: b3a6 08be c6e9 4c3e 7cff 583f b95b e7be
00000350: c8b1 8f3e 4845 353f 2c19 053f f457 e7be
00000360: 2ed4 31bd 6bfc 933f 8b15 9b3e 9390 49bf
00000370: f02e 8e3f dafe eebe 919c 743f ab86 5fbe
00000380: 63e3 0a3f 7cb9 e8be dc19 183f 1d31 aebf
00000390: fc70 a0be d982 383f a061 953d 7a1e f03e
000003a0: 93bc 6b3e 9a5c 3a3f 6c2b 2bbf c036 0f3e
000003b0: 1aa9 6c3f 144a 95be 5cc8 63bf b49e 933e
000003c0: 4e61 06be 657a 8abf 6adf 533f 4f50 b9be
000003d0: dcb5 2b3f 282d b2bf 1709 533f 4aad b7be
000003e0: fe66 41bf 02c3 493e 61c6 05be 99f2 3ebf
000003f0: 4fc1 6b3f a24b 003f 0f95 e83e 505c a23e

fc1.bias f4 [64]
-0.34814528 0.3760705 0.19935003 0.67677766 -0.12451454 -0.25382757 -0.7956461 0.18910073
0.5175571 0.07238659 0.11694248 0.08977773 -1.2494147 0.35274002 0.8827471 0.6579817
-0.049638923 -0.54510456 0.82270306 0.37756553 -0.18946299 0.14657588 -0.04185723 0.37793693
-0.23818384 0.19319664 0.69385827 -0.2561845 0.32090622 -0.79918593 0.8241775 -0.61280644
-0.0968924 0.58807683 0.47757602 -0.6021517 0.6573387 -0.21373159 0.25472575 0.22269763
0.45866284 -0.09342695 0.72775996 -0.3626068 1.4764302 0.60999435 0.011770866 0.32581383
0.3528644 0.08869023 0.48215252 -0.05506836 0.085216194 -0.76223296 -0.22734109 0.030195888
-0.120497435 0.80288976 0.4924207 -0.04033277 -0.15296946 0.8773056 -0.30564824 0.41611758
00000000: 1940 b2be 508c c03e 6a22 4c3e 4d41 2d3f
00000010: 7b01 ffbd b0f5 81be 76af 4bbf 9fa3 413e
00000020: 9f7e 043f 6c3f 943d 8a7f ef3d 63dd b73d
00000030: d2ec 9fbf 579a b43e b7fb 613f 7d71 283f
00000040: 2f52 4bbd f98b 0bbf ab9c 523f 4550 c13e
00000050: 9602 42be fd17 163e 7d72 2bbd f380 c13e
00000060: 77e6 73be 57d5 453e b2a0 313f 9d2a 83be
00000070: d24d a43e 7397 4cbf 4cfd 523f e2e0 1cbf
00000080: 866f c6bd 348c 163f d884 f43e 9d26 1abf
00000090: 5947 283f 74dc 5abe 6a6b 823e d90a 643e
000000a0: dbd5 ea3e a156 bfbd 7a4e 3a3f 99a7 b9be
000000b0: aafb bc3f 9728 1c3f 97da 403c 12d1 a63e
000000c0: a5aa b43e 39a3 b53d b2dc f63e 5c8f 61bd
000000d0: d485 ae3d b321 43bf 1acc 68be 5e5d f73c
000000e0: 5cc7 f6bd 2f8a 4d3f 911e fc3e fa33 25bd
000000f0: 07a4 1cbe 1a97 603f ed7d 9cbe 5d0d d53e

fc2.weight f4 [64, 64]
0.16064994 0.23374619 0.711691 -0.13817729 -0.0638399 -0.0011928823 0.014212352 0.3248511
-0.018983234 -0.07593735 0.17255984 0.9349683 -1.0090921 0.25474215 0.12920909 0.016777676
0.0026854062 0.009649104 0.36479625 -0.46249786 -0.04826732 0.63724774 -0.07216404 -0.14077404
-0.6609725 0.012860414 0.24240436 0.6409671 0.27428764 0.935697 0.7386215 0.036592204
-0.013200981 0.7014553 -0.07279817 0.056880534 0.5165936 -0.11615137 -0.16412549 1.1655939
0.5531297 0.11562231 0.20512694 -0.27657074 0.4621718 -0.07922171 0.6164329 0.5822497
0.32109454 0.32278186 -0.041401472 0.85426134 0.6913932 -0.45619997 -0.62476677 1.0052203
-0.55989367 1.0211188 -0.35637885 0.065273345 1.2957869 0.5838179 0.30497694 0.6820977
0.6527032 0.17424843 0.11538241 1.1048557 0.78682375 0.50053626 -0.9118703 0.11368434
0.45438558 0.38875747 0.0014665908 -1.166096 -2.344615 -0.18824208 -0.2334187 0.30495366
-0.33749765 0.4086209 -0.20561118 0.5438631 0.81327224 -0.42694625 0.41726574 0.6861898
1.3652633 -0.040187664 -0.023087021 0.20908631 -0.19039504 -0.95915246 -2.2670429 0.5900401
-1.4298656 -0.52469313 0.4326541 1.4573216 0.40351877 0.30986825 0.35910958 -0.5188756
-0.20112556 0.07507156 -0.037513383 0.9700707 -0.54404587 0.9123794 -0.20063171 0.58921623
0.17218915 -1.3088268 -0.49240094 -1.5688303 0.38743514 1.4630805 0.9870755 -0.62819433
0.49698865 -1.0614094 0.71196556 0.19866768 -1.130828 -0.71064603 0.46094143 -0.6456348
0.565593 0.23705979 0.262212 -0.05006718 -0.37756807 -0.24386542 0.11764034 0.50897455
-0.03524492 -0.18847093 -0.027086891 0.5123501 0.3864225 -0.29500183 -0.09837296 -0.10123353
0.13525243 -0.16029304 0.17637587 -0.2508649 -0.10377333 -0.19890405 -0.05050119 -0.41649088
-0.15571924 0.48257717 -0.04012205 0.00019590328 -0.25363627 0.5830318 0.30232897 -0.38348138
0.12930137 0.1305007 -0.15775283 0.19807768 0.5983822 0.18182316 -0.22704153 0.6929847
0.8386006 0.30085522 -0.111091465 0.23087536 0.37483588 -0.2691852 -0.07949386 -0.16094376
0.08019474 0.39856818 0.17929922 0.04582109 0.49476695 0.24790321 -0.24155168 0.41536307
-0.20033032 0.30250946 -0.14676692 0.63361615 0.64620066 0.13767502 -0.26054698 0.44365996
0.7638038 0.44522107 -0.6158033 0.7276556 0.9920561 0.17548923 -0.84850097 0.30488217
0.4014737 0.30210537 0.5448711 -0.94527483 -0.6708648 0.39590904 0.34197628 0.45587632
1.2321795 0.29786494 0.44889334 0.9086773 0.72107685 -0.48655105 0.91252816 0.813115
0.9511219 0.24339968 0.22479738 0.20401724 0.13912895 -1.1478084 -0.80701137 0.083125606
-1.2315304 0.0866118 0.39668244 0.5907572 0.5029632 -0.5239367 0.11104367 -0.5875901
-0.06633286 -0.034802984 0.7131934 0.63189095 0.17302589 0.43726832 -0.23200041 0.10405761
0.21499272 -1.2793347 0.23859991 -2.5877597 -0.40912813 0.7709301 1.0301157 -0.17435098
0.76153743 -0.19798687 0.930552 0.7303417 -0.2856188 -0.9507525 -0.16041774 -1.4066722
00000000: 6b81 243e 295b 6f3e 6231 363f 597e 0dbe
00000010: 7ebe 82bd 7d5a 9cba edda 683c e252 a63e
00000020: ba82 9bbc 0b85 9bbd 87b3 303e 155a 6f3f
00000030: ee29 81bf 906d 823e 634f 043e 5671 893c
00000040: a4fd 2f3b 4717 1e3c 93c6 ba3e 85cc ecbe
00000050: f4b3 45bd ab22 233f bdca 93bd 1227 10be
00000060: 7e35 29bf 7cb4 523c d938 783e 6b16 243f
00000070: 6e6f 8c3e d789 6f3f 4c16 3d3f b5e1 153d
00000080: ed48 58bc 9392 333f 3517 95bd 90fb 683d
00000090: 7a3f 043f c5e0 edbd 8310 28be 2e32 953f
000000a0: e899 0d3f 64cb ec3d cc0c 523e ae9a 8dbe
000000b0: c8a1 ec3e fe3e a2bd 8cce 1d3f 510e 153f
000000c0: 8166 a43e aa43 a53e 9794 29bd dfb0 5a3f
000000d0: 25ff 303f 0b93 e9be b7f0 1fbf 0fab 803f
000000e0: 3155 0fbf 05b4 823f 4a77 b6be 08ae 853d
000000f0: 58dc a53f 1775 153f f025 9c3e f49d 2e3f
00000100: 8f17 273f 2e6e 323e 9d4d ec3d e96b 8d3f
00000110: 486d 493f 2523 003f 5570 69bf 56d3 e83d
00000120: 3aa5 e83e 380b c73e 9f3a c03a a242 95bf
00000130: 2c0e 16c0 88c2 40be 5005 6fbe e322 9c3e
00000140: 7ecc acbe c236 d13e bd8b 52be 9d3a 0b3f
00000150: 9c32 503f b398 dabe dba3 d53e 22aa 2f3f
00000160: f3c0 ae3f d29b 24bd fe20 bdbc b91a 563e
00000170: ebf6 42be 048b 75bf 3b17 11c0 de0c 173f
00000180: d605 b7bf 4a52 06bf d784 dd3e 8489 ba3f
00000190: 039a ce3e 0da7 9e3e 36dd b73e 08d5 04bf
000001a0: dcf3 4dbe 1ebf 993d a2a7 19bd 8e56 783f
000001b0: 9746 0bbf b291 693f 6672 4dbe e0d6 163f
000001c0: 5a52 303e a387 a7bf fa1b fcbe 6ecf c8bf
000001d0: e65d c63e 3946 bb3f fbb0 7c3f 58d1 20bf
000001e0: 4c75 fe3e 43dc 87bf 6043 363f 8a6f 4b3e
000001f0: f9be 90bf e6ec 35bf 8400 ec3e 5248 25bf
00000200: b4ca 103f cdbf 723e a740 863e 3e13 4dbd
00000210: 9a50 c1be dbb7 79be 6bed f03d 284c 023f
00000220: fa5c 10bd 86fe 40be 54e5 ddbc 6029 033f
00000230: 2bd9 c53e 7b0a 97be c377 c9bd 8653 cfbd
00000240: 9d7f 0a3e dc23 24be e09b 343e 5d71 80be
00000250: 1d87 d4bd 81ad 4bbe 56da 4ebd 4b3e d5be
00000260: dd74 1fbe 5b14 f73e 0557 24bd 636b 4d39
00000270: 9ddc 81be 9241 153f ddca 9a3e ac57 c4be
00000280: 9467 043e faa1 053e f589 21be e0d4 4a3e
00000290: 932f 193f da2f 3a3e 937d 68be 7267 313f
000002a0: 87ae 563f b209 9a3e ec83 e3bd 976a 6c3e
000002b0: 7dea bf3e a4d2 89be adcd a2bd 71ce 24be
000002c0: 243d a43d 2111 cc3e 379a 373e e5ae 3b3d
000002d0: 1852 fd3e 57da 7d3e 5359 77be 78aa d43e
000002e0: 6423 4dbe 85e2 9a3e 114a 16be ab34 223f
000002f0: 686d 253f aefa 0c3e 6a66 85be 6627 e33e
00000300: a588 433f 04f4 e33e 49a5 1dbf a347 3a3f
00000310: 63f7 7d3f 73b3 333e 5c37 59bf 8419 9c3e
00000320: f68d cd3e 8ead 9a3e ac7c 0b3f 88fd 71bf
00000330: ccbd 2bbf 97b4 ca3e 8417 af3e 9f68 e93e
00000340: 0fb8 9d3f c181 983e 59d5 e53e 139f 683f
00000350: 7e98 383f 381d f9be 729b 693f 4e28 503f
00000360: ba7c 733f c43d 793e 4931 663e e5e9 503e
00000370: d277 0e3e 63eb 92bf 4c98 4ebf c23d aa3d
00000380: caa2 9dbf 8761 b13d f619 cb3e dd3b 173f
00000390: 32c2 003f b720 06bf dd6a e33d 4e6c 16bf
000003a0: 86d9 87bd 938d 0ebd d893 363f 9bc3 213f
000003b0: b32d 313e a2e1 df3e 8491 6dbe 281c d53d
000003c0: 0d27 5c3e 3dc1 a3bf 8953 743e db9d 25c0
000003d0: 3e79 d1be ad5b 453f d5da 833f 1089 32be
000003e0: 1ef4 423f 12bd 4abe a838 6e3f acf7 3a3f
000003f0: a13c 92be 8464 73bf 8c44 24be d60d b4bf

fc2.bias f4 [64]
0.49504855 -0.26934507 0.26291922 0.39694 -0.0026376173 0.048574597 -0.5880588 0.14102943
0.13109392 -0.55254614 -0.29548702 -0.10970236 -0.15529957 -0.96024334 0.37451988 0.3401582
-0.73834586 -0.3679019 -0.028274521 -0.01281082 0.023060948 -0.7786506 -0.0074994997 -0.25722167
0.47094652 -0.66742736 0.94011897 -0.13801888 -0.17951912 0.78879315 0.24908483 0.29494324
0.39670038 -0.14449647 -0.12815249 0.30445695 0.34500238 -0.47615576 0.2088308 0.1759257
-0.8162169 -0.16229507 -0.62953174 -0.33848023 0.23415808 0.5676947 -0.59321016 0.116179004
0.21574911 -0.10681349 -0.2138707 0.21797386 -0.5833 -0.16504835 -0.07027347 0.4011858
-0.02401763 -0.14710274 -0.036485102 0.20733052 -0.5351406 -0.25667217 0.45057693 0.97101605
00000000: 0177 fd3e 99e7 89be 599d 863e b83b cb3e
00000010: e0db 2cbb 28f6 463d 068b 16bf 056a 103e
00000020: 7c3d 063e aa73 0dbf 134a 97be a2ab e0bd
00000030: da06 1fbe 82d2 75bf 12c1 bf3e 3729 ae3e
00000040: 3c04 3dbf a35d bcbe f89f e7bc 79e4 51bc
00000050: 50ea bc3c a555 47bf 5dbe f5bb 8fb2 83be
00000060: e71f f13e 85dc 2abf a3ab 703f d254 0dbe
00000070: dcd3 37be 59ee 493f 1810 7f3e cd02 973e
00000080: 501c cb3e e2f6 13be 683a 03be c8e1 9b3e
00000090: 27a4 b03e b0ca f3be bed7 553e de25 343e
000000a0: 97f3 50bf ae30 26be fe28 21bf 484d adbe
000000b0: 23c7 6f3e 7154 113f 9fdc 17bf 42ef ed3d
000000c0: 56ed 5c3e 08c1 dabd ec00 5bbe 8a34 5f3e
000000d0: 2653 15bf 6f02 29be 89eb 8fbd 3a68 cd3e
000000e0: 9fc0 c4bc 1aa2 16be 6771 15bd 744e 543e
000000f0: f9fe 08bf 896a 83be 05b2 e63e 8294 783f

fc3.weight f4 [4, 64]
0.99042225 -0.45956996 0.25449756 -0.43960395 -0.4536185 0.09921174 1.6559231 -0.54595387
0.33028674 -1.2377537 -1.7631152 0.09405207 1.9102465 -2.023807 0.30967355 0.3334264
-1.2862686 -0.717447 -0.42946422 2.1719573 0.046871014 -1.1086307 -0.044427246 -1.3989193
-0.77675664 -1.556642 2.282982 2.839946 -0.501644 1.6559803 0.92272115 -0.15016437
0.3650463 0.037081048 -0.056687146 -0.9145124 2.067109 -1.2916226 -1.3058625 2.247798
0.27292815 0.03819793 0.030298509 -0.78461564 0.733887 2.7266943 -1.2884893 -1.3018544
2.19954 0.05374702 -0.56868356 2.3360982 -1.3896195 -0.73121643 -0.71273357 -1.087273
-0.467636 -0.335676 -1.4633449 0.8185917 -1.0068464 -0.6398564 0.6771618 -0.551245
0.5382559 -0.59631747 -0.072764516 -0.8686999 -0.53085893 -0.002545045 1.8934087 -1.0357348
0.6001553 -1.667221 -2.1844158 0.060270093 1.5123476 -1.606121 -0.15398736 1.2413254
-1.2016138 -0.9352717 -0.5943114 2.3023455 -0.07996496 -0.92111677 0.09191071 -1.3611857
-0.6619587 -1.5348523 2.2910244 2.802962 -0.98417354 1.3912675 1.1127486 0.43527022
0.0032487856 0.06413811 0.008828008 -0.79117966 1.3505808 -1.6242926 -1.4232213 2.7385032
1.0359191 0.030760314 0.5375565 -1.1337552 0.92432135 2.1623 -0.69959235 -1.3544754
2.195315 0.104426034 -0.7258227 2.1945066 -1.324813 -0.47704145 -0.47761378 0.34126115
-0.5016589 -0.8262248 -0.9304658 1.3635172 -0.88149863 -0.52543217 0.40284246 -0.14911915
0.1190008 -0.7699264 -0.4568741 -0.65477157 -0.4914888 0.04029332 2.4778543 0.015133268
0.87159383 -0.89225155 -1.896931 -0.07010045 1.9394436 -1.6908109 -0.40323025 0.97943604
-1.0213485 -0.8711197 -0.30832872 2.2274497 -0.06066663 -1.1837006 0.09364769 -1.4716278
-1.1433704 -0.5161658 1.9802941 2.8209777 -0.4512021 1.6813732 1.4507382 -1.5908923
0.8103411 0.029576277 -0.018635392 -1.0389496 1.4323316 -1.4010648 -1.243468 1.9163778
-2.4640527 0.09147957 1.1603801 -1.9517139 1.6173669 1.9091446 -1.4846108 0.35834938
2.317302 0.12799115 0.10722384 2.0743427 -1.3701353 -0.867365 -0.6203819 -0.37517717
-0.5311537 -0.8723447 -1.1179769 1.7359505 -0.43254268 -0.77651554 -0.31201577 -0.8411345
0.8178098 -0.7413923 0.1787008 -0.6278662 -0.39365196 0.09957349 1.3814633 -0.98118496
-0.23306066 -1.6809775 -0.92085034 0.05502307 2.3049755 -1.5736518 0.5931348 0.20630601
-1.6032428 -0.5783505 -0.46856466 2.486877 -0.068447396 -1.1169926 0.11984426 -0.789395
-0.4371956 -1.5862333 2.1556342 1.7754116 -0.02683892 1.2080104 0.6789187 -0.30963066
0.15435822 -0.102278866 0.053555787 -1.4388419 1.6205702 -1.3552049 -0.79561067 1.9647703
1.4041889 0.06187798 0.1438271 -1.1569923 0.97662574 2.694508 -1.0486374 -1.1387509
2.1549222 -0.06723821 -0.5965471 2.1712382 -1.4267746 -0.7930271 -0.48959953 0.67367446
-0.3732875 -0.8417751 -1.3054613 1.6120403 -1.46744 -0.4919557 0.50942564 -0.9968183
00000000: 508c 7d3f c14c ebbe 814d 823e c513 e1be
00000010: af40 e8be 862f cb3d 4af5 d33f a2c3 0bbf
00000020: 581b a93e b76e 9ebf c2ad e1bf 5f9e c03d
00000030: f582 f43f 0e86 01c0 888d 9e3e ddb6 aa3e
00000040: 73a4 a4bf 9baa 37bf bce2 dbbe 5901 0b40
00000050: d2fb 3f3d 9ce7 8dbf 58f9 35bd ca0f b3bf
00000060: 86d9 46bf 0c40 c7bf 611c 1240 adc1 3540
00000070: be6b 00bf 2af7 d33f 7437 6c3f b0c4 19be
00000080: 59e7 ba3e 4ce2 173d c830 68bd 7c1d 6abf
00000090: 844b 0440 e453 a5bf 8126 a7bf ecdb 0f40
000000a0: 3dbd 8b3e 6f75 1c3d 9434 f83c 92dc 48bf
000000b0: 05e0 3b3f 2982 2e40 38ed a4bf 2aa3 a6bf
000000c0: 43c5 0c40 d625 5c3d 3f95 11bf a282 1540
000000d0: 0ddf b1bf 0031 3bbf b575 36bf c32b 8bbf
000000e0: fc6d efbe badd abbe e34e bbbf 3a8f 513f
000000f0: 58e0 80bf a1cd 23bf 7a5a 2d3f 641e 0dbf
00000100: 23cb 093f 43a8 18bf 9005 95bd 1e63 5ebf
00000110: 5fe6 07bf c5ca 26bb 375b f23f f592 84bf
00000120: c7a3 193f 7f67 d5bf 78cd 0bc0 c6dd 763d
00000130: 9b94 c13f 5f95 cdbf ddae 1dbe c0e3 9e3f
00000140: 7bce 99bf f76d 6fbf cb24 18bf a159 1340
00000150: abc4 a3bd 4fce 6bbf af3b bc3d 553b aebf
00000160: 2076 29bf 0a76 c4bf 25a0 1240 bb63 3340
00000170: ccf2 7bbf 0e15 b23f 8c6e 8e3f bddb de3e
00000180: 94e9 543b d75a 833d 59a3 103c c08a 4abf
00000190: d5df ac3f d2e8 cfbf 1e2c b6bf a343 2f40
000001a0: ff98 843f 0efd fb3c 4e9d 093f e41e 91bf
000001b0: 53a0 6c3f 2063 0a40 7c18 33bf 735f adbf
000001c0: 0a80 0c40 51dd d53d 84cf 39bf cc72 0c40
000001d0: 7993 a9bf c73e f4be cb89 f4be c8b9 ae3e
000001e0: b86c 00bf 7883 53bf 0233 6ebf bb87 ae3f
000001f0: e5a9 61bf b982 06bf 5e41 ce3e b1b2 18be
00000200: b1b6 f33d e619 45bf 67eb e9be 1c9f 27bf
00000210: 6ca4 fbbe 9c0a 253d 2a95 1e40 87f1 773c
00000220: c620 5f3f 996a 64bf a3ce f2bf d390 8fbd
00000230: b03f f83f 7e6c d8bf 3274 cebe 52bc 7a3f
00000240: 8cbb 82bf b301 5fbf 43dd 9dbe 898e 0e40
00000250: 927d 78bd 8083 97bf 5cca bf3d 4d5e bcbf
00000260: f659 92bf 7123 04bf 477a fd3f e68a 3440
00000270: f603 e7be 3d37 d73f cab1 b93f 5ca2 cbbf
00000280: 8472 4f3f f349 f23c 40a9 98bc 4dfc 84bf
00000290: a456 b73f 1756 b3bf f629 9fbf de4b f53f
000002a0: 0ab3 1dc0 a459 bb3d 5687 943f c3d1 f9bf
000002b0: e105 cf3f da5e f43f ba07 bebf 9279 b73e
000002c0: ad4e 1440 1d10 033e 2c98 db3d 08c2 0440
000002d0: 9860 afbf a20b 5ebf 59d1 1ebf 3917 c0be
000002e0: b0f9 07bf fb51 5fbf de19 8fbf a033 de3f
000002f0: 3c76 ddbe b9c9 46bf 88c0 9fbe 9754 57bf
00000300: fc5b 513f e3cb 3dbf 58fd 363e d7bb 20bf
00000310: c08c c9be 30ed cb3d cad3 b03f f02e 7bbf
00000320: 74a7 6ebe 452a d7bf d9bc 6bbf df5f 613d
00000330: b884 1340 6c6d c9bf afd7 173f e241 533e
00000340: 0f37 cdbf c70e 14bf b5e7 efbe fe28 1f40
00000350: 262e 8cbd 9df9 8ebf e870 f53d ca15 4abf
00000360: 1ad8 dfbe b109 cbbf e9f5 0940 b040 e33f
00000370: 4bdd dbbc 16a0 9a3f 9ecd 2d3f e987 9ebe
00000380: 1510 1e3e 9577 d1bd 505d 5b3d f92b b8bf
00000390: d86e cf3f 5b77 adbf 24ad 4bbf 987d fb3f
000003a0: 76bc b33f c473 7d3d 6947 133e 5318 94bf
000003b0: 2504 7a3f d272 2c40 c039 86bf 97c2 91bf
000003c0: 3fea 0940 30b4 89bd 50b7 18bf 91f5 0a40
000003d0: 8da0 b6bf d303 4bbf caac fabe ee75 2c3f
000003e0: 8a1f bfbe 937e 57bf 5b19 a7bf 5657 ce3f
000003f0: 13d5 bbbf 9ee1 fbbe b869 023f 7c2f 7fbf

fc3.bias f4 [4]
0.45998675 0.1729273 -0.108257316 0.043738116
00000000: 6283 eb3e db13 313e 03b6 ddbd bd26 333d
