NeurPiRL_SA/LunarLander/DQN/checkpoints/700_220.pth (torch, 22315 bytes, 6 tensors)

fc1.weight f4 [64, 8]
00000000: 9418 b5be 87e5 7cbe 2c81 253f 56aa 03c0
00000010: 05b6 47bd 780e 29be cde6 fcbe 9be2 acbc
00000020: 9fe4 d6be 3054 683e 4407 5a3f fa0d 87bc
00000030: e4da 29bc f97b 603f 353f 573e ce58 19be
00000040: cfb7 bb3d bda3 0ac0 4f1d 55bf f7f0 273f
00000050: 2c97 ad3f 1df5 273f e9cb 783f 8a83 503f
00000060: 41be 383f c2eb 53bf 37f6 393f e380 f2be
00000070: 855c d2bf a924 a5be 7548 3a3f 831b 193f
00000080: 195c 1e3f 2bb7 4abe e05d 313e f5a5 4ebf
00000090: ad3c bc3c e517 2fbf 7256 563f a6e2 eebf
000000a0: 204e 193f 6611 ec3e 034a 9d3f f8e0 18bf
000000b0: 94aa 353f 54ea b7bc 7805 1d3f cc1d 0a3f
000000c0: 2822 253f 1d54 ecbd bdac 373f abd4 973f
000000d0: 34dc b6bf ff87 66bf e0a9 8c3f 40e9 d03d
000000e0: b7fb e63f 0ab1 503e 4c27 d33f 46fc e53c
000000f0: d3c0 a63e d242 513f 0e6e 38be 3f51 163f
00000100: 15e9 64bf 3207 47be f12c 003e d454 83be
00000110: a11a c63e 4356 6a3f 79da c23e 9553 a93e
00000120: 909b 81bf 24c5 a8bf 234c b8be fbb9 41bf
00000130: 898d 393f fb75 8e3e 9820 553f 0291 9dbe
00000140: 7090 7ebd 2fd5 1bbf 6dfc e3be 7024 86bf
00000150: 67d2 d33c 8315 813f acc1 35bf 48ee 333e
00000160: d392 ddbe e78c c83c aef3 c03f 0e63 29bf
00000170: 2323 b63e dcc8 133f 1aa6 c93c 55d0 bdbf
00000180: 0f31 2a3f 3c1a 97bf 304d b63f 30c6 5c3f
00000190: 719c 0dc0 88bb 84bf ef09 56bd c943 25ba
000001a0: 11e0 ccbe 9de8 303f 2858 52bf 9ea7 77bf
000001b0: ef8b 21be a301 98bf 8297 b73d cb99 94be
000001c0: db97 a03f 21af d13f 94b5 41bd 8a62 77be
000001d0: 9b81 31bf c776 763f ee3c c4be d7a5 d03e
000001e0: 0bb1 923d d989 65be 3fda 92be f244 16bf
000001f0: f7a8 df3f 0f97 1b3e d64f ac3e b548 13be
00000200: e695 763e 02a3 773e f2ff 67bf 327f 83be
00000210: 3a62 363e c3bb b4bf d1cc f33d ef00 3abf
00000220: f99c 173f 4fac 083e d26b ee3e 4ecd 4fbe
00000230: ee48 dabe acd8 42bf fd3d 0a3f 6e0d ff3e
00000240: c35b a4bd 2d5a 743f 4526 bebe bc78 a03d
00000250: 732e c43e 317c 133e 982a 273e ee1e dbbe
00000260: b0e2 95bf db9f 3e3e 1f2e a6bf 648c 6d3f
00000270: f919 b7be 1b4c ea3d 4b5d c53e cd73 b23e
00000280: 3fd0 b3bf 42f6 8e3e cd28 f1be c07b 8abf
00000290: 514b a7bc 494b ccbe f60b ec3e 65d5 a7be
000002a0: f1db 13be 7520 10c0 05e2 44bf 17ce adbf
000002b0: 535e edbe 7841 363f d63e 683d 8ec5 133e
000002c0: e096 e8be ddcb 433d 5105 a7be 1291 fb3d
000002d0: 571c 92be 199e dbbf bbc1 f3ba 199d b23e
000002e0: ddc8 e23e f997 73be 9efe 12be 216c 303d
000002f0: 682e 3abf 1520 82bf e815 afbe c05b 493e
00000300: f381 81bf a5c3 d2bf 3d62 17be d3ad d3bf
00000310: f1ff 833f 06eb 93bd 5e1d 133e 4769 b13d
00000320: 4459 99be ab91 da3f 9acf 96bf 0bef 1c3f
00000330: 7810 d43e cb96 2d3f 2880 78bf 487f 2cbe
00000340: 24c9 1dbe 0f37 423e d207 593f cb29 ddbe
00000350: 0b97 ae3e 7157 2e3f b1f8 fb3e e9e8 dfbe
00000360: a7a7 0ebd 2aeb 9a3f 52f1 923e 43fc 40bf
00000370: 809a 903f 79f4 f4be 48a5 6b3f 9a1e 88be
00000380: 69e1 0d3f 51f2 c7be 63ff 183f 69fd b1bf
00000390: 8d46 9dbe f6e0 2d3f 4c6b d13d 2c99 f23e
000003a0: 03d7 503e 838f 3c3f eb26 31bf 1bce 783e
000003b0: dbaa 773f 2a23 21be 5cc8 63bf 39e2 c63e
000003c0: d920 00be 6f25 9bbf dd89 503f 19be bbbe
000003d0: 9686 2d3f b573 abbf c3e7 523f 503d a6be
000003e0: d3b3 71bf 3a26 6b3e 585a c3bd 6fd3 31bf
000003f0: 56e4 6b3f 7631 0d3f 6123 dc3e 508a 443e
-0.35370314 -0.24696933 0.64650226 -2.0572715 -0.04875757 -0.16509426 -0.49394837 -0.021104148
-0.419713 0.22688365 0.85167336 -0.016486157 -0.010367129 0.8768917 0.21020205 -0.14975283
0.09165918 -2.1662438 -0.83247846 0.6560206 1.3561759 0.6560839 0.9718614 0.8145071
0.72165304 -0.8278161 0.7264132 -0.47363958 -1.6434485 -0.32254532 0.7276681 0.59807605
0.6185928 -0.19796436 0.17320967 -0.8072198 0.022978151 -0.68395835 0.83725655 -1.8662918
0.59884834 0.46107024 1.2288212 -0.59718275 0.70963407 -0.022450604 0.6133647 0.53951716
0.64505243 -0.11539481 0.7174795 1.1861776 -1.4285951 -0.90051264 1.0989342 0.10200739
1.8045567 0.20380035 1.6496367 0.028074395 0.32568988 0.81742585 -0.18010733 0.5871772
-0.89418155 -0.19436339 0.12517144 -0.25650656 0.3869219 0.91537875 0.38057306 0.3307158
-1.0125599 -1.3185163 -0.35995588 -0.7567441 0.7248159 0.27824387 0.8325286 -0.30774695
-0.062149465 -0.6087217 -0.44528523 -1.047987 0.025857164 1.008469 -0.70998645 0.17571366
-0.4327608 0.02448125 1.5074365 -0.6616677 0.35573682 0.5772836 0.024615336 -1.4829203
0.6648111 -1.1804881 1.4242306 0.8623991 -2.2126734 -1.036973 -0.052255567 -0.0006304351
-0.400147 0.6910494 -0.82165766 -0.9674014 -0.15776037 -1.18755 0.08964445 -0.29023585
1.2546343 1.638157 -0.047292307 -0.24158683 -0.6933839 0.9627499 -0.38327736 0.40751526
0.071626745 -0.22415866 -0.28682134 -0.5869895 1.7473439 0.15194343 0.3365466 -0.14383204
0.24080619 0.24183276 -0.90624917 -0.2568298 0.17810908 -1.41198 0.119043 -0.72657675
0.59223896 0.1334698 0.46566635 -0.20293161 -0.42633766 -0.76111865 0.54000837 0.49814934
-0.08025315 0.954501 -0.37138572 0.07835528 0.38316688 0.14402844 0.16324842 -0.42797035
-1.1709805 0.18615668 -1.2982825 0.92792344 -0.35762003 0.11440297 0.3854774 0.34853974
-1.4047927 0.27922255 -0.4710144 -1.0819016 -0.020421656 -0.39901188 0.46102875 -0.32779995
-0.1443937 -2.251981 -0.7690738 -1.3578519 -0.46361026 0.7119365 0.05670055 0.1443083
-0.45427608 0.04780184 -0.32621244 0.12283529 -0.28537247 -1.7157623 -0.0018597165 0.3488548
0.44293872 -0.23788442 -0.14354941 0.04307187 -0.7272706 -1.0166041 -0.341964 0.19663906
-1.0117782 -1.6465956 -0.14783569 -1.6537422 1.0312482 -0.072225615 0.14366671 0.08662658
-0.29950917 1.7075704 -1.1782105 0.6130225 0.41418815 0.67808217 -0.9707055 -0.16845429
-0.1540876 0.18966316 0.8477756 -0.43195948 0.34099612 0.68102175 0.49213174 -0.43732384
-0.034827854 1.2103016 0.28699738 -0.7538492 1.129715 -0.47842768 0.92049074 -0.26585847
0.55422074 -0.3905206 0.5976469 -1.390546 -0.30717888 0.6792139 0.102255434 0.47382486
0.2039452 0.7365648 -0.6920001 0.24297373 0.9674508 -0.1573607 -0.889776 0.3884447
-0.1251253 -1.2120799 0.8146036 -0.3666847 0.67783487 -1.3394686 0.8238489 -0.32468653
-0.94415015 0.22963801 -0.09538716 -0.6946325 0.9214529 0.55153596 0.42995742 0.19193387

fc1.bias f4 [64]
00000000: 8fd3 c2be 1609 d13e 8093 743e 2d1a 363f
00000010: 00be 34be 3c6d 82be 5b83 55bf 9242 5c3e
00000020: 7475 0b3f 5d41 a43d 76a9 453e a9ac d83d
00000030: 1344 a6bf 837f b03e d0ab 643f b50d 2d3f
00000040: b2de 90bd 9d3a 0fbf f9c4 523f 4365 c73e
00000050: 08ae 4abe 2da5 373e 9572 87bd 95a6 b93e
00000060: 5065 8dbe 5262 823e c38c 323f 5220 8dbe
00000070: a58c 933e 611c 40bf 59f8 593f c7cb 26bf
00000080: 5583 02be a111 123f ec76 f03e 18a9 31bf
00000090: 28df 3a3f e934 59be 79d0 7d3e 5ae5 453e
000000a0: b313 e33e 1748 90bd 3cf0 393f fe5a bfbe
000000b0: ce9a bf3f 11f0 2a3f 7c4c 98bc 8663 ad3e
000000c0: 2756 a63e fd8a 243e e31b ed3e dad6 b7bd
000000d0: 7003 c43d 8290 47bf 0302 64be fc73 3a3d
000000e0: b02d 10be ea2e 563f 6c04 033f 0022 80bd
000000f0: b7b3 2abe 3182 603f b809 90be a595 e93e
-0.3805203 0.40827245 0.23884392 0.7113369 -0.17650604 -0.25473964 -0.8340356 0.2150977
0.54476094 0.080202796 0.19302925 0.10579807 -1.2989525 0.34472284 0.89324665 0.6759904
-0.07073726 -0.5594881 0.82331806 0.38944444 -0.1979295 0.17934103 -0.06613652 0.36259905
-0.27616358 0.25465637 0.69746035 -0.2756372 0.2881824 -0.750433 0.85144573 -0.6515469
-0.12745412 0.5705815 0.4696573 -0.6939864 0.7299676 -0.2121159 0.24786557 0.19325772
0.44350967 -0.07045 0.72632194 -0.3737411 1.4969118 0.6677256 -0.018591158 0.33864993
0.32487604 0.16068645 0.46310338 -0.089765266 0.09570968 -0.77954876 -0.22266392 0.045520768
-0.14079928 0.83665335 0.5117862 -0.06256485 -0.16670118 0.87698656 -0.28132415 0.45621982

fc2.weight f4 [64, 64]
00000000: c984 3b3d ad41 813e fe12 3c3f 5918 d0bd
00000010: 5f8d 05bd 9606 7e3c 2470 ba3b d498 a03e
00000020: 788a 6c3b 014a 79bc 7c52 1d3e b5e5 823f
00000030: e553 84bf 66ef 943e ad06 0d3e ea77 513d
00000040: 4520 de3d e146 223d 3cab be3e 2aef e8be
00000050: ae63 18be e086 323f cf70 453a bce0 f9bd
00000060: 2635 84bf 47e5 24bd 9514 853e 5047 343f
00000070: 0c29 a13e d3cd 553f a26c 473f 050e 7fbe
00000080: ecc3 8ebc f3e2 463f 5734 e4bc c617 3e3d
00000090: 883e 0d3f a746 1fbe 1c7c f8bd 2397 9d3f
000000a0: 0d02 163f 778f 2d3e 5d37 673e ea67 56be
000000b0: 660b ef3e ed26 47bd 5c3f 273f 3719 873e
000000c0: d033 c63e 7faf a53e dc62 8fbc abbb 6e3f
000000d0: 58a8 343f 9e0e 46bf 1a88 0fbf cd5b 7f3f
000000e0: 5130 02bf 1df2 843f 6636 9ebe 7952 b5bd
000000f0: 34d6 a73f 5f0d 1b3f d415 ae3e 9811 383f
00000100: 17c5 1c3f 4ca8 473e 3ed4 0b3e a613 8e3f
00000110: 2ea8 673f cb7e f53e c26d 74bf 9676 0e3e
00000120: 37a7 f73e 1fae e83e e68b 043d 35fe 9abf
00000130: fd6b 32c0 5d77 99be 7fa6 9bbe 430c 933e
00000140: 4ba8 d4be 5088 a53e 5dc8 68be b10a 123f
00000150: 9d4b 633f 10aa afbe 39f5 be3e f8f0 2f3f
00000160: cae1 cd3f a8c1 0ebd bed7 45bc a4c5 153e
00000170: 35f1 31be 5648 73bf ac23 0fc0 b292 4e3f
00000180: 93e7 babf 2ca5 10bf 5099 ef3e 7955 b23f
00000190: e42b 053f edb4 5e3e 004e b73e a709 24bf
000001a0: 69ac 29be ce95 b13d 083e 75bd 5ed0 883f
000001b0: cff1 fdbe 2e35 663f 2e4d 8bbe f6a2 253f
000001c0: 5a2b 623e 6c56 a7bf e0a9 02bf 4f35 cbbf
000001d0: d241 cb3e 3754 c83f 1646 833f fffb 41bf
000001e0: fd54 073f 51a9 8fbf e8cd 253f f510 9e3e
000001f0: c527 90bf da32 29bf 601c f53e c4db dcbe
00000200: aaff 073f 779d 6a3e 0632 683e b2b9 24bd
00000210: c931 9dbe a5d6 87be c58c 283e 43e6 fa3e
00000220: ddbd 13bd 51c2 2ebe 21fc 10be bd2d 0b3f
00000230: 2974 a63e a205 8abe 92c4 e3bd 64e3 efbd
00000240: a19b 413e 0498 fbbd 6f23 3e3e d59c 74be
00000250: 5033 a3bd c1b3 7bbe 6eec 28bd 0c7e ddbe
00000260: 0973 6dbe defa 003f a641 18bd 7462 833c
00000270: aa41 74be 570b 073f 7fbe b53e 3873 c6be
00000280: e5f1 233e db81 283e df12 29be 6d04 693e
00000290: e5e4 0c3f 8197 f03d 216d 59be b5a1 2f3f
000002a0: f9f0 5f3f 991f a43e f98d c4bd 6acf 903e
000002b0: 2e0f b73e 8421 87be 36a7 d1bd c81c 86be
000002c0: 6880 4cbc 929e c83e 0af7 513e e119 1d3e
000002d0: f07c 013f afd0 3a3e e5e4 47be ae9e e03e
000002e0: be86 19be 8fef 843e 1822 11be 95b9 fb3e
000002f0: 4614 1c3f d079 ff3d 91c4 79be 0475 083f
00000300: 6329 5b3f 851c f33e 5718 27bf c8a8 323f
00000310: 240d 893f fef7 263e 5751 5bbf 6a70 ab3e
00000320: 08ea ce3e 7c75 803e b2a8 003f 217b 6bbf
00000330: 0a82 3fbf 8a82 d73e a151 b33e ac7e d83e
00000340: 31cb a23f 6c5a 863e ab92 eb3e 2f15 623f
00000350: f581 423f 087f 06bf 2a1c 643f c06f 543f
00000360: 3b68 993f 5f8c 923e 599d 743e 310b 373e
00000370: 49f6 0f3e 8ad7 94bf 85e3 50bf d9ab 9b3e
00000380: a897 9abf 5c01 803d d009 b63e cd03 273f
00000390: 8874 fa3e f77e 11bf ddeb c03d c90b 16bf
000003a0: 1099 21bd 5cd1 73bc 94f6 353f 65f2 243f
000003b0: 0134 353e f557 dc3e 25c0 91be 7739 3e3e
000003c0: 3eee 3a3e 0d93 a7bf 9f15 8f3e a31a 22c0
000003d0: 50b9 dfbe f491 603f 6b99 7d3f 9a04 05be
000003e0: bfde 443f 22e6 33be d7c4 693f aa0f 463f
000003f0: d941 69be 5b92 75bf 4b7e 30be 60b0 abbf
0.04578093 0.2524542 0.7346648 -0.10160894 -0.032605525 0.0155045 0.0056896377 0.313666
0.0036093276 -0.015215398 0.15363497 1.0226351 -1.0338103 0.29088897 0.13772078 0.05113975
0.10845999 0.039618377 0.37240016 -0.45494968 -0.14881775 0.6973705 0.00075317634 -0.12201068
-1.032872 -0.04025772 0.25992265 0.70421314 0.3147663 0.8351719 0.77900136 -0.24907692
-0.017427407 0.7769005 -0.027856989 0.04640939 0.5517354 -0.15554295 -0.12133047 1.2311748
0.5859688 0.16949259 0.22579713 -0.20938078 0.46688384 -0.048621107 0.65331054 0.26386425
0.38711405 0.32360455 -0.017503195 0.9325511 0.7056937 -0.77366054 -0.5606705 0.9974945
-0.50854975 1.0386387 -0.30900878 -0.08853621 1.3112245 0.6056728 0.3400103 0.71901846
0.61238235 0.19497794 0.13655183 1.1099746 0.90490997 0.47948298 -0.9547998 0.13912424
0.48369762 0.45445344 0.03235998 -1.2108828 -2.787841 -0.2997388 -0.30400464 0.28720292
-0.41534647 0.3233056 -0.22732683 0.57047564 0.8878725 -0.34309435 0.37296465 0.68727064
1.608453 -0.034852654 -0.012075363 0.14626175 -0.1737717 -0.9503225 -2.2365522 0.8069259
-1.4601921 -0.5650203 0.46796656 1.3932334 0.52020097 0.21748705 0.35801697 -0.6407723
-0.16569676 0.08671151 -0.05987361 1.0688589 -0.49598548 0.89924896 -0.2720732 0.64701784
0.2208685 -1.3073249 -0.5104046 -1.5875643 0.39698654 1.56507 1.0255764 -0.7577514
0.52864057 -1.1223546 0.64767313 0.30872312 -1.1262137 -0.6609322 0.4787321 -0.43136418
0.5312449 0.2291163 0.22675332 -0.040216155 -0.30702046 -0.26530948 0.1645995 0.490038
-0.03606974 -0.17066313 -0.1415868 0.54366666 0.32510498 -0.26957422 -0.11121477 -0.11713293
0.18907024 -0.12284854 0.18568204 -0.23887952 -0.079687715 -0.2458029 -0.041241102 -0.4326023
-0.23188414 0.5038279 -0.037171982 0.016038157 -0.23853174 0.5275168 0.354969 -0.3875978
0.16010244 0.16455786 -0.16511105 0.22755595 0.55036765 0.11747647 -0.21233036 0.6860612
0.8747707 0.32055357 -0.09597392 0.28283244 0.3575377 -0.26392758 -0.10236971 -0.26193833
-0.012481786 0.3918348 0.20504394 0.15341903 0.50581264 0.18243669 -0.1952091 0.43871063
-0.14992806 0.2596402 -0.14173162 0.49165025 0.60968435 0.12474406 -0.2439139 0.5330355
0.85610026 0.47482696 -0.65271515 0.6978879 1.0707135 0.16305539 -0.8567099 0.33484203
0.40412927 0.25089633 0.5025741 -0.91984755 -0.748078 0.4209178 0.35023215 0.42284143
1.2718259 0.2624086 0.46010336 0.88313574 0.7597955 -0.52537584 0.89105475 0.82983017
1.1984934 0.2862272 0.23888148 0.17875363 0.14058794 -1.1628277 -0.8159717 0.30404547
-1.2077532 0.06250259 0.3555436 0.65240175 0.4891703 -0.5683436 0.09419987 -0.5861173
-0.039452612 -0.014881458 0.71079373 0.64432365 0.17695619 0.43035856 -0.28466907 0.18576609
0.18254945 -1.3091751 0.27946183 -2.5328758 -0.4369607 0.87722707 0.9906222 -0.12990037
0.76902384 -0.17568257 0.9131598 0.7736765 -0.22779025 -0.95926446 -0.17235677 -1.34132

fc2.bias f4 [64]
00000000: 5016 033f 7693 92be b6e5 6e3e c907 c63e
00000010: b0d1 f8bc 28f6 463d 37b2 1bbf 0a08 1b3e
00000020: 52a6 2f3e 15ac 06bf f04d b6be a2ab e0bd
00000030: 55b4 febd 2eb0 6fbf 8957 b63e 7ab7 be3e
00000040: e1cc 44bf de9c b6be 71da d1bc 0767 b7bb
00000050: 50ea bc3c 4e01 56bf 5dbe f5bb 46ec 74be
00000060: 5432 023f 83bd 30bf ec29 743f b37c edbd
00000070: e71d 35be b38e 523f 41fb 8d3e 8c73 aa3e
00000080: a8a4 d93e e2f6 13be 683a 03be cad1 ab3e
00000090: 5274 b13e 8790 0abf 1e7f 683e d41d 403e
000000a0: f237 51bf ae30 26be a90c 1ebf b228 b9be
000000b0: ec47 853e 7801 193f 036f 25bf 0e28 1c3e
000000c0: b0a9 6c3e 08c1 dabd 125d 4cbe aa6c 833e
000000d0: b6b3 1ebf c1e6 28be a2d5 82bd 4897 ce3e
000000e0: 1829 28bd d602 2bbe 3190 82bd 6efc 6e3e
000000f0: 5e33 12bf 25e5 69be 8a03 e83e e82b 883f
0.5120592 -0.2862813 0.23329815 0.38677815 -0.030373424 0.048574597 -0.6081881 0.15139785
0.1715329 -0.52606326 -0.35606337 -0.10970236 -0.12436739 -0.93628204 0.3561366 0.37249357
-0.7687512 -0.35666555 -0.025616856 -0.0055969986 0.023060948 -0.8359574 -0.0074994997 -0.23918256
0.50858045 -0.6903917 0.9537647 -0.1159605 -0.17687188 0.8224899 0.27730754 0.3329128
0.42508435 -0.14449647 -0.12815249 0.33558494 0.34659058 -0.5412678 0.22704741 0.18761379
-0.8172599 -0.16229507 -0.6173807 -0.3616386 0.26031435 0.59767866 -0.64622515 0.15249655
0.23111606 -0.10681349 -0.19957379 0.25668842 -0.6199297 -0.16494276 -0.063884035 0.40349793
-0.041054815 -0.167003 -0.063751586 0.23338482 -0.5710963 -0.22841318 0.453152 1.0638399

fc3.weight f4 [4, 64]
00000000: e047 823f e396 01bf 61b3 743e 6a34 cebe
00000010: 9103 e9be 862f cb3d 9e41 fb3f cee3 0cbf
00000020: f7e9 a03e 02be 9cbf 2521 e9bf 5f9e c03d
00000030: 386e f33f d3d3 01c0 778c 9d3e 0d46 be3e
00000040: a0e6 b1bf 4b6b 6abf a3a6 e2be b3fa 0c40
00000050: d2fb 3f3d d73a 56bf 58f9 35bd 957b b1bf
00000060: 543c 40bf d83b c7bf e09e 1340 948b 3540
00000070: 04c5 e8be 2c02 d83f 4aad 753f 70db 2abe
00000080: d75e cd3e 4ce2 173d c830 68bd 4661 44bf
00000090: 8d1e 0440 7100 a2bf c443 a7bf 9cab 1240
000000a0: 783f 873e 6f75 1c3d d755 8f3d 01da e4be
000000b0: 125c 463f 7c7a 2b40 bf7e 98bf 5def aebf
000000c0: f3cd 0d40 d625 5c3d 277f 22bf 3d03 1b40
000000d0: 6ea8 bbbf 2a08 6bbf ed6e 4abf 86b5 9dbf
000000e0: c0ba e2be 3d3a b9be 1751 cbbf d5a9 5b3f
000000f0: 141b 88bf 2bd9 55bf e86f 333f c407 2bbf
00000100: cded 093f e0d0 39bf 5d6c 47bd 7903 64bf
00000110: 900a 0cbf c5ca 26bb 3c44 ee3f ecec 8fbf
00000120: 0320 223f 1b1a d7bf 0e24 11c0 c6dd 763d
00000130: a10b c13f 5ebd d2bf d388 b0bd 9c11 9f3f
00000140: 24e3 a0bf 6bf4 7abf e508 23bf 2089 1840
00000150: abc4 a3bd c658 4bbf af3b bc3d 95bb b2bf
00000160: be06 22bf 0457 d8bf 66d0 1240 fc4d 2d40
00000170: 8973 6ebf c808 b13f 7d01 8f3f 063a 093f
00000180: 994e 283b d75a 833d 59a3 103c c67b 4fbf
00000190: f045 b83f 9c5a dabf 8319 aabf 94de 2f40
000001a0: 4458 9d3f 0efd fb3c 3751 4a3f cec8 72bf
000001b0: a0b9 693f 8cea 1040 1a17 50bf 4938 a0bf
000001c0: fde3 0a40 51dd d53d bf93 47bf ff35 1840
000001d0: e43d babf 2c4e 2cbf ea76 11bf 5c3b 923e
000001e0: 941f 02bf af55 6fbf 072f 64bf 7c54 af3f
000001f0: df2b 57bf e2df 0cbf 3b01 d33e 8402 9abe
00000200: 0930 0c3e d1d9 4cbf 18e1 e0be b236 24bf
00000210: 4a4a 00bf 9c0a 253d b4e5 1e40 6733 c7bb
00000220: 88e0 533f cb2f 5cbf fa35 01c0 d390 8fbd
00000230: 6742 fd3f 7dce f0bf fef4 d8be f5e9 7d3f
00000240: bd93 92bf 2ef3 69bf e92f b3be 77cc 0b40
00000250: 927d 78bd cc8b 9cbf 5cca bf3d 6bcd cbbf
00000260: 52e7 99bf f9c0 10bf 39f2 f53f 0928 3340
00000270: d655 01bf 9060 d93f 3e37 c23f 4195 d8bf
00000280: 8b35 583f f349 f23c 40a9 98bc 1570 6bbf
00000290: fc7a b93f 1803 d3bf a065 9dbf 82f4 f63f
000002a0: 170c 1fc0 a459 bb3d 191a a63f a823 01c0
000002b0: 1a39 d23f 8536 ee3f f6ef c4bf 139a 853e
000002c0: b032 1540 1d10 033e cc07 3b3e 0249 1240
000002d0: 93ab bebf 21e2 5fbf 3f88 37bf c8a1 c6be
000002e0: cd9d 0cbf 20f4 83bf 8f79 9cbf aa18 e63f
000002f0: c120 ecbe f6dc 52bf 79b5 96be 7c52 63bf
00000300: 9e08 563f d657 39bf 9cbf 1a3e bdc4 25bf
00000310: 74e3 c8be 30ed cb3d 64fc c03f 95bc 89bf
00000320: eeaa 5cbe aad3 cebf b522 adbf df5f 613d
00000330: 3955 1240 25fb cbbf ebc3 263f d099 743e
00000340: 1b11 d4bf 7449 35bf 2d56 f4be f34c 2040
00000350: 262e 8cbd 41e7 a1bf e870 f53d c95b 4fbf
00000360: 5ccd 02bf d0d3 bdbf 0f85 1340 1161 ec3f
00000370: 34a0 0e3d 287c 9c3f 7daa 403f f2a9 bfbe
00000380: 6617 453e 9577 d1bd 505d 5b3d e4c0 a5bf
00000390: dd9c d53f 217c adbf 3e56 42bf 10a4 0340
000003a0: 6b9c a33f c473 7d3d 909b f73d 9cb1 42bf
000003b0: 0a3c 813f 017a 2f40 3240 7ebf 4f60 a0bf
000003c0: 394a 0440 30b4 89bd 9587 1fbf 720b 0f40
000003d0: cbb3 b6bf b596 75bf 0797 11bf cc2b 123f
000003e0: 0d97 b5be 429d 63bf aacd a7bf cb4c d23f
000003f0: 186a c0bf df8f 16bf 1629 063f 371e 82bf
1.0178185 -0.5062086 0.23896553 -0.40274364 -0.45510533 0.09921174 1.96294 -0.550351
0.314285 -1.2245486 -1.821324 0.09405207 1.9018011 -2.0285537 0.3077123 0.3716282
-1.3898506 -0.91569966 -0.4426776 2.2028015 0.046871014 -0.8368353 -0.044427246 -1.3865839
-0.75092053 -1.5565138 2.306572 2.8366442 -0.4546281 1.6875663 0.95967543 -0.16685271
0.4011142 0.037081048 -0.056687146 -0.7671093 2.0643647 -1.2656385 -1.3067555 2.2917242
0.2641561 0.03819793 0.069987945 -0.44697574 0.7748424 2.6793509 -1.191368 -1.3666798
2.2156951 0.05374702 -0.6347527 2.4220726 -1.4660776 -0.9180933 -0.7907551 -1.2321022
-0.44283104 -0.36177245 -1.5884122 0.8580602 -1.0633264 -0.835345 0.7009263 -0.66808724
0.5387848 -0.7258434 -0.048687328 -0.890678 -0.5470362 -0.002545045 1.8614573 -1.1244178
0.63330096 -1.6804842 -2.2678256 0.060270093 1.5081674 -1.646404 -0.08619847 1.2427249
-1.2569318 -0.980292 -0.63685447 2.3833694 -0.07996496 -0.7943233 0.09191071 -1.3963495
-0.6329154 -1.6901555 2.2939696 2.7078848 -0.9314504 1.3830805 1.1172329 0.5360416
0.0025681613 0.06413811 0.008828008 -0.8104824 1.4396343 -1.7058902 -1.3289036 2.74796
1.2292562 0.030760314 0.79030174 -0.94837654 0.91298866 2.2643156 -0.8128525 -1.2517177
2.1701653 0.104426034 -0.7795982 2.3782957 -1.4550138 -0.6730678 -0.56822073 0.28560913
-0.50829434 -0.9349012 -0.8913426 1.3697658 -0.84051317 -0.5502912 0.41211876 -0.30080044
0.13690199 -0.8001986 -0.43921733 -0.6414596 -0.50113356 0.04029332 2.48277 -0.0060791257
0.8276448 -0.86010426 -2.0189195 -0.07010045 1.9785889 -1.8813015 -0.42374414 0.99185115
-1.1451336 -0.9138669 -0.3499749 2.1843545 -0.06066663 -1.2230163 0.09364769 -1.5922064
-1.2023718 -0.5654445 1.9214545 2.7993186 -0.505216 1.6982594 1.5173109 -1.6920549
0.844567 0.029576277 -0.018635392 -0.919679 1.4490657 -1.6485319 -1.2296638 1.9293368
-2.485113 0.09147957 1.2976714 -2.0178013 1.6423676 1.8610388 -1.538573 0.26094112
2.3312187 0.12799115 0.18264693 2.285706 -1.489611 -0.8745442 -0.7169227 -0.38795304
-0.54928285 -1.0308876 -1.2224597 1.7976277 -0.4611874 -0.8236841 -0.29435328 -0.88797736
0.836069 -0.7239965 0.15112156 -0.64753324 -0.39236033 0.09957349 1.5077024 -1.0760676
-0.2154958 -1.6158345 -1.3526217 0.05502307 2.2864516 -1.5936018 0.651427 0.238868
-1.656772 -0.70815206 -0.47721997 2.5046966 -0.068447396 -1.2648698 0.11984426 -0.8099943
-0.51094604 -1.4830265 2.3049963 1.8467122 0.03482075 1.222539 0.75260144 -0.37434345
0.19247207 -0.102278866 0.053555787 -1.294949 1.6688496 -1.3553506 -0.75912845 2.0568886
1.278211 0.06187798 0.12090218 -0.7605226 1.0096447 2.7418215 -0.99316704 -1.2529391
2.0670302 -0.06723821 -0.62316257 2.2350736 -1.4273618 -0.95933086 -0.56871074 0.5709808
-0.35466805 -0.8891183 -1.3109639 1.6429685 -1.5032377 -0.5881328 0.5240644 -1.0165471

fc3.bias f4 [4]
00000000: 159b f93e 0fe8 403e bda1 99bd 7398 973c
0.4875113 0.18838523 -0.07501552 0.01850531
