NeurPiRL_SA/LunarLander_old/DQN/Oracle/7/Policy.pth (torch, 12439 bytes, 6 tensors)

fc1.weight f4 [32, 8]
0	0x3d9f775d	0.077864386
1	0xbdc0a44b	-0.094063364
2	0x3e29c2cb	0.16578214
3	0x3e340424	0.17579705
4	0xbeabf87d	-0.3358802
5	0xbf33fcd9	-0.7030769
6	0xbc866d39	-0.016409503
7	0x3dd929c0	0.10603666
8	0xbed5489a	-0.41656953
9	0xbe09d967	-0.13461839
10	0x3db28999	0.08717651
11	0xbcdf2a50	-0.027241856
12	0xbe1f6c5b	-0.15568678
13	0xbf8b61de	-1.0889242
14	0x3d972574	0.073801905
15	0x3e07d5d8	0.13265169
16	0xbe6fd3b0	-0.23420596
17	0xbece4310	-0.4028554
18	0xbcb302ca	-0.021851916
19	0xbf1e05ec	-0.61727786
20	0x3ea700ed	0.32617894
21	0x3ecf98a9	0.40546158
22	0x3ecab126	0.3958828
23	0x3d3d20d6	0.046173893
24	0x3d583b00	0.05279064
25	0xbe13f17f	-0.14447592
26	0x3e65c9a9	0.22440208
27	0xbcf8d74d	-0.0303761
28	0xbe95ee80	-0.29283524
29	0xbf32c693	-0.6983425
30	0x3f12849e	0.5723361
31	0x3e5fae90	0.21843934
32	0x3e6371e0	0.22211409
33	0x3ebf6277	0.3737981
34	0x3f43828a	0.7637106
35	0x3f37ea49	0.71841866
36	0xbf6487a9	-0.892695
37	0xbf2e6237	-0.68118614
38	0x3c86e17a	0.016464937
39	0xbec45e77	-0.3835332
40	0xbf2709fd	-0.65249616
41	0xbea6094a	-0.32428962
42	0x3e8b0862	0.27154833
43	0x3e840f0a	0.25792724
44	0x3efdb183	0.49549493
45	0x3f1b94ff	0.60774225
46	0x3e170dff	0.14751433
47	0x3cc5e60c	0.024157546
48	0xbf070ddd	-0.5275553
49	0x3d275f4f	0.040862378
50	0xbed352c5	-0.41274086
51	0x3ee232a8	0.44179273
52	0x3f9a4186	1.2051246
53	0x3ee21126	0.44153708
54	0xbcb01693	-0.02149514
55	0xbe9ac5af	-0.30228946
56	0xbf2099e9	-0.6273485
57	0x3dff45dc	0.124644965
58	0x3d485984	0.048913494
59	0x3e8d5bdb	0.27609143
60	0xbffbf7f5	-1.9685045
61	0x3cb5a4e8	0.02217336
62	0xbd617d2f	-0.055051025
63	0xbecbb7b7	-0.397886
64	0xbf19afe8	-0.60034037
65	0xbe9e6673	-0.30937538
66	0xbe538d54	-0.20659381
67	0xbfa0c169	-1.2559024
68	0x3f375702	0.7161714
69	0x3e82f838	0.2558
70	0x3e265e8d	0.16247006
71	0xbf1bbfb4	-0.6083939
72	0xbe485eb2	-0.19567373
73	0x3d55da91	0.052210394
74	0x3f4a99ef	0.79141134
75	0x3f398cc4	0.72480416
76	0x3fc8d06c	1.5688605
77	0xbe8c04de	-0.27347463
78	0x3f045717	0.5169539
79	0x3ec7c29d	0.39015666
80	0x3e7292e4	0.23688847
81	0xbf3bf149	-0.73415047
82	0xbdc07485	-0.09397224
83	0xbf53c338	-0.82719755
84	0x3e16a570	0.14711547
85	0xbe63a8df	-0.22232388
86	0x3eeca414	0.46218932
87	0x3e916c70	0.28403044
88	0xbdba537e	-0.09097956
89	0x3f377894	0.7166836
90	0xbf23cd9b	-0.63985604
91	0x3f56f0fd	0.8396147
92	0x3faee366	1.3663146
93	0x3ec10737	0.37700817
94	0x3e0f9230	0.1402061
95	0xbeaca563	-0.3371993
96	0x3eaa5fd4	0.33276236
97	0x3f0fd3bb	0.5618245
98	0x3eee2135	0.4650971
99	0x3ee7fa13	0.4530798
100	0xbee8502d	-0.4537367
101	0xbf147da3	-0.58004206
102	0xbec39305	-0.38198105
103	0x3f0bf53e	0.54671085
104	0x3e59638e	0.21229383
105	0xbf5f691f	-0.8726978
106	0xbe180811	-0.14846827
107	0xbf075399	-0.52861935
108	0xbbdfbcc9	-0.006827925
109	0x3f197441	0.59943014
110	0x3e2edec3	0.17077164
111	0x3dac70b8	0.08419937
112	0x3dabf7ef	0.08396899
113	0xbe59898c	-0.21243876
114	0x3eb2810c	0.3486408
115	0xbf1787a7	-0.59191364
116	0xbfa7b33d	-1.3101574
117	0xbf1de02d	-0.6167019
118	0xbdbe1619	-0.092815585
119	0x3cbe0326	0.02319486
120	0xbe4840a9	-0.19555916
121	0xbc9aa8a2	-0.018879239
122	0x3f6f4ac1	0.9347344
123	0xbfbe6f95	-1.4877802
124	0x3f957499	1.1676208
125	0xbebc3ca5	-0.36765018
126	0xbebf8fcf	-0.37414405
127	0x3cc643bf	0.024202226
128	0x3e7be519	0.24599113
129	0xbeadb548	-0.3392737
130	0x3cf73141	0.030174853
131	0xbf273cd1	-0.65327173
132	0x3e905532	0.2819
133	0x3e49f032	0.19720533
134	0x3f1a9513	0.6038372
135	0x3d7e018d	0.062013198
136	0xbf1c3b65	-0.6102813
137	0x3f7c63cc	0.9858978
138	0x3ed549be	0.41657823
139	0xbf9822c5	-1.1885611
140	0xbe831a40	-0.25605965
141	0x3ed3a71e	0.41338438
142	0x3f17f5e7	0.5935959
143	0xbef298ad	-0.47382107
144	0xbf7c1db0	-0.984828
145	0xbf4ac6bc	-0.79209495
146	0xbf650cab	-0.89472455
147	0xbe82b4c2	-0.25528532
148	0x3f77060d	0.9649361
149	0x3f0a40de	0.5400523
150	0x3dd103b7	0.10205787
151	0x3d6396a2	0.055563577
152	0x3ea52205	0.32252517
153	0xbe2ffcb4	-0.17186242
154	0xbd524ac7	-0.051340844
155	0x3fec979b	1.8483766
156	0xbf02782c	-0.5096462
157	0xbed74eb4	-0.42052233
158	0x3f17987e	0.5921706
159	0x3e9a3a95	0.3012282
160	0xbf0aa280	-0.54154205
161	0xbf59fdd3	-0.8515293
162	0xbaac8701	-0.0013162793
163	0xbeeda723	-0.46416578
164	0xbf24062f	-0.64071935
165	0xbf58e744	-0.84727883
166	0x3e730e88	0.23736012
167	0xbe0f620d	-0.14002247
168	0xbdd37a3b	-0.10326048
169	0xbf26c11d	-0.6513842
170	0x3c5b6f1a	0.013393188
171	0xbf8abf8d	-1.0839707
172	0x3e9be567	0.30448458
173	0x3f177df0	0.5917654
174	0x3e101420	0.14070177
175	0xbdbf57df	-0.09342932
176	0xbfc2d98e	-1.5222642
177	0xbf13f70f	-0.57798856
178	0xbf22fc04	-0.63665795
179	0xbd64480c	-0.05573277
180	0x3eeaa845	0.45831504
181	0x3e6a8a90	0.2290442
182	0xbdbbf09e	-0.091767535
183	0x3d90d8b7	0.07072585
184	0xbf4eeda4	-0.8083136
185	0xbe94cd06	-0.2906267
186	0x3e23fd1d	0.16014524
187	0x3d54bc59	0.051937435
188	0x3f33f390	0.7029352
189	0x3f1d5fdc	0.61474395
190	0x3e9c1866	0.30487365
191	0x3ed35175	0.41273084
192	0x3f0b2523	0.5435354
193	0xbf36174b	-0.7112929
194	0xbe1ab5e8	-0.15108454
195	0xbea9c23a	-0.33155996
196	0xbd926742	-0.07148601
197	0xbe6559a6	-0.2239748
198	0x3ed355dc	0.41276443
199	0xbe554a04	-0.20829016
200	0x3defa115	0.11700646
201	0x3f684cc1	0.9074212
202	0xbf39562e	-0.72397125
203	0xbffa5e78	-1.956008
204	0xbf00cc36	-0.503116
205	0xbe87ce96	-0.265248
206	0x3f0f7b07	0.560471
207	0xbea8bcc8	-0.3295653
208	0xbda33000	-0.0796814
209	0x3dc06787	0.09394746
210	0x3ed41b6c	0.4142717
211	0xbe1318d7	-0.14364944
212	0xbf077749	-0.5291639
213	0x3f04f0b0	0.5192976
214	0x3f004c23	0.50116175
215	0xbee559e5	-0.44795147
216	0x3f848925	1.0354353
217	0xbe66e235	-0.22547229
218	0x3f0cff20	0.5507679
219	0xbe169c40	-0.14708042
220	0x3c94d883	0.018169647
221	0x3cfa5c5c	0.030561619
222	0x3d8c6a70	0.06856239
223	0xbda24b9a	-0.07924576
224	0x3e46cddb	0.19414465
225	0x3e177381	0.14790155
226	0xbe1c7af7	-0.15281282
227	0xbe1265e1	-0.14296676
228	0xbe13fbf8	-0.14451587
229	0xbf83f373	-1.030867
230	0xbf2477d3	-0.6424534
231	0xbde6d9d4	-0.11272016
232	0x3e83445f	0.256381
233	0x3fd13328	1.6343737
234	0xbe14d171	-0.1453302
235	0xbf057ef4	-0.5214684
236	0x3e4f2a5f	0.20231007
237	0x3e8c9c5b	0.2746304
238	0x3e55b48a	0.20869651
239	0xbec0a977	-0.3762929
240	0x3e0b31ff	0.13593291
241	0xbf378839	-0.71692234
242	0xbd4180f9	-0.04724214
243	0xbf744a9f	-0.9542636
244	0x3e84ea4f	0.25960013
245	0x3efb9d5b	0.4914349
246	0xbe86455e	-0.26224798
247	0xbf485771	-0.78258425
248	0xbecf5e04	-0.40501416
249	0x3f5881a0	0.8457279
250	0x3dccf58b	0.10007771
251	0x3f7dd2e2	0.99149907
252	0x3f3a6c12	0.7282115
253	0x3f066351	0.52495295
254	0xbe8d8aad	-0.27644864
255	0x3e5bfa8f	0.214823

fc1.bias f4 [32]
0	0x3e31e3d0	0.1737206
1	0x3e60613d	0.21912093
2	0xbdc0c6ec	-0.09412941
3	0x3dac3d61	0.084101446
4	0x3ebae093	0.36499462
5	0x3f1f721d	0.622835
6	0x3ec2e4cb	0.3806518
7	0xbd68e9e1	-0.05686367
8	0x3ebf89ff	0.3740997
9	0xbc28f161	-0.0103114555
10	0x3efe4bba	0.4966715
11	0x3e554fb8	0.20831192
12	0x3d9e0034	0.077148825
13	0x3f0b9bd1	0.5453463
14	0xbea3ee92	-0.32017952
15	0xbbc806a1	-0.006104306
16	0x3e5e84ad	0.217303
17	0x3f51faea	0.8202349
18	0xbe746b07	-0.23868953
19	0xbe6bc411	-0.23024012
20	0xbd9988c5	-0.0749679
21	0xbd5d7db1	-0.054074947
22	0x3d6eb654	0.05827935
23	0x3ee3f644	0.44523823
24	0x3ea6dc12	0.32589775
25	0x3f5d0b05	0.8634494
26	0xbd4418fa	-0.047875382
27	0xbdb35246	-0.08755927
28	0xbec8a96a	-0.39191753
29	0x3ef23db1	0.47312692
30	0x3e0a151a	0.13484612
31	0x3dc0a0f5	0.094057

fc2.weight f4 [64, 32]
0	0x3e9c0985	0.30476013
1	0x3ddf127d	0.10892198
2	0x3ed3ea29	0.41389588
3	0xbed6dcc4	-0.41965306
4	0x3f24dce3	0.64399546
5	0x3e91a124	0.28443253
6	0x3ebbe0b7	0.3669488
7	0xbfb9e199	-1.4521972
8	0x3f059ae8	0.52189493
9	0xbfddc102	-1.7324526
10	0xbea5fb14	-0.3241812
11	0x3f51ae45	0.8190654
12	0x3eaa6f6b	0.3328813
13	0xbe2b9277	-0.1675509
14	0xbeafe772	-0.34356266
15	0xbea40078	-0.32031608
16	0xbe283bcd	-0.16429062
17	0xbe584259	-0.2111906
18	0x3f834fe8	1.025876
19	0xbed963c9	-0.42458943
20	0x3d9b9581	0.07596875
21	0x3ec1e58e	0.3787045
22	0x3f100fe7	0.56274265
23	0x3e346c9a	0.17619553
24	0xbe6bd087	-0.23028766
25	0x3dc1e6bd	0.09467838
26	0x3f29bfe9	0.66308457
27	0xbe8deeb3	-0.27721176
28	0x3d859bb7	0.06523841
29	0x3e6c6c8a	0.2308828
30	0x3d8d80eb	0.06909355
31	0xbdf3c10f	-0.119020574
32	0x3ecedb6a	0.40401775
33	0x3e188bc3	0.14897065
34	0x3e8c5ada	0.27413064
35	0x3e453f53	0.19262438
36	0x3eb8cc04	0.36093152
37	0x3dae74ed	0.085183956
38	0x3e47be8a	0.19506279
39	0xbf7c005c	-0.9843805
40	0x3ef82be6	0.48470992
41	0xbfa61a6f	-1.2976817
42	0x3e565935	0.20932467
43	0x3f29b5ab	0.6629283
44	0xbf11e855	-0.56995136
45	0xbe008a6b	-0.12552802
46	0x3f50a909	0.8150793
47	0xbf6ac1ac	-0.9170177
48	0x3e64093b	0.22269146
49	0x3ea28c7c	0.31747806
50	0x3f917487	1.1363686
51	0x3e520a1c	0.20511669
52	0x3f042ef5	0.5163415
53	0xbc1e5498	-0.009663723
54	0x3f092556	0.53572595
55	0x3e1fe839	0.1561593
56	0xbd6ceddf	-0.05784404
57	0x3d8712b5	0.06595365
58	0x3f1c16cf	0.60972303
59	0x3f14c644	0.5811503
60	0x3eb3dfef	0.35131785
61	0x3c33ffee	0.010986311
62	0x3d2863cb	0.041110795
63	0x3ccf6b0d	0.0253196
64	0xbc56e4c5	-0.013116066
65	0xbe0542d6	-0.13013777
66	0xbf38e3f3	-0.7222282
67	0x3ec04b44	0.37557423
68	0xc0091e97	-2.142492
69	0xbf9d9f56	-1.231425
70	0xbefae244	-0.49000752
71	0x3f5b8242	0.8574563
72	0x3eaa9cc5	0.3332273
73	0xbf8fedf6	-1.1244495
74	0xbdea24fa	-0.11432834
75	0xbf95a7dd	-1.1691853
76	0xc00b6a2f	-2.178356
77	0xbc1d556c	-0.009602886
78	0xbfa8bf43	-1.3183368
79	0x402464b6	2.568647
80	0xbccd1819	-0.025035905
81	0x3f30b53e	0.69026554
82	0xbf3c1671	-0.7347174
83	0x3dee3ed4	0.11633077
84	0x3e8bb06d	0.2728304
85	0xbed1aa97	-0.40950462
86	0x3e9c63de	0.30544943
87	0xbf5e1f6a	-0.86766684
88	0x3eb1e2df	0.347434
89	0x3faca9d9	1.3489333
90	0x3e92423f	0.28566167
91	0xbef4886f	-0.4776034
92	0xbf657133	-0.89625853
93	0x3f1ccc6b	0.6124942
94	0x3f001906	0.5003818
95	0xbf3e6348	-0.7437024
96	0x3ed9fd28	0.42575955
97	0x3ed9ff91	0.42577794
98	0x3e1046fb	0.14089577
99	0x3ed45a78	0.41475272
100	0x3f6ffb07	0.9374241
101	0x3f02aa77	0.5104136
102	0x3ebb4d52	0.36582428
103	0xbfa4b966	-1.2869079
104	0x3ee5fe88	0.44920754
105	0xbfc4ea37	-1.5383977
106	0x3ee213bf	0.4415569
107	0x3e988ff8	0.2979734
108	0x3f1eec20	0.6207905
109	0xbd7df47e	-0.062000744
110	0x3f79043d	0.9727209
111	0xbf49efb6	-0.78881395
112	0x3e8fdc7a	0.28097898
113	0x3d382ec0	0.04496646
114	0x3f920a57	1.1409405
115	0x3c57c2d1	0.013169006
116	0x3f1bca3b	0.60855454
117	0x3d19fe38	0.037595958
118	0x3ee98758	0.45611072
119	0x3eba83bf	0.3642864
120	0x3e1d59f6	0.15366349
121	0x3ae32665	0.0017330168
122	0x3f048dae	0.51778686
123	0x3e5ac10a	0.21362701
124	0x3eab4ff6	0.33459443
125	0xbdfe5bb1	-0.124198325
126	0x3d95d162	0.07315327
127	0xbc9b4b04	-0.018956669
128	0x3e469a33	0.1939476
129	0x3e86649c	0.26248634
130	0x3e4167a3	0.1888719
131	0x3eb3f7b7	0.3514993
132	0x3f243952	0.64149964
133	0x3e841caf	0.25803134
134	0x3e831a49	0.2560599
135	0xbf964332	-1.1739256
136	0x3f40cdcf	0.7531404
137	0xbfc97155	-1.5737711
138	0x3ef572dd	0.47939196
139	0x3ea9a49c	0.331334
140	0x3f0313ca	0.5120207
141	0x3e739c07	0.23789988
142	0x3f5a72f5	0.8533166
143	0xbf857667	-1.0426759
144	0x3ea2b411	0.31778005
145	0x3e0c44f9	0.13698186
146	0x3f88d1cd	1.0689026
147	0x3e82605d	0.25464144
148	0x3f36bc0c	0.71380687
149	0xbddd7d8f	-0.10814964
150	0x3ee161e8	0.4402001
151	0x3e87b591	0.26505712
152	0x3ea3779a	0.31927186
153	0xbe2e5625	-0.17025049
154	0x3ead9931	0.33905938
155	0x3ee0a257	0.43873855
156	0x3f1caa87	0.61197704
157	0xbdb1b8b2	-0.08677806
158	0x3e057984	0.13034636
159	0xbd86da2d	-0.065845825
160	0x3dd72865	0.105057515
161	0x3eac66a5	0.33672062
162	0xbd03e9cb	-0.032205384
163	0x3e646d00	0.22307205
164	0x3ef37f54	0.4755808
165	0x3e676575	0.22597297
166	0x3e42ccc1	0.1902342
167	0xbf9c7e95	-1.222613
168	0x3f3631d5	0.7116979
169	0xbfa653a3	-1.2994274
170	0x3dfab5fd	0.12241743
171	0x3e9a4f6e	0.30138725
172	0x3e5c4b58	0.21513116
173	0x3e354a56	0.17704138
174	0x3f7d7691	0.9900904
175	0xbf623f2f	-0.8837766
176	0x3dcde373	0.10053148
177	0x3dd293ac	0.102820724
178	0x3f49753c	0.7869451
179	0x3e498a69	0.19681706
180	0x3f388f13	0.72093314
181	0x3d818b31	0.06325377
182	0x3f202a9a	0.62565005
183	0x3d56fabc	0.052485213
184	0x3c93744d	0.017999792
185	0xbcdc75a7	-0.02691157
186	0x3ef5632a	0.4792722
187	0x3f39cc97	0.72577804
188	0x3f47d36c	0.7805698
189	0xbe2ebaf4	-0.17063504
190	0xbd8c5bcd	-0.06853447
191	0x3d08ab8b	0.03336672
192	0x3e685775	0.22689612
193	0x3e0ba745	0.13638027
194	0x3e37d4b4	0.17952234
195	0x3df9ae6c	0.121914715
196	0x3e993165	0.29920498
197	0x3e0b3841	0.13595678
198	0x3e738dcf	0.23784564
199	0xbfa20fa6	-1.2661026
200	0x3f495a36	0.78653276
201	0xbf9970ff	-1.1987609
202	0x3e95d4fe	0.29264063
203	0x3ea58c17	0.32333443
204	0x3ee31d33	0.44358215
205	0xbda67e9e	-0.08129619
206	0x3ee67610	0.4501195
207	0xbedc253e	-0.42997164
208	0x3eded9e5	0.43525615
209	0xbe06978d	-0.1314375
210	0x3f49c641	0.78818136
211	0x3e16e597	0.14736019
212	0x3f1eded4	0.6205876
213	0xbcc49fe6	-0.024002027
214	0x3f254c1e	0.6456927
215	0x3e2a9d94	0.16661674
216	0x3e49eb7e	0.1971874
217	0x3d22f8c5	0.039788026
218	0x3f3c4f97	0.73558944
219	0x3f08fa92	0.5350734
220	0x3e55c7d9	0.20877017
221	0xbe579389	-0.21052374
222	0x3d995c53	0.074883126
223	0xbce80a65	-0.028325269
224	0x3edd5247	0.43226835
225	0x3e9ee775	0.31035963
226	0x3e902df2	0.28160053
227	0x3ed1f50b	0.41007265
228	0x3f18830d	0.5957497
229	0x3e0dc97b	0.1384639
230	0x3e084038	0.13305748
231	0xbfada9e0	-1.3567467
232	0x3f217b27	0.6307854
233	0xbfa2bc9b	-1.2713808
234	0x3eb0dd92	0.34544045
235	0x3ddf2e5e	0.10897516
236	0x3f078f5a	0.5295311
237	0x3e117d54	0.14207965
238	0x3f723642	0.9461404
239	0xbf593d67	-0.8485932
240	0x3edc5a39	0.43037584
241	0x3e90f31b	0.28310475
242	0x3f6d639d	0.9273012
243	0x3e97d00e	0.2965092
244	0x3f16b262	0.5886594
245	0xbe18e6c6	-0.14931783
246	0x3f2dba52	0.6786243
247	0x3ec9f36e	0.39443535
248	0x3e76f679	0.2411746
249	0xbe04e78e	-0.12978956
250	0x3f1adcf0	0.60493374
251	0x3f10b867	0.56531376
252	0x3f0dad6d	0.5534275
253	0xbebda1e4	-0.37037575
254	0xbdfe9a7d	-0.1243181
255	0x3e5cc2de	0.21558711

fc2.bias f4 [64]
0	0xbe74aa46	-0.23893079
1	0xbe999f26	-0.30004233
2	0x3e6623d9	0.22474612
3	0xbe80ed96	-0.25181264
4	0xbd2afd36	-0.041745387
5	0xbdd3da90	-0.10344422
6	0x3d09cd67	0.033643153
7	0xbe1e171a	-0.154385
8	0xbcd68e19	-0.026190804
9	0x3e8c5d89	0.27415112
10	0x3eef649a	0.4675644
11	0xbdc21e80	-0.09478474
12	0xbd9080b7	-0.070558004
13	0xbdd07086	-0.10177712
14	0xbd985ba4	-0.07439354
15	0xbcbdbe81	-0.023162128
16	0xbdfc9d43	-0.12334683
17	0xbe8cd314	-0.2750479
18	0xbd9c27ca	-0.07624777
19	0x3c19adf8	0.009379856
20	0xbdf3a0b4	-0.11895886
21	0xbde3b08a	-0.111176565
22	0xbcdbf35b	-0.02684944
23	0x3f188555	0.5957845
24	0x3d116699	0.035498235
25	0xbe2157f1	-0.15756203
26	0xbe824388	-0.25442147
27	0x3da7f534	0.08201066
28	0xbe46b76d	-0.19405909
29	0xbe862f6b	-0.26208052
30	0x3ef1a5ea	0.47196895
31	0xbe70922c	-0.2349326
32	0xbe3b1d05	-0.18272789
33	0x3dc500a2	0.09619261
34	0x3a159bd1	0.00057071174
35	0x3f2aec3d	0.6676672
36	0xbe7abac7	-0.24485312
37	0xbd9b89b6	-0.07594626
38	0x3dd2745d	0.10276101
39	0x3d925286	0.07144646
40	0xbea20f01	-0.31652072
41	0xbe0b9f50	-0.13634992
42	0x3e2ad3d5	0.1668237
43	0xbe0263de	-0.12733409
44	0x3f699441	0.9124184
45	0xbe1ca7ba	-0.15298358
46	0xbe7abe1e	-0.24486586
47	0xbd615737	-0.055014815
48	0xbd34791c	-0.04406081
49	0xbe911e30	-0.28343344
50	0xbd8f9e6f	-0.07012641
51	0x3d52c088	0.051453143
52	0x3f3c23df	0.73492235
53	0xbe401b33	-0.18760376
54	0x3f8add33	1.0848755
55	0x3f0f5c89	0.5600057
56	0xbc9beed4	-0.01903478
57	0xbe11d857	-0.14242683
58	0xbd705ce6	-0.058682345
59	0xbd9b4679	-0.07581801
60	0xbec4dc58	-0.3844936
61	0xbd9c07b9	-0.076186605
62	0xbe4fe159	-0.20300807
63	0x3df45138	0.11929554

fc3.weight f4 [4, 64]
0	0xbeee0503	-0.464882
1	0xbf654b17	-0.89567703
2	0x4084db6a	4.151784
3	0xbeb6429c	-0.35597694
4	0xbeab054f	-0.33402488
5	0xbeed86d8	-0.4639194
6	0xbec3f589	-0.38273266
7	0xbed8369e	-0.4222917
8	0xbe86e395	-0.26345506
9	0xbe8c1738	-0.27361465
10	0x3f103437	0.56329674
11	0xbdd4e76c	-0.10395703
12	0xbed48dc3	-0.41514406
13	0xbf0e7b04	-0.55656457
14	0xbe988e44	-0.2979604
15	0xbedc423e	-0.4301929
16	0xbeac1935	-0.3361298
17	0xbecea059	-0.4035671
18	0x3c6ecac2	0.014574708
19	0xbeb5ffad	-0.35546628
20	0xbeb2f69c	-0.34953773
21	0xbe98c58a	-0.2983821
22	0xbeebbca8	-0.4604237
23	0x3ffd1b6a	1.9773991
24	0xbee32455	-0.44363657
25	0xbeaa8ad5	-0.33309045
26	0x3fb22a15	1.3919092
27	0x3fbf4cb0	1.4945278
28	0xbe957fd3	-0.29199085
29	0xbed76c80	-0.42074966
30	0x3f86e037	1.0537175
31	0xbf2af04a	-0.667729
32	0x3c67a3c7	0.014138169
33	0xbed7e889	-0.42169598
34	0xbf145847	-0.579472
35	0x3ffe8b7e	1.988632
36	0xbeeb8003	-0.45996103
37	0xbebb94f4	-0.3663708
38	0xbefdd4e9	-0.495765
39	0xbefe25d4	-0.49638236
40	0xbe81643e	-0.2527179
41	0xbeb0532a	-0.3443845
42	0xbec753ba	-0.38931066
43	0xbeb57477	-0.35440418
44	0x40068e07	2.1024187
45	0xbf0483af	-0.51763433
46	0xbead5b4c	-0.33858716
47	0xbec747a3	-0.38921842
48	0xbe269c61	-0.16270591
49	0xbe9bde23	-0.30442914
50	0xbee0e509	-0.4392474
51	0x3daa8c58	0.0832755
52	0x3fff02bf	1.9922713
53	0xbed67ec0	-0.41893578
54	0x3fa32c37	1.2747868
55	0x3cc4df60	0.024032295
56	0xbf042889	-0.5162435
57	0xbf12c4b1	-0.5733138
58	0xbe953073	-0.29138526
59	0xbee7099f	-0.45124528
60	0xbe8fcd14	-0.2808615
61	0xbec19e7c	-0.37816226
62	0x3b0a9ee1	0.0021151828
63	0xbf0e4b02	-0.555832
64	0xbedd7c79	-0.43259028
65	0xbebbba66	-0.36665648
66	0x407b8a67	3.9303224
67	0xbee34d74	-0.4439503
68	0xbec38618	-0.38188243
69	0xbec46780	-0.38360214
70	0xbeffcf51	-0.49962857
71	0xbeec4678	-0.46147513
72	0xbf0396bb	-0.5140187
73	0xbf5444e2	-0.82917607
74	0x3fbdca5d	1.4827381
75	0xbdad2efe	-0.08456229
76	0xbf0c7220	-0.5486164
77	0xbe54e167	-0.20789109
78	0xbee9f5b7	-0.45695278
79	0xbed24905	-0.41071334
80	0xbee04385	-0.43801513
81	0xbeefbe3b	-0.46824822
82	0x3cdabe3a	0.026702035
83	0xbe0ddcfe	-0.13853833
84	0xbef5a11a	-0.47974473
85	0xbea7a78d	-0.3274502
86	0xbea2731f	-0.31728455
87	0x400e8444	2.2268229
88	0xbee9687a	-0.45587522
89	0xbeeddd15	-0.46457735
90	0x3fe1bdab	1.7636007
91	0x3f5285bf	0.8223533
92	0xbf194c7b	-0.59882325
93	0xbe9163b3	-0.28396377
94	0x3fdd6ba3	1.7298473
95	0xbe999cf4	-0.30002558
96	0xbc7b39dd	-0.01533362
97	0xbec29460	-0.38003826
98	0xbe86079e	-0.26177686
99	0x4002f245	2.046037
100	0xbecbfdd0	-0.3984208
101	0xbee500ba	-0.44727117
102	0xbf616e5e	-0.8805903
103	0xbe4e36f4	-0.2013815
104	0xbf0ad511	-0.54231364
105	0xbed2accf	-0.41147467
106	0xbeb3f73c	-0.35149562
107	0x3c828811	0.015934022
108	0x3ff725d5	1.930842
109	0xbe9cfd3f	-0.3066196
110	0xbf1fdcea	-0.62446463
111	0xbe90dbca	-0.28292686
112	0xbea38e5a	-0.31944543
113	0xbec5f6fd	-0.38665
114	0xbec898d3	-0.39179096
115	0xbf229421	-0.63507277
116	0x3ffd2148	1.9775782
117	0xbe92a2f5	-0.2863995
118	0x3f682f23	0.90696925
119	0x3f094658	0.5362296
120	0xbdf8157b	-0.12113472
121	0xbee7d5bc	-0.45280254
122	0xbeca9d42	-0.39573103
123	0xbf0fad2f	-0.5612363
124	0xbf045b63	-0.51701945
125	0xbebcb17a	-0.36854154
126	0xbd9b4431	-0.07581366
127	0xbdf47843	-0.119370006
128	0xbf8e5416	-1.1119411
129	0xbf379076	-0.71704805
130	0x402316b7	2.5482614
131	0xbf00ac71	-0.50263125
132	0xbeb7a049	-0.35864475
133	0xbe8a6f6a	-0.27038127
134	0xbe1b9176	-0.15192208
135	0xbea10c2b	-0.31454596
136	0xbea38662	-0.31938463
137	0x3f8372ca	1.0269406
138	0x3fba8394	1.4571404
139	0xbc031200	-0.007999897
140	0xbed20dc9	-0.41026142
141	0xbed01342	-0.40639693
142	0xbf04e42d	-0.5191067
143	0xbed740b5	-0.42041555
144	0xbe802090	-0.25024843
145	0xbef23dd3	-0.47312793
146	0x3cb1517a	0.021645296
147	0xbf2098f7	-0.62733406
148	0xbeda2e76	-0.42613572
149	0xbf1c1fe7	-0.6098618
150	0xbec53e55	-0.38524118
151	0x40076527	2.1155488
152	0xbeb8803f	-0.36035344
153	0xbed113ba	-0.40835363
154	0xbfbcc912	-1.4748862
155	0xc03c0936	-2.9380622
156	0xbeab0680	-0.33403397
157	0xbf2728a9	-0.6529642
158	0xbebedd4a	-0.37278205
159	0xbf1134df	-0.567213
160	0xbf97ca2f	-1.1858577
161	0xbe1895e1	-0.14900924
162	0xbe857416	-0.2606513
163	0x4027c0e4	2.621148
164	0xbf0bcbce	-0.54607856
165	0xbe5aab11	-0.21354319
166	0xbeae24ea	-0.34012538
167	0xbeb07f4d	-0.34472123
168	0xbec33821	-0.3812876
169	0xbe3770b1	-0.17914082
170	0xbe709bf6	-0.23496994
171	0xbf2e62cb	-0.68119496
172	0x4007f8f0	2.124569
173	0xbed394d2	-0.41324478
174	0xbec1c546	-0.3784582
175	0xbe103c62	-0.14085534
176	0xbf2b4ef1	-0.6691733
177	0xbe807cc6	-0.25095195
178	0xbe0be918	-0.13663137
179	0xbf07ac24	-0.5299704
180	0x3f93903b	1.1528391
181	0xbf013f93	-0.5048763
182	0x400252e3	2.036309
183	0x3f9ed5ce	1.2408998
184	0xbe529f3c	-0.20568556
185	0xbf28f66e	-0.6600102
186	0xbe6747c0	-0.22585964
187	0xbeb6738e	-0.35635036
188	0xbf04e538	-0.5191226
189	0xbe88f5b9	-0.26749972
190	0x3c1de566	0.009637212
191	0x3bb4d87f	0.0055189724
192	0xbedf1c11	-0.435761
193	0xbf3601cb	-0.71096486
194	0x4073ded9	3.8104765
195	0xbec9249b	-0.3928574
196	0xbf03af7f	-0.5143966
197	0xbf257baa	-0.6464182
198	0xbe46e414	-0.19422942
199	0xbf13240c	-0.5747688
200	0xbeb6e20f	-0.35719344
201	0xbce162e7	-0.02751298
202	0x3f115aac	0.5677898
203	0x3d32410c	0.043519065
204	0xbee56dfb	-0.4481047
205	0xbef0501b	-0.46936116
206	0xbed1371d	-0.4086236
207	0xbe9210ba	-0.28528386
208	0xbf14a719	-0.5806747
209	0xbecacad1	-0.39607862
210	0x3dcd7cd9	0.100335784
211	0xbee7723e	-0.45204347
212	0xbe6f315e	-0.23358676
213	0xbf0762a6	-0.528849
214	0xbeb3bc51	-0.35104612
215	0x40003813	2.0034225
216	0xbe59cbe7	-0.21269189
217	0xbf0f2c9f	-0.5592746
218	0x3f7e6ac2	0.9938165
219	0x3f988c48	1.191781
220	0xbe9dffea	-0.3085931
221	0xbef9936b	-0.48745283
222	0x3eb3aa6b	0.35090956
223	0xbeb9754c	-0.36222303
224	0xbf3f07ee	-0.74621475
225	0xbe680e90	-0.22661805
226	0xbef4276f	-0.47686335
227	0x3fe821f7	1.8135365
228	0xbe5be1bc	-0.2147283
229	0xbe6721d6	-0.22571501
230	0x3d733293	0.059374403
231	0xbe5711a1	-0.21002819
232	0xbef46f52	-0.4774118
233	0xbed6d9f4	-0.4196316
234	0xbe9215f9	-0.2853239
235	0xbf6a4a6e	-0.9151982
236	0x4010735a	2.2570405
237	0xbe8b61ef	-0.27223155
238	0xbe41def6	-0.18932709
239	0xbec397df	-0.38201806
240	0xbf23d69d	-0.6399935
241	0xbecb95ea	-0.39762813
242	0xbeabcb0a	-0.33553344
243	0x3e4ab52a	0.19795671
244	0x3fe50a2d	1.789373
245	0xbed36510	-0.41288042
246	0x3ff2dc13	1.8973411
247	0xbe95bac7	-0.29244062
248	0xbf078af5	-0.52946407
249	0xbd075d6e	-0.033048086
250	0xbf061d36	-0.5238832
251	0xbe83d33c	-0.25747097
252	0xbef88762	-0.4854079
253	0xbef9282c	-0.4866346
254	0x3debe46d	0.11518178
255	0xbefc0594	-0.49223006

fc3.bias f4 [4]
0	0x3d2dba64	0.042414084
1	0xbd9cbf49	-0.07653672
2	0x3f266d69	0.65010697
3	0x3e85cfd3	0.2613512
