NeurPiRL_v0/LunarLander/DQN/checkpoints/300.pth (torch, 22315 bytes, 6 tensors)

fc1.weight f4 [64, 8]
000000 f8 34 43 bf 05 d5 5a bf 5e ea ab 3f 9b 31 71 3f
       -0.762527 -0.8548129 1.3430898 0.94216317
000010 f1 19 73 bf 5b 68 fa be 33 18 30 3f 1a 30 dc 3e
       -0.9496146 -0.48907742 0.68786925 0.4300545
000020 48 b8 a7 be 72 42 fc 3d 2f 96 3b 3e d5 f6 24 bf
       -0.32757783 0.12317361 0.18319009 -0.64439136
000030 0a 57 23 3e 42 05 31 3e 4d cd 6a 3f ec f1 ea 3d
       0.15951172 0.17287162 0.91719514 0.11471924
000040 18 8b ab be 93 d6 36 3f 8b 94 91 be 40 bc 9f 3f
       -0.33504558 0.71421164 -0.28433642 1.2479324
000050 83 08 59 3f c1 77 62 3f 74 b4 29 bf 8d af a9 bf
       0.8477861 0.8846398 -0.66290975 -1.3256699
000060 b9 a3 fb 3d 6d bf 9f bf 01 f8 a0 be dd fb d2 be
       0.12287087 -1.2480294 -0.31439212 -0.4120778
000070 18 1a 2d bf c5 dd b7 3e 00 0a 82 3d 37 aa 10 bf
       -0.6761794 0.35911384 0.063495636 -0.5650973
000080 4c 19 53 bd d0 fd 7c be e6 7e e8 3e d4 70 4b bf
       -0.051537797 -0.24706197 0.45409316 -0.7946904
000090 3a 5c 78 bf 9f 9b d1 be 24 3b 1b 3f 11 44 a1 bd
       -0.97015727 -0.40939042 0.60637116 -0.07874311
0000a0 6f 08 08 bf 2c 16 46 3f ca b0 3f 3f dc 2b a1 bf
       -0.5313787 0.7737758 0.74879134 -1.259151
0000b0 fe b1 87 3d bd 98 33 3e 3c c4 76 3e 3e 46 2f bf
       0.06625746 0.17538734 0.24098295 -0.68466556
0000c0 2e 67 a4 3f 75 11 55 bf 37 f7 08 3e 70 f8 06 bf
       1.2843988 -0.8322976 0.13375555 -0.52722836
0000d0 5e d3 30 3f 66 43 82 3e 60 a7 fa bc e0 12 d7 3e
       0.6907252 0.25442046 -0.030597389 0.42006588
0000e0 04 a2 b6 3e e8 42 16 3d de be 9d be 88 b9 15 3e
       0.35670483 0.0366849 -0.30809683 0.14621556
0000f0 66 d3 b2 3e de a9 a4 bf 96 5b 01 bf 88 25 5d 3f
       0.3492691 -1.2864339 -0.50530374 0.86385393
000100 9b f9 9b be 72 84 a1 3e ab 7d b1 be e0 d5 c7 3e
       -0.3046387 0.3154636 -0.3466619 0.3903036
000110 9b 3f 66 3f 8e 31 5a bf 10 15 b6 bd e2 50 88 3f
       0.89940804 -0.85231864 -0.08890736 1.0649683
000120 f3 39 3f 3e fb 6f b0 bd 1d 55 07 3e 3f c5 6d bd
       0.1867445 -0.086151086 0.13216062 -0.058049437
000130 ba 5e ed 3f 07 5c 0c bf 33 4e 65 be 0f a9 22 3f
       1.8544533 -0.5482792 -0.22393112 0.6353921
000140 3e 86 59 3f d5 2b 55 bf cc 88 45 3e b4 05 42 bf
       0.8497046 -0.8327001 0.19290465 -0.7578995
000150 96 e8 48 be 67 ec 07 3e a0 35 ee be e4 ab b6 3e
       -0.19619974 0.13273774 -0.46525288 0.35678017
000160 7b 76 32 bf a9 6f 5c bd ab 8b 47 be 5f 94 e8 3d
       -0.69712037 -0.053817425 -0.19486873 0.113564245
000170 ee e3 89 be 0d 02 82 bf cc f1 3d 3e 57 46 49 3f
       -0.2693171 -1.0156876 0.1854927 0.78622955
000180 b1 d7 af 3f 6d d4 03 bf e2 a9 c4 3f 56 f7 ed bd
       1.3737699 -0.5149601 1.5364344 -0.11619441
000190 2c c1 13 bf 3b b2 1e 3f 63 d7 d9 3e 71 17 72 3e
       -0.5771663 0.6199071 0.4254714 0.23641755
0001a0 96 8d 68 bf 66 f8 3b be 15 25 09 bf 0a ea 90 be
       -0.90841043 -0.18356475 -0.5357221 -0.28303558
0001b0 1e 12 5c bd 19 e4 68 bf 80 92 d4 3e d9 17 61 3e
       -0.053728215 -0.9097305 0.4151802 0.21981753
0001c0 80 23 94 bf 0f 5f f2 3e 6c 99 aa bd 1b 39 39 be
       -1.1573334 0.4733815 -0.08330044 -0.1808819
0001d0 29 a4 a2 be b2 57 85 be 4f d3 ee 3e 79 bd 60 bf
       -0.3176587 -0.2604347 0.4664559 -0.8778911
0001e0 3d b1 9f bf 86 3d 2e bf 41 b5 61 bf 54 44 66 bd
       -1.2475964 -0.6806263 -0.88167197 -0.056217507
0001f0 df d5 c4 bc 2e de 87 be 42 d9 b3 bd 15 d2 e0 3e
       -0.024027763 -0.26536697 -0.08781673 0.4391028
000200 63 db 88 bd 73 74 e5 be 13 57 16 bf 3a eb 4b be
       -0.0668247 -0.44815406 -0.58726615 -0.1991395
000210 9b 8b 3a bf d1 58 43 bf 17 59 57 3f 07 99 9c 3e
       -0.7286927 -0.763074 0.84120315 0.305855
000220 b9 35 73 3e 50 04 5a bf 1f 72 cd 3e 29 d0 59 bf
       0.23750962 -0.8516283 0.4012613 -0.8508325
000230 72 b0 f3 be 94 8d 2e be e4 e6 1f 3f 29 83 ba 3e
       -0.47595555 -0.17046195 0.62461686 0.36428192
000240 88 69 7c be c1 39 ea 3d c0 80 40 bf 44 63 e7 be
       -0.24649632 0.11436797 -0.75196457 -0.4519292
000250 10 83 c7 3d 14 5d 2c be 03 67 91 3e 20 96 06 3f
       0.09741795 -0.16832381 0.28398904 0.5257282
000260 a4 77 ec 3d 3c 53 55 be c6 c9 b2 be 8a af 31 bf
       0.11546257 -0.20832533 -0.34919566 -0.69408476
000270 4a 85 1c 40 0d 15 3f 3f f2 9d 0f bf 25 a6 7e be
       2.4456353 0.74641496 -0.5610038 -0.24868067
000280 f4 fc e6 be aa 1c df 3e d7 37 dd 3e 57 b4 76 3f
       -0.45114863 0.43576556 0.43206665 0.96368927
000290 68 1c 57 3f 47 ef 14 bf ef e6 69 3f ac 74 a1 be
       0.8402772 -0.5817761 0.91368 -0.31534326
0002a0 f3 76 b5 bc d2 8e d6 bd 8d 07 e8 3e 76 e0 a6 be
       -0.022151446 -0.104764596 0.4531826 -0.32593125
0002b0 b9 2e 72 bf f5 46 53 be 5a 9d 02 3f 23 69 40 3f
       -0.94602543 -0.20632537 0.5102135 0.75160426
0002c0 7b 3c 14 3f e8 f4 0b bf f5 f6 e2 ba ca e2 20 bf
       0.57904786 -0.5467057 -0.001731603 -0.6284605
0002d0 bf 35 16 3f 18 88 59 3f bf 20 b2 be 6f 7a 44 3e
       0.5867576 0.8497329 -0.34790608 0.1918733
0002e0 94 a6 81 3e cd e1 d1 be 32 5a 77 3e 3a 08 91 bd
       0.25322402 -0.40992585 0.241555 -0.07081647
0002f0 a8 6b 49 bf 51 b2 52 bf d1 fe e1 3e 7f fb 03 3f
       -0.78679895 -0.8230334 0.44139722 0.5155563
000300 05 cd 29 3d cb 46 67 bd ba 65 a0 be fc d8 45 bf
       0.041455287 -0.056463998 -0.3132761 -0.77284217
000310 c9 33 17 3e fb 3d 9f be ba 83 c4 bf 8f 01 d0 bf
       0.14765848 -0.31101975 -1.53527 -1.6250476
000320 f1 ee c0 3e bc 1c 95 3f a8 09 19 3c e5 ac 57 3f
       0.37682298 1.1649394 0.009340681 0.8424819
000330 58 d2 cc 3f 83 a2 14 3f e0 dc 28 bf ba 4f ba bd
       1.6001692 0.58060473 -0.6596203 -0.09097238
000340 17 a3 7c 3f 59 9f 5d bf a2 58 d8 bc 5e 6a 89 be
       0.98686355 -0.8657127 -0.02640945 -0.26838964
000350 b0 bc 41 3f e5 04 9e bf d1 cb 80 3e 33 c5 e6 3e
       0.7567854 -1.2345244 0.251555 0.45072326
000360 00 59 a9 be e9 e5 e4 3b b4 7d 32 be 67 ef db bc
       -0.33075714 0.0069854152 -0.17430764 -0.026847554
000370 d4 6a 64 bd 3b 59 bf bf 13 73 2b bd cd 8c 4b 3d
       -0.05576594 -1.4949106 -0.04185779 0.049694825
000380 7f 52 fb 3d f5 12 3d bf 52 91 90 be b4 c9 59 bf
       0.12271594 -0.7385705 -0.2823587 -0.850734
000390 4f 82 79 3f 35 c5 77 3f 31 e9 2a bd 1f f5 f4 3e
       0.9746446 0.9678529 -0.041726295 0.47843263
0003a0 b7 6f 9e 3f fc ed 40 3f fe 8a 27 be 6e 14 80 bf
       1.2377843 0.75363135 -0.16361615 -1.0006235
0003b0 e5 1c 06 40 f7 f0 b9 3e 6f 64 35 3b 27 17 12 3f
       2.0955136 0.36316654 0.0027678271 0.5706658
0003c0 d8 13 90 3d 38 ea 45 be a7 6f 02 be 20 0c 58 bf
       0.07035035 -0.19327629 -0.12737904 -0.843935
0003d0 e4 2f 03 c0 b6 c3 bb 3e 59 3f 4e bb c5 a1 33 3f
       -2.049798 0.36672753 -0.0031470864 0.70168716
0003e0 37 5c 8f 3e 5e 51 4c be 95 cb 19 3f db 18 0e bf
       0.28000042 -0.19952914 0.60076267 -0.55506676
0003f0 9b bd 23 3f 90 46 86 bf ab 1e cd 3e 51 b9 9f be
       0.6396119 -1.0490284 0.4006246 -0.31196073

fc1.bias f4 [64]
000000 7f 53 52 3f d7 52 e7 3d 73 f5 55 3e ca 20 99 3f
       0.82158655 0.11295097 0.20894413 1.1963131
000010 b6 64 8f be 52 06 88 3f f3 72 83 bd 56 ba dd 3d
       -0.28006524 1.0626929 -0.06418409 0.108265564
000020 3b c6 11 bd 1c 66 bc 3d a7 2a 8b 3d 61 30 20 bf
       -0.035589438 0.09199163 0.06795245 -0.6257382
000030 c7 99 a1 3e 2f c5 82 be 01 00 c7 3e 5b 12 36 3d
       0.31562635 -0.25541064 0.3886719 0.0444511
000040 68 ab 22 bf 5a 10 16 be 44 d5 22 bf 87 96 58 bb
       -0.63542795 -0.14654675 -0.6360667 -0.0033048706
000050 e8 01 6a 3e 0c 7c 14 be ce e4 24 bd c7 2c 9f 3e
       0.2285229 -0.14500445 -0.040257268 0.3108885
000060 29 f5 40 3e 49 09 3f 3f da 97 8a be e2 ea cd be
       0.18843521 0.74623543 -0.2706898 -0.40218264
000070 44 10 00 be 55 93 a4 3e d7 83 66 3d e7 c6 ca 3e
       -0.12506205 0.32143655 0.056278076 0.39604875
000080 61 04 b7 3e cb 62 0a bf be 5a a9 be f1 d9 82 3e
       0.35745528 -0.54056996 -0.33077043 0.255569
000090 ff c7 b6 be b1 d3 d1 3e eb 99 d9 3e d2 5c a2 be
       -0.3569946 0.4098182 0.42500243 -0.3171144
0000a0 26 d8 ad 3e 98 3d bc 3e 46 26 96 bd 65 0f 2b 3f
       0.3395397 0.36765742 -0.07331519 0.66820365
0000b0 b0 d3 51 3e 96 67 12 3d 0e 9a aa 3e ae 25 2e 3f
       0.20490909 0.03574332 0.3332066 0.68026245
0000c0 4d 39 95 3e 7f 0e 43 bf 42 2d 8f be de a3 d8 be
       0.2914528 -0.76193994 -0.27964216 -0.4231252
0000d0 6e 3d b3 be ec b9 3b be ef ce db 3d 2b 40 a8 3e
       -0.35007805 -0.18332642 0.10732829 0.32861456
0000e0 8c 18 cf 3e 35 08 60 3e 5d 3f 92 3e 67 04 a6 3e
       0.40448415 0.2187813 0.28563967 0.32425234
0000f0 56 37 de 3d fd 9f 72 3f bb a6 55 3c 33 a1 cc 3e
       0.10850398 0.9477537 0.01304024 0.39966735

fc2.weight f4 [64, 64]
000000 88 33 1d be 74 62 85 3e 2f 26 64 3f 6f c5 11 bf
       -0.15351689 0.26051676 0.89120764 -0.56941885
000010 a0 80 01 3f 89 5a 24 3e 35 54 1c 3f cd 63 04 3f
       0.5058689 0.16050161 0.6106599 0.51714784
000020 66 c3 ab be 78 19 5d bf f4 5a b4 be af 03 1c 3f
       -0.33547515 -0.8636699 -0.35225642 0.6094312
000030 2a ff 35 bc 32 be d6 3d 2d ac 4f be cb da 9b 3e
       -0.011108199 0.104854956 -0.20280524 0.30440363
000040 72 69 ea bd 15 67 c2 3e 24 d8 12 3f f6 5b 49 be
       -0.11445893 0.3796927 0.57361054 -0.19663987
000050 6a 21 fc 3d a7 87 ae 3e 95 15 dd 3e 0e 42 1a 3e
       0.12311061 0.3408787 0.43180528 0.1506426
000060 58 6f 28 bd 00 3b 62 bd bc 7f 16 bf 8a 85 06 3f
       -0.04112181 -0.055232048 -0.5878866 0.52547514
000070 07 01 1d 3f e9 be 17 3f 3a 9a 12 bf 27 4c ab bd
       0.6132969 0.5927568 -0.5726658 -0.08364134
000080 12 80 cd bd 4a 6c 49 bf dc 56 4f 3f 30 ed db 3d
       -0.10034193 -0.7868086 0.8099191 0.10738599
000090 d2 91 2a 3f 68 d9 a0 3d fb 11 8a 3e 35 c8 bc 3e
       0.66628754 0.07853967 0.26966843 0.36871496
0000a0 7e df e1 be 7b 7b c4 be 9c 86 db 3e d4 a5 10 3f
       -0.44115824 -0.38375458 0.42876136 0.56503034
0000b0 07 81 48 bf 30 34 33 bf 6a 95 c9 3e 58 70 58 3d
       -0.7832188 -0.70001507 0.39371806 0.052841514
0000c0 60 63 b9 3e d0 76 24 bf ce 6b 9f bd 64 95 f8 3e
       0.3620863 -0.64243793 -0.07784234 0.48551476
0000d0 80 aa 34 3f 4f 20 ea 3e e2 59 37 3f d2 15 21 3f
       0.7057266 0.45727775 0.71621525 0.6292392
0000e0 69 ef f5 3d de 21 1e 3f 78 a7 ff 3e ac 95 7b 3d
       0.120085545 0.6177043 0.49932456 0.061422035
0000f0 0e 8f 01 3f 77 3e d3 3d 38 8a 69 be 57 dc 22 3d
       0.5060891 0.103146486 -0.22806633 0.039760914
000100 c9 ec ad 3d b5 4c 4c 3e eb ad 8a bf 88 aa 8b 3e
       0.08492429 0.19951136 -1.0834326 0.27278543
000110 d7 3d 89 3d 98 e5 b8 bd 03 27 54 bd dd 09 db be
       0.06701248 -0.090281665 -0.051795017 -0.42780963
000120 38 01 cb be ae 5a 2b 3c 8a f8 bc bd c2 74 d6 bd
       -0.39649367 0.010458631 -0.092270926 -0.104714885
000130 dc b9 0c bf d6 03 f6 3e 6f 3c c5 3e b4 f4 52 3e
       -0.549711 0.48049802 0.3852267 0.2060116
000140 51 5b 04 3f 31 76 c7 3d 71 98 f1 3e 31 36 62 bc
       0.5170184 0.0973934 0.47186616 -0.013806866
000150 cf 6c 29 be 70 bc 33 3d 6d 34 32 be eb f4 32 3e
       -0.16545413 0.04388088 -0.17402811 0.17476241
000160 c6 08 d7 be d8 b0 23 bf 7e 80 c8 be 7c fd 54 be
       -0.4199888 -0.6394172 -0.39160532 -0.20799822
000170 26 1c 0a 3d 72 8a 41 3d 3b 1e 52 3e 6b 54 fc bd
       0.03371825 0.047251172 0.20519345 -0.12320789
000180 ee 8d a6 bd 55 73 3e bf 69 3b 9e 3e a2 0e 05 3e
       -0.0813254 -0.7439473 0.309047 0.12993863
000190 95 59 43 bf 52 a3 11 3e 11 bc 6b be 03 6a 6f bd
       -0.76308566 0.14222458 -0.2302096 -0.05845071
0001a0 64 63 87 3c 4c 1d 18 bd 1a a4 16 3e c4 b0 34 be
       0.016526885 -0.037137315 0.14711037 -0.17645556
0001b0 62 c4 8f be 21 c1 f5 be 5a 00 16 be ce 9a fa 3d
       -0.28079516 -0.47998908 -0.14648572 0.12236558
0001c0 74 f5 d5 bd 91 3d 03 bf bd ff 0e 3f 91 e1 db 3e
       -0.10447207 -0.5126582 0.55858976 0.4294553
0001d0 3e c5 13 3e f1 a9 b0 3c 9b cb 76 be 54 93 7e 3d
       0.1443071 0.02156541 -0.24101107 0.06215222
0001e0 1e de 04 3d 87 e2 a3 3e b3 c8 8b be 00 c2 24 be
       0.03243839 0.32008764 -0.2730156 -0.1608963
0001f0 ec 99 b1 3e b3 ab e7 bc ea 6d 9b 3e dc 45 05 bd
       0.34687746 -0.028280115 0.30357295 -0.032537326
000200 30 62 d4 be 8d 09 f4 3e 3b a0 98 3f e8 e2 9d be
       -0.4148116 0.47663537 1.1923898 -0.30837178
000210 f6 fb 2b 3f 14 3a 78 3e b5 51 0c 3f e7 98 33 3f
       0.67181337 0.24240905 0.54812175 0.70155185
000220 8e 13 20 bf 70 5a 2d bf 0e 22 a6 be a6 6a 41 3f
       -0.6252984 -0.6771612 -0.32447857 0.7555336
000230 90 98 98 3c 40 dc d9 3e de c8 69 be 98 2b 99 3e
       0.018627435 0.4255085 -0.22830531 0.29916072
000240 88 90 ee 3d 0f 1c 93 3e 2e 87 01 3f c2 4b b4 bd
       0.11648661 0.28732345 0.5059689 -0.08803512
000250 c9 a4 e6 3d 8c ec a6 3e f1 48 cd 3e 92 bb e6 3e
       0.11261899 0.32602346 0.40094712 0.4506498
000260 73 f1 d2 3d 5a d6 c1 3d c7 49 07 bf 8d e7 0e 3f
       0.10299959 0.094647124 -0.5284695 0.5582207
000270 28 14 2a 3f 3b 81 0f 3f ba a8 64 bf 93 38 1e 3e
       0.66437006 0.56056565 -0.89319956 0.15451269
000280 a8 92 a0 be 49 bc 5e bf 13 1f 1d 3f 56 1e a6 3e
       -0.3136189 -0.8700605 0.6137554 0.3244502
000290 3b b1 1a 3f 85 74 33 bb 2a b1 84 3e 59 ee c0 3e
       0.6042668 -0.0027382683 0.25916415 0.37681845
0002a0 ab 09 75 be 94 81 b2 be 99 29 20 3f 94 75 1b 3f
       -0.2392947 -0.34864485 0.62563473 0.60726285
0002b0 1c 44 62 bf 0c cb 3c bf bd c8 07 3f 13 68 cf 3c
       -0.88385177 -0.73747325 0.5304068 0.025318181
0002c0 b7 01 cb 3e 89 9d 6b bf 61 9c a4 3c 57 e8 2b 3f
       0.39649746 -0.92037255 0.020094099 0.671514
0002d0 40 4f 5f 3f 82 37 0d 3f b6 56 54 3f 46 38 18 3f
       0.872303 0.55162823 0.8294481 0.59460866
0002e0 83 f9 c6 3e 1f e1 ef 3e d9 77 ba 3e 78 60 f6 3d
       0.38862237 0.4685144 0.36419562 0.12030119
0002f0 1e 1d 26 3f 46 33 cb 3d c7 1f 14 3d 46 81 f6 3d
       0.6488818 0.09921889 0.036163118 0.12036376
000300 48 ca 50 bf c4 ee c0 3d db 8e 56 3f cd e0 d1 be
       -0.81558657 0.09420541 0.8381173 -0.40991822
000310 53 de 8f 3e 0e 3f 57 be 04 69 b7 3e bf dd 58 3f
       0.28099307 -0.21020147 0.35822308 0.8471336
000320 46 fc 7e bd 0c 29 ce be 37 36 10 be e5 b5 69 3f
       -0.062252305 -0.4026569 -0.14083181 0.91293174
000330 8d fd 79 be 27 95 23 3f 0e 6a 59 bd 4f d7 01 3f
       -0.24413128 0.63899463 -0.053079657 0.5071916
000340 a3 d1 d1 3c 56 68 a6 3e 52 e1 10 3e 49 e8 4e bd
       0.025612658 0.32501477 0.14148453 -0.050514493
000350 7b 4a f7 bd f1 89 d6 3e 73 e1 10 3f a7 2f a1 3e
       -0.12074753 0.41902116 0.5659401 0.31481668
000360 09 ff df 3e 1d b1 a4 3e 6a 68 95 be 60 35 19 3f
       0.43749264 0.32166377 -0.29181224 0.5984707
000370 55 4f e3 3e 01 1f 72 3e 18 e0 2f bf df a3 e1 3e
       0.44396463 0.2364464 -0.68701315 0.44070336
000380 ad b4 2c be b1 c5 09 bf 72 96 bd 3e 7d 8e ef bd
       -0.16865797 -0.5381728 0.37028843 -0.11697099
000390 f1 62 3a 3e 76 bd fd bc ae 49 10 3f f5 a4 3a 3f
       0.18201806 -0.030974131 0.56362426 0.72907954
0003a0 25 fc 9a be c7 c7 29 be b9 fa e0 3d f5 45 de 3e
       -0.30270496 -0.16580115 0.109853216 0.43412748
0003b0 a6 61 c4 be 8d 39 da be f3 4e c6 3e bf f4 01 3e
       -0.3835575 -0.42622033 0.38732108 0.1269102
0003c0 56 52 73 3e ed 52 96 bf f1 1e 16 be 70 77 1c 3f
       0.23761877 -1.1744057 -0.1466024 0.6111975
0003d0 74 43 06 3f e7 20 09 3f ac 76 6d 3f 06 a3 07 3f
       0.52446675 0.5356583 0.92759204 0.5298313
0003e0 88 d3 7a 3d 95 9f 86 3f 29 f4 f4 3e c1 21 87 be
       0.06123689 1.051745 0.4784253 -0.2639294
0003f0 03 7f 40 3f fb 9c ed bd 8e 16 5d 3e 0c c4 36 3e
       0.75193805 -0.11602207 0.21590635 0.17848223

fc2.bias f4 [64]
000000 7b 83 02 3e af 14 ab bc 16 52 da 3d cd cb c4 3c
       0.12745468 -0.020883886 0.10660188 0.024022961
000010 aa ef d5 bb 01 8b 2b be ab f5 8c bd a2 77 61 3d
       -0.0065288143 -0.16752245 -0.06882795 0.05504573
000020 2f 4f 37 3f d8 c3 97 3b ff c3 06 bd 76 32 04 3f
       0.716052 0.0046315007 -0.03290176 0.516395
000030 53 1b 40 3c 8e c0 6e 3e a2 28 71 3d 4b 1e cf 3e
       0.011725265 0.23315641 0.05887664 0.404528
000040 2f e2 56 3d d2 73 1c 3f f1 ac 7f 3e 55 2a c7 be
       0.0524618 0.6111423 0.24968316 -0.38899484
000050 5e 13 1e 3c 02 07 01 3f 3e c4 bc bd 7d d0 54 3e
       0.009648172 0.5040132 -0.09217118 0.20782657
000060 40 95 fc bd 57 3c 9c 3e b7 4d 6e be 98 2e 16 bd
       -0.12333155 0.30514786 -0.23271833 -0.03666553
000070 6e eb 10 bf d1 d7 6d be 33 e6 d9 bd e7 54 d0 3e
       -0.5660924 -0.23226859 -0.1063961 0.40689775
000080 2b 0d b0 3e 83 37 3f bd 35 60 8f bb 93 ca af 3e
       0.34385046 -0.0466838 -0.0043754824 0.3433424
000090 ad ca ba 3e 14 64 75 bc c0 95 23 bc fa 71 59 3e
       0.36482754 -0.014977474 -0.009984434 0.21234885
0000a0 65 b0 23 3e ae aa 2e bf b1 77 80 be 8d 97 06 3c
       0.15985258 -0.68229187 -0.25091317 0.008214843
0000b0 a3 71 12 be 06 e0 cf be e1 eb 49 3e 22 2c 28 be
       -0.14301161 -0.40600604 0.19718887 -0.16423085
0000c0 cd c3 06 3f 10 12 1a 3d 6d 16 24 be 03 62 10 3d
       0.5264252 0.037614882 -0.1602418 0.03524972
0000d0 4d 92 d4 be f5 9e 75 3f 05 87 86 3e 9f 1a a4 bc
       -0.4151787 0.95945674 0.26274887 -0.020032225
0000e0 7b 7e 6d bc dc 05 aa 3d 79 dc 05 3e 51 fe 46 be
       -0.014495487 0.08301899 0.13072385 -0.19432952
0000f0 f2 76 31 3e 2f 63 15 be 91 79 99 bd 98 ce 85 3e
       0.1733053 -0.14588617 -0.0749389 0.2613418

fc3.weight f4 [4, 64]
000000 74 f5 c3 be a8 0b 19 bf d2 bb d8 be 56 1e e8 be
       -0.38273203 -0.5978341 -0.42330796 -0.45335644
000010 28 63 d4 be 7e 94 a6 be c7 dc 13 bf 44 60 ab 3e
       -0.414819 -0.32535166 -0.57758754 0.33471882
000020 c9 c9 e2 3f 4d c5 4f bf a9 04 90 3e b8 8d 1f 40
       1.771783 -0.8116043 0.28128555 2.4930248
000030 df c6 f2 3f 1c d1 01 40 25 8c 81 3f ff 3e ba 3f
       1.8966941 2.028388 1.0120894 1.4550475
000040 14 37 2d 3d b6 c3 e1 3f 83 74 80 3f 80 85 30 bf
       0.042288855 1.7637851 1.0035557 -0.68953705
000050 a5 a6 7e bf 3b b2 fa 3f 6b f5 d4 bb 2b bf 97 be
       -0.9947303 1.9585642 -0.0064989827 -0.29638037
000060 c0 1c 6d bd cc 73 06 3f d9 37 e3 3d ec 78 9a be
       -0.057888746 0.5252044 0.110946365 -0.3017038
000070 d2 f3 a1 bf 16 a4 87 3e c0 34 d8 be de d7 38 be
       -1.2652533 0.26492375 -0.42227745 -0.18051097
000080 67 64 18 40 86 3f 07 bd ef 3c e0 3e 0d ff 92 be
       2.381128 -0.033019565 0.4379649 -0.28710213
000090 eb 07 5e bf dc df 15 bf 08 b2 d0 be de db 0b bf
       -0.8673083 -0.5854471 -0.40760827 -0.54632366
0000a0 0f c4 97 be 98 4f c2 be c2 99 f0 3d f6 83 51 3e
       -0.29641768 -0.3795135 0.11748077 0.20460495
0000b0 a6 da c3 bd 67 eb 0f bf 03 7a d7 be 34 a8 eb be
       -0.09563188 -0.5621857 -0.42085275 -0.46026766
0000c0 02 a8 06 40 a1 87 07 40 b8 60 e4 be 1a 04 e2 3e
       2.1040044 2.1176531 -0.4460504 0.44143754
0000d0 9e 50 28 3d 82 8b 03 40 10 0d 00 40 2e a8 14 bf
       0.041092508 2.05539 2.0007973 -0.5806912
0000e0 22 12 e2 be 85 5d cd be df a4 0c bf b5 40 76 3c
       -0.4415446 -0.40110412 -0.54939073 0.015030076
0000f0 79 03 36 3e c9 e8 89 bf 05 0a 17 bf 1b fd 34 bf
       0.17774762 -1.0774165 -0.58999664 -0.7069871
000100 9b 51 97 be aa 73 41 be 2f 90 cb be 6c 83 7c bf
       -0.29554448 -0.18891779 -0.3975844 -0.98638034
000110 ce bb 11 bf aa b2 4c 3d 1c 20 f9 be de ef c8 3f
       -0.5692719 0.049975075 -0.4865731 1.5698202
000120 d1 5b 94 3f 7e 20 62 bf a9 72 04 be 86 a7 18 40
       1.159052 -0.8833083 -0.12934364 2.3852248
000130 bd 48 80 3f 18 44 0c 40 da 80 7c 3f ce fd 8e 3f
       1.0022198 2.191656 0.9863411 1.1171205
000140 92 43 a4 3d 62 ce e3 3f 42 5d 86 3f 00 8b 2c be
       0.080207005 1.7797358 1.049721 -0.168499
000150 ec 9d 45 3e 9d cf 05 40 c8 10 7d bd 1b 7f 07 bf
       0.19298524 2.0907967 -0.061783582 -0.5292832
000160 10 2e a4 bd e9 7a b1 3f 2e 71 8b bf 18 c2 5b bf
       -0.08016598 1.3865634 -1.0893915 -0.8584304
000170 de f2 95 bf d5 05 08 3e 3e f3 07 bf 20 82 10 3d
       -1.1714742 0.13283475 -0.53105533 0.035280347
000180 6d 9e 30 40 c9 5a f2 3d ce b8 44 bf d2 a6 a8 3e
       2.7596695 0.11833722 -0.7684449 0.32939774
000190 55 34 93 be 11 dd ad bd 3d 47 03 bf d1 be b7 be
       -0.28750864 -0.08489431 -0.51280576 -0.3588777
0001a0 88 7d 9b be c8 a9 3c bf 26 f9 b1 3f b6 13 df be
       -0.3036921 -0.73696566 1.3904159 -0.43569726
0001b0 ad be 99 3d 6a 9b 45 bf f3 ad 81 be c2 5b 0f bf
       0.07507072 -0.7719027 -0.25328025 -0.55999386
0001c0 66 56 10 40 b8 10 c8 3f d3 64 a8 3e ab eb ec 3e
       2.2552733 1.5630102 0.32889423 0.4627355
0001d0 d7 6c 1e be 92 9f 1b 40 f5 ee 12 40 69 f2 eb be
       -0.15471207 2.4316144 2.2958348 -0.46083382
0001e0 c4 a9 96 be 2c 26 df be 87 78 99 be 73 8e 80 bf
       -0.29426396 -0.4358381 -0.29974768 -1.0043472
0001f0 8e 4f a6 3d 7e 8a f8 bf 9c 03 c6 be 0b 0a cc be
       0.081206426 -1.9417264 -0.3867463 -0.39851412
000200 69 28 08 bf c4 49 0e 3f 95 33 fe be e0 b2 14 bf
       -0.5318666 0.5558131 -0.4964873 -0.5808544
000210 f6 28 c5 be 8d 39 38 bf 93 a7 13 bf fe cf 59 3f
       -0.38507813 -0.71962816 -0.5767757 0.85082996
000220 d0 70 0c 40 d1 3f 4b bf 5f 54 82 3f eb e1 08 40
       2.1943855 -0.7939425 1.0181998 2.138789
000230 14 58 9e 3f 29 9b 01 40 99 6b 78 3f 26 98 98 3f
       1.2370629 2.0250952 0.9703918 1.1921432
000240 da 4d cb bd 69 0f 84 3f 51 d6 44 3f e9 5c 87 bf
       -0.099269584 1.0317203 0.7688952 -1.0575229
000250 a9 b9 da bf 11 c5 a0 3f 24 9f 8b 3d 21 f0 df bd
       -1.7087909 1.256014 0.06817463 -0.10934473
000260 9c 88 35 bd a0 98 37 3f 09 e1 3c 3f 89 f2 14 bf
       -0.044319734 0.7171726 0.73780876 -0.5818258
000270 bc 1d 53 bf 1c 4f a0 3f 3f 6b e4 bd c0 bc e5 3e
       -0.82467246 1.2524142 -0.11153268 0.44870567
000280 a2 04 43 40 6e 75 2e 3b 21 d7 c6 3d d0 cd 7e be
       3.0471578 0.0026620287 0.09709001 -0.24883199
000290 72 2a e0 be f8 36 72 bf ec d8 07 bf 20 83 7e bc
       -0.43782383 -0.94615126 -0.5306537 -0.015534192
0002a0 41 10 e2 be 9a f8 19 bf 73 64 c4 3f 5e 37 f0 bd
       -0.44153026 -0.6014496 1.5343155 -0.117293105
0002b0 9b 01 e6 3c 53 ce 88 bf 71 21 b0 be 94 ad df be
       0.028076937 -1.0687965 -0.34400514 -0.43687117
0002c0 07 0d 19 40 6d e1 0d 40 56 12 7b bf 80 67 ba bf
       2.3914201 2.216884 -0.98074853 -1.4562836
0002d0 fb 88 a4 bf 8d ad dd 3f 69 20 c7 3f f8 c8 e9 be
       -1.2854303 1.7318588 1.5556766 -0.4566114
0002e0 e0 34 d9 be 20 ad be be da 20 e7 be 8a fc 14 bf
       -0.42423153 -0.3724146 -0.4514225 -0.58197844
0002f0 78 09 2e 3f dc cb 81 bf 09 90 86 bf 73 1f 6f bd
       0.679832 -1.0140338 -1.0512706 -0.0583796
000300 48 c9 de be 90 44 ef be 4f a2 00 bf 4f 02 9c bd
       -0.4351294 -0.46731997 -0.50247663 -0.07617628
000310 38 3e 0c bf 6c 1a 28 bf 3d 58 ce be 57 6c d5 3e
       -0.5478244 -0.65665317 -0.40301695 0.4168422
000320 ba e8 04 40 ac 9a 30 bf 24 ae 85 3f e3 f9 17 40
       2.0767045 -0.6898601 1.0443769 2.3746269
000330 7e 56 8e 3f dc ce c4 3f 8c 2b 34 3f 83 0e 11 3f
       1.1120145 1.5375628 0.7037895 0.5666277
000340 00 7b dd 3c d7 66 17 40 b5 7d 71 3f 7c 8f 6b bf
       0.02703619 2.3656518 0.9433244 -0.92015815
000350 4e be e1 be 5d 4f f0 3f b8 ac e0 bd 85 32 0e bf
       -0.44090503 1.877422 -0.109704435 -0.55545837
000360 78 ba af bd b3 b3 d4 3e b1 80 ed bd a1 e1 06 3e
       -0.08580488 0.4154335 -0.115968116 0.13172008
000370 09 63 43 3f 7f 88 5e 3f 4c bd 12 bf 3b 00 94 be
       0.7632299 0.86927027 -0.57320094 -0.28906426
000380 a9 24 1e 40 3b cc d4 3d 17 53 0c 3f fe d1 12 bf
       2.4709876 0.10390516 0.54814285 -0.5735167
000390 5f 01 06 bf d0 01 55 bf ce 98 cb be d2 27 16 bf
       -0.5234584 -0.8320589 -0.39765018 -0.5865451
0003a0 01 4a 06 bf e4 73 19 3e 69 d6 6c 3e f6 44 af bf
       -0.5245667 0.14985615 0.23128666 -1.369292
0003b0 0d 39 a2 3d 4a f7 6f bf 01 5c 0e bf 35 2c 08 bf
       0.07921038 -0.9373671 -0.55609137 -0.53192455
0003c0 eb 82 e6 3f 15 22 03 40 4a 8b 4a bf 93 51 4f bf
       1.8008703 2.0489552 -0.7911879 -0.8098385
0003d0 a3 e2 80 bf 2b a4 f6 3f 56 e1 11 40 23 22 05 bf
       -1.0069164 1.926885 2.2793784 -0.52005213
0003e0 06 53 c5 be 3d f1 fc be d9 b5 f8 be 92 9c ef bd
       -0.38539904 -0.494028 -0.4857624 -0.11699785
0003f0 68 fc 6b be e4 34 a3 bf b0 c9 89 bd f4 04 19 bf
       -0.23045504 -1.2750516 -0.06727922 -0.5977318

fc3.bias f4 [4]
000000 e6 74 74 be 20 31 65 3e f9 9d f2 3d 1f d4 00 be
       -0.23872718 0.22382021 0.11846537 -0.12580918
