NeurPiRL_v0/LunarLander/DQN/checkpoints/400.pth (torch, 22315 bytes, 6 tensors)

fc1.weight f4 [64, 8]
0	0xbf718dde	-0.943571
1	0xbf995f24	-1.198216
2	0x3f8265a4	1.0187268
3	0x3f013e24	0.50485444
4	0xbf21dae6	-0.6322464
5	0xbec3a23b	-0.3820971
6	0x3f2e67be	0.6812705
7	0x3f1186cf	0.56846327
8	0xbe8fef9b	-0.28112492
9	0x3e9e6bf9	0.30941752
10	0x3dca79e8	0.09886533
11	0xbf205055	-0.62622577
12	0x3e9c1456	0.30484265
13	0x3e4cf21e	0.20014235
14	0x3f66747d	0.90021497
15	0x3e1c262e	0.1524894
16	0xbec84daf	-0.39121768
17	0x3f56d39b	0.83916634
18	0xbe6c3876	-0.23068413
19	0x3fafb9f7	1.3728627
20	0x3f5965fc	0.8492124
21	0x3f65a279	0.8970104
22	0xbeeec366	-0.46633452
23	0xbf8ea7f6	-1.1145008
24	0xbcf49314	-0.029855289
25	0xbf9cfaf5	-1.2264086
26	0xbf218043	-0.63086337
27	0xbf134adf	-0.5753612
28	0xbf35d688	-0.71030474
29	0x3ec5d024	0.3863536
30	0x3d829160	0.06375384
31	0xbf290223	-0.66018885
32	0xbca57745	-0.020198474
33	0xbc2a3073	-0.010387528
34	0x3e766c47	0.24064742
35	0xbeee5e92	-0.46556526
36	0xbf69694b	-0.9117629
37	0xbf492f63	-0.7858793
38	0x3f41d01e	0.75708187
39	0x3d79e57a	0.06100986
40	0xbf26a67e	-0.65097797
41	0x3f280e1e	0.6564654
42	0x3f8aa83c	1.0832591
43	0xbfce5e1d	-1.6122471
44	0x3e3c0088	0.18359578
45	0x3d7f5227	0.062334206
46	0xbd88c3cc	-0.0667797
47	0xbf3d3a13	-0.7391674
48	0x3fed4f8b	1.85399
49	0xbf6698c5	-0.9007686
50	0x3f1fa1c6	0.6235622
51	0xbebe466b	-0.371631
52	0x3f0d7ec5	0.5527156
53	0x3efa5573	0.48893318
54	0xbdefb6c8	-0.11704785
55	0x3e97dd43	0.29660997
56	0x3e8cb942	0.2748509
57	0x3dc1b07f	0.09457492
58	0xbe8aa459	-0.27078512
59	0x3ce369b5	0.027760366
60	0x3f57781b	0.8416764
61	0xbf3ee84f	-0.74573225
62	0xbedc34cb	-0.43009028
63	0x3f56d78a	0.83922637
64	0xbe8ae480	-0.27127457
65	0x3e11b2ac	0.14228314
66	0xbe13723d	-0.14399047
67	0x3f25e444	0.6480143
68	0x3f5d2330	0.86381817
69	0xbf5a1434	-0.8518708
70	0xbdce2ded	-0.100673534
71	0x3f8e45f0	1.1115093
72	0x3cb04504	0.021517284
73	0xbc88822b	-0.016663631
74	0xbd88a3f0	-0.066718936
75	0xbd975c03	-0.07390597
76	0x400e7eb6	2.2264838
77	0xbe990d7e	-0.29893106
78	0xbe6ab75c	-0.22921509
79	0x3f089c16	0.5336317
80	0x3ebf3299	0.3734329
81	0xc022be45	-2.5428631
82	0xbb96cb94	-0.004601905
83	0xbfb7c95b	-1.4358324
84	0xbe18c688	-0.14919484
85	0x3ec9f437	0.39444134
86	0xbef25444	-0.47329915
87	0x3da46b6a	0.080283
88	0xbf3dea60	-0.7418575
89	0xbe5bfb30	-0.21482539
90	0xbe601f7d	-0.21887012
91	0x3f5c7332	0.86113274
92	0x3c4e7f5d	0.012603608
93	0xbf3851bb	-0.7199971
94	0x3e3da343	0.1851931
95	0x3f6ac698	0.9170928
96	0x3f8692ba	1.0513527
97	0xbe9b99ed	-0.30390874
98	0x3ffd6e6d	1.9799324
99	0xbf6e9276	-0.9319223
100	0xbf2df175	-0.6794656
101	0x3f47c616	0.7803663
102	0x3e584cb2	0.21123007
103	0x3e8ceb09	0.27523068
104	0xbf617026	-0.8806175
105	0xbe79d68b	-0.24398248
106	0xbf475221	-0.77859694
107	0xbe22955b	-0.15877287
108	0x3cf7456a	0.030184466
109	0xbf8b4857	-1.0881451
110	0x3eae2a34	0.34016573
111	0x3e8023f2	0.25027424
112	0xbfa1f0c7	-1.2651604
113	0x3e8f7719	0.28020552
114	0xbde4cd9e	-0.11172031
115	0xbee29dea	-0.44261104
116	0xbe16ad91	-0.14714648
117	0x3dbcf551	0.09226478
118	0x3eb2b80a	0.34906036
119	0xbf6b5dee	-0.919402
120	0xbf953945	-1.1658102
121	0xbf604b46	-0.8761486
122	0xbf6b9d72	-0.9203712
123	0xbe1e57a8	-0.15463126
124	0x3e3b7fca	0.18310466
125	0xbde05b67	-0.109549336
126	0xbd3d61de	-0.04623591
127	0x3efa60b5	0.48901907
128	0xbe943b19	-0.28951338
129	0xbf1e90af	-0.6193952
130	0xbf1738f6	-0.5907129
131	0xbd163e85	-0.036680717
132	0xbf645f9a	-0.89208376
133	0xbf658b71	-0.89665896
134	0x3f522732	0.8209106
135	0x3e9c57d4	0.30535758
136	0x3ef5e67c	0.48027408
137	0xbf5a6e55	-0.85324603
138	0x3f099543	0.5374338
139	0xbf54168b	-0.828469
140	0xbf431793	-0.76207846
141	0xbc98d803	-0.01865769
142	0x3f062227	0.5239586
143	0x3ee079d9	0.43842962
144	0xbf0a9785	-0.5413745
145	0x3e1670d9	0.14691485
146	0xbf6fd170	-0.9367895
147	0xbe2bde62	-0.16784051
148	0x3da62c65	0.08113936
149	0xbe6bc792	-0.23025349
150	0x3e744981	0.23856165
151	0x3f09e30e	0.5386208
152	0x3eb73f01	0.35790256
153	0xbd9b8391	-0.07593454
154	0x3c865812	0.016399417
155	0xbea4f75f	-0.3221998
156	0x40210fa9	2.5165808
157	0x3f4b1b34	0.79338384
158	0xbea8147b	-0.32828125
159	0x3da4c3f9	0.08045191
160	0xbed4c4ae	-0.41556305
161	0x3e96004a	0.29297096
162	0x3f52e369	0.8237825
163	0x3f25762c	0.6463344
164	0x3f8064ec	1.0030799
165	0xbf3232fe	-0.6960906
166	0x3f6e686a	0.93128073
167	0xbe2ec615	-0.1706775
168	0x3d8915aa	0.06693585
169	0xbe2e624e	-0.17029688
170	0x3b99458f	0.0046774815
171	0x3e15696d	0.14590998
172	0xbf9c4c5b	-1.2210802
173	0xbeff0ad6	-0.49812955
174	0x3f139d60	0.5766201
175	0x3f3d2af2	0.73893654
176	0x3f53dfae	0.82763183
177	0xbf07a3dc	-0.52984405
178	0x3eca6dc6	0.39536875
179	0xbf42a419	-0.76031643
180	0x3e1de405	0.15419014
181	0x3f82db10	1.0223103
182	0xbf054e00	-0.52072144
183	0x3ec335c6	0.38126963
184	0x3e9b69d7	0.30354187
185	0xbf0401e0	-0.5156536
186	0x3eb48ad5	0.3526217
187	0x3e3cce81	0.1843815
188	0xbf289880	-0.65857697
189	0xbf794735	-0.9737428
190	0x3ee4f51c	0.44718254
191	0x3ea65d0b	0.3249286
192	0xbd8bc606	-0.06824879
193	0x3e1fca29	0.15604462
194	0xbe93e6cb	-0.2888702
195	0xbf4f510a	-0.8098303
196	0x3e8b6863	0.27228078
197	0xbe756d11	-0.23967387
198	0xbfc483ba	-1.53527
199	0xbfd0018f	-1.6250476
200	0x3e7ab7e8	0.24484217
201	0x3f8243de	1.0176961
202	0x3ecaad11	0.39585164
203	0x3f9551c8	1.1665583
204	0x3fbd0dfe	1.4769895
205	0x3f3f2164	0.74660325
206	0xbf1816c2	-0.59409726
207	0xbe0d2a62	-0.13785699
208	0x3f52df83	0.823723
209	0xbf8176a5	-1.0114332
210	0x3ed95193	0.4244505
211	0xbf01e7d3	-0.5074436
212	0x3f3b74bb	0.7322499
213	0xbf9054e3	-1.1275905
214	0x3e6f74ff	0.23384474
215	0x3ecfef09	0.40612057
216	0xbeb3d1b4	-0.35120928
217	0x3e41a284	0.18909651
218	0xbe118cee	-0.14213917
219	0x3e932ab6	0.28743523
220	0xbd0c4832	-0.03424854
221	0xbfc9d8e9	-1.5769321
222	0x3ca1b4ed	0.019739592
223	0xbd87d791	-0.06632913
224	0xbe2cc010	-0.16870141
225	0xbf5d30cd	-0.8640259
226	0xbf00f92a	-0.50380194
227	0xbf6c61a7	-0.92336506
228	0x3f492a36	0.78580034
229	0x3f8eec2b	1.1165823
230	0xbd68f99a	-0.056878664
231	0x3ede1434	0.4337479
232	0x3f9d6169	1.2295352
233	0x3f5965db	0.84921044
234	0xbd1bdcf6	-0.03805252
235	0xbfa17b43	-1.2615741
236	0x3fef6b4f	1.8704623
237	0x3e5787ea	0.21047941
238	0xbd810f6e	-0.06301771
239	0x3f1548a4	0.58313966
240	0x3e80a1ee	0.25123543
241	0xbe978978	-0.29597068
242	0xbe9e8640	-0.309618
243	0xbf641e80	-0.8910904
244	0xc015a96f	-2.3384664
245	0x3e148eab	0.14507549
246	0xbd5fda13	-0.05465133
247	0x3efd591a	0.49482042
248	0x3e85327c	0.2601508
249	0xbeadebd8	-0.33968997
250	0x3fa918f7	1.3210744
251	0xbfa202f4	-1.2657151
252	0x3f82c6f9	1.0216972
253	0xbf6b4822	-0.9190694
254	0x3f0cc581	0.5498887
255	0xbe94cb62	-0.2906142

fc1.bias f4 [64]
0	0x3f4760e7	0.77882236
1	0x3db0b7d9	0.08628816
2	0x3e3d0a54	0.18460971
3	0x3fa84a38	1.314765
4	0xbea69037	-0.32531902
5	0x3f7cd17f	0.98757166
6	0xbd132579	-0.03592441
7	0x3c87aa27	0.016560627
8	0x3ddfcb2e	0.10927425
9	0x3c63df69	0.013908246
10	0x3e081de3	0.13292651
11	0xbf316a03	-0.69302386
12	0x3e9d41b0	0.30714178
13	0xbe495e41	-0.19664861
14	0x3f0db838	0.5535922
15	0xbae77f6b	-0.0017661875
16	0xbf115a86	-0.5677875
17	0xbe1e0b07	-0.15433894
18	0xbf2b2b3e	-0.6686286
19	0xbe8db8c1	-0.2768002
20	0x3e3d2f55	0.18475087
21	0xbce816ce	-0.028331187
22	0xbde08472	-0.10962762
23	0x3ee346ba	0.44389898
24	0x3e388372	0.18018892
25	0x3f3e914d	0.7444046
26	0xbebcd756	-0.36883038
27	0xbec26834	-0.37970126
28	0xbe0e9441	-0.13923742
29	0x3ef56fca	0.4793685
30	0x3e27de30	0.16393352
31	0x3eb4cdc3	0.35313234
32	0x3ee7501b	0.45178303
33	0xbecc4b5c	-0.39901245
34	0xbef6fa32	-0.4823776
35	0x3e1a6b14	0.1507991
36	0xbe905307	-0.28188345
37	0x3ee7ec69	0.45297554
38	0x3ef565ef	0.47929332
39	0xbedec95f	-0.4351301
40	0x3ee08f3a	0.43859273
41	0x3e941e81	0.28929523
42	0xbeb1916a	-0.34681255
43	0x3f40f1b0	0.75368786
44	0x3ecb39e8	0.39692616
45	0x3d59cbcb	0.053172868
46	0x3ec22a87	0.3792307
47	0x3f396839	0.72424656
48	0x3ea859cb	0.32881007
49	0xbf2af266	-0.6677612
50	0xbce3b368	-0.027795509
51	0xbf02bc5c	-0.51068664
52	0xbf018147	-0.50587887
53	0xbe81e7cb	-0.25372157
54	0x3e48fb3d	0.1962709
55	0x3eae90e1	0.3409491
56	0x3e8938ba	0.2680109
57	0x3e98fe77	0.2988164
58	0x3ebae6e8	0.36504292
59	0x3edf6ed8	0.43639255
60	0x3e3da1e1	0.18518783
61	0x3f7e9f29	0.9946161
62	0x3b9d18e3	0.0047942265
63	0x3f1a1e97	0.60202926

fc2.weight f4 [64, 64]
0	0xbd831884	-0.0640116
1	0x3e392dd1	0.18083884
2	0x3f31c3cb	0.6943938
3	0xbf33372b	-0.70006055
4	0x3f18de62	0.5971433
5	0x3d3cf945	0.04613616
6	0x3f46c521	0.77644545
7	0x3ede18c4	0.4337827
8	0xbe9b0210	-0.3027501
9	0xbf66afde	-0.901121
10	0xbf1aa21d	-0.60403615
11	0x3f4ba91f	0.79554933
12	0x3e316ba4	0.17326218
13	0x3e19bfca	0.15014568
14	0xbebe398b	-0.37153277
15	0x3e8d288c	0.27569997
16	0x3ce2703b	0.027641406
17	0x3eaf4380	0.34231186
18	0x3f3b764a	0.7322737
19	0xbe97d48e	-0.29654354
20	0x3cf7deac	0.030257545
21	0x3ed123c1	0.4084759
22	0x3f0624ac	0.52399707
23	0x3e0d7524	0.13814217
24	0xbd8abae5	-0.067739286
25	0xbd5c8e38	-0.053846568
26	0xbefd79ac	-0.4950689
27	0x3f443e0a	0.76657164
28	0x3f04c508	0.51863146
29	0x3f1736e0	0.5906811
30	0xbf32c3a4	-0.69829774
31	0xbcc3ffe8	-0.023925737
32	0xbe23faf5	-0.16013701
33	0xbf77e34b	-0.96831197
34	0x3fa100f7	1.257842
35	0x3bb6f67f	0.005583584
36	0x3ef306a1	0.47465995
37	0x3d66ddcb	0.056363862
38	0x3e81e90a	0.25373107
39	0x3eddb719	0.43303755
40	0xbee1d866	-0.4411041
41	0xbecdb739	-0.4017885
42	0x3f011ed3	0.5043766
43	0x3f12aa5a	0.57291186
44	0xbf8296eb	-1.0202307
45	0xbf80340d	-1.0015885
46	0x3ebf3e1a	0.37352067
47	0xbbc1dda4	-0.005916314
48	0x3f3a8ce8	0.72871256
49	0xbf62c1ff	-0.88577265
50	0xbe2aeaff	-0.16691206
51	0x3f2394e1	0.63899046
52	0x3fabcff9	1.3422843
53	0x3ee4692b	0.44611487
54	0x3f297eab	0.66208905
55	0x3f185263	0.5950071
56	0x3ce57588	0.028010145
57	0x3f1ec607	0.62020916
58	0x3eab10f3	0.3341137
59	0x3df37df1	0.11889256
60	0x3f04bafa	0.51847804
61	0xbd5ea81a	-0.054359533
62	0xbe58adae	-0.21160004
63	0x3d880e3c	0.0664334
64	0xbd1bbbfb	-0.03802107
65	0x3e1e3683	0.15450482
66	0xbf60c044	-0.87793374
67	0x3e73526e	0.23761913
68	0xbdb51dfd	-0.088436104
69	0xbe998876	-0.29986924
70	0xbdf6d3de	-0.12052129
71	0xbebb12dd	-0.3653783
72	0xbe9869fe	-0.29768366
73	0x3e397d93	0.18114309
74	0xbdf174f6	-0.11789887
75	0xbca9dc81	-0.020735027
76	0xbed88060	-0.42285442
77	0x3ef85521	0.48502448
78	0x3e79151e	0.24324462
79	0x3e6d90ea	0.23199812
80	0x3eddb4d4	0.43302023
81	0x3d39fbba	0.04540608
82	0x3f0f62be	0.56010044
83	0x3d5fb65a	0.054617263
84	0xbe87e476	-0.2654149
85	0xbd6a9df8	-0.057279557
86	0xbe205aac	-0.15659589
87	0x3d01f60c	0.03172879
88	0xbf06ebb2	-0.5270339
89	0xbf30bf3e	-0.6904181
90	0xbe5561b6	-0.20838055
91	0xbe12e58f	-0.14345382
92	0xbcb81f43	-0.022475844
93	0x3d56d74f	0.052451428
94	0x3d134e2e	0.03596323
95	0xbeb2950d	-0.34879342
96	0xbdf7c445	-0.12097982
97	0xbfb00ab1	-1.3753263
98	0x3efc54c9	0.49283436
99	0x3cb36701	0.021899702
100	0xbf9f84b3	-1.2462372
101	0x3dd0add4	0.10189405
102	0xbf02d324	-0.51103425
103	0xbdecf20e	-0.11569606
104	0xbb0e866f	-0.002174761
105	0x3d1feb13	0.039042544
106	0x3ea6ce65	0.32579342
107	0xbe0449ce	-0.12918779
108	0xbe8cde48	-0.27513337
109	0xbe9bfe11	-0.30467275
110	0xbe04d12e	-0.1297042
111	0x3d916295	0.07098881
112	0xbf3e2993	-0.7428219
113	0xbef2820c	-0.47364843
114	0x3f1ffe6f	0.6249761
115	0x3ef6d5f2	0.48210102
116	0x3ef022c1	0.46901515
117	0xbd27e487	-0.040989425
118	0xbdca0877	-0.09864896
119	0x3e130083	0.14355664
120	0xbdb46504	-0.0880833
121	0x3eb1dc5d	0.34738436
122	0xbec4beb8	-0.38426757
123	0xbe948abe	-0.29012102
124	0x3edd125c	0.4317807
125	0xbdb6b8ee	-0.08921991
126	0x3e8ec973	0.2788807
127	0xbe4e605f	-0.2015395
128	0xbea44049	-0.32080296
129	0x3ec825c5	0.39091316
130	0x3f835d4a	1.0262845
131	0xbf131a13	-0.5746166
132	0x3f302db5	0.68819743
133	0x3d608ff0	0.05482477
134	0x3f3ed7bb	0.7454793
135	0x3f2267a5	0.634394
136	0xbf0df0cf	-0.5544557
137	0xbf38f21f	-0.7224445
138	0xbf1637d6	-0.5867895
139	0x3f6d2508	0.9263463
140	0x3e5da739	0.21645822
141	0x3ec99146	0.39368647
142	0xbefaeaff	-0.49007413
143	0x3e894622	0.2681132
144	0x3e3f6356	0.18690237
145	0x3e8ed91b	0.27900013
146	0x3f2bff55	0.6718648
147	0xbe32a591	-0.17445971
148	0x3c2a2be4	0.010386441
149	0x3ed7dbc8	0.42159867
150	0x3f0453c3	0.5169031
151	0x3edb80f0	0.4287181
152	0xbdc1e035	-0.09466592
153	0x3d9dd0ce	0.07705842
154	0xbed5ad86	-0.4173395
155	0x3f254929	0.6456476
156	0x3f11b066	0.5690979
157	0x3f0eb1bf	0.5573997
158	0xbf7fde0a	-0.9994818
159	0x3dd37c44	0.10326436
160	0xbeb74f6f	-0.3580279
161	0xbf709da5	-0.93990546
162	0x3f7ed7aa	0.9954783
163	0x3e26fc03	0.16307072
164	0x3ecbaa90	0.39778566
165	0xbd31e15f	-0.04342782
166	0x3e0fdbc0	0.14048672
167	0x3efe643e	0.49685854
168	0xbe6bebd3	-0.23039179
169	0xbec72cff	-0.38901517
170	0x3f3b2ea2	0.7311803
171	0x3f129419	0.5725723
172	0xbf8e4fa5	-1.1118056
173	0xbf7cf246	-0.9880718
174	0x3ef44fb9	0.47717074
175	0xbc96be65	-0.018401334
176	0x3f353887	0.7078938
177	0xbf990442	-1.1954424
178	0xbdf6a063	-0.1204231
179	0x3f582c08	0.84442186
180	0x3fbb7f90	1.4648304
181	0x3f110d6d	0.5666111
182	0x3f437c44	0.7636149
183	0x3f088369	0.53325516
184	0x3e7ef4a5	0.24898012
185	0x3ef0bf1c	0.47020805
186	0x3e8cb444	0.27481282
187	0x3e282e1a	0.16423836
188	0x3f2d5e90	0.67722416
189	0xbe11944e	-0.1421673
190	0x3c98e0c3	0.018661862
191	0x3df476d1	0.11936725
192	0xbf2ece79	-0.682838
193	0x3d248b42	0.04017187
194	0x3f4f4215	0.8096021
195	0xbf02742a	-0.509585
196	0x3e16b36f	0.14716886
197	0xbe0e8c08	-0.13920605
198	0x3ef55d52	0.4792276
199	0x3f4045de	0.7510661
200	0xbd47702d	-0.048690964
201	0xbf1d4bf3	-0.61444014
202	0xbee6f224	-0.45106614
203	0x3f7a2356	0.9771017
204	0xbe2b8ddb	-0.16753332
205	0x3f1f2a85	0.62174255
206	0xbc9ebe84	-0.019377954
207	0x3f03dfd4	0.5151341
208	0xbd0052a0	-0.031328797
209	0x3e53846b	0.20655982
210	0x3e8caaef	0.27474162
211	0xbe458481	-0.19288827
212	0xbda263bd	-0.0792918
213	0x3eb7b280	0.35878372
214	0x3f33b6b9	0.7020069
215	0x3ead495e	0.33845037
216	0x3ead09dd	0.33796588
217	0x3e9c1e97	0.30492088
218	0xbe832fd6	-0.25622433
219	0x3ea6de5d	0.32591525
220	0x3ea75e40	0.32689095
221	0x3e4f0876	0.20218071
222	0xbf5b15f4	-0.8558037
223	0x3ed39e55	0.41331735
224	0xbe103916	-0.14084277
225	0xbf20bc97	-0.62787765
226	0x3f30f83e	0.6912879
227	0xbe0fad95	-0.1403106
228	0x3df0019d	0.11719058
229	0xbda1c619	-0.07899112
230	0x3f3a4ff3	0.7277824
231	0x3f34f007	0.7067875
232	0xbe81bb48	-0.25338197
233	0xbe6745fc	-0.2258529
234	0x3e6cfa8a	0.23142448
235	0x3f0f8599	0.5606323
236	0xbf1afc0f	-0.6054086
237	0xbeae4608	-0.34037805
238	0x3ea64e22	0.32481486
239	0x3e1830a8	0.14862311
240	0x3f088d79	0.5334087
241	0xbf9a3e95	-1.2050349
242	0xbc4ceb8b	-0.01250733
243	0x3f479153	0.7795612
244	0x3f6cea2b	0.9254481
245	0x3ed9845e	0.424838
246	0x3f71443a	0.9424473
247	0x3ed744c2	0.42044646
248	0x3cf993d4	0.030465998
249	0x3f777069	0.966559
250	0x3ee9368d	0.4554943
251	0xbde38e96	-0.111111805
252	0x3f46a76e	0.7759923
253	0xbd6c713a	-0.05772517
254	0x3e6044c3	0.2190123
255	0x3e767d26	0.24071178

fc2.bias f4 [64]
0	0x3c4fbcd4	0.0126792975
1	0xbdb03447	-0.08603721
2	0xbd6bb8ff	-0.057549473
3	0xbb10e1d3	-0.0022107258
4	0xbdfcfb37	-0.12352603
5	0xbe646a85	-0.22306259
6	0xbe83598f	-0.25654265
7	0x3e65d0d3	0.22442941
8	0x3f315fc5	0.6928676
9	0xbda5dc83	-0.080987
10	0x3c684165	0.0141757475
11	0x3f08b3de	0.53399456
12	0x3d5485f4	0.05188556
13	0x3e9775b7	0.29581997
14	0x3deed1f4	0.11661139
15	0x3ef947a1	0.4868746
16	0x3d56e22f	0.0524618
17	0x3f1625b4	0.5865128
18	0x3ecd3403	0.40078744
19	0xbf1b9b71	-0.6078406
20	0xbdc071e6	-0.093967244
21	0x3eff232f	0.4983153
22	0xbdbcc43e	-0.09217118
23	0x3def49ba	0.11683984
24	0xbdfc9540	-0.12333155
25	0x3e836746	0.2566473
26	0xbe95dc05	-0.29269424
27	0xbc8cd74d	-0.017192507
28	0xbf254cd5	-0.6457036
29	0xbe861fea	-0.26196223
30	0xbe87d29a	-0.26527864
31	0x3eb63f26	0.35595053
32	0x3ef5d08d	0.48010674
33	0xbd3f3783	-0.0466838
34	0xbd9908c3	-0.07472374
35	0x3ecbcf08	0.3980639
36	0x3eb295e3	0.3487998
37	0xbd841608	-0.064495146
38	0xbe38e8ed	-0.18057604
39	0x3e08cb63	0.13358836
40	0x3cbded24	0.023184367
41	0xbf4f120c	-0.8088691
42	0xbe19fcf5	-0.15037902
43	0xbe0104fb	-0.12599556
44	0xbe1271a3	-0.14301161
45	0xbf40da27	-0.75332874
46	0x3d886717	0.06660288
47	0xbe8fa148	-0.28052735
48	0x3defc030	0.11706579
49	0x3da4e5c9	0.080516405
50	0xbdefcf9e	-0.11709522
51	0x3d49d6c3	0.04927708
52	0xbf34e4e3	-0.70661753
53	0x3f8b7455	1.0894877
54	0x3eb05ec0	0.3444729
55	0xbe41c5b8	-0.1892308
56	0xbe10bc9c	-0.14134449
57	0xbd60d28a	-0.054888286
58	0xbd086e10	-0.03330809
59	0xbea1063f	-0.31450078
60	0x3e90be92	0.28270394
61	0xbd2bab22	-0.04191125
62	0xbdc0cd9f	-0.09414219
63	0x3e482a22	0.19547322

fc3.weight f4 [4, 64]
0	0xbf0be97a	-0.5465313
1	0xbe95dd1a	-0.2927025
2	0xbf047ae3	-0.5175001
3	0xbf023679	-0.5086437
4	0xbed7dd3f	-0.42160985
5	0xbed8b4cd	-0.4232544
6	0xbf1af596	-0.60530984
7	0x3f699a66	0.9125122
8	0x3fe2eeed	1.7729164
9	0xbf53a70f	-0.82676786
10	0x3e7a4274	0.24439412
11	0x403d65f4	2.9593477
12	0x3fe80949	1.8127834
13	0x401e6ef0	2.475521
14	0x3ff31228	1.8989916
15	0x3fded74c	1.7409453
16	0x3d2d3714	0.042288855
17	0x40070172	2.1094632
18	0x3faacc8a	1.334367
19	0xbf939f53	-1.1532997
20	0xbf9f9884	-1.2468419
21	0x4004d15b	2.075278
22	0xbbd4f56b	-0.0064989827
23	0xbe8e2b52	-0.27767426
24	0xbd6d1cc0	-0.057888746
25	0x3f40dc45	0.75336105
26	0x3e1203e8	0.14259303
27	0xbe8806b1	-0.26567605
28	0xbfb1692f	-1.3860224
29	0x3e947ab2	0.2899986
30	0xbef40e6c	-0.47667253
31	0x3d4c1360	0.049823165
32	0x403ab56b	2.9173229
33	0xbd073f86	-0.033019565
34	0x3f17d916	0.5931562
35	0xbe3c4079	-0.1838397
36	0xbf92ee2c	-1.1478934
37	0xbf298a43	-0.66226596
38	0xbf048544	-0.5176585
39	0xbf108950	-0.5645952
40	0xbea89866	-0.3292877
41	0xbf2094e4	-0.6272719
42	0x3e4b460c	0.1985094
43	0xbe5e2f43	-0.21697716
44	0xbdc3daa6	-0.09563188
45	0xbf7505b2	-0.95711815
46	0xbee3ce1d	-0.4449319
47	0xbed880b8	-0.42285705
48	0x40162adc	2.346366
49	0x3ff8408b	1.9394697
50	0xbf023db1	-0.50875384
51	0x3ec85ca3	0.39133176
52	0xbf7cb498	-0.98713064
53	0x40060126	2.09382
54	0x40034129	2.050852
55	0xbf169271	-0.588172
56	0xbf090f2a	-0.53538764
57	0xbf0142e6	-0.50492704
58	0xbf0bd5c0	-0.5462303
59	0xbe631743	-0.22176842
60	0x3e30b3af	0.17256044
61	0xbfd0b6df	-1.6305808
62	0xbf33999e	-0.70156276
63	0xbf89a72c	-1.0754142
64	0xbec3197a	-0.38105375
65	0xbe415526	-0.18880138
66	0xbef3cc52	-0.47616822
67	0xbf716fad	-0.9431103
68	0xbf1669b0	-0.58755016
69	0xbde89d89	-0.113581724
70	0xbf033bd2	-0.51263154
71	0x3fcd9a18	1.6062651
72	0x3f9c8347	1.2227563
73	0xbf537c34	-0.82611394
74	0x3dee1f7d	0.116271
75	0x4025ac64	2.588647
76	0x3f787176	0.9704813
77	0x40282d81	2.6277773
78	0x3fb3781f	1.4021033
79	0x3fc85e72	1.5653822
80	0x3da44392	0.080207005
81	0x3ff50cf5	1.9144579
82	0x3fa2eb43	1.2728046
83	0xbee0852b	-0.438516
84	0xbe443617	-0.19161259
85	0x40124a50	2.2857857
86	0xbd7d10c8	-0.061783582
87	0xbf1686f5	-0.5879968
88	0xbda42e10	-0.08016598
89	0x3fb9c6d8	1.4513807
90	0xbf9217ce	-1.1413515
91	0xbf5e2478	-0.86774397
92	0xbfbef137	-1.4917363
93	0x3e8733eb	0.26406798
94	0xbf0eb06a	-0.55737936
95	0x3dbf6313	0.09345069
96	0x4052563d	3.2865136
97	0x3df25ac9	0.11833722
98	0xbf3f2612	-0.74667466
99	0x3f034fd1	0.51293665
100	0xbeec49d5	-0.4615008
101	0xbee3ce19	-0.44493178
102	0xbf098c7e	-0.5373
103	0xbec39d83	-0.3820611
104	0xbecceec6	-0.4002592
105	0xbf7b981e	-0.9827899
106	0x3fb2fcae	1.3983362
107	0xbf45f6bb	-0.77329606
108	0x3d99bead	0.07507072
109	0xbf96b5df	-1.1774253
110	0xbebdcd06	-0.37070483
111	0xbf07c529	-0.5303522
112	0x401601e1	2.3438647
113	0x3fda97b0	1.7077541
114	0x3e3541da	0.17700902
115	0x3ebe669b	0.37187657
116	0xbf52080a	-0.82043517
117	0x401ee0fb	2.4824817
118	0x400f5006	2.2392592
119	0xbef7d2b5	-0.48402944
120	0xbeb6e7a4	-0.35723603
121	0xbf0374ad	-0.5134991
122	0xbeb78ba1	-0.35848716
123	0xbf85c5ca	-1.0450985
124	0x3f066332	0.5249511
125	0xc007a3f4	-2.119382
126	0xbf4071bc	-0.75173545
127	0xbf28862d	-0.65829736
128	0xbf06d29e	-0.52665126
129	0x3f40a8ed	0.7525776
130	0xbf008f6c	-0.50218844
131	0xbf219699	-0.6312042
132	0xbee45ff4	-0.44604456
133	0xbf4c2840	-0.79748917
134	0xbf1d29c4	-0.61391854
135	0x3f9fe4aa	1.2491658
136	0x40130137	2.2969491
137	0xbf5c45af	-0.8604383
138	0x3f894a8d	1.0725876
139	0x4015fd9d	2.3436043
140	0x3fc30160	1.5234795
141	0x40074986	2.1138625
142	0x3f7f1b3e	0.99650943
143	0x3f99a0bd	1.2002178
144	0xbdcb4dda	-0.099269584
145	0x3fb54ae7	1.4163483
146	0x3f85cbd1	1.0452825
147	0xbfae1c29	-1.3602344
148	0xbfda106d	-1.7036263
149	0x3fe4e815	1.7883326
150	0x3d8b9f24	0.06817463
151	0xbe523ef7	-0.20531832
152	0xbd35889c	-0.044319734
153	0x3f24c5d9	0.6436439
154	0x3f43ddeb	0.76510495
155	0xbf248abb	-0.64274186
156	0xbef54239	-0.47902086
157	0x3f9cee2f	1.2260188
158	0xbe34655c	-0.1761679
159	0x3f0adb7b	0.5424115
160	0x403f272c	2.9867659
161	0x3b2e756e	0.0026620287
162	0x3dfc90a0	0.123322725
163	0xbe8aa7d8	-0.2708118
164	0xbf342ea8	-0.7038369
165	0xbf8d42da	-1.1036026
166	0xbf06e385	-0.5269092
167	0xbd909b9f	-0.07060932
168	0xbf066415	-0.52496463
169	0xbf203d7f	-0.62593836
170	0x3fead4f0	1.8346233
171	0xbf3dc849	-0.74133736
172	0x3ce6019b	0.028076937
173	0xbf94696c	-1.1594672
174	0xbee49d51	-0.44651273
175	0xbf139748	-0.5765271
176	0x40185e8d	2.380771
177	0x40134733	2.3012207
178	0xbf27447b	-0.6533887
179	0xbfbc0406	-1.4688728
180	0xc01190b0	-2.274456
181	0x3fe6e485	1.8038489
182	0x3fd35a41	1.6511918
183	0xbefc155f	-0.49235055
184	0xbee81e2d	-0.45335522
185	0xbeb2f394	-0.3495146
186	0xbf0ee0e9	-0.55811936
187	0xbf3f24a3	-0.7466528
188	0x3f958f27	1.1684312
189	0xbf9dc42d	-1.2325493
190	0xbfb0a23a	-1.3799508
191	0xbea82066	-0.32837218
192	0xbf12ed00	-0.57392883
193	0xbde6700f	-0.11251842
194	0xbf1070e9	-0.5642229
195	0xbd83ee19	-0.06441898
196	0xbf1751f4	-0.59109426
197	0xbf43fb08	-0.7655492
198	0xbee24ceb	-0.4419931
199	0x3f02f1c7	0.5115017
200	0x4003264e	2.049213
201	0xbf292551	-0.66072565
202	0x3f804255	1.0020243
203	0x402cc0c0	2.6992645
204	0x3f91970a	1.1374218
205	0x40018b16	2.0241141
206	0x3f8456ab	1.0338949
207	0x3f9790f8	1.1841116
208	0x3cdd7b00	0.02703619
209	0x40172b33	2.3620117
210	0x3fab8f45	1.3403097
211	0xbfc7d06a	-1.5610478
212	0xbf57dcd3	-0.84321326
213	0x400379a5	2.0542996
214	0xbde0acb8	-0.109704435
215	0xbf1a29a8	-0.6021981
216	0xbdafba78	-0.08580488
217	0x3f251dba	0.64498484
218	0xbdfb3a4d	-0.12266979
219	0x3de2d9a1	0.11076666
220	0x3eb80f27	0.3594906
221	0x3f6c7498	0.9236541
222	0xbf15b433	-0.5847809
223	0xbead884c	-0.3389305
224	0x4036f030	2.85841
225	0x3dd4cc3b	0.10390516
226	0x3f7c81a4	0.98635316
227	0xbef852ae	-0.4850058
228	0xbf27aa7c	-0.65494514
229	0xbf820a43	-1.0159382
230	0xbef6d270	-0.48207426
231	0xbf044b5c	-0.5167749
232	0xbf00c93d	-0.50307065
233	0xbe101570	-0.14070678
234	0x3e975501	0.2955704
235	0xbfde2d61	-1.7357599
236	0x3da2390d	0.07921038
237	0xbfc42415	-1.5323511
238	0xbf052261	-0.52005583
239	0xbf13d6c7	-0.577496
240	0x40141c35	2.3142216
241	0x400f62f5	2.2404149
242	0xbf42cfb9	-0.7609821
243	0xbf2f2db9	-0.6842914
244	0xbfcd20c6	-1.6025627
245	0x3ffeae7f	1.9897002
246	0x40151889	2.3296225
247	0xbf07e117	-0.53077835
248	0xbedcef9c	-0.43151557
249	0xbf160a8d	-0.5860985
250	0xbee9a01d	-0.4562997
251	0xbbdbcf00	-0.006708026
252	0xbd9081f9	-0.0705604
253	0xbfb8c8b3	-1.4436249
254	0xbeccada8	-0.3997624
255	0xbf700d05	-0.93769866

fc3.bias f4 [4]
0	0xbb731480	-0.0037091076
1	0x3ec36899	0.3816574
2	0xbcba506d	-0.022743428
3	0xbd02105c	-0.031753883
