NeurPiRL_v0/LunarLander/DQN/checkpoints/600.pth (torch, 22315 bytes, 6 tensors)

fc1.weight f4 [64, 8]
000000 1e 05 a7 bf 84 85 6e bf 38 ed 3c 3f 71 66 c2 3d
       -1.3048437 -0.9317248 0.7379947 0.094921954
000010 a8 32 de be 1a aa e0 bd ff 8c 2a 3f fd 4f 29 3f
       -0.43398023 -0.10969944 0.6662139 0.6613768
000020 f7 8d 85 be 7a da 0b 3f 80 bc a2 bd 6c 7d 13 bf
       -0.26084873 0.54630244 -0.0794611 -0.57613254
000030 b9 0f b3 3e 88 68 b4 3d c3 45 66 3f 67 d8 c6 3d
       0.34972933 0.08809 0.899502 0.09709244
000040 3c dc c0 bd 9f b2 2b 3f 70 9b a9 3d 48 ed b7 3f
       -0.094170064 0.6706943 0.082816005 1.4369287
000050 47 b3 66 3f 87 03 86 3f df 39 84 bd b4 fe 3c bf
       0.90117306 1.0469826 -0.064563505 -0.73826146
000060 57 95 4f 3d c3 e1 79 bf b0 4f 0a bf 41 84 31 bf
       0.05067953 -0.9761011 -0.54027843 -0.6934243
000070 c1 2f 42 bf 75 d7 cc 3e 03 69 ee 3c 5e 70 2e bf
       -0.75854117 0.4000813 0.029102808 -0.6814021
000080 78 52 bb 3e ba 86 b9 3d 4e f8 bc 3e 55 d3 cf be
       0.36586356 0.090589 0.3690819 -0.4059092
000090 84 fc 38 bf 25 56 85 bf b8 1c 2d 3f 1d fa 38 3e
       -0.7226031 -1.0416914 0.67621946 0.1806416
0000a0 ae f5 0e bf 1b 36 43 3f 3f 79 8f 3f 57 6b d3 bf
       -0.5584363 0.76254433 1.1208876 -1.6517133
0000b0 d4 da ae bd 3f 3c de 3b 43 b9 37 be fb 34 56 bf
       -0.08537832 0.0067820842 -0.17941765 -0.8367459
0000c0 de 6e 13 40 f0 23 6a be d0 93 af 3f 70 29 b3 be
       2.3036418 -0.22865272 1.3716984 -0.34992552
0000d0 55 ef 41 3e 72 f9 cc 3e a4 2c 04 be 71 31 1d 3e
       0.18938954 0.40034062 -0.12907654 0.15350892
0000e0 37 51 67 3e 89 5a eb 3d 17 ef 24 be d8 64 69 3e
       0.22589575 0.114918776 -0.1610683 0.22792375
0000f0 f2 4b 57 3f 30 72 2f bf b2 c9 03 bf 37 31 50 3f
       0.8410026 -0.6853361 -0.5147964 0.81325096
000100 5b 7b 51 be 5b c1 3e 3d 0e 5d 32 3d 5f 3f 1c 3f
       -0.20457213 0.046571117 0.043545775 0.61034197
000110 50 84 60 3f 46 0c 68 bf e6 71 2d be 16 b5 85 3f
       0.8770189 -0.9064373 -0.1693798 1.0445888
000120 0c c3 c3 3d f6 b3 2a bd bf 52 77 bd 21 b3 61 3c
       0.095586866 -0.04167553 -0.060381647 0.013775618
000130 de 6e 1b 40 06 aa 0c be bf e2 0f be 4c b0 de 3e
       2.4286418 -0.13736734 -0.1405134 0.4349388
000140 04 df bb bc 34 a4 2b c0 c8 3d 6b be 80 d3 c8 bf
       -0.02293349 -2.6818972 -0.22972786 -1.5689545
000150 32 0f c0 be fd 89 da 3e d2 73 f1 be 5b c6 13 be
       -0.37511593 0.42683402 -0.47158676 -0.14431135
000160 e0 fe 0c bf 0e 7c 17 bf 4b a6 ae be 02 fa 5d 3f
       -0.5507641 -0.5917367 -0.34111246 0.86709607
000170 37 7e 8e 3d b4 8c 3f bf 60 31 30 3e ad 16 70 3f
       0.06957667 -0.7482407 0.17206335 0.937846
000180 82 f1 0b 3f 05 2b b5 bd 64 91 1b 40 80 9e a6 bf
       0.54665387 -0.08846096 2.430749 -1.301712
000190 36 fa 82 bf 40 f2 1b 3f 94 ee 90 3d c1 01 4d bc
       -1.0232608 0.6091652 0.07076755 -0.012512625
0001a0 bc 11 8c bf 34 bd 1c be 2c 3f b5 bf 1c 7c 50 be
       -1.0942912 -0.1530655 -1.4159904 -0.20359844
0001b0 df e8 ff 3e 89 96 82 bf d9 8b 65 3e e0 d2 71 3e
       0.49982354 -1.020219 0.22416629 0.23615599
0001c0 8e c7 c7 bf 4f 35 55 3d be 0d a4 be d3 cb 07 bf
       -1.5607774 0.052052792 -0.32041734 -0.53045386
0001d0 83 5b 69 bc e7 6b 7a 3a 22 31 b8 3e 72 11 6e bf
       -0.0142430095 0.0009552822 0.35974985 -0.9299537
0001e0 ea b2 02 c0 c4 0b 98 bf 7e 55 69 bf d8 ab 94 be
       -2.04217 -1.187859 -0.91146076 -0.29037356
0001f0 11 40 98 3c 0d 85 2a 3e 61 56 24 bd 31 79 db 3e
       0.018585237 0.16652317 -0.04012144 0.428659
000200 2a 3e c8 be 1c 53 fb bf 85 a5 99 bf d4 09 04 bf
       -0.39109927 -1.9634738 -1.2003638 -0.51577497
000210 59 56 98 bf 4e 21 94 bf 60 13 3d 3f 5e 07 e3 3d
       -1.1901351 -1.1572664 0.7385769 0.110853896
000220 96 62 ec 3e c3 84 6d bf af 88 45 3f 8e f2 58 bf
       0.46168965 -0.92780703 0.7716169 -0.8474511
000230 e7 be 9b bf fa 7e 17 3c 36 3f ec 3e 29 b4 ae 3e
       -1.2167634 0.009246582 0.46141976 0.34121826
000240 3e fd 96 bf d7 4e fc 3d 2c 29 84 bf ee 28 ba be
       -1.1796033 0.12319725 -1.0325065 -0.36359352
000250 7e 6d 67 3e 51 90 2f be 09 2a 3d 3e 66 c4 04 3f
       0.22600362 -0.17144896 0.18473066 0.5186218
000260 b6 7c 27 3f 20 e7 74 be bf 66 46 3f f7 25 07 bf
       0.6542467 -0.23916292 0.7750053 -0.52792305
000270 3c 11 0d 40 9e a6 93 3f ff 91 0d be 64 a5 19 3e
       2.204177 1.1535223 -0.13825224 0.15004498
000280 73 c9 33 bf 2c 26 bf 3e f1 cc a4 3f d1 6c 0b 3f
       -0.7022926 0.3733381 1.2875043 0.54462916
000290 73 b9 84 3f 06 4e 4e bf 9b 80 6e 3f 1a da 32 be
       1.0369095 -0.80587804 0.93164986 -0.17466012
0002a0 60 0a 45 3e 33 b6 87 bf 85 9d 56 bd 89 21 ca bd
       0.19242239 -1.0602478 -0.052396316 -0.098696776
0002b0 6f d6 83 bf 8c 57 72 bf b8 3d e8 3e 95 1c 33 3f
       -1.0299815 -0.94664836 0.45359588 0.6996549
0002c0 36 81 79 3f 11 ae c0 be a5 1e 20 3f 8d 3c 20 bf
       0.97462785 -0.37632802 0.6254676 -0.62592393
0002d0 7d b3 ba bd e7 94 68 3f e7 cd 3b bf ed c9 ba 3e
       -0.09116266 0.90852207 -0.7336106 0.36482182
0002e0 3a a6 a1 3d 8c d8 11 bf 98 89 0d 3f eb f9 a9 3d
       0.07893033 -0.5697105 0.55288076 0.08299621
0002f0 dc ea 07 bf 18 c7 91 bf 8f ba b6 3e 21 7f 82 3e
       -0.5309274 -1.1388884 0.35689208 0.25487617
000300 dc de 0d be f5 05 89 3e 1b 43 31 be a1 3f 29 bf
       -0.13854545 0.26762357 -0.17310755 -0.66112715
000310 58 20 2b 3d aa 3f b6 be ba 83 c4 bf 8f 01 d0 bf
       0.041778892 -0.35595447 -1.53527 -1.6250476
000320 62 16 bc 3e f8 d1 5a 3f 63 3c c8 3e e2 6f 8e 3f
       0.36735827 0.85476637 0.3910857 1.1127894
000330 2e c9 bc 3f ea 3a 15 3f b1 27 08 bf 41 c8 45 be
       1.4748895 0.5829302 -0.53185564 -0.19314672
000340 6f f4 1e 3f 4c 43 a7 bf 40 a9 71 3e 75 8a 57 bf
       0.62091726 -1.3067412 0.2359972 -0.84195644
000350 53 ac 2d 3f 01 fe 85 bf 7f 13 be 3e f0 01 cb 3e
       0.6784107 -1.0468141 0.3712425 0.39649916
000360 e0 91 93 bd 29 be 70 3e 08 e1 77 be c7 a4 53 3e
       -0.07205558 0.2351004 -0.24206936 0.20668326
000370 46 c2 09 3f 17 ac cb bf 83 e0 00 bd 79 76 21 be
       0.5381206 -1.5911893 -0.03146411 -0.1576785
000380 99 a9 a3 3d 83 ff 84 bf 01 0a 3d bd 7e b6 5a bf
       0.079913326 -1.0390476 -0.04615212 -0.8543471
000390 58 35 41 3f 9f c4 b4 3f 73 5b 01 bd ab b2 f8 3e
       0.7547202 1.4122504 -0.031581353 0.48573813
0003a0 7d 7c 9e 3f 11 c4 4f 3f c6 13 0f 3e db 8c bf bf
       1.2381741 0.8115855 0.13972387 -1.4964861
0003b0 b1 4b f0 3f 35 2d b1 3d f7 51 9e be 7a 14 06 3f
       1.8773099 0.08651201 -0.3092191 0.52374995
0003c0 68 cd 87 3e 0d 48 94 be ab d5 9c be 28 89 3b bf
       0.265239 -0.2896122 -0.30631766 -0.7325616
0003d0 9d 0c 21 c0 f5 70 85 be 70 a8 ad bd f1 9a ee 3e
       -2.5163949 -0.26062742 -0.084793925 0.46602586
0003e0 5b fb 2f 3e 5d 6c a4 be 7c 53 af 3f 9d 77 be bf
       0.17185728 -0.32113925 1.3697352 -1.4880253
0003f0 11 0e a4 3f 77 91 46 bf 62 8a 24 3f d6 10 e5 be
       1.2816793 -0.7756571 0.64273655 -0.44739407

fc1.bias f4 [64]
000000 b2 dd 56 3f 32 55 b9 3c 9e fe a1 3e c6 4f b0 3f
       0.8393203 0.022623632 0.3163957 1.3774345
000010 91 aa ea be b3 0d 8b 3f 3f 4b 31 3d 03 be 3d bd
       -0.45833257 1.0863556 0.04328465 -0.046323787
000020 27 29 04 3e b2 f7 47 3d f8 b8 92 3e 5d 23 31 bf
       0.12906323 0.048820205 0.28656745 -0.69194585
000030 7f 8e 73 3e 65 4f 3e be 2c 12 08 3f ed 0c 16 bc
       0.23784827 -0.18584974 0.5315273 -0.009158355
000040 11 a4 22 bf ea 6a bf bd c2 1d 3f bf 43 b2 d1 be
       -0.63531595 -0.09346564 -0.7465478 -0.40956315
000050 70 fc 7d 3e 17 df a9 bc 39 c4 f4 bd 62 86 c9 3e
       0.24803329 -0.02073626 -0.11951489 0.39360338
000060 d7 2f ea 3d ef 2a 48 3f 4a 95 82 be ae e6 b3 be
       0.11434906 0.7819051 -0.25504524 -0.35136932
000070 80 0f 8c be 1f 9c ce 3e b1 50 43 3e 35 6e a0 3e
       -0.27355576 0.40353486 0.1907375 0.3133408
000080 b3 9d 05 3f cf e7 e4 be 1d a2 1d bf 88 36 7a 3e
       0.52193755 -0.44708106 -0.6157549 0.24434865
000090 61 2c 08 be c0 b3 c8 3e 53 d8 a4 3e 06 f3 e7 be
       -0.13298179 0.39199638 0.32196292 -0.453026
0000a0 93 bf 01 3f 29 f6 46 3e 85 e6 f2 be c8 39 5b 3f
       0.50682944 0.1942984 -0.47441497 0.8563504
0000b0 e3 6b 1f 3f 74 17 29 bd 8b fe a2 3e ae dd 1a 3f
       0.62274 -0.041282132 0.31834826 0.60494506
0000c0 f0 94 80 3e 82 52 02 bf 66 ec eb bd ee a7 e7 be
       0.2511363 -0.50907147 -0.11519699 -0.45245308
0000d0 8c 7c 09 bf a2 ce 99 be b4 28 a0 3e 4c 2b b0 3e
       -0.5370567 -0.3004046 0.31281054 0.34408033
0000e0 0d 45 7d 3e 77 0d c0 3e 46 1f f2 3e 6c 6a 05 3f
       0.24733372 0.37510273 0.47289485 0.5211551
0000f0 a9 02 a8 3e 29 ca 8c 3f e4 21 ba bb 60 7a 29 3f
       0.3281453 1.0999194 -0.0056803096 0.66202354

fc2.weight f4 [64, 64]
000000 bc 92 8c bd 2d 53 00 3e 40 d1 20 3f 52 74 33 bf
       -0.06863925 0.12531729 0.6281929 -0.70099366
000010 e8 e9 12 3f e0 2f 11 bd 3d f8 8f 3f ff 78 c0 3e
       0.5738816 -0.035446048 1.1247631 0.37592313
000020 eb 73 9e be 69 3e 5a bf 18 03 56 bf 25 e6 41 3f
       -0.30947813 -0.8525148 -0.8359847 0.757418
000030 8b a9 6a 3e 54 85 91 3e b4 99 a2 be 44 41 14 3f
       0.22916238 0.28422034 -0.3175789 0.5791209
000040 a9 50 88 3e 01 40 aa 3e ca 98 9f 3f ba fb a3 be
       0.2662404 0.33251956 1.2468503 -0.3202799
000050 40 ed 4d bd d4 d6 d4 3e f5 d1 ef 3e 5a c9 15 3e
       -0.050275087 0.4157015 0.46839872 0.14627591
000060 77 4b 81 be e3 c2 77 bd 09 58 d1 be 75 b4 5e 3f
       -0.25252888 -0.060488593 -0.40887478 0.86994106
000070 de 50 f0 3e 4a 2e 19 3f ef dc 24 bf 9f 50 97 b9
       0.46936697 0.59836257 -0.6439962 -0.00028861032
000080 43 05 2a be 1f 44 80 bf 5f e4 b7 3f 9e f3 ca 3d
       -0.1660357 -1.0020789 1.4366568 0.099097475
000090 23 04 c6 3e 95 75 de 3c b0 f0 27 3e 00 80 da 3e
       0.3867503 0.027155677 0.16400409 0.4267578
0000a0 5c 06 ea be c7 29 cc be 45 7c 14 3f ef eb e5 3e
       -0.45707977 -0.39875624 0.5800212 0.44906566
0000b0 51 ba 82 bf 28 f7 7f bf 9d cf b5 3e 91 96 60 bd
       -1.0213109 -0.99986506 0.3550996 -0.05483109
0000c0 de 33 80 3f 3a ed 25 bf 06 44 e6 be 63 c7 10 3f
       1.0015829 -0.64815104 -0.44973773 0.5655424
0000d0 22 b0 b2 3f 2a 5d db 3e d4 03 20 3f 7f 52 01 3f
       1.3960001 0.42844516 0.6250584 0.50516504
0000e0 4e a1 25 bd 85 2f 13 3f 55 97 58 3e 47 8c 95 3d
       -0.040437035 0.57494384 0.21151479 0.073021464
0000f0 5c 65 0c 3f 23 f1 cb bd b7 fe 06 be 29 72 5f 3d
       0.5484216 -0.099581026 -0.13183104 0.05455223
000100 dc 24 51 be 9f 26 a7 3d 91 eb c1 bf dd 4a 0a 3f
       -0.20424217 0.08161663 -1.5150014 0.5402048
000110 64 49 ab be b1 e1 19 bf 6f 6a 76 be ec 1b 6a be
       -0.3345443 -0.6011 -0.24064039 -0.22862214
000120 9f 9b af be 62 bf 2c 3e 5e 4a 04 3e 40 1b 75 be
       -0.34298417 0.16869882 0.12918994 -0.23936176
000130 c0 95 e5 be 14 f9 cc 3d f2 93 91 be 79 cf 89 be
       -0.44840813 0.100084454 -0.28433186 -0.26916102
000140 4d 86 0f 3e bc 0a 22 bc 27 4c 91 3e fa 46 e5 3d
       0.14016075 -0.009890255 0.28378412 0.11195178
000150 51 10 41 bf 48 e5 18 be 1e b0 b9 bd dd 76 99 bd
       -0.7541552 -0.14931214 -0.09066795 -0.074933745
000160 2d 6e b7 be a6 9b 22 bf e3 be 8a be a7 87 46 be
       -0.35826245 -0.6351875 -0.2709876 -0.19387685
000170 25 82 ff 3c 9c 8a 83 3e 98 9b 72 3e 10 49 1f bf
       0.031189987 0.25691688 0.23692167 -0.6222086
000180 b2 58 a1 3d 04 db 0c c0 78 ff d8 3e a3 8a b1 be
       0.078782454 -2.2008677 0.42382407 -0.34676084
000190 57 bb c5 bf 1d 74 8b bd fc ad 5e bf 5e f5 e5 3b
       -1.5447797 -0.06809256 -0.8698423 0.0070177754
0001a0 f0 1f 0a 3d 4f 4b 7c 3e 09 2c ec 3e 80 68 16 be
       0.033721864 0.24638103 0.46127346 -0.14688301
0001b0 9a d5 9b be e8 cc 9d 3e 69 b5 33 be dd 9f 02 3c
       -0.30436403 0.30820394 -0.17549671 0.007972685
0001c0 71 54 e6 bd 85 69 53 bf c2 d3 9b 3f 63 2e 3d 3f
       -0.11246575 -0.82582885 1.2173998 0.73898906
0001d0 d3 af 12 3f df d2 71 bd 22 bd 9a be d8 dc 0f 3e
       0.57299536 -0.059038993 -0.30222422 0.14049089
0001e0 2c 34 75 be 9a 1f c3 3e 9e a2 6d bc d7 14 1d bf
       -0.23945683 0.38110048 -0.014504103 -0.61359924
0001f0 e6 75 b4 3e 51 5d b6 bc 39 9f 2d bc c4 64 e2 be
       0.352462 -0.022261294 -0.010597044 -0.44217503
000200 74 c8 ac be bf 4c a8 3e fe e3 80 3f 2e d6 19 bf
       -0.33746684 0.32871053 1.0069578 -0.6009244
000210 d8 4d 2e 3f e9 4d 65 bd e5 bc 84 3f ae 20 12 3f
       0.6808753 -0.055982504 1.0370146 0.57081115
000220 5c 61 12 bf 5f fe 23 bf e6 64 4f bf 6f 27 58 3f
       -0.5717981 -0.64060014 -0.81013334 0.8443517
000230 9d f4 73 3e 8e 35 07 3f d1 05 f7 be 71 3a 0a 3f
       0.23823781 0.5281609 -0.48246625 0.53995425
000240 c5 72 d5 3e ad e0 93 3e b9 23 99 3f 85 5b 31 be
       0.41689125 0.28882352 1.1964027 -0.17320068
000250 6a 8b 90 bd 29 ed da 3e af 05 e4 3e 37 33 d7 3e
       -0.07057841 0.42759064 0.44535586 0.4203126
000260 e1 54 b4 be 23 9a 73 3d 0e e1 a8 be dd 85 21 3f
       -0.35221007 0.059473168 -0.32984203 0.63094884
000270 43 85 09 3f cd b4 12 3f bc 72 6c bf 7c 6e 08 3e
       0.53718966 0.5730713 -0.9236257 0.13323396
000280 ab 90 c1 be c0 94 79 bf cb a4 96 3f 2b 79 6e 3e
       -0.37805685 -0.974926 1.1769041 0.2328841
000290 89 2c a3 3e b8 52 b5 bd e6 a1 f6 3c eb b2 01 3f
       0.31869915 -0.08853668 0.030106496 0.5066363
0002a0 ee 62 8b be 50 15 c0 be b8 2a 53 3f 65 59 ed 3e
       -0.27223915 -0.3751626 0.8248706 0.46357265
0002b0 06 62 8f bf a1 fb 8a bf 9b 84 e5 3e fa 60 a7 bd
       -1.1201789 -1.0858041 0.44827732 -0.08172794
0002c0 e3 7c 7a 3f c7 d8 7a bf d1 00 9b be 11 78 45 3f
       0.9784681 -0.97987026 -0.3027406 0.7713633
0002d0 6d bb c4 3f 3b 79 11 3f 7f 19 34 3f 44 38 e3 3e
       1.5369698 0.5682561 0.70351404 0.44378865
0002e0 50 2e 28 3e b7 d9 d5 3e 2d cc 13 3e 6a fc c1 3d
       0.16423917 0.41767666 0.14433356 0.09471972
0002f0 eb 7d 39 3f 47 0c 57 be cc 17 c4 3d 73 87 bd 3d
       0.7245776 -0.21000777 0.095748514 0.092543505
000300 3c 7d 25 bf 3f 62 84 bb 53 5c 66 3f 63 eb ff be
       -0.6464422 -0.004040032 0.89984626 -0.49984273
000310 e5 03 a3 3d 7e b7 08 be 19 81 f3 3e 9a 2d 13 3f
       0.07959727 -0.13351247 0.4755943 0.5749146
000320 84 7d ed bd 79 a4 26 bf 99 b7 1b bf 50 21 5d 3f
       -0.11596206 -0.65094715 -0.6082702 0.86378956
000330 9f 9f a5 be 7f 4f 4e 3f 4d 0f bc 3d 28 78 5d 3f
       -0.32348344 0.8059005 0.09182606 0.8651147
000340 f9 97 fe 3d 90 8b 61 3e 97 1d 22 3f b5 dc 1d be
       0.1243133 0.22025895 0.633264 -0.15416224
000350 dd 99 88 be 07 40 b6 3e ad 34 06 3f 5a a9 91 3e
       -0.26679888 0.35595724 0.52424127 0.28449517
000360 68 8f 1b 3e cd 22 4c 3e 87 5e 99 be e6 21 7d 3d
       0.15191424 0.1993515 -0.2995493 0.061799906
000370 a7 6b c1 3e 21 b6 f0 3d 67 b0 45 bf bb 4a a7 3e
       0.37777445 0.11753488 -0.77222294 0.32674202
000380 db 34 07 be 06 d6 41 bf 92 70 60 3f 41 7b f8 bd
       -0.13203757 -0.757172 0.8767177 -0.12132884
000390 b0 cb 4a 3d fc b6 02 be 49 20 40 3f f4 50 31 3f
       0.049510658 -0.12765115 0.75049263 0.6926415
0003a0 7c b7 61 be 20 e3 99 be 82 28 c7 3e 01 ce 1d 3f
       -0.2204265 -0.30056095 0.38898093 0.6164246
0003b0 b1 6c 1f bf fd 60 f8 be d4 9f 76 3e 3d bc 25 3e
       -0.62275225 -0.48511496 0.24084407 0.16185088
0003c0 f6 f6 0c 3f f6 9f 82 bf 54 94 6c 3e 62 a9 27 3f
       0.5506433 -1.0205066 0.23103458 0.6549283
0003d0 3b d2 86 3f 3a 86 d2 3e a2 d3 78 3f c5 32 b7 3e
       1.0532907 0.41118032 0.97197926 0.35780922
0003e0 59 be 81 bc 95 36 60 3f 44 4d eb 3e 94 f2 08 bd
       -0.015837835 0.87583286 0.45957386 -0.033434466
0003f0 5a 59 64 3f 40 4f e1 bc 8d 49 f0 3e 7e db 87 3e
       0.8919884 -0.02750361 0.46931115 0.26534647

fc2.bias f4 [64]
000000 2d 04 ea bc e3 6a c9 3d 09 22 f4 bd d8 f1 79 bd
       -0.028566444 0.0983484 -0.11920554 -0.061021656
000010 3e 93 c9 bd cf 0c 68 be 80 f1 a6 be b4 ae 5f 3e
       -0.09842537 -0.22661136 -0.32606125 0.21843988
000020 f9 34 46 3f a6 dd 01 be f3 7e be 3b 59 06 0b 3f
       0.7742458 -0.12682208 0.0058134734 0.5430656
000030 54 fe 93 3d 8f 60 e0 3e c3 ff ff bb 6e 81 2e 3f
       0.072262436 0.43823668 -0.0078124716 0.68166244
000040 2f e2 56 3d ab 39 1b 3f c6 46 b9 3e 6c b0 2d bf
       0.0524618 0.6063487 0.36186808 -0.67847323
000050 85 3f 6a be ab 5b 16 3f 3e c4 bc bd e7 37 11 3e
       -0.22875793 0.58733624 -0.09217118 0.14181481
000060 40 95 fc bd 21 84 9f 3e d8 a5 c8 be ea e6 c3 bd
       -0.12333155 0.31155494 -0.3918903 -0.09565528
000070 ac 32 0f bf 6b c7 af be 52 4c 9b be 9f ab d0 3e
       -0.55936694 -0.3433183 -0.30331665 0.40755937
000080 20 14 0a 3f 83 37 3f bd db 87 01 be 0a 5c cc 3e
       0.5393696 -0.0466838 -0.12649481 0.3991397
000090 2b 39 c7 3e d5 7b 16 be 8f 25 86 be e3 a9 0a 3e
       0.38910803 -0.14695676 -0.2620053 0.13541369
0000a0 f8 98 09 bd 91 7a 50 bf 79 5c 17 bf 6e ca a1 bd
       -0.033593148 -0.8143702 -0.5912548 -0.078999385
0000b0 a3 71 12 be e0 52 41 bf 22 50 e5 3d 5b 32 8f be
       -0.14301161 -0.7551708 0.11196925 -0.27968106
0000c0 95 6e bf 3c b3 96 42 bd 78 7d 83 be ae 8f 76 3c
       0.02336816 -0.047507 -0.25681663 0.015048904
0000d0 19 33 77 bf e8 b6 91 3f 2b 6a bf 3e bd df 7b be
       -0.96562344 1.1383944 0.37385687 -0.24597068
0000e0 06 6c 1f be 12 22 c2 bd 46 66 42 bd f1 71 ec be
       -0.15568551 -0.09479155 -0.047460817 -0.4618068
0000f0 90 d2 84 3e d5 df 84 3e 4e d4 62 bd 41 48 74 3e
       0.25941896 0.2595202 -0.05537825 0.23855688

fc3.weight f4 [4, 64]
000000 af 61 04 bf 22 18 2d 3f 0b 42 f9 be 58 76 ed be
       -0.51711553 0.6761495 -0.486832 -0.46379352
000010 02 9f f5 be d7 dc e1 be ab 0e 13 bf 01 52 67 3f
       -0.47972876 -0.441138 -0.57444257 0.90359503
000020 f9 19 e0 3f e1 28 4a bf 2b 71 e4 3e 44 3e 43 40
       1.7507926 -0.78968626 0.4461759 3.0506754
000030 f1 88 e7 3f 63 17 2f 40 44 cf 0b 40 ec 85 01 40
       1.8088666 2.7358024 2.1845255 2.023799
000040 14 37 2d 3d ab 51 13 40 90 58 c7 3f f6 0b bf bf
       0.042288855 2.3018596 1.5573902 -1.4925525
000050 af 8a 8c bf 4e b0 db 3f 6b f5 d4 bb ac 0c 8c be
       -1.0979823 1.7163179 -0.0064989827 -0.27353418
000060 c0 1c 6d bd 50 71 50 3f 46 f0 3b 3e 75 09 48 be
       -0.057888746 0.814229 0.18353376 -0.19534858
000070 a1 29 a2 bf f6 0f b8 3e a9 3e 0a bf 58 22 dc 3e
       -1.2668954 0.35949677 -0.5400186 0.42994952
000080 f8 28 53 40 86 3f 07 bd fd 9e f1 3e 45 71 06 be
       3.2993755 -0.033019565 0.4719161 -0.13129146
000090 bd ee 9f bf cf 00 2f bf 58 87 fc be 8a 86 09 bf
       -1.2494732 -0.6836061 -0.4932201 -0.53720915
0000a0 5a 26 96 be 6a c1 05 bf f8 10 77 3f a7 70 6f bf
       -0.29326135 -0.5224825 0.9651027 -0.9353127
0000b0 a6 da c3 bd 8d 04 b7 bf 1a 96 f0 be 52 33 c3 be
       -0.09563188 -1.4298264 -0.46989518 -0.38125092
0000c0 52 ba 2f 40 07 51 01 40 26 ee 34 bd b5 fd b0 3e
       2.745747 2.0205705 -0.04417243 0.34568563
0000d0 a9 ff fb bf 0f 29 07 40 86 77 0f 40 5e f6 0c bf
       -1.9687396 2.111881 2.2416701 -0.55063426
0000e0 21 85 02 bf 30 c0 f5 be 54 ba fe be f6 c2 69 be
       -0.5098439 -0.4799819 -0.49751532 -0.22828278
0000f0 44 3e ca 3e d5 61 e5 bf 1e c2 7b bf 80 15 ae bf
       0.3950063 -1.7920481 -0.98343074 -1.3600311
000100 42 4d ce be c7 39 e6 bd 5f 8a 05 bf 57 59 6b bf
       -0.40293318 -0.11241489 -0.5216426 -0.91933197
000110 a9 7d 1b bf ef e4 78 be 1d 4b 09 bf 1d 88 d7 3f
       -0.6073862 -0.24306081 -0.5363024 1.6838413
000120 b3 69 ad 3f a2 d3 4d bf fe 93 ce 3d b2 ac 42 40
       1.3547882 -0.8040105 0.10086821 3.0417905
000130 58 fd 79 3f 47 e7 26 40 ff 03 cb 3f 2c f5 07 40
       0.97652197 2.607866 1.5860595 2.124339
000140 92 43 a4 3d 19 76 17 40 68 70 ab 3f 05 67 17 bf
       0.080207005 2.366583 1.3393679 -0.5914157
000150 14 31 7a be 41 70 09 40 c8 10 7d bd 89 9b 1d bf
       -0.24432784 2.1474764 -0.061783582 -0.6156545
000160 10 2e a4 bd 56 36 c6 3f dd eb a8 bf f7 16 56 bf
       -0.08016598 1.5485332 -1.319698 -0.8362879
000170 1f a7 bb bf 68 6a 9e 3e da c9 18 bf ad fe ea 3d
       -1.4660376 0.30940557 -0.59683 0.11474357
000180 de 02 74 40 c9 5a f2 3d a4 e3 55 bf 7c 07 0b 3f
       3.812675 0.11833722 -0.8355048 0.54308295
000190 d2 0d 15 bf 42 05 f2 be dc fc 12 bf 40 25 cc be
       -0.58224213 -0.47269636 -0.5741708 -0.3987217
0001a0 51 dd f3 be 04 52 92 bf b4 de c5 3f 45 ec 88 bf
       -0.4762979 -1.1431279 1.5458589 -1.0697104
0001b0 ad be 99 3d 62 00 b5 bf 41 2f be be 42 ff 1b bf
       0.07507072 -1.4140742 -0.37145427 -0.6093637
0001c0 2f be 24 40 a8 2b 01 40 2a b3 83 3e 4f 19 b2 3e
       2.574108 2.0182896 0.2572263 0.34784934
0001d0 11 ba 70 bf 4d 8c 1f 40 ab c4 11 40 3b 6e 06 bf
       -0.94033915 2.4929383 2.2776287 -0.5251195
0001e0 13 4d ca be b4 c9 10 bf 10 9c ba be 6d 4e 90 bf
       -0.39511928 -0.56557775 -0.3644719 -1.1273934
0001f0 8e 58 81 3f 5a b4 02 c0 8d a0 90 bf 35 e1 46 bf
       1.010515 -2.0422578 -1.1298996 -0.7768739
000200 69 c8 0d bf 26 80 ba 3f d7 41 ff be 39 cd 2f bf
       -0.55383927 1.4570358 -0.4985492 -0.6867252
000210 ae 40 11 bf 86 0a 55 bf d0 d5 29 bf 9a 30 bc 3f
       -0.5673932 -0.8321918 -0.66341877 1.4702332
000220 b5 df 1a 40 96 ba 6d bf 2f 52 88 3f 1c 73 22 40
       2.419904 -0.9286283 1.065008 2.5382757
000230 07 05 d4 3f 47 89 17 40 53 24 87 3f 9b 09 d6 3f
       1.6564034 2.3677537 1.055796 1.6721681
000240 da 4d cb bd e7 89 e6 3f 1b e7 bc 3f 1a 49 b1 bf
       -0.099269584 1.8010834 1.4758028 -1.3850434
000250 bd b2 de bf 65 be ef 3f 24 9f 8b 3d e7 84 bb be
       -1.7398297 1.8729979 0.06817463 -0.36624834
000260 9c 88 35 bd 5c 6c 39 3f 1a 34 50 3f 82 b8 38 bf
       -0.044319734 0.7243097 0.813295 -0.72156537
000270 0c f9 27 bf d8 f5 9a 3f 55 26 77 be 65 12 0b 3f
       -0.6561439 1.2106276 -0.24135716 0.5432494
000280 59 16 41 40 6e 75 2e 3b 15 95 eb 3e 50 ec 46 be
       3.016989 0.0026620287 0.46012178 -0.19426084
000290 8b 43 65 bf df 65 96 bf c4 60 11 bf 5f 83 59 be
       -0.8955619 -1.1749839 -0.5678828 -0.2124152
0002a0 01 a4 fc be d8 1f 26 bf 80 c1 cc 3f b2 8b 6f bf
       -0.49343875 -0.6489234 1.5996552 -0.93572533
0002b0 9b 01 e6 3c 89 ac a4 bf 5c a9 ce be c3 a0 2d bf
       0.028076937 -1.2865154 -0.40363586 -0.6782343
0002c0 26 75 23 40 43 28 1c 40 75 9a 82 bf 4d fe dd bf
       2.5540252 2.4399574 -1.0203387 -1.7343231
0002d0 aa de 15 c0 5b 6b ee 3f 84 aa e0 3f 26 6a f9 be
       -2.3417153 1.8626512 1.7552037 -0.48713797
0002e0 44 36 f1 be 26 5c a5 be 95 ab 15 bf e1 13 47 bf
       -0.47111714 -0.32296866 -0.5846494 -0.7776471
0002f0 fe b0 8d 3f fb 42 ca bf fc fb c9 bf 70 9f fa be
       1.1069639 -1.5801691 -1.5780025 -0.48949766
000300 50 1f 1d bf e5 17 fa 3e c2 4f 17 bf c2 3e 8e bd
       -0.61375904 0.48846355 -0.59106076 -0.06945564
000310 bc 16 17 bf 93 c2 37 bf 5f 51 de be 76 e4 0d 3f
       -0.59019065 -0.7178127 -0.43421456 0.5542673
000320 6c c7 08 40 ec 48 26 bf b1 15 89 3f 3c 8b 34 40
       2.1371717 -0.6495502 1.0709745 2.8209982
000330 4f 2a 93 3f 15 bd 11 40 5c 93 d1 3f 96 54 ce 3f
       1.1497287 2.2771657 1.6373096 1.6119564
000340 00 7b dd 3c 35 fd 22 40 72 99 d8 3f c3 d7 e6 bf
       0.02703619 2.5467045 1.6921828 -1.8034595
000350 6b 33 c2 bf a9 87 f2 3f b8 ac e0 bd f2 0d 0f bf
       -1.5171942 1.894765 -0.109704435 -0.55880654
000360 78 ba af bd 95 a6 39 3f 21 f1 39 be 64 45 b0 3d
       -0.08580488 0.7251981 -0.1815839 0.08606985
000370 18 b9 1e 3d ee ec 6a 3f 12 15 06 bf 40 ae 34 be
       0.038750738 0.91767776 -0.523759 -0.17644596
000380 05 1c 4f 40 3b cc d4 3d 26 ed 96 3f a7 a6 df be
       3.2360852 0.10390516 1.1791122 -0.43681833
000390 f2 dd 77 bf 22 4e 89 bf 8d cd 02 bf 59 d9 f3 be
       -0.96823037 -1.0726969 -0.51094896 -0.4762676
0003a0 f0 46 fc be 23 f2 4e be 5c 6d 1f 3f 70 30 bf bf
       -0.4927287 -0.20209555 0.62276244 -1.4936657
0003b0 0d 39 a2 3d bd 0b f2 bf 15 1b 0e bf 84 37 2a bf
       0.07921038 -1.8909832 -0.55510074 -0.6649096
0003c0 f1 cc 2d 40 cc 4c 15 40 c1 84 4c bf 87 6f 02 bf
       2.7156336 2.3328123 -0.79890066 -0.5095143
0003d0 0b c4 07 c0 07 ac 03 40 a7 d2 1a 40 d1 c5 06 bf
       -2.1213405 2.0573747 2.4191072 -0.52645594
0003e0 99 02 d4 be 57 8d 1d bf 9e 69 f0 be cc 81 af 3e
       -0.41408232 -0.6154379 -0.4695558 0.34278715
0003f0 31 2b cf 3d bc 3b e3 bf 1c c0 60 bf e4 63 83 bf
       0.1011566 -1.7752604 -0.87793136 -1.0264859

fc3.bias f4 [4]
000000 50 db 16 3d 2a 69 ed 3e ff ae 99 bd 2c de fc bb
       0.036830246 0.46369296 -0.07504081 -0.0077169146
