NeurPiRL_v0/LunarLander/DQN/checkpoints/800.pth (torch, 22315 bytes, 6 tensors)

fc1.weight f4 [64, 8]
-1.4605651 -0.79286027 0.37695143 -0.19539295 -0.4720905 -0.08081535 0.66412586 0.6829014
-0.18943933 0.6491338 -0.13824287 -0.555763 0.26139918 0.056490112 0.8913694 0.10413243
-0.37354156 0.5430389 0.24256298 1.4200643 0.32116926 1.02474 -0.010812511 -0.85743165
0.17410256 -1.0215312 -0.5797239 -0.8601978 -0.6347184 0.31983265 0.016266178 -0.6643301
0.33660978 -0.08695972 0.54629135 -0.51054454 -1.1470932 -0.8657934 0.671805 0.18712991
-0.54843354 0.86703116 1.1830746 -1.6060345 -0.10286282 -0.09777003 -0.19047938 -0.8485074
2.4021635 0.00079837284 1.6755053 -0.20829602 -0.33957702 0.3640005 -0.12259316 0.08557077
0.12335182 -0.014420168 0.23971494 0.37028578 1.1995927 -0.26230612 -0.46953693 0.90315336
-0.051813975 -0.015856793 -0.08140028 0.460266 1.0701994 -0.81470907 -0.19805644 0.999809
-0.029280916 0.0021154203 -0.11864844 0.118802644 2.607118 -0.19508214 -0.047508664 0.4155429
-0.30356407 -2.3103998 -0.3345456 -1.7342852 -0.6863528 0.27918136 -0.36537617 -0.22637591
-0.6748119 -1.1853509 -0.36451724 0.5813915 0.14352411 -0.85888535 0.18695886 0.9643238
0.5782215 0.025543777 2.2760477 -1.5366263 -1.2950977 0.54814583 0.013822757 -0.10878533
-1.0243248 -0.112866886 -1.5191596 -0.29800323 1.0990624 -0.80835176 0.16886158 0.20706263
-1.6493281 0.015331461 -0.55860543 -0.545968 -0.0061123758 -0.040749736 0.24726869 -1.0118577
-2.078299 -1.3482735 -0.9854952 -0.899393 0.10931361 0.096389435 -0.05908558 0.37300938
-0.50309443 -3.0956445 -1.1006596 -0.52372396 -1.2402626 -1.2509717 0.71792984 0.13289587
0.24247314 -1.1813785 0.8891606 -0.995278 -1.2633955 -0.06346648 0.48436722 0.28560293
-1.5000511 0.12835471 -0.9748983 -0.2040945 0.6939568 -0.08094333 0.13848992 0.5438268
0.57127213 -0.307132 1.1212083 -0.34606233 1.4381 1.2301508 -0.09202881 -0.09944226
-0.8076276 0.26036665 1.3688649 0.78614604 0.9138861 -0.7896526 0.92790896 -0.17863452
0.43013978 -1.3811822 -0.5041087 -0.005382528 -0.6761746 -0.94470215 0.46927482 0.6898008
1.0406164 -0.27832532 0.5515005 -0.8374532 -0.41304746 1.0228577 -0.6694326 0.2523508
-0.007708198 -0.5518119 0.32097095 0.25598377 -0.4884245 -1.1715344 0.41057137 0.33809957
-0.10741914 0.31098092 -0.28672683 -0.5966226 0.198416 -0.36949852 -1.53527 -1.6250476
0.4173189 0.80508316 0.45984587 1.0331035 1.2181559 0.75701666 -0.41318896 -0.17774905
0.65599614 -0.97427493 0.5604358 -0.9516573 0.6614226 -0.993339 0.34716362 0.35452032
0.14978954 0.2693986 -0.3914758 0.25364217 1.0128416 -1.5956285 0.09912222 -0.0764449
0.03181055 -1.4424546 -0.02836246 -0.7501737 0.5972077 1.4877402 -0.01111561 0.45836613
1.2510004 0.89564544 0.13499084 -1.5937189 1.6129129 -0.09718699 -0.39565244 0.55775595
0.4318377 -0.24893951 -0.39173555 -0.6230188 -2.512419 -0.21495667 -0.050410714 0.49976537
-0.09607117 -0.36082125 1.7519182 -1.6314238 1.0090307 -0.7112149 0.429511 -0.57524085
00000000: ccf3 babf e4f8 4abf c7ff c03e 1715 48be
00000010: d9b5 f1be 8582 a5bd 2704 2a3f a0d2 2e3f
00000020: 62fc 41be a22d 263f 8a8f 0dbe 7c46 0ebf
00000030: 1dd6 853e 2d62 673d c930 643f 6243 d53d
00000040: d740 bfbe 9904 0b3f 6e62 783e abc4 b53f
00000050: 4c70 a43e ae2a 833f f526 31bc a480 5bbf
00000060: f147 323e 89c1 82bf c968 14bf ec35 5cbf
00000070: e87c 22bf 1bc1 a33e a640 853c 8a11 2abf
00000080: 1e58 ac3e f017 b2bd c0d9 0b3f 0cb3 02bf
00000090: f3d3 92bf a3a4 5dbf 6afb 2b3f fc9e 3f3e
000000a0: 2466 0cbf c1f5 5d3f fd6e 973f 8a92 cdbf
000000b0: bea9 d2bd a73b c8bd 070d 43be c837 59bf
000000c0: 0cbd 1940 e549 513a f576 d63f 8d4b 55be
000000d0: 0add adbe 465e ba3e 1f12 fbbd ba3f af3d
000000e0: e19f fc3d 9142 6cbc d577 753e 1996 bd3e
000000f0: 418c 993f fd4c 86be 2567 f0be 0f35 673f
00000100: e43a 54bd 1be6 81bc 31b5 a6bd fca7 eb3e
00000110: 4bfc 883f c690 50bf 4fcf 4abe 7cf3 7f3f
00000120: 88de efbc dda2 0a3b f4fd f2bd cd4e f33d
00000130: 05db 2640 9dc3 47be 7298 42bd 0ac2 d43e
00000140: c06c 9bbe 97dd 13c0 9049 abbe 0ffd ddbf
00000150: d1b4 2fbf dcf0 8e3e 9612 bbbe 16cf 67be
00000160: 79c0 2cbf 94b9 97bf 01a2 babe 13d6 143f
00000170: fcf7 123e e9df 5bbf 2572 3f3e eddd 763f
00000180: 5306 143f 2f41 d13c c4aa 1140 2cb0 c4bf
00000190: c3c5 a5bf 4953 0c3f d878 623c d8ca debd
000001a0: 131d 83bf c126 e7bd d273 c2bf e193 98be
000001b0: 14ae 8c3f 24f0 4ebf 0dea 2c3e 3a08 543e
000001c0: 2f1d d3bf cf30 7b3c c400 0fbf 8fc4 0bbf
000001d0: 534a c8bb 32e9 26bd 0134 7d3e 8e84 81bf
000001e0: da02 05c0 3a94 acbf 6a49 7cbf 9f3e 66bf
000001f0: d0df df3d d367 c53d b903 72bd 16fb be3e
00000200: ccca 00bf 0a1f 46c0 6ae2 8cbf c612 06bf
00000210: edc0 9ebf d71f a0bf 40ca 373f db15 083e
00000220: e14a 783e 6937 97bf 07a0 633f 8aca 7ebf
00000230: f2b6 a1bf b7fa 81bd fbfe f73e 8c3a 923e
00000240: ad01 c0bf 6b6f 033e ef92 79bf 26fe 50be
00000250: 27a7 313f 9ec5 a5bd 4dd0 0d3e 3c38 0b3f
00000260: e43e 123f 6840 9dbe c183 8f3f 152f b1be
00000270: a913 b83f 9575 9d3f 9a79 bcbd 62a8 cbbd
00000280: afc0 4ebf c74e 853e f736 af3f de40 493f
00000290: 70f4 693f ac26 4abf 718b 6d3f f8eb 36be
000002a0: 483b dc3e 94ca b0bf 450d 01bf eb5f b0bb
000002b0: c719 2dbf 00d8 71bf ca44 f03e c996 303f
000002c0: eb32 853f a880 8ebe 232f 0d3f 5563 56bf
000002d0: f57a d3be 00ed 823f ef5f 2bbf 2034 813e
000002e0: 0d95 fcbb 8b43 0dbf 4e56 a43e 4e10 833e
000002f0: c712 fabe d7f4 95bf 6936 d23e 631b ad3e
00000300: 91fe dbbd e438 9f3e dccd 92be 42bc 18bf
00000310: 902d 4b3e e92e bdbe ba83 c4bf 8f01 d0bf
00000320: d3aa d53e ee19 4e3f eb70 eb3e bc3c 843f
00000330: 88ec 9b3f d8cb 413f 818d d3be d903 36be
00000340: 5def 273f 156a 79bf b878 0f3f d09f 73bf
00000350: fe52 293f 774b 7ebf 6ebf b13e b083 b53e
00000360: 6e62 193e 9dee 893e 846f c8be 63dd 813e
00000370: cba4 813f 8e3d ccbf 9700 cb3d 258f 9cbd
00000380: c74b 023d 5aa2 b8bf 6458 e8bc 620b 40bf
00000390: 9be2 183f 456e be3f 3f1e 36bc f7ae ea3e
000003a0: c820 a03f 0549 653f 0a3b 0a3e fbfe cbbf
000003b0: ee73 ce3f f909 c7bd f592 cabe 18c9 0e3f
000003c0: d519 dd3e 00ea 7ebe 9091 c8be 297e 1fbf
000003d0: 79cb 20c0 9a1d 5cbe 777b 4ebd 3fe1 ff3e
000003e0: f6c0 c4bd 90bd b8be db3e e03f 7fd2 d0bf
000003f0: eb27 813f 2e12 36bf dee8 db3e fc42 13bf

fc1.bias f4 [64]
0.8492738 0.041701674 0.3843148 1.4096297 -0.47288153 1.140128 0.04166628 -0.1056554
0.10107574 0.025125528 0.34194833 -0.6593312 0.28506845 -0.29946473 0.48762527 0.0361779
-0.67622644 -0.05936582 -0.7246508 -0.48575273 0.2591692 -0.08509776 -0.24239272 0.3830562
0.121785425 0.9003288 -0.2868646 -0.40925962 -0.36343208 0.35382265 0.18843192 0.30912665
0.5663563 -0.51429915 -0.4744607 0.27934507 0.09976802 0.5101838 0.31425354 -0.4264212
0.5264313 0.2320271 -0.4113419 0.8493006 0.6997665 -0.18638651 0.30062956 0.56989145
0.25373906 -0.5813427 -0.15455383 -0.47686774 -0.6022798 -0.44774055 0.34102467 0.26333866
0.22126523 0.35757244 0.5621643 0.5614147 0.2744143 1.14154 -0.032827813 0.7052846
00000000: 026a 593f 60cf 2a3d e9c4 c43e bf6e b43f
00000010: 871d f2be b7ef 913f 43aa 2a3d dc61 d8bd
00000020: cc00 cf3d 0dd4 cd3c da13 af3e eec9 28bf
00000030: 7ef4 913e 7153 99be 05aa f93e 472f 143d
00000040: 2d1d 2dbf 9329 73bd b782 39bf 95b4 f8be
00000050: d3b1 843e bc47 aebd cc35 78be f11f c43e
00000060: a36a f93d f37b 663f ebdf 92be 7a8a d1be
00000070: c513 babe 3e28 b53e 4cf4 403e d945 9e3e
00000080: bafc 103f 1ca9 03bf 83ec f2be 5106 8f3e
00000090: 2d53 cc3d 689b 023f d7e5 a03e e153 dabe
000000a0: 34c4 063f 8398 6d3e 689b d2be c46b 593f
000000b0: e623 333f 1bdc 3ebe 1eec 993e 68e4 113f
000000c0: 16ea 813e e0d2 14bf 5c43 1ebe 0228 f4be
000000d0: 022f 1abf 403e e5be c99a ae3e 53d4 863e
000000e0: 5a93 623e bc13 b73e 00ea 0f3f e0b8 0f3f
000000f0: 0880 8c3e fc1d 923f 7576 06bd 888d 343f

fc2.weight f4 [64, 64]
-0.116050035 0.04665526 0.7481861 -0.7326142 0.50572467 -0.14407876 1.3731356 0.3517271
-0.30828932 -0.75271267 -0.7866647 0.73120224 0.1210577 0.24720855 -0.38666272 0.54209334
0.27960187 0.29353133 1.5128986 -0.09292593 -0.16395704 0.35626966 0.49241388 0.055499677
-0.12709199 0.027844056 -0.43052614 0.76053715 0.46291578 0.5738054 -0.6312276 -0.2334779
-0.21346377 -1.1986556 1.4023898 -0.015843831 0.19325796 -0.019056994 0.16937557 0.41234353
-0.46444428 -0.43338683 0.4954526 0.39695302 -1.0024217 -0.7944502 0.29894263 -0.11863115
1.1866351 -1.1777277 -0.4211657 0.5066497 1.5720489 0.35852918 0.80651283 0.4118886
-0.14902431 0.52361745 0.09966155 -0.038017977 0.6656067 -0.17735498 -0.1875267 -0.0189791
-0.43777874 0.25932264 -1.513552 0.68933314 -0.82076865 -0.20277025 -0.22133729 -0.31263012
-0.40570202 0.39287254 -0.5638819 -0.27005184 -0.0027360516 -0.058990456 -0.66814065 -0.4548323
-0.014408249 -0.3405478 0.21350378 0.3922141 -0.8536513 -0.4766561 -0.08627803 -0.38004604
0.042116456 -0.35125956 -0.6025468 0.16361983 0.26788923 0.5474084 0.38032305 -0.38003826
0.23847339 -2.0819063 0.8002507 -0.20900843 -1.4423472 -0.41488114 -0.35596293 -0.04917772
0.09258347 0.41182312 0.6311459 -0.0823521 -0.82606083 0.6539242 -0.27804485 -0.13911663
0.18938474 -0.69184554 1.4461226 0.8306246 1.0444146 -0.007960564 -0.383807 -0.06430864
-0.10928646 0.48883453 0.17892046 -1.1720494 0.4891673 0.35391524 -0.004842754 -0.6522556
-0.36510515 0.27827328 1.0707568 -0.6304978 0.6293203 -0.14580712 1.2953387 0.57985985
-0.54881704 -0.49117193 -0.7303592 0.8135633 0.136317 0.50851744 -0.5071972 0.51711535
0.4787525 0.2842783 1.4595642 0.06849784 -0.13651901 0.38326156 0.5380265 0.34757105
-0.27239785 0.13643484 -0.3115599 0.5710338 0.55193764 0.59388393 -0.93769807 -0.018058252
-0.42068872 -1.1793208 1.1421471 0.14231688 0.10994365 -0.09761229 0.009667681 0.51505804
-0.2658342 -0.37402698 0.7793936 0.43281025 -1.0901145 -0.8754508 0.410411 -0.1317773
1.0671273 -1.5066905 -0.2025105 0.7479512 1.6743066 0.52762794 0.847522 0.35243896
0.097069345 0.38354367 -0.027740302 -0.009934087 0.9318221 -0.3087235 0.042842176 0.037764713
-0.60723406 -0.040681228 0.7886738 -0.47016788 -0.025389237 -0.08286162 0.5788163 0.49993053
-0.11172381 -0.7276497 -0.5215942 0.83727646 -0.23704416 0.69347054 0.13835317 0.84904236
-0.021609062 0.20153928 0.84301543 -0.12640862 -0.23847 0.31227306 0.43202704 0.26219004
0.114026986 0.14042278 -0.37105322 0.23615004 0.2620733 0.03187528 -0.7505621 0.36143282
-0.13631643 -0.81133515 0.92656785 -0.08328555 -0.058551252 -0.1005142 0.857237 0.6646319
-0.1791723 -0.37305868 0.39234358 0.6174893 -0.55529785 -0.5392566 0.26646462 0.15501936
0.58625156 -1.3738761 0.28978905 0.5134904 1.0818022 0.36043888 0.9303287 0.28910983
-0.04572073 0.86924946 0.5020721 0.030670997 0.9636069 -0.0024129474 0.5663808 0.2779816
00000000: a4ab edbd 9619 3f3d 2089 3f3f 9b8c 3bbf
00000010: 2c77 013f 6289 13be e8c2 af3f 9315 b43e
00000020: 19d8 9dbe c7b1 40bf dc62 49bf 1230 3b3f
00000030: 19ed f73d 3d24 7d3e a8f8 c5be a1c6 0a3f
00000040: fa27 8f3e bd49 963e a9a6 c13f f34f bebd
00000050: 5be4 27be fa68 b63e ac1d fc3e a153 633d
00000060: 6724 02be 3819 e43c ec6d dcbe 90b2 423f
00000070: 4c03 ed3e e9e4 123f 2298 21bf d514 6fbe
00000080: 3f96 5abe 8c6d 99bf 8281 b33f ecca 81bc
00000090: 6ae5 453e 6a1d 9cbc ca70 2d3e b11e d33e
000000a0: a4cb edbe e1e4 ddbe f7ab fd3e 6d3d cb3e
000000b0: 5b4f 80bf 1761 4bbf 020f 993e e3f4 f2bd
000000c0: a9e3 973f c8bf 96bf 08a3 d7be cbb3 013f
000000d0: e638 c93f 2391 b73e a077 4e3f 10e3 d23e
000000e0: d499 18be cb0b 063f 5b1b cc3d bdb8 1bbd
000000f0: 3365 2a3f 8b9c 35be 0007 40be 0f7a 9bbc
00000100: 8924 e0be f0c5 843e 12bc c1bf 2378 303f
00000110: e51d 52bf 01a3 4fbe 3ea6 62be 0e11 a0be
00000120: 2db8 cfbe 9726 c93e 905a 10bf 3c44 8abe
00000130: 544f 33bb fa9f 71bd 440b 2bbf c7df e8be
00000140: 9410 6cbc 485c aebe bca0 5a3e 49d0 c83e
00000150: e488 5abf 450c f4be 89b2 b0bd 6595 c2be
00000160: 4e82 2c3d 4bd8 b3be 8240 1abf f58b 273e
00000170: c728 893e f522 0c3f b4b9 c23e 6094 c2be
00000180: 5e32 743e f43d 05c0 3bdd 4c3f 4e06 56be
00000190: d59e b8bf 4d6b d4be c640 b6be 946e 49bd
000001a0: 679c bd3d 7bda d23e c792 213f 38a8 a8bd
000001b0: b978 53bf 9467 273f e55b 8ebe 9774 0ebe
000001c0: 13ee 413e ca1c 31bf 8c1a b93f d0a3 543f
000001d0: 61af 853f 076d 02bc 5a82 c4be 40b4 83bd
000001e0: 94d1 dfbd 8548 fa3e ed36 373e b705 96bf
000001f0: 2374 fa3e 6134 b53e f7af 9ebb 39fa 26bf
00000200: 10ef babe d679 8e3e 8f0e 893f 4e68 21bf
00000210: 231b 213f 764e 15be a9cd a53f b271 143f
00000220: 467f 0cbf e37a fbbe d2f8 3abf af45 503f
00000230: af96 0b3e 332e 023f add7 01bf ac61 043f
00000240: 0c1f f53e ed8c 913e 00d3 ba3f 9848 8c3d
00000250: a4cb 0bbe dc3a c43e 1bbc 093f d5f4 b13e
00000260: bb77 8bbe 93b5 0b3e c784 9fbe 452f 123f
00000270: c94b 0d3f c708 183f fb0c 70bf e6ee 93bc
00000280: 8364 d7be fcf3 96bf e031 923f 84bb 113e
00000290: 232a e13d f4e8 c7bd 3165 1e3c d8da 033f
000002a0: 6c1b 88be 7780 bfbe 5786 473f 4e99 dd3e
000002b0: df88 8bbf 8b1d 60bf 6421 d23e a1f0 06be
000002c0: a197 883f 3cdb c0bf ea5e 4fbe bb79 3f3f
000002d0: ae4f d63f a012 073f 34f7 583f e172 b43e
000002e0: 4bcc c63d d65f c43e a13f e3bc 95c2 22bc
000002f0: e58b 6e3f 0211 9ebe 477b 2f3d 2caf 1a3d
00000300: b173 1bbf 5ca1 26bd 87e6 493f d8b9 f0be
00000310: 17fd cfbc 5ab3 a9bd 4e2d 143f e5f6 ff3e
00000320: 74cf e4bd 4047 3abf 3387 05bf c057 563f
00000330: b4bb 72be 4987 313f 74ac 0d3e d75a 593f
00000340: 7d05 b1bc 5060 4e3e dccf 573f 4371 01be
00000350: 7b31 74be 41e2 9f3e a632 dd3e c63d 863e
00000360: fb86 e93d fdca 0f3e b0fa bdbe 51d1 713e
00000370: 792e 863e a78f 023d d624 40bf b90d b93e
00000380: 8996 0bbe a9b3 4fbf 8d33 6d3f 9d91 aabd
00000390: 70d3 6fbd 64da cdbd e273 5b3f 5125 2a3f
000003a0: f278 37be 8c01 bfbe 42e1 c83e c713 1e3f
000003b0: 0028 0ebf b80c 0abf 0d6e 883e 65bd 1e3e
000003c0: 9514 163f 2cdb afbf 3b5f 943e 1b74 033f
000003d0: 7f78 8a3f 728b b83e 062a 6e3f 3406 943e
000003e0: a945 3bbd 2287 5e3f cc87 003f be41 fb3c
000003f0: f1ae 763f 8a22 1ebb 55fe 103f 9b53 8e3e

fc2.bias f4 [64]
-0.088297114 0.25618738 -0.17192858 -0.056885958 -0.1381877 -0.28872982 -0.3790157 0.23688768
0.8486209 -0.12024728 0.09118737 0.5404836 0.12781751 0.5067319 0.15519284 0.7091702
0.0524618 0.6348155 0.3541873 -0.7673677 -0.2990773 0.55020696 -0.09217118 0.06915434
-0.12333155 0.28209412 -0.41361013 -0.07521905 -0.58939797 -0.25452158 -0.36548626 0.44854686
0.497473 -0.0466838 -0.24943155 0.3950829 0.3978258 -0.22459738 -0.31292373 0.1116696
-0.08524424 -0.8498208 -0.63117003 -0.062394854 -0.14301161 -0.8139151 0.07768072 -0.34776068
-0.009289407 -0.044009127 -0.26451617 0.016863735 -1.0675868 1.2089751 0.363287 -0.29908958
-0.20916584 -0.13607278 -0.07205 -0.4069899 0.21666053 0.34490573 -0.049114533 0.16588557
00000000: 1ed5 b4bd fe2a 833e 0c0e 30be 4001 69bd
00000010: 1481 0dbe 65d4 93be 590e c2be af92 723e
00000020: 383f 593f 3544 f6bd 72c0 ba3d 225d 0a3f
00000030: 98e2 023e 2fb9 013f dfea 1e3e 2e8c 353f
00000040: 2fe2 563d 4583 223f 0a58 b53e 3672 44bf
00000050: a920 99be 5dda 0c3f 3ec4 bcbd caa0 8d3d
00000060: 4095 fcbd a46e 903e b5c4 d3be 720c 9abd
00000070: c9e2 16bf a750 82be 0421 bbbe efa7 e53e
00000080: c8b4 fe3e 8337 3fbd fc6a 7fbe 4e48 ca3e
00000090: d3af cb3e dbfc 65be 8a37 a0be 08b3 e43d
000000a0: 8894 aebd db8d 59bf 5c94 21bf bf91 7fbd
000000b0: a371 12be bd5c 50bf 1217 9f3d b00d b2be
000000c0: 9932 18bc ea42 34bd aa6e 87be d125 8a3c
000000d0: afa6 88bf b2bf 9a3f c100 ba3e 4522 99be
000000e0: 922f 56be aa56 0bbe f38e 93bd fb60 d0be
000000f0: 42dc 5d3e 7c97 b03e 522c 49bd e8dd 293e

fc3.weight f4 [4, 64]
-0.46591195 1.5205559 -0.445314 -0.40716338 -0.49213105 -0.59260285 -0.5450676 0.8381445
1.7445749 -0.6972751 0.641407 3.127685 1.8146932 2.533369 1.7945981 2.1720765
0.042288855 2.4372706 2.0290325 -1.6315084 -1.253717 1.6789178 -0.0064989827 -0.48080224
-0.057888746 0.89151955 0.22238965 -0.1342632 -1.1584297 0.39168653 -0.6749303 0.38347325
3.4403841 -0.033019565 0.9680666 -0.02214833 -1.2272161 -0.7005913 -0.4661389 -0.4851462
-0.18149146 -0.8555319 0.9651027 -0.9529902 -0.09563188 -1.8676174 -0.36317348 -0.50815856
2.8861492 2.0527394 -0.08528844 0.33480346 -2.2124236 2.1324236 2.151364 -0.5030665
-0.53923523 -0.45689458 -0.6511611 -0.17875928 0.5249421 -1.8389724 -0.9129123 -1.4588897
-0.4322824 1.1372392 -0.5373447 -0.8243617 -0.45409852 -0.2217996 -0.5654774 1.97866
1.4164001 -0.70253557 0.111421116 3.0708776 1.0077245 2.8525076 1.6374484 2.248549
0.080207005 2.4806068 1.8229877 -0.70244694 -0.2233531 1.8576859 -0.061783582 -0.5901699
-0.08016598 1.5975989 -1.2934656 -0.77076 -1.5822706 0.3254768 -0.6311841 0.22917092
3.6386566 0.11833722 -1.0329088 0.5137972 -0.594922 -0.46465585 -0.58709705 -0.34862617
-0.5728562 -1.1603113 1.5947976 -1.2104608 0.07507072 -1.7464678 -0.3131247 -0.5040593
2.517717 2.067619 0.27432942 0.23902167 -1.0749698 2.509608 2.1947005 -0.52046865
-0.45160055 -0.60762054 -0.34279558 -1.430907 1.3961382 -1.8653972 -1.2466024 -0.57888424
-0.523196 1.7013545 -0.49506947 -0.731173 -0.50600564 -0.9739336 -0.7491447 1.6419768
2.3651004 -0.9948022 1.1178159 2.6750216 1.6671882 2.4823005 1.2756991 2.1106315
-0.099269584 1.8649071 1.7418474 -1.8394778 -1.7151389 1.9350718 0.06817463 -0.2620054
-0.044319734 0.7615693 1.0137666 -0.77027804 -0.6420739 1.19743 -0.1293728 0.6444342
3.0303419 0.0026620287 0.57966375 -0.048389077 -0.85098827 -1.1502408 -0.62818956 -0.18267825
-0.5075785 -0.7497898 1.4149767 -1.2588487 0.028076937 -1.51994 -0.30809397 -0.67558473
2.7162251 2.3641644 -1.3064907 -1.7991319 -2.2015908 1.8233413 1.8715224 -0.49670345
-0.4645287 -0.2338026 -0.6218657 -0.7430915 1.066434 -1.6636852 -1.8054514 -0.5141421
-0.60278195 1.5534548 -0.5970772 -0.0805667 -0.5409713 -0.6520701 -0.3917656 0.61741513
2.1962733 -0.6763207 1.0475503 3.168242 1.2024518 2.4662251 1.8819547 2.023017
0.02703619 2.366412 2.0837286 -1.8054527 -1.572898 2.1107473 -0.109704435 -0.5779148
-0.08580488 0.7544163 -0.3380473 0.10960944 -0.13562125 0.87907875 -0.56985044 -0.33210033
3.3881798 0.10390516 1.4641968 -0.54191715 -1.0730516 -1.1122812 -0.5227994 -0.47604105
-0.39638412 -0.32939723 0.65681064 -1.2613803 0.07921038 -2.2579613 -0.57438636 -0.93021303
2.7614346 2.3945808 -0.92940634 -0.3561078 -2.02104 2.120266 2.2908983 -0.5419868
-0.35658064 -0.6288255 -0.40837726 0.06959619 0.05332674 -1.7385405 -0.7902539 -1.1883578
00000000: 038c eebe 93a1 c23f 3200 e4be b877 d0be
00000010: 9af8 fbbe d2b4 17bf 8d89 0bbf a390 563f
00000020: 3b4e df3f 9f80 32bf 4033 243f fe2b 4840
00000030: de47 e83f b822 2240 64b5 e53f 4d03 0b40
00000040: 1437 2d3d 3efc 1b40 abdb 0140 44d5 d0bf
00000050: cc79 a0bf c7e6 d63f 6bf5 d4bb b62b f6be
00000060: c01c 6dbd a03a 643f 1dba 633e 4b7c 09be
00000070: 6d47 94bf 238b c83e 3bc8 2cbf 9b56 c43e
00000080: 412f 5c40 863f 07bd 36d3 773f 6a70 b5bc
00000090: 6b15 9dbf f459 33bf c2a9 eebe 1565 f8be
000000a0: e6d8 39be 2304 5bbf f810 773f 2af7 73bf
000000b0: a6da c3bd 160e efbf e0f1 b9be ae16 02bf
000000c0: abb6 3840 1560 0340 b5ab aebd 5c6b ab3e
000000d0: 5998 0dc0 a179 0840 f3af 0940 f7c8 00bf
000000e0: 520b 0abf 16ee e9be 7eb2 26bf ac0c 37be
000000f0: 9b62 063f 7363 ebbf 9fb4 69bf e6bc babf
00000100: 1e54 ddbe 0e91 913f 6c8f 09bf 5e09 53bf
00000110: 9a7f e8be 6f1f 63be 20c3 10bf bb44 fd3f
00000120: 994c b53f 5fd9 33bf c130 e43d 4289 4440
00000130: 1efd 803f 7c8f 3640 e997 d13f 3ae8 0f40
00000140: 9243 a43d 43c2 1e40 a957 e93f 90d3 33bf
00000150: adb6 64be a7c8 ed3f c810 7dbd 6015 17bf
00000160: 102e a4bd 1f7e cc3f 4890 a5bf 8750 45bf
00000170: d887 cabf e5a4 a63e 4895 21bf c8ab 6a3e
00000180: c0df 6840 c95a f23d 5b36 84bf 3788 033f
00000190: cf4c 18bf 5fe7 edbe fe4b 16bf 217f b2be
000001a0: b4a6 12bf 1585 94bf 5422 cc3f 61f0 9abf
000001b0: adbe 993d 428c dfbf e151 a0be 080a 01bf
000001c0: 4622 2140 df53 0440 e874 8c3e 19c2 743e
000001d0: 9c98 89bf 6b9d 2040 f975 0c40 6f3d 05bf
000001e0: 3038 e7be 058d 1bbf e782 afbe f627 b7bf
000001f0: a8b4 b23f 56c5 eebf ab90 9fbf c231 14bf
00000200: 2cf0 05bf fcc5 d93f bf79 fdbe 272e 3bbf
00000210: 9689 01bf b653 79bf f2c7 3fbf 4c2c d23f
00000220: ce5d 1740 5bab 7ebf 9714 8f3f 8e33 2b40
00000230: 6c66 d53f 03de 1e40 1c4a a33f 9614 0740
00000240: da4d cbbd 47b5 ee3f dbf4 de3f 0274 ebbf
00000250: ac89 dbbf 6fb0 f73f 249f 8b3d 9225 86be
00000260: 9c88 35bd 35f6 423f 1bc3 813f f130 45bf
00000270: f55e 24bf 6345 993f 4e7a 04be a4f9 243f
00000280: 1ff1 4140 6e75 2e3b d864 143f a033 46bd
00000290: 5eda 59bf 173b 93bf 08d1 20bf 0210 3bbe
000002a0: aaf0 01bf 39f2 3fbf f51d b53f f421 a1bf
000002b0: 9b01 e63c 658d c2bf 7ebe 9dbe 1ff3 2cbf
000002c0: a2d6 2d40 784e 1740 163b a7bf f449 e6bf
000002d0: dde6 0cc0 3f63 e93f 0c8e ef3f ea4f febe
000002e0: b5d6 edbe f369 6fbe 9732 1fbf 3f3b 3ebf
000002f0: e980 883f a3f3 d4bf 0819 e7bf d19e 03bf
00000300: eb4f 1abf 9bd7 c63f 0dda 18bf 2700 a5bd
00000310: 187d 0abf 11ee 26bf 8095 c8be eb0e 1e3f
00000320: be8f 0c40 5a23 2dbf 2116 863f 7ac4 4a40
00000330: f1e9 993f a2d6 1d40 e4e3 f03f 1c79 0140
00000340: 007b dd3c 4b73 1740 cf5b 0540 1319 e7bf
00000350: b954 c9bf 7c16 0740 b8ac e0bd 39f2 13bf
00000360: 78ba afbd 6d21 413f 8914 adbe ea7a e03d
00000370: 4ce0 0abe 4e0b 613f b8e1 11bf 0e09 aabe
00000380: f0d7 5840 3bcc d43d cd6a bb3f 15bb 0abf
00000390: c159 89bf 3b5f 8ebf 2ed6 05bf a7bb f3be
000003a0: dcf2 cabe c1a6 a8be be24 283f e974 a1bf
000003b0: 0d39 a23d 7082 10c0 fc0a 13bf 7122 6ebf
000003c0: 58bb 3040 d040 1940 93ed 6dbf c353 b6be
000003d0: b858 01c0 70b2 0740 149e 1240 a6bf 0abf
000003e0: bd91 b6be b5fa 20bf d316 d1be 7288 8e3d
000003f0: 246d 5a3d 7f88 debf 144e 4abf 1c1c 98bf

fc3.bias f4 [4]
0.04825714 0.5448807 -0.049296957 0.09635341
00000000: 47a9 453d 4d7d 0b3f 9beb 49bd f054 c53d
