NeurPiRL_SA/LunarLander_old/DQN/Oracle/16/Policy.pth (torch, 12439 bytes, 6 tensors)

fc1.weight f4 [32, 8]
000000 14 da 84 3d 60 b9 d0 bf 9b 48 1f 3e d3 45 dd bf
       0.064869076 -1.6306572 0.1555504 -1.7286934
000010 ff 9b 45 3f a1 41 bd be 3b 50 8c 3d 04 bd 7d 3e
       0.77191156 -0.36964133 0.0685124 0.24779135
000020 fb c3 8a be ee 44 ee bf 20 88 cd be ee 2d d5 bf
       -0.27102646 -1.8614786 -0.40142918 -1.6654642
000030 b5 dc e0 be 26 ed 29 3e 09 1b b4 3e c0 32 b9 3e
       -0.43918386 0.16594371 0.35176876 0.36171532
000040 37 84 65 bf 92 8b a8 bd 63 ba dc be e8 98 81 be
       -0.8965487 -0.08229746 -0.43110952 -0.2531197
000050 99 5e b0 3e 12 83 19 be 05 f4 2a 3f bf ab 40 be
       0.34447172 -0.14991406 0.66778594 -0.18815516
000060 77 41 d4 3e b3 0e 88 3f 56 a6 44 3e f6 a5 90 be
       0.41456196 1.0629486 0.19204077 -0.28251618
000070 53 ca a0 3e 74 4a 00 c0 0e dd 56 bf 02 bf eb bd
       0.3140436 -2.0045443 -0.8393105 -0.11511041
000080 05 db 4c be c8 fb 99 3d 5d 9a 0a 3e 30 1d e2 3e
       -0.20005424 0.075187266 0.13535447 0.44162893
000090 f0 cd d8 3d d8 34 e6 3e 0e 9d 3a 3f f3 0d 68 bf
       0.105861545 0.44962192 0.72895896 -0.90646285
0000a0 24 d3 3a 3f ca 45 9e bd 57 49 88 be 8c 3b d9 3d
       0.72978425 -0.07728155 -0.26618454 0.10607061
0000b0 d5 07 0e bf af 4a 84 bf e6 8e 6c 3e eb 08 03 3f
       -0.554807 -1.0335292 0.23101386 0.5118548
0000c0 e3 92 ae be f5 28 20 bf 2a 1b 7b bf 7a c0 c2 bf
       -0.3409644 -0.62562495 -0.98088324 -1.5214989
0000d0 4c 96 25 3f b3 1e 41 be 68 49 0e bf 38 4a bd 3e
       0.6468246 -0.18859367 -0.5558076 0.36970687
0000e0 fe 2e 06 bf 3d f2 9f 3f 05 39 4c 3f 6b 02 c2 bd
       -0.52415454 1.24958 0.79774505 -0.094731174
0000f0 7a c1 11 3d 7b 49 3f 3f 4b 8d a2 3e c0 0d 3f bf
       0.035584904 0.747215 0.31748423 -0.74630356
000100 e3 c9 26 3f 3a 23 af bd 1f f0 dd 3e d4 62 e6 bd
       0.65151805 -0.08551641 0.4334726 -0.11249319
000110 7d 81 0f 3f fd a9 89 3f 8f fc ce 3e f4 64 89 be
       0.5605696 1.0755001 0.40427062 -0.26834834
000120 48 5e 21 3d 47 68 94 be 44 d7 ff bc 14 a3 da bc
       0.039396554 -0.28985807 -0.031230576 -0.02668909
000130 3c 07 3b bf 9a 87 61 bf f9 99 0e 3f 33 91 c7 3e
       -0.73057914 -0.88097537 0.55703694 0.38977966
000140 22 e9 a0 3d ee 8b 15 bf af a3 a6 3f 3c b5 b9 bf
       0.078569666 -0.5841664 1.3018702 -1.4508433
000150 f1 ed d8 3e 14 8a a9 be 25 56 1e 3f ef 5e 31 3f
       0.42369035 -0.33113158 0.61850196 0.6928548
000160 19 72 63 be fe 23 b9 be c7 42 55 bd 04 04 02 bf
       -0.22211494 -0.36160272 -0.052065637 -0.5078738
000170 0b 25 11 3e 76 7d 55 3e e4 59 54 3e 25 08 18 3e
       0.14174287 0.20848641 0.20737416 0.14846857
000180 17 a2 af bf e7 cd 08 be 15 78 db be 16 ac 04 bf
       -1.3721341 -0.13359796 -0.42865053 -0.5182508
000190 23 13 e8 3f 1a c7 86 3f 4f c5 1a bd 32 e3 ca 3e
       1.813084 1.0529511 -0.037785824 0.3962646
0001a0 ac e0 28 3f 71 25 b0 be 71 32 ef 3e 59 a6 9c be
       0.6596782 -0.34403566 0.4671817 -0.30595663
0001b0 81 5b 26 bf a1 5e 14 bf 5a 5d 95 3e 58 e6 0b 3f
       -0.64983374 -0.5795689 0.29172784 0.5464835
0001c0 c6 73 b3 be 97 07 32 be 82 66 6c 3d a5 88 b7 3e
       -0.35049266 -0.17385708 0.057714947 0.3584644
0001d0 ec 8f 8e 3f ac fa 82 3f 79 8b 9d 3e 31 94 c3 bd
       1.1137671 1.0232749 0.30770472 -0.0954975
0001e0 b0 41 56 3d d7 c6 6e 3f c5 34 75 3d fe 43 60 bf
       0.05230874 0.93272156 0.059864778 -0.8760375
0001f0 d4 0c 9e 3e 82 8d 4e 3f 8b 81 ef 3e ae 3a 12 3f
       0.30869162 0.80684674 0.4677852 0.5712079
000200 7f 5c 60 3f 26 c1 ed bd ee c4 34 3e 4e 4a 95 be
       0.8764114 -0.11609106 0.17653248 -0.29158252
000210 e6 46 4d bf 4e 16 8a bf 5b a4 4b bf 07 f7 ca 3e
       -0.8018631 -1.0788057 -0.7954766 0.39641592
000220 cc a2 c8 be 41 45 58 3f a1 96 80 bf f1 6e d8 3f
       -0.39186704 0.84480673 -1.0045968 1.6908857
000230 3e 73 97 3f bd 70 c8 3e 5f 01 20 be ad 08 64 be
       1.1832044 0.39148512 -0.15625523 -0.22268935
000240 99 7c 82 3f 44 c7 a7 be bd c4 5e 3f 78 94 33 bf
       1.0194274 -0.32769215 0.8701895 -0.7014842
000250 5d 8e f4 be dc 70 10 bd 3f 3d 90 3e bb 85 9c be
       -0.47764865 -0.03526388 0.28171727 -0.30570778
000260 23 54 22 3f 33 1d ca bc 1c b2 fa bf 97 ee 42 bd
       0.6340963 -0.024672126 -1.9585605 -0.04759082
000270 8d b0 8f bf 0c 9b ac be 06 6c b1 be 76 f5 0a 3d
       -1.1225754 -0.3371204 -0.34652728 0.033925496
000280 f8 f0 86 bc f4 94 bf be d6 7c da be bc 70 34 bf
       -0.016472325 -0.3741833 -0.42673367 -0.7048452
000290 ac 03 0d 3e b9 6a 10 3c fa 2d 03 3e b3 75 d8 3d
       0.13770932 0.008814507 0.12810507 0.10569324
0002a0 24 c1 e8 bd 56 b8 9c 3d 23 e1 bf be 0c 80 b9 40
       -0.11364964 0.07652347 -0.37476453 5.7968807
0002b0 49 6d 3f 3f 96 58 2b be 59 ad ea 3c 40 ee 2c bd
       0.7477613 -0.16733012 0.028647112 -0.0422194
0002c0 5e ad 4b 3f 21 88 b2 be de 31 c2 be 90 19 84 bf
       0.7956141 -0.34869483 -0.3792867 -1.0320301
0002d0 64 ac 45 40 0d 12 7c be 95 66 df 3e a0 07 98 3e
       3.088647 -0.24616261 0.4363295 0.29693317
0002e0 9f f0 e9 be 6a bf 39 be 0d 3b 3d bf 51 54 92 3e
       -0.45691392 -0.18139425 -0.7391823 0.28579953
0002f0 a6 a3 a1 3f 94 a7 38 3f 39 50 81 3d cc 43 49 be
       1.2628067 0.72130704 0.063141294 -0.19654769
000300 cc c0 4c bf 1e 94 51 bf 7c 9e 27 be ea 69 6b be
       -0.79981685 -0.81866634 -0.1636905 -0.22989622
000310 74 f6 0a be 0a 25 98 be bd ba b1 3e 48 60 dd 3e
       -0.13570577 -0.2971576 0.34712783 0.4323752
000320 c3 b5 7f 3f 21 13 80 bf 81 81 9d 3f 29 34 54 bf
       0.9988672 -1.0005838 1.2305146 -0.8289209
000330 cc a3 17 bf 12 e8 c7 be 38 a4 0c 3e 4c 49 b3 3e
       -0.5923431 -0.39044243 0.1373452 0.3501686
000340 12 60 26 be d8 3b 9f bd bc b9 be be 34 10 e9 be
       -0.16247585 -0.07775086 -0.3725108 -0.45520175
000350 af c6 88 bf b3 ae 7b bf 00 3b a0 3c 8e d5 04 bf
       -1.0685633 -0.98313445 0.019559383 -0.5188836
000360 1d ab cc 3d cf 9f ab 3f fa ee 6f 3f e9 ce 9b 3d
       0.09993575 1.3408145 0.93724024 0.07607824
000370 ae f0 2d bf cf 97 3e 3e fd 67 c8 3e e1 7b 64 3d
       -0.67945373 0.18612598 0.39141837 0.055782203
000380 6c bf 42 3e c9 ba b2 3a d1 eb b6 38 be f9 e1 be
       0.19018334 0.0013635989 8.7223605e-05 -0.4413585
000390 a9 f4 29 bf 7e f8 94 bf 4d 15 27 be 4a f7 0f 3f
       -0.66388947 -1.1638334 -0.1631672 0.5623671
0003a0 6b a4 07 bf e0 08 19 3f 39 82 e3 bf db 0e 45 bf
       -0.52985257 0.5977917 -1.7774116 -0.7697579
0003b0 61 24 5d 3d 83 fc 83 be ed 64 8d 3e 25 9a 1d 3e
       0.05398977 -0.2577859 0.27616063 0.15390833
0003c0 24 de eb bd 43 98 3b be 62 27 c1 be a5 33 15 3f
       -0.11516979 -0.18319802 -0.3772536 0.5828193
0003d0 40 78 fe 3e 39 1d b3 3d 2e 80 e3 3e 29 be 1c 3d
       0.49701118 0.08745808 0.4443373 0.03826729
0003e0 bb c0 94 be 17 5b 01 bf 14 d4 3f bf 6f 01 4a bf
       -0.29053292 -0.5052962 -0.7493298 -0.7890844
0003f0 6f 45 42 3e 51 da cd 3e e3 64 30 3e 13 ff 72 3d
       0.189718 0.40205625 0.17225985 0.05932529

fc1.bias f4 [32]
000000 0d 10 c2 3d 2d f3 ab 3a 4e 74 5b 3e 66 47 0e 3e
       0.09475718 0.0013118737 0.21431085 0.13894424
000010 0e f4 54 be 65 4e 86 3d 0b ce 1b 3e 9e 33 98 be
       -0.20796224 0.06557921 0.15215318 -0.2972688
000020 03 fc 49 bd 9b 32 be 3d 79 61 e7 3e bf 6f 4d 3e
       -0.049312603 0.09286996 0.45191553 0.20062159
000030 17 7e 96 be 51 0b ae 3e 16 7f ff 3e 9e 19 30 3f
       -0.29393074 0.3399301 0.49901646 0.6878909
000040 11 36 cd 3e 88 31 b7 3e 7b d3 6b 3c 97 d6 f2 3d
       0.40080312 0.35779977 0.014393683 0.11857336
000050 78 73 3e 3e a7 fb 54 3e 85 17 48 3e 69 fc ec 3e
       0.18598735 0.20799123 0.19540222 0.46286324
000060 3d a4 81 be d7 14 ee be 2d 9d 47 3e de 77 93 3f
       -0.25320616 -0.46500275 0.19493552 1.1520956
000070 4a 5a c7 be e5 7e be 3e d9 12 62 3e 77 b8 83 be
       -0.38936073 0.37206188 0.22077502 -0.25726673

fc2.weight f4 [64, 32]
000000 71 1a 78 bf ff 43 84 bf 3b 13 22 bd 0e cd 2c be
       -0.96915346 -1.0333251 -0.03956912 -0.16875097
000010 39 69 2e 3f 2d f2 d3 3e 28 38 cd bd da 69 d7 3e
       0.6812931 0.41395703 -0.100204766 0.42072946
000020 00 db 9f be 02 4f de bd 86 a9 c2 be 78 50 d9 be
       -0.3122177 -0.10854913 -0.3801996 -0.42444205
000030 a2 20 9c 3e 33 74 aa 3d 7b 08 55 3f e0 05 52 be
       0.30493647 0.083229445 0.83216065 -0.20510054
000040 cc 03 83 3f f4 5a 8f 3f 34 e5 2f bf 25 da aa bf
       1.0235534 1.1199632 -0.6870911 -1.3347822
000050 bf d6 05 bf af 20 b9 3f 5d 22 f8 3e 71 60 c5 3c
       -0.522808 1.4463099 0.48463717 0.024093838
000060 a2 71 e6 be 2a 2d 5e bf 69 d3 f7 bd 8b de 77 3e
       -0.4500857 -0.86787665 -0.1210087 0.24205987
000070 a6 5b 88 be 18 3d bb 3e 18 1a f7 3e 56 b4 6f bf
       -0.26632422 0.36570048 0.48262095 -0.93634546
000080 a4 a0 86 be e6 98 1b bd 9f 96 9b 3e 85 72 7a be
       -0.26294434 -0.037987612 0.30388352 -0.24457748
000090 09 08 79 be 21 05 07 3f 0e e2 1b 3e 1a dc df be
       -0.24319471 0.527422 0.15222952 -0.43722612
0000a0 b8 ee 4a be c2 08 62 3e 20 fb 89 be ec c2 41 bc
       -0.19817626 0.22073653 -0.26949406 -0.011826258
0000b0 32 62 3a 3f c4 1f 09 3e 55 2a 0a 3f 7f 7a 06 bd
       0.72806084 0.13391024 0.53970844 -0.032831665
0000c0 2a 49 5b 3f fb 77 76 3f 33 71 58 3e 62 d7 e8 bf
       0.85658514 0.96276826 0.21136932 -1.819073
0000d0 26 b5 57 3e 59 63 d7 3d 76 82 12 bf 22 bb d9 3e
       0.21065196 0.10516996 -0.5723032 0.42525584
0000e0 d5 be 9f 3e 79 53 1d 3f 8f a5 40 3f cc 69 29 be
       0.3120028 0.61455494 0.7525262 -0.16544265
0000f0 60 1e a4 3e 19 01 ef 3e b7 51 86 3e 26 2e 89 3e
       0.32054424 0.46680525 0.26234218 0.2679302
000100 51 11 29 3e f9 cc de 3d 21 30 ad 3e 7d cb 60 3e
       0.16510512 0.10878939 0.33825782 0.21952625
000110 39 e3 98 bf 9e ee ba bd 3f 75 18 bf 14 cf 95 3f
       -1.1944343 -0.09127544 -0.59553903 1.170382
000120 4c d8 b5 be 3b 12 5d 3e ac c7 f5 3e 3a 70 99 bd
       -0.35516584 0.21588986 0.480039 -0.07492109
000130 12 64 59 bf ad 17 a4 bd 44 67 c8 be 4f f0 9e 3e
       -0.8491832 -0.08012328 -0.39141285 0.31042716
000140 78 36 b5 bf 7e 0b 22 3c 43 08 26 bf bc 11 e9 3f
       -1.4157248 0.009890435 -0.64856356 1.8208537
000150 40 b6 d8 bc cc c0 70 3f 07 27 9b 3f b7 6e 21 be
       -0.026454091 0.94044185 1.2121285 -0.1576489
000160 e9 4b 0c be e0 4b 45 bf ac 20 39 bf f7 df 19 3f
       -0.13700832 -0.770689 -0.7231548 0.6010737
000170 c3 4c 9f be 2b b9 16 bf 90 70 81 3c 56 55 3f be
       -0.31113252 -0.58876294 0.015800744 -0.18684897
000180 cd d4 74 bd 85 5a 07 3f b8 35 22 be a0 d4 05 3f
       -0.059773255 0.52872497 -0.15840805 0.52277565
000190 80 99 ec bf 2a 18 18 bf 57 9f 13 be 56 df 6e 3f
       -1.8484344 -0.5941187 -0.14416252 0.93309534
0001a0 dc 26 dc bf 72 b9 ab bf 00 19 9b 3d 71 21 82 bf
       -1.7199359 -1.3415968 0.07573128 -1.0166456
0001b0 a8 1b 09 3f f0 78 3b bf 04 f7 f5 bf 59 5c 08 3f
       0.53557825 -0.7323141 -1.9216008 0.5326591
0001c0 50 20 7d bf 45 01 85 3e 14 3a 8c bf a0 9a 0b 40
       -0.9887743 0.2597753 -1.0955224 2.1813126
0001d0 34 fe 78 bf 33 84 20 3f d7 0b 58 3f 59 dd c6 bf
       -0.97262883 0.6270172 0.84393066 -1.55363
0001e0 b9 96 93 3c 0d 0f 9e bd 45 11 42 bf de 8d 33 3f
       0.018016206 -0.077177145 -0.758076 0.7013835
0001f0 ce be 3a bf ec 4d 0d 3f 9a 88 81 bf 4a 29 18 3d
       -0.72947395 0.55197024 -1.0119812 0.03714875
000200 0d 11 98 3d 09 87 12 3d a1 3f 95 bd 3d aa fc bc
       0.07425127 0.03577331 -0.07287527 -0.030842895
000210 38 69 8b bc 06 57 7d bc af d4 f2 3d 8d f0 aa bd
       -0.017017946 -0.015462643 0.118569724 -0.08346663
000220 76 52 86 3d dd f5 97 bc 33 bc a5 bd f8 d8 c4 bc
       0.06558697 -0.018549854 -0.08092537 -0.02402924
000230 cd c3 db 3c 46 dd 38 bd 62 1b f2 3d 08 3b 62 3d
       0.026826764 -0.045132898 0.11821629 0.055232078
000240 bf 73 54 bd f7 a8 ca bd d2 00 8b bd 3a 5b 2f bd
       -0.051868197 -0.09895509 -0.06787266 -0.04281161
000250 a0 25 4e bd 65 65 20 3e 5d 00 94 bd c1 30 e6 bd
       -0.05032885 0.15663679 -0.07226632 -0.11239768
000260 44 e1 45 bd 6d f7 13 be af 16 8b 3c 7a 25 85 bc
       -0.048310533 -0.14449854 0.01697859 -0.016253222
000270 75 fe 8a 3d 5d 4b 23 be 7c fc 2f be d3 ec 32 be
       0.06786815 -0.15946718 -0.17186159 -0.17473154
000280 49 66 86 be 24 4e 4f 3e 00 46 08 3e f2 fc df be
       -0.26249912 0.20244652 0.13307953 -0.4374767
000290 fc 57 1b 3f b9 5d b8 3c 6d 30 29 3f 03 39 23 3e
       0.6068113 0.022505628 0.66089517 0.15939717
0002a0 c8 3a 87 be 02 cd 10 bd 9a 58 12 38 cc 6d 39 be
       -0.26412034 -0.03535176 3.489163e-05 -0.1810829
0002b0 51 a6 9b 3f 65 c4 1d 3e c6 7e fb 3e 0f b1 f2 3e
       1.2160131 0.1540695 0.49120158 0.4740071
0002c0 4d c2 22 bf 41 74 1d 3f e6 10 ad 3e 54 e9 51 bf
       -0.6357773 0.61505514 0.33801955 -0.81996655
0002d0 ce a8 27 3e 1f 61 5d be 8e e5 06 bf d1 99 19 3f
       0.16372988 -0.2161908 -0.5269402 0.6000033
0002e0 07 05 99 3e 3f 70 1b 3f 71 23 ba 3e be a5 87 be
       0.29886648 0.6071815 0.36355165 -0.2649364
0002f0 32 68 19 3f 68 ad ea 3e eb bd 75 bd 92 83 d5 3d
       0.59924614 0.45835423 -0.059995573 0.10425486
000300 b6 fd 35 bf 6f b6 92 3d fa 85 e2 3e 1a 1e bc be
       -0.7109026 0.07163703 0.4424284 -0.36741716
000310 b0 d2 b1 3c d4 56 80 3e 22 36 f8 3e 5c ff 83 be
       0.021706909 0.25066245 0.484788 -0.2578076
000320 a4 1e 87 be fe 07 b8 3e 37 da 8c be 58 d3 0c 3e
       -0.26390564 0.35943598 -0.27510235 0.13752496
000330 71 9f 86 3f 17 48 8d 3d ea bb e5 3e de c2 aa 3e
       1.0517408 0.06898516 0.4486993 0.33351797
000340 71 17 35 3d 4a aa 95 3f 4e a3 c2 3d 11 86 9c bf
       0.04421181 1.1692593 0.09503804 -1.2228414
000350 2a b3 12 3e 7d c9 3b 3e fa 81 2b bf 17 df 00 3f
       0.14326158 0.1833858 -0.66995203 0.5034041
000360 0e 45 03 3f 25 95 60 3f ef e4 d6 3e 91 29 b2 be
       0.51277244 0.87727576 0.41971537 -0.34797338
000370 d5 f3 83 3e 2c 50 10 3f ab d9 bf 3e de c1 f1 3e
       0.25771967 0.5637233 0.37470755 0.4721822
000380 89 80 2b 3f 41 d6 41 3e b4 34 46 be b6 a4 fd 3e
       0.66993004 0.18929388 -0.19356042 0.49539727
000390 f3 dd 85 bf dd 44 ca be 1e 0b ec be dc 8c a6 3f
       -1.0458359 -0.39505664 -0.46102232 1.3011737
0003a0 da f4 9e be d3 fd d2 bd a4 fb e2 3e 7a 24 20 be
       -0.31046182 -0.103023194 0.44332612 -0.15638915
0003b0 a8 55 41 bf d3 b3 07 be 52 4e 10 bf c7 83 fa 3e
       -0.75521326 -0.13252191 -0.5636951 0.48928663
0003c0 44 34 91 bf 72 65 1d bf 1c a3 3b bf 15 24 e6 3f
       -1.1344075 -0.6148292 -0.7329576 1.7979761
0003d0 8f 28 a0 be be 81 4d 3f b6 11 93 3f 29 2b ab bd
       -0.31280944 0.80276096 1.148978 -0.083578415
0003e0 f8 c6 fe be e9 41 32 bf 43 dc 17 bf 45 9a 49 3f
       -0.49761176 -0.6963182 -0.5932047 0.7875102
0003f0 bf bf 58 bf c6 26 b5 bd 42 0f 23 bd f2 8f 64 be
       -0.8466758 -0.08845286 -0.039809473 -0.22320536

fc2.bias f4 [64]
000000 b0 7e 6e 3e b7 2c d6 bc 53 b7 4b 3f 3c 2c ab 3e
       0.23290515 -0.026144369 0.79576606 0.33432186
000010 b3 50 4c be 1e 30 b7 3e ec 66 c6 bd e7 2d 76 3f
       -0.1995266 0.35778898 -0.096875995 0.9616379
000020 d6 e6 d7 bd c8 54 79 be d2 63 55 be a3 72 64 3f
       -0.10542075 -0.24348748 -0.2083886 0.8923742
000030 19 a7 97 3e bf b4 bb be ea 9f 8a bb 50 af 2d bd
       0.29619673 -0.36661336 -0.004230489 -0.04240352
000040 cd 66 2a be 22 e9 ee 3e e3 b2 7f bc 85 52 4c 3f
       -0.16640778 0.4666224 -0.015606615 0.79813415
000050 3c f8 69 be 95 57 46 bd db 0d fc 3e 53 ad 96 3e
       -0.228486 -0.04842337 0.4922932 0.2942911
000060 e0 68 20 be 36 ff 05 bd 99 35 53 be c1 25 27 be
       -0.15665007 -0.03271409 -0.20625915 -0.16322996
000070 d4 56 0d 3f b2 ce 31 ba 5a 00 1d 3e e5 a1 3c bd
       0.55210614 -0.0006782814 0.15332165 -0.046052832
000080 68 41 3c 3d a2 f4 3e be 9c b2 14 be c4 5e 96 bc
       0.045960814 -0.18648008 -0.14521259 -0.018355735
000090 40 71 c6 bd 4d d3 80 bd f0 76 60 3f 55 91 51 3e
       -0.096895695 -0.062903024 0.87681484 0.20465596
0000a0 a2 ef 00 3f cb 9c 4a be 82 8c 90 be 44 d5 5a be
       0.5036565 -0.19786374 -0.282322 -0.21370417
0000b0 fc f7 f3 bd 65 67 1c bc 65 3c b7 bd 8a fd 3e 3e
       -0.11912534 -0.009546136 -0.08947066 0.18651405
0000c0 ac 84 f5 bd 62 be 8b 3d 4e 43 39 be eb af 3a 3f
       -0.11988196 0.06823422 -0.18092081 0.7292468
0000d0 32 b5 1c 3e 66 69 05 3f b0 bc ab bc 7a 98 2c bd
       0.15303496 0.5211395 -0.020963997 -0.0421376
0000e0 c0 ca fe bd bb 8a 7d 3f 5d 3b 55 3f a5 a1 84 be
       -0.12441015 0.9903981 0.83293706 -0.25904575
0000f0 9d c8 0f 3d 67 ee 59 be 78 29 86 bd b7 69 3c be
       0.03510343 -0.2128235 -0.06550878 -0.18399702

fc3.weight f4 [4, 64]
000000 fd f5 8a bf f0 63 a9 be 61 80 f3 3f 2b b3 c1 3f
       -1.085632 -0.3308406 1.9023553 1.5132803
000010 57 4f 48 3d 32 c7 dc be 60 4d e5 be 9f 79 f1 3f
       0.04890379 -0.43120724 -0.44785595 1.8865241
000020 17 ba d5 be 98 78 c1 be e3 16 e4 bd 19 07 82 3f
       -0.41743538 -0.37787318 -0.11137178 1.0158416
000030 8f 51 f4 be dc 89 07 3e 20 34 c3 be e1 b3 08 bf
       -0.47718474 0.13236183 -0.38125706 -0.53399473
000040 d7 41 af be 60 6a 01 bf 5e eb bd be be 6b d4 3f
       -0.3422992 -0.5055294 -0.37093633 1.659538
000050 41 bd d5 be ed 48 d6 3d 0b 0d 14 40 5e c6 04 bf
       -0.41745952 0.10463128 2.313296 -0.51865184
000060 8f dc 1c bf 36 df d4 be ad 8e 9b be 27 8b da 3d
       -0.61274046 -0.41576546 -0.3038229 0.106710725
000070 09 f6 44 40 91 2f 4b be 81 39 ae be e2 9f c9 be
       3.0775168 -0.19842364 -0.34028247 -0.39379793
000080 9e 5a fd be 38 b1 96 be 77 7c bc be bd 1d 03 bf
       -0.49483198 -0.29432082 -0.3681371 -0.5121725
000090 71 1b cf be cf 9b f9 be f8 7d d6 3f 4f 58 dd be
       -0.40450624 -0.48751685 1.6757193 -0.43231437
0000a0 7a 14 8a 3f f7 b7 bf be 81 82 dd be 78 e4 07 be
       1.0787499 -0.37445042 -0.4326363 -0.13270748
0000b0 0a 58 f8 be 4a 93 14 bf 6c 13 0d bf 7c c7 c3 be
       -0.48504668 -0.58037245 -0.5510776 -0.38238132
0000c0 85 ab ac be 74 27 34 3f 42 d7 ef be 3e 93 f8 be
       -0.3372461 0.703727 -0.46843916 -0.48549837
0000d0 e6 d2 3a 40 0d 20 7a 3f 87 97 f5 be a2 63 b5 bd
       2.9191222 0.97705156 -0.4796717 -0.08856894
0000e0 8d 77 b8 be e4 3a ea 3f 93 4c fc 3f 76 04 a6 be
       -0.3602871 1.8299222 1.9710869 -0.32425278
0000f0 36 4d 0f bf 00 6f dc be e1 ab 13 bf 94 45 c6 bd
       -0.5597719 -0.43053436 -0.5768414 -0.0968124
000100 e2 39 b2 be bc 0f 22 bf 83 23 f7 3f 23 5c 1b 40
       -0.34809786 -0.6330526 1.9307712 2.4274986
000110 15 c7 ae 3c c2 5a 5c bf 75 fb 34 bf bd 1a ee 3f
       0.021335164 -0.86075985 -0.7069619 1.860191
000120 fe 0c 3c bf 48 bc 1a bf 87 c5 09 3d 63 dd 5b 3f
       -0.73457325 -0.60443544 0.033635642 0.85884684
000130 c4 8e 33 bf 47 02 fe 3e 85 7d d4 be ef 78 da be
       -0.7013972 0.49611112 -0.41502014 -0.4267039
000140 1e b1 db be 9e 74 91 3d cb 9a 09 bf 84 49 be 3f
       -0.42908567 0.07102321 -0.5375182 1.4866185
000150 61 e6 d6 be 12 29 b8 3d 12 3d 12 40 33 62 1c bf
       -0.4197264 0.089922085 2.2849774 -0.6108734
000160 cb cc 07 bf 4d 77 11 bf 00 a9 c0 be ea ad 6a 3d
       -0.53046864 -0.56822664 -0.37628937 0.057294764
000170 2f 47 31 40 a8 85 0f 3f df 57 7f bf 65 d0 c9 be
       2.7699697 0.5606332 -0.99743456 -0.39416805
000180 53 77 f8 be 8e 6e af be c4 f6 ae be 0b b1 e1 be
       -0.48528537 -0.34264034 -0.34172642 -0.44080386
000190 71 a8 ba be ef fe 05 bf 2b 61 e5 3f 74 28 a4 be
       -0.36456636 -0.5234212 1.7920278 -0.32062113
0001a0 48 cc d2 3e e9 af d5 be 46 36 0f bf bc 7f 8d bd
       0.4117148 -0.4173577 -0.5594219 -0.06909129
0001b0 ec de 95 be b3 fd 12 bf 59 ec 41 be 37 e8 1c bf
       -0.29271638 -0.57418364 -0.18937816 -0.6129183
0001c0 ec 7f 10 bf b9 40 c9 3f 44 d0 fa be 88 0c ab 3f
       -0.56445193 1.5722877 -0.4898702 1.3363199
0001d0 ad f1 4d 40 60 ae 75 3f 16 9c 14 bf 27 56 06 bd
       3.2178757 0.959692 -0.5805067 -0.032797005
0001e0 49 b9 ef be 55 a9 01 40 af 91 e4 3f df 40 ad bf
       -0.4682105 2.0259602 1.7856959 -1.3535422
0001f0 1f ea e2 be df 4d 2c bf a6 95 e6 be 40 bf dc bb
       -0.44319245 -0.6730632 -0.45036048 -0.006736666
000200 82 45 20 c0 7e 96 f1 be 2d 7a 81 3f a1 b4 07 40
       -2.5042424 -0.4718513 1.011541 2.1203997
000210 80 fd 58 3d cf b2 72 be 15 89 0e bf 82 64 d2 3f
       0.05297613 -0.23701023 -0.5567792 1.6436923
000220 c0 c9 de be 3f 26 35 bf fa 82 f0 bd fa 8b f9 3f
       -0.43513298 -0.70761484 -0.11743732 1.9495842
000230 d2 1d 51 be 46 4e fa bf d2 98 cc be 12 80 cc be
       -0.20421532 -1.9555137 -0.39960343 -0.3994146
000240 67 7a 0c bf 12 cd 20 3f 50 e2 cd be e7 35 e5 3f
       -0.5487427 0.6281291 -0.40211725 1.7907075
000250 83 69 5d be d4 23 27 bd cd 72 3d 40 b7 78 46 bf
       -0.21622281 -0.040805653 2.960132 -0.77527946
000260 bf a0 b8 be 5c df 1e bf 0e d5 fb be 00 b0 48 bb
       -0.3606014 -0.6205957 -0.49185985 -0.0030622482
000270 93 cc 03 40 2f 81 12 bf 4f 28 bb 3e 91 02 bb be
       2.0593612 -0.5722837 0.3655419 -0.36525396
000280 bc 2c f4 be bb f1 33 bf 57 eb 42 be 0a c7 b5 be
       -0.4769038 -0.70290726 -0.19035088 -0.35503417
000290 7a 32 e8 be 41 65 ef be 34 21 eb 3f 2c 3a ac be
       -0.4535101 -0.46756938 1.8369508 -0.33638132
0002a0 35 ae ea 3f 9e bc c3 be 7d ea aa be 5f f7 78 3f
       1.8334414 -0.3822984 -0.33382025 0.9725246
0002b0 e5 5d d2 bd 96 88 16 be 63 6e 02 bf c0 00 ce bd
       -0.10271815 -0.14700541 -0.50949687 -0.10058737
0002c0 a2 cb 54 be 7c d6 44 3f 53 9f aa be 0f 47 ed bf
       -0.20780805 0.7688978 -0.3332468 -1.853731
0002d0 ee 83 9b 3f 35 36 e2 3f 60 a0 a1 be be 9e eb bd
       1.2149637 1.7672793 -0.3156767 -0.11504887
0002e0 78 0d f1 be 0f f2 b2 3f db 10 ac 3f f1 cb ff be
       -0.47080588 1.398012 1.3442644 -0.49960282
0002f0 52 08 0c bf a1 28 7d be 4f 13 e5 be 53 06 d0 bd
       -0.54700196 -0.2472253 -0.44741294 -0.10157456
000300 d9 8d 66 3d 72 6b 0e bf 63 bb 00 40 ea 59 57 3f
       0.05628762 -0.556327 2.0114372 0.8412157
000310 8e ee a4 bd a1 38 f3 bd e9 bb ba be f6 aa e7 3f
       -0.08053313 -0.118760355 -0.3647149 1.8099048
000320 ac 92 88 be 52 e4 b9 be 38 d4 8c 3c fa 6e b9 3f
       -0.26674402 -0.36307007 0.017191038 1.4486992
000330 61 c0 f7 be b7 3e 58 be 93 ba e1 be 54 bc 33 bf
       -0.4838896 -0.21117674 -0.44087657 -0.7020924
000340 d8 7b cb be 10 f0 4f bf e6 a7 e0 be 84 df c3 3f
       -0.39742923 -0.8122568 -0.43878096 1.5302587
000350 85 b1 fd be 66 01 a8 3d 80 77 14 40 60 76 37 3e
       -0.495495 0.08203392 2.3197937 0.1791625
000360 59 94 24 bf 5c 58 c1 be 46 57 db be 88 7c 90 3d
       -0.6428886 -0.37762725 -0.42840022 0.070550025
000370 46 a3 53 40 87 2c 99 bc 0e b4 99 be 14 c2 04 bf
       3.3068404 -0.01869799 -0.30020183 -0.5185864
000380 bc 28 ff be d3 42 61 bf b0 88 ed be 62 a3 2a bf
       -0.49835765 -0.8799259 -0.46393347 -0.6665555
000390 32 c9 30 bf aa ea d4 be ef d8 0b 40 83 3e 42 bf
       -0.69057 -0.41585284 2.1851156 -0.75876635
0003a0 c1 7d a8 3f a3 91 12 bf d5 a2 f9 be 89 33 55 bc
       1.3163377 -0.57253474 -0.48757043 -0.013012775
0003b0 de d0 5f bf 60 ef c4 be 2a 29 22 bf 0f 13 17 bf
       -0.8742808 -0.3846388 -0.6334406 -0.59013456
0003c0 ba 1d ea be ae 81 f4 3f c1 cf d8 be e9 63 44 bf
       -0.45725805 1.9102075 -0.42346004 -0.7671495
0003d0 49 9c 4e 40 e5 82 a5 3e 88 61 fc be e8 3d b6 bd
       3.228289 0.32326427 -0.4929316 -0.088985264
0003e0 13 0a 1e bf dd b7 c2 3f 0b 04 c9 3f e0 2b 4e 3f
       -0.6173412 1.5212361 1.5704359 0.805357
0003f0 a2 b0 0a be d9 e0 f6 be f4 c3 f5 be 30 6e 78 bc
       -0.13543943 -0.4821842 -0.48001063 -0.0151629895

fc3.bias f4 [4]
000000 18 35 3f be e2 5d b3 bd 96 6d 89 3e 54 d1 a9 3e
       -0.18672597 -0.08758141 0.2684142 0.33167517
