NeurPiRL/LunarLander/DQN/checkpoints/100.pth (torch, 22315 bytes, 6 tensors)

fc1.weight f4 [64, 8]
00000000: 410f 343f cab7 57bf 2266 953e 2e8a 14be
00000010: 4a12 e6be ccb5 7dbe 2458 8d3c 2bb4 4b3f
00000020: 31a7 b4bc 67b2 07bf c613 0cbf 2797 21bf
00000030: 87e3 073f 7ee8 9d3e df62 863e 273d cd3e
00000040: cb93 9e3d e244 a8bf 7eb8 04bf f63a 25bf
00000050: 4a33 643e bca4 073f b871 b23d f416 903e
00000060: 2cfc a53d 493f 91be c969 a8be dc97 17bf
00000070: ae24 f9bd 94b4 7cbe 2caa 87be 1f29 093f
00000080: f87d aabd 1e73 6cbe 4f2e acbc 5cd3 b6be
00000090: e53d eabe 6e0d 2bbf b404 bb3e 9f84 183e
000000a0: ba4d 553e 37ed 673c 3f1a 113e e9d4 363f
000000b0: a209 76be 60af 043f 814c 6ebe 2894 123f
000000c0: 0bf1 ffbe 6f8f 0d3f 87c0 203e 1ba7 a6be
000000d0: 030e dc3d 750d b1be 25cb c63d 5e7a 6e3d
000000e0: bdb9 bebe 3cb8 a6bf 2b8c 32be e6c2 5ebd
000000f0: 3483 123f 8543 d93e 5d0d 8f3e 3318 01bf
00000100: 0543 c3be 00f5 543e bf2a 02be 2078 233d
00000110: e7fd 65be b583 1cbf b04a 39be a1ea 5b3e
00000120: c7e8 153e 5255 4cbf f867 c6be 6b48 e5be
00000130: a0e1 423e eaa7 f73e 6d0e 2b3c efc5 373f
00000140: 283c bf3d 2ca8 29be 74f2 1cbe 1cab 133e
00000150: c200 44bf bd79 5ebd 3a5b 0e3f 2153 e13e
00000160: 6b24 e8be 6d10 60bd 5908 d4be 0a68 d53d
00000170: a1e4 193f 3f49 a23e 90e9 ae3c 153a 41bf
00000180: e405 9dbe d211 bfbe 8e45 c73e 9534 6f3e
00000190: b3bc 01bf 9512 123f 5f62 4a3e e709 e8bc
000001a0: a336 7ebe f2cd adbf 4dc4 eabe b1c0 c3be
000001b0: 8b22 02bf 4fea 38bf a2e9 82be 1ad8 333f
000001c0: bcee c13e ba1f 98bf d8ab d3be 7c27 c5be
000001d0: e3f4 493d 5714 923d 7353 e3bd c9e8 243f
000001e0: 63fe 54be cbd3 0b3e 4e30 9bbe da57 d43c
000001f0: a8eb 993e 83b9 f53c e51a c93e 0804 9abe
00000200: 373a d0be aa8d d83d 508c 2ebe 9845 f8be
00000210: 1a32 f0bd 429e 4c3f 4704 31bf dfb7 ba3d
00000220: 7a53 ed3e ae40 1c3f 09f5 dc3e 723f 813e
00000230: fab8 33bf bec0 0dbf cc6c 19bf 16da 503f
00000240: c55c 4b3e 3219 c1bf eb0b 18bf 5da6 32be
00000250: 4038 04bf 0900 0fbf e452 b03e 73e7 2f3f
00000260: bb07 0f3f ef20 dabf 34ea 3d3e b511 14bf
00000270: 0f77 62be 3cf6 42be eb00 cf3e 013a d53e
00000280: 5325 06bf 3fcf 0cbe f9e5 0dbf a91c 593d
00000290: 4dd0 273e 61e7 013f ef07 383f a0a5 eabe
000002a0: 1d19 c13e 6a6a c1bf ccdd 1cbd f33d 72be
000002b0: 6107 a73d 9844 bb3e ef87 923e b839 353f
000002c0: 5fa3 51be 3c0e d5bf cc38 823e 4420 36be
000002d0: 6ed5 cebe c9a2 cf3d 946e aa3e 5607 0d3f
000002e0: 2e00 09be 6890 25bd 4dc0 8d3d b316 0d3d
000002f0: 0976 12bf c7e1 fcbe 078c 653d 6e05 88be
00000300: 9453 4ebe 6109 8c3e dde9 523c 5783 a9be
00000310: 6288 e93e adae dabe 4a70 ffbd 35fa c53e
00000320: 2e18 a93e b420 bbbf d4ea 183e 3d37 55be
00000330: a605 ffbe ff82 f1be 0876 74bd 126a b93e
00000340: b7c5 c43c 590f e33d 71a5 bb3d 094d bcbe
00000350: bceb fc3e 0c53 63be 7434 02bf aee1 7abe
00000360: af8f 6ebe 0f09 b8be 8cda 74be 1386 cebe
00000370: 0ce3 7ebe 18eb 10be b5fa 84bd 4ac9 6b3e
00000380: afb6 dcbe 9023 94bf a358 9f3d 8973 e9bd
00000390: 7c43 aabe 3b8b 963e f88c 5a3e cdd6 8bbe
000003a0: 48ca ba3e 7826 84bf be52 b9be 614e 91be
000003b0: 92ab 4cbe 4f80 6f3e d895 253f e6ad fe3e
000003c0: 700c 083f 71b5 dcbd 6e82 733e ea1f 36be
000003d0: 980f 46bf e13f 18bf 2d19 0f3f 1c26 1e3f
000003e0: 4cbf e13e 5709 8abe 921d 28bf cb64 543f
000003f0: e7fe 0dbf 0736 b03e c579 283e 5b8b dfbe
0.70335776 -0.84264815 0.29179484 -0.14505836 -0.44935828 -0.24776381 0.017253943 0.7957179
-0.02205238 -0.53006595 -0.5471767 -0.63121265 0.53081554 0.3084144 0.26247308 0.40085718
0.07743033 -1.3146021 -0.5184401 -0.6454309 0.2228519 0.5298574 0.087130964 0.28142512
0.081047386 -0.28368595 -0.32893208 -0.59216094 -0.12165199 -0.2467826 -0.26497018 0.5357837
-0.08324808 -0.23090789 -0.021018175 -0.3570813 -0.45750347 -0.6681737 0.36527026 0.14894341
0.20830432 0.0141556775 0.14170168 0.71418625 -0.24027112 0.518301 -0.23271371 0.5725732
-0.4998859 0.5529699 0.15698443 -0.32549366 0.1074486 -0.3458058 0.097067155 0.058222167
-0.37251082 -1.3024974 -0.17436282 -0.05438509 0.5723145 0.42434326 0.27939883 -0.5042755
-0.3813707 0.20796585 -0.12711619 0.039909482 -0.22460137 -0.6113847 -0.18094897 0.21476223
0.14639579 -0.7981769 -0.38751197 -0.44781813 0.19031382 0.48370296 0.010440451 0.717864
0.09337646 -0.16568059 -0.15326864 0.14420742 -0.76563656 -0.054315317 0.5560795 0.44008735
-0.45340285 -0.054703165 -0.4141262 0.104202345 0.60114485 0.31696507 0.021351606 -0.7547925
-0.30668557 -0.37318283 0.38920254 0.23359902 -0.5067856 0.57059604 0.19764088 -0.028325034
-0.2482553 -1.3578475 -0.4585289 -0.3823295 -0.5083396 -0.72232527 -0.25568873 0.7025162
0.37877452 -1.1884682 -0.41342044 -0.38506687 0.049305808 0.07132786 -0.11099901 0.644177
-0.20800166 0.13655011 -0.3031029 0.025920797 0.30062604 0.029995685 0.3927833 -0.300812
-0.40669414 0.10573895 -0.17045712 -0.48490596 -0.11728306 0.7992898 -0.6914715 0.09117102
0.4635275 0.61036193 0.43155697 0.25243717 -0.70204127 -0.55372226 -0.59931636 0.8158277
0.19859608 -1.5085814 -0.59393185 -0.17446275 -0.5164833 -0.5585943 0.3443824 0.6871254
0.5587117 -1.70413 0.18546373 -0.5783952 -0.2211573 -0.19039243 0.40430388 0.41645816
-0.524007 -0.13750933 -0.55429035 0.053005848 0.16388054 0.5074368 0.71887106 -0.45829487
0.37714472 -1.51106 -0.03829746 -0.23656444 0.08155704 0.3657577 0.28619334 0.70791197
-0.20472477 -1.6644969 0.25433958 -0.17785746 -0.4039721 0.10138471 0.3328749 0.5508932
-0.13378975 -0.04042092 0.06921444 0.034445476 -0.5721136 -0.49391004 0.056041744 -0.26566643
-0.2014907 0.27350906 0.01287314 -0.33108017 0.45611864 -0.42711392 -0.12472589 0.38667455
0.3302626 -1.4619355 0.1493333 -0.20821853 -0.49808997 -0.47170255 -0.059682876 0.36213738
0.024020059 0.11086912 0.09162415 -0.36777523 0.493986 -0.22199649 -0.5086129 -0.24500152
-0.23296998 -0.3594441 -0.23911494 -0.40336666 -0.24891299 -0.14152181 -0.06493131 0.23026004
-0.43108127 -1.1573353 0.07780578 -0.1139899 -0.33254611 0.294031 0.21342838 -0.27312317
0.36482453 -1.032424 -0.3619594 -0.2838011 -0.19987324 0.2338879 0.6468177 0.4974205
0.5314398 -0.10776795 0.23780224 -0.17785612 -0.77367544 -0.5947247 0.5589779 0.617769
0.4409126 -0.2696025 -0.6567012 0.829663 -0.55467075 0.3441622 0.16452701 -0.43661007

fc1.bias f4 [64]
00000000: 86b3 6bbe 6c01 33be 292f 833e 7e9e d83e
00000010: 9b3d 403e 018a 0c3e 79aa 133d ee6b 4cbe
00000020: 89e6 403e 6f37 2c3e 4063 813e 6dc1 243e
00000030: 95a2 093f e85c bc3b 705b 22be ba78 d33e
00000040: 9f0b b0bd e708 d6bd 07a4 463e 5f49 10be
00000050: 04fa 8f3d d49a c33e 5ff4 9f3e d783 063f
00000060: c7d7 ad3e cfe3 7a3e 41ec 053f 0580 ee3e
00000070: 009e 54bc 4f35 e13d d44e 03bc f22a d63e
00000080: 6e8c ce3d 466d 603d 5064 d43e 63d4 4fbe
00000090: 5245 c33e 7ba1 cb3e b308 81be cdff 4dbb
000000a0: 3e30 b33d dca0 51be 3bc6 dbbd badd 403e
000000b0: e1f4 173f 3798 c53d 969d 283d 3d01 8c3e
000000c0: 7109 e83e f87a ba3e 8c07 60bd 0019 87be
000000d0: a432 823e 7d15 d73d 7859 613e 4ba4 6b3e
000000e0: 17a2 4e3e 7f29 5abe 40df 823c b68a c23e
000000f0: b5a8 73be b97c ea3d 92ff a43e a40c 56be
-0.23017702 -0.17481011 0.25621918 0.4230842 0.187735 0.1372452 0.036051247 -0.19963047
0.18837942 0.16818021 0.25271034 0.16089411 0.53763705 0.00574838 -0.15855193 0.41303045
-0.085959665 -0.10450917 0.19398509 -0.14090489 0.070301086 0.38204062 0.31241128 0.5254492
0.33953688 0.24500965 0.5231362 0.46582046 -0.012977123 0.10996496 -0.0080144 0.4182964
0.100853786 0.05479171 0.41482782 -0.20295863 0.38138825 0.39771637 -0.2520195 -0.0031432987
0.08749436 -0.20471519 -0.10731169 0.18834582 0.5935803 0.09648173 0.04116591 0.27344695
0.45319703 0.36421943 -0.054694697 -0.2638626 0.2542926 0.105021454 0.22006786 0.23011892
0.2017902 -0.21304892 0.015975595 0.37996453 -0.23794825 0.1144957 0.32226235 -0.2090326

fc2.weight f4 [64, 64]
00000000: e326 b63e c521 bbbe fc24 d9bd a8b3 67bd
00000010: 342b 583e abf9 503e a06a ddbd 50a0 88be
00000020: fae2 0f3e d881 2fbe d672 723e 45a9 d5bd
00000030: afad 023d 2252 983e 0ff0 c2be a837 0bbf
00000040: 0911 15be b9a1 9a3e 924b 193e a2ba 863e
00000050: 671b ac3c 106d 90be f9ae 423e 61ff d13e
00000060: ae19 68be 68d1 613e 314f 93be 669d 993d
00000070: 4e90 a03d 61fa e63d 199c 5e3e d576 b83e
00000080: b1d0 19bd d1c3 d83d f536 883d 1ebe 563e
00000090: 0367 dbbd 98de d2bd b9d1 3a3e 7d95 1dbe
000000a0: 3173 e3bd 07b6 f5bd 48dc 4abe 48c3 f5be
000000b0: 3fe5 413e 656f ebbe 7fab 81be f876 64bd
000000c0: 5528 c7bd 8bb8 623e 8bf6 c5be 1117 a8be
000000d0: 9571 76be d604 80be 9141 743c c0d6 d6bb
000000e0: 936f f7be dc15 4ebe ae47 3b3e 4855 b9bc
000000f0: b3d1 e83e 22d5 a7bd 1ae8 44be 354f 50bf
00000100: b346 4a3e 0817 5dbe bfd6 b63d dd95 99bd
00000110: 1934 aebc d0f6 bebe 8755 a43e bdd7 e0be
00000120: 288e 463e 4e42 9c3d abd4 683d fa23 aabf
00000130: c7aa 683e 3dea 593e a638 913e 6075 03bf
00000140: 846c c3be d48f 183f 3e4e 6e3e e828 943e
00000150: 5e07 f6be 53b0 ea3e 1e17 e93e 436c 8d3d
00000160: 93f1 653e b1b4 613e e062 84bd 99ae 8f3d
00000170: 8d3b 53bc c2bf 383e f92a 6e3e 81f9 a6be
00000180: bcf7 76be e5a2 b53e 92a8 903e 74e9 f5bd
00000190: 894a 083e bcb2 2b3e 8744 153e 6f01 60bf
000001a0: cf47 93bf 13cd 413e 66c6 453e ca98 0fbe
000001b0: d7b5 4e3c e203 dfbe e6b3 e7be d5b1 d03e
000001c0: 5bb6 473d 19db 443e 05f7 a23d 0f55 623e
000001d0: f844 b5be a3e1 eb3d 0149 7b3e f977 9d3e
000001e0: 103d 1bbe d1c0 433e 1f24 6c3e da2d e9be
000001f0: f0fe 243c 8756 893e 6ccf 0f3e 6ff6 d73e
00000200: e723 c3bc eabd 743e 67cb 333d 781e 043e
00000210: 6d81 173b c0b4 5cbf 3dd7 92bd d90b 5b3e
00000220: 52d3 19be 4de7 4d3e 11e5 42bd cd96 1cbe
00000230: fa73 b6be c9f3 c83d 2ef0 273e 7be1 93be
00000240: 1824 3c3d fb66 e9be d4bf 8f3e 21c9 943e
00000250: 365d ed3c 44a6 733e 727c a13d acfa e2be
00000260: 4cd5 f5bd 915d 07bf f1f2 68be 0dfb e0bd
00000270: b183 42be b3ae 4c3e ad69 f9bc 6bbb 3a3e
00000280: 5a13 8abe 3033 08bf 58b4 cabd 2ae2 9cbd
00000290: f3bb a2bd 3a64 1d3d b916 1cbf 1551 283e
000002a0: df05 bebe ad02 353a 2286 913e 9b64 133d
000002b0: 7a11 d9be 3d65 dd3d 0c5e 32bd d29f 083e
000002c0: 7e71 f23d 4e18 08bf 3ad1 1cbe 6231 703e
000002d0: 0dfc 8bbe 8dc1 d63a f54e 513e cab0 933e
000002e0: 7063 85be 1b9e b93c 4add 9e3d b449 51be
000002f0: 3cbc 3ebf 4679 0dbe 54eb 533d 507f d8bd
00000300: 9c96 64bb d08e b23c 823f 343e 8529 403e
00000310: ce54 4c3e d8a0 46bf eb61 9f3e c42f 2dbe
00000320: 86a1 3d3e b3de c53c d6a7 ddbc 81fa eebc
00000330: f654 ccbd c46d 583e 8a96 c5bc 0d99 bfbd
00000340: 98f4 7e3e 6fab e03a b681 903e c48b f63d
00000350: 86c4 22be 42e4 39bb 6a46 693e 5ab1 b73b
00000360: c617 afbc d8f2 e7bd 06a2 173e 8ea0 093e
00000370: 1839 50bd 646c 8c3e 7c91 553e 3d6f e73d
00000380: f0e4 273d 4d95 97be f788 8b3e 49c5 f13d
00000390: 299c a13d b1d9 093d 4ac5 5abe b223 823e
000003a0: 3669 dbbe 89d5 01be 5aeb 813e 5e38 4f3d
000003b0: 4e2a b7bd 9470 ed3e b710 cd3c 4f11 263e
000003c0: 4043 1d3e 7581 da3d a16d bfbe 20f2 f13d
000003d0: 8795 07be 1c7b 993e a950 d03d a39e 113e
000003e0: 99f5 7d3e a2d5 8bbd ec25 913e d201 b83c
000003f0: e1ff b13b 86fe 84bd 4bf0 7c3e 3adf b4be
0.35576543 -0.36549202 -0.10602757 -0.056567818 0.2111023 0.20407741 -0.10811353 -0.2668481
0.14051428 -0.17139375 0.23676619 -0.10432676 0.03190392 0.29750162 -0.38073775 -0.543818
-0.1455728 0.3020151 0.14970234 0.26314265 0.02100916 -0.28208208 0.1901206 0.4101515
-0.22666046 0.22052538 -0.28771356 0.075007245 0.07840024 0.11278225 0.21739234 0.36028162
-0.03755254 0.10584224 0.06651107 0.20970961 -0.10713007 -0.10296363 0.18244065 -0.15389057
-0.111059554 -0.119976096 -0.19810593 -0.4800055 0.18935107 -0.45983425 -0.25326154 -0.05577752
-0.097244896 0.2214071 -0.3866466 -0.32830098 -0.24066766 -0.2500369 0.01490821 -0.006556362
-0.48327312 -0.20125526 0.18289062 -0.022623673 0.45472488 -0.08194949 -0.19229165 -0.8137086
0.19753532 -0.21590817 0.08927678 -0.07499287 -0.021265076 -0.37297678 0.32096502 -0.43914595
0.19390166 0.07629834 0.05684344 -1.3292229 0.22721396 0.21280761 0.28363532 -0.51350975
-0.38168728 0.59594464 0.23272035 0.2893746 -0.48052496 0.4583765 0.4552545 0.06905415
0.22455435 0.22041585 -0.064641714 0.07015724 -0.012892616 0.180419 0.2325858 -0.3261223
-0.2411794 0.3547584 0.2825361 -0.12007418 0.13309683 0.167674 0.14576922 -0.8750219
-1.1506289 0.18925886 0.19313964 -0.14023128 0.012616596 -0.4355765 -0.4525444 0.40760675
0.048757892 0.19224204 0.079572715 0.2210276 -0.3540418 0.11517646 0.24539568 0.30755594
-0.15160012 0.19116522 0.23060654 -0.45542794 0.010070547 0.26823828 0.14043969 0.421802
-0.02382083 0.23900571 0.04389515 0.12902248 0.0023117915 -0.862133 -0.0716996 0.21391238
-0.15022019 0.20107765 -0.047581736 -0.15291901 -0.35635358 0.09812123 0.16400215 -0.28882965
0.04593286 -0.4558638 0.2807604 0.290597 0.02897511 0.23793894 0.07885064 -0.44331872
-0.12003574 -0.52877146 -0.22748925 -0.10985384 -0.18995549 0.19988517 -0.030445898 0.18235557
-0.2696789 -0.53203106 -0.09897679 -0.07660325 -0.07946005 0.03842566 -0.6097217 0.1643718
-0.37113854 0.0006905001 0.28422648 0.035984617 -0.42396146 0.10810325 -0.04354672 0.13342217
0.11838053 -0.53162086 -0.15314189 0.23456338 -0.27340737 0.0016384587 0.20440276 0.28845817
-0.26052427 0.022658398 0.07757051 -0.20438272 -0.7450597 -0.13815793 0.0517381 -0.10571158
-0.003487981 0.021796614 0.17602351 0.18765838 0.19954225 -0.7758918 0.31129393 -0.16912752
0.18518648 0.024154043 -0.02705757 -0.029172184 -0.099771425 0.21135622 -0.024119634 -0.09355364
0.24897993 0.0017140935 0.28223962 0.12038377 -0.1589528 -0.0028364812 0.22780767 0.0056058588
-0.02137364 -0.11325616 0.14807901 0.13440153 -0.0508357 0.27426445 0.20856279 0.11300514
0.040989816 -0.29606095 0.27252933 0.11805207 0.07891113 0.033654872 -0.21364322 0.25417858
-0.42853707 -0.12679113 0.25374871 0.050590865 -0.08943616 0.46374953 0.025032384 0.1621754
0.15357685 0.10669223 -0.37388328 0.1181376 -0.13240634 0.29976737 0.10171635 0.14220671
0.2480072 -0.068278566 0.28349245 0.022461805 0.0054321145 -0.06493859 0.2470104 -0.35326558

fc2.bias f4 [64]
00000000: 70d9 7ebd 86fd 733e 6045 34be 88d3 613d
00000010: e5ab 44be 54d1 9e3d 9ce7 3c3e 2366 1abd
00000020: 9569 083e 3a4c 1e3e cae3 cabb 0228 8c3e
00000030: 92ca 3cbd 959c 2f3e 2b1c ce3d c1d1 e33d
00000040: a06e 343d 8f8d 0e3e 3610 373e c061 6ebd
00000050: 6af7 c0bd ed02 b63d d090 a93e 5e9c 0f3e
00000060: e6bd 83bd 7c5a d03d 504f 853d 80e2 16b9
00000070: ce0a 813c 3ad9 923e c50b 943d d716 8c3c
00000080: da10 053e 4a47 12bd 79bd 563e 2602 09bd
00000090: 5679 113e 16fc 393e ca72 2c3e c3d1 453e
000000a0: bf9f e43d a875 873d 88f6 a3bc a2ed 64bc
000000b0: 4f43 e73d 0962 3b3e c57a 173d 6e7f bdbd
000000c0: 2a19 633e 742f 8b3e 810b 073e 7f2c c13e
000000d0: d7ca d23c 40f5 f83d f80f ca3c a0fe a7bd
000000e0: 6499 67be f767 f73d 29b0 5c3d 38e2 9f3e
000000f0: d0c6 a93e f96c 3c3e 1776 dfbd ccb3 3e3e
-0.062219083 0.2382718 -0.1760459 0.055133373 -0.19206198 0.0775477 0.18447727 -0.03769506
0.13321526 0.15458766 -0.0061917054 0.27374274 -0.046091624 0.17149575 0.10063966 0.11123992
0.044050813 0.13921188 0.17877278 -0.05819869 -0.094221905 0.08887277 0.33118296 0.14024493
-0.06432705 0.101735085 0.06509268 -0.00014389493 0.015752222 0.28681356 0.07228807 0.017100735
0.1299471 -0.035712518 0.20970716 -0.033449315 0.14206442 0.1816257 0.16840664 0.19318299
0.11163282 0.06614238 -0.020015016 -0.013972672 0.11292135 0.18299116 0.036982317 -0.09252821
0.22177568 0.2718464 0.13187982 0.3772926 0.025731487 0.12156153 0.024665818 -0.08202863
-0.22617108 0.120803766 0.053878937 0.3122728 0.33159494 0.18400945 -0.10911196 0.18623275

fc3.weight f4 [4, 64]
00000000: 9d8f f43e b3c5 fbbe 02ae 1cbe 56f2 e33b
00000010: 2218 8fbd 422a 4abe 0072 21be a1c8 3f3c
00000020: ff4e 74be 9ac1 363f ab17 8bbe 9a32 943e
00000030: 2763 89be 6c76 d8be 95b7 c33e fa29 03bf
00000040: 1e55 7dbe 4efc cb3d fc89 83be 3977 abbb
00000050: aef8 12b9 3701 b1bd 0e12 ac3d 9bd0 5abc
00000060: c486 f5be fb34 83bf bfa0 96be e5aa a6be
00000070: 91e2 05bf 41e4 7d3e 973f cebe adb6 c1be
00000080: 6dbc f2be a70a 4d3b e0b6 403f cdc6 c2be
00000090: 5a7e 65be 8853 a7be f679 20be bd2b ccbe
000000a0: 9366 c3be 84f9 00bf 4804 953c 5bb9 97be
000000b0: 4eca 96be a512 d2be 5ea9 95bd e858 abbd
000000c0: c2fb e1be 2f4a 4c3f 710d 88be 2939 8e3f
000000d0: effc 50be 4892 a33e a13c 8bbe 090a afbe
000000e0: 3b5f 2ebe 07c0 013e 2101 98bd ae8f 923f
000000f0: 1426 e33e 1278 b2be 3c0a 6cbe 2dde 343f
00000100: fb0e 14bf 3cce 2b3e d3f9 d6be ea1d 54be
00000110: 8a2e e9be 980f 19be 1952 76be 609f 4a3e
00000120: 6262 f6be 2b6b 96bd 3bfd 38bd 4d9b 253f
00000130: 0374 96be 8029 b1bc 97fe 38be 2855 76be
00000140: 0f3e 89be c2e3 33be a55b c3be 75b4 13bf
00000150: 6fb4 2f3f 0983 7ebe 2b1d 423f f14a 82be
00000160: dce2 87be ce47 35bf 0dd0 15bf e3a3 d7be
00000170: a9a0 a4be bc0e 233f 74ea d8be 8f66 02bf
00000180: b484 d1be d84e c83e b98d 1e3f 0f0b 7dbe
00000190: 2d64 09bf 86a0 cabc 61ac a9be c75c a0be
000001a0: 48b1 f2be 87f1 a7be 669e e73d c429 c53c
000001b0: 7e6a febe 8537 aebe 6dff 69be 80e4 acbb
000001c0: 2b09 b8be b7af 093f c80b 9cbe 8b4a 403f
000001d0: 8c07 e23c ce19 dfbc 4ff1 e0be d815 bdbe
000001e0: 2ff0 70bd 4c5b 973e d028 cc3d 3184 213f
000001f0: 8dd2 533f 1c3a 42bd dbd3 c6bd b472 ec3e
00000200: 244f 11bd 84eb 80bb f60d b53d 4b33 3d3e
00000210: c552 0ebe ad6b 14bf 5125 293d 6a4e 313f
00000220: 70ae c0be e952 b33e 57d2 1f3f bf34 3b3f
00000230: e5b4 5e3e b49f e4be 4350 c43e dcdd febe
00000240: f81c 243c cd0d 903e 2b49 ffbe 81af bfbe
00000250: 1cd1 c23d 5609 643e 8094 f63e 1f0d e93d
00000260: 2e31 dbbe 9eab 26bf 7dcd 63be 7421 dabe
00000270: d34c 253e 3e84 2a3f 7f3d 9bbe d887 c6bd
00000280: e304 6fbe 366d 2f3f c4f3 913e 29c7 09bf
00000290: a780 cbbe 76b9 febe e616 12bf a50c 0bbf
000002a0: 8a0d 11bf 2c28 febe 021e dc3d 41d3 f7be
000002b0: cb96 dfbe 6cbe 9cbe 73e1 483d f047 efbc
000002c0: c86c 16bf e88d 4d3f 34cb 0e3e f435 fd3e
000002d0: d2d5 233f 973b 833e 573f 993d 9d03 d33c
000002e0: 544a 353d ca64 073f 9984 17bf 5851 84bd
000002f0: 2114 233f 2aae 09bf 3b8f 0e3f 35cc 3f3f
00000300: e749 073e 5195 e1be 5b13 2dbc 7675 9fbe
00000310: 0395 90bd 6220 49be 126d bbbe 654f 2a3f
00000320: 0f19 21be 1afe dd3d bdeb 213f de6c 793f
00000330: ad94 80bd b6db 37bd 1bdb 6b3e e1a3 c0be
00000340: f722 b3be 46ca f23c 389a e3be b108 94be
00000350: 50c4 ef3e 3cc8 aabe 84ec 813e 25c1 8bbe
00000360: f7c2 b6bd c6dc ffbe fcae 89bd 491f 3bbe
00000370: 99fc 21be 749d 203f ee81 c0be 88e8 94be
00000380: 692b c8be ecf1 973e b39d 403f a34e 18be
00000390: ffb0 a7be 32fc 84be 9a7f 99be a805 d2be
000003a0: eaf9 abbe 1221 efbe 6025 813b df15 753e
000003b0: de16 05be 1995 09bf 71c9 a5be 5c74 d2bd
000003c0: 12fc a3be 3bd7 0f3f 94ff 69bc fe16 3e3f
000003d0: ea7a f43e ddaf 073c 57a0 76be 6c2f 78bd
000003e0: 4b9e 44bf be1e 373e 9ab2 08bf 0e1b 2c3f
000003f0: ff11 3b3f 3cef d2be 69d8 463e f54e 1e3f
0.47765818 -0.4917427 -0.15300754 0.006956379 -0.06987025 -0.19742683 -0.15766144 0.0117055485
-0.2385826 0.7138916 -0.27166495 0.28944856 -0.2683346 -0.4227785 0.38226 -0.51235926
-0.24739501 0.09960233 -0.2569121 -0.0052327183 -0.00014016285 -0.0864281 0.08401881 -0.0133553995
-0.4795438 -1.0250543 -0.29419515 -0.32552257 -0.5229884 0.24794103 -0.4028289 -0.37834683
-0.47409382 0.0031286867 0.75279045 -0.38042298 -0.2241148 -0.32680917 -0.15671524 -0.3987712
-0.38164195 -0.5038073 0.018190518 -0.29633602 -0.2945122 -0.4102985 -0.07307695 -0.08366567
-0.44137388 0.79800695 -0.26572755 1.1111194 -0.20408987 0.3194754 -0.27194694 -0.34187344
-0.17028515 0.12670909 -0.0742209 1.1450098 0.4436499 -0.3485723 -0.23050779 0.70651513
-0.5783536 0.16777891 -0.41987476 -0.20714536 -0.4554332 -0.14947355 -0.24054755 0.19787359
-0.48121935 -0.073446594 -0.045163374 0.64690095 -0.29385385 -0.021626234 -0.18065868 -0.24055922
-0.2680516 -0.17567351 -0.38155857 -0.5769723 0.68634695 -0.24854673 0.75825757 -0.254478
-0.26540267 -0.7081269 -0.58520585 -0.42117223 -0.32153824 0.6369436 -0.42366374 -0.5093774
-0.40921557 0.39122653 0.61935 -0.2471125 -0.5366848 -0.024734747 -0.33139327 -0.31320783
-0.4740088 -0.32801458 0.11309509 0.024067767 -0.49690622 -0.34026733 -0.22851343 -0.0052762628
-0.35944495 0.53783745 -0.30477738 0.75113744 0.02759149 -0.027233984 -0.43934104 -0.36930728
-0.058822807 0.2956184 0.09968722 0.63092333 0.8274315 -0.0474187 -0.09708377 0.46181262
-0.035475865 -0.0039343257 0.088405535 0.18476598 -0.13898762 -0.579768 0.041295353 0.69260275
-0.37633085 0.35024193 0.6243033 0.7312736 0.21748693 -0.44653094 0.38342485 -0.4977864
0.010016672 0.2813553 -0.4986051 -0.37438586 0.09512541 0.22269186 0.48160172 0.11379456
-0.4281096 -0.6510562 -0.22246356 -0.42603648 0.16142587 0.66608036 -0.30320355 -0.09693879
-0.23341708 0.6852602 0.2850629 -0.5381952 -0.3974659 -0.4975087 -0.5706619 -0.5431617
-0.56661284 -0.49640024 0.10747911 -0.4840336 -0.43669733 -0.3061403 0.04904313 -0.029209107
-0.58759737 0.80294657 0.13944703 0.49455225 0.6399814 0.256314 0.07482784 0.025758559
0.044260338 0.52888167 -0.591867 -0.064608276 0.6370259 -0.5378138 0.556873 0.7492097
0.13211785 -0.44059232 -0.010563697 -0.31144303 -0.07059672 -0.1964126 -0.36606652 0.66527396
-0.15732215 0.10839482 0.63250333 0.97431743 -0.06278358 -0.044887267 0.23032801 -0.3762503
-0.34987614 0.029637467 -0.44453597 -0.2891288 0.46829462 -0.33355892 0.2537576 -0.27295795
-0.08923905 -0.49973124 -0.06722829 -0.18273653 -0.15819015 0.62740254 -0.37599128 -0.29083657
-0.3909562 0.2967676 0.7524063 -0.14873748 -0.32752225 -0.2597366 -0.29980165 -0.4101994
-0.33589107 -0.46704918 0.003941223 0.23934124 -0.12997004 -0.5374313 -0.3238025 -0.102761
-0.32028252 0.5618779 -0.014282126 0.74253833 0.47750026 0.008281675 -0.24084602 -0.0605921
-0.76804036 0.17882821 -0.53397524 0.6722878 0.73074335 -0.41198146 0.19418491 0.6183923

fc3.bias f4 [4]
00000000: 00d6 593d adf7 1f3d 0053 4b3d a1c7 83be
0.053182602 0.03905456 0.0496397 -0.25738242
