NeurPiRL/LunarLander/DQN/checkpoints/1100.pth (torch, 4267 bytes, 6 tensors)

fc1.weight f4 [16, 8]
0.4892497 -1.0036174 1.2703065 -1.8977169 -0.51943386 2.7268102 -0.0451721 -0.16980591
1.9694115 -0.46372533 0.65865153 -2.6475365 -2.9531016 -2.8173769 -0.34522033 0.59249973
0.37619135 0.15820795 1.4023585 -0.10280137 0.6593679 1.7572699 -1.0468872 -1.1632121
0.44559047 -0.45121446 0.22853734 -1.2125412 0.15083656 -1.0637112 1.2880964 2.271792
-0.83174396 1.282581 -0.24692094 0.75776 -2.2901242 2.3920145 0.48529905 -0.5907736
1.1894461 -0.071012594 0.5081174 0.41200823 -2.8150294 -0.56008244 -0.14967628 -0.006214681
-1.8886744 2.358324 -0.8358349 0.12452132 -1.9814101 -0.9914105 -2.0052938 0.642261
0.4131923 0.5310076 2.1233578 0.29540068 0.0036693448 0.92041314 -0.82650334 0.54379004
1.0419081 -2.1277838 -1.8280884 -0.32762405 -1.7420462 -0.4926633 -2.0117543 0.6154038
-0.047713604 0.5370174 -1.7813567 -0.78566796 1.7753581 0.45982543 -0.82692975 0.753346
0.43534797 0.78657806 -0.53094965 -0.38403356 -1.0450675 1.5605521 0.28355494 -2.5049975
-1.2938429 -0.26252463 -0.2462093 -0.9878493 1.4850161 1.9354513 0.82374173 -0.061429773
0.8274727 -0.11978451 0.18590058 -3.0044847 0.33269256 0.022601208 0.36131147 0.5012806
0.47417736 0.091819026 4.6176867 -0.90443707 1.5212967 1.9424059 0.113083705 0.66058564
1.3664063 0.19102602 -0.61251056 -0.21529634 2.1654491 0.6320717 -0.36391264 -0.7176398
0.41406158 -0.81347984 0.40180287 -1.3359531 -0.33312553 -1.8216751 0.47798562 0.20595606
00000000: f07e fa3e 8976 80bf 6799 a23f 63e8 f2bf
00000010: 9ef9 04bf 0f84 2e40 6106 39bd 9ae1 2dbe
00000020: ad15 fc3f 686d edbe 639d 283f 3d71 29c0
00000030: 9eff 3cc0 e74f 34c0 b8c0 b0be 10ae 173f
00000040: 279c c03e 4401 223e 7c80 b33f 8689 d2bd
00000050: 56cc 283f 38ee e03f 6600 86bf 22e4 94bf
00000060: 6f24 e43e 9505 e7be b105 6a3e 8d34 9bbf
00000070: e674 1a3e b027 88bf 58e0 a43f 0a65 1140
00000080: 2ced 54bf 9d2b a43f d8d8 7cbe 8ffc 413f
00000090: 6591 12c0 c416 1940 1e79 f83e f03c 17bf
000000a0: c53f 983f 0d6f 91bd fb13 023f bef2 d23e
000000b0: 7129 34c0 9061 0fbf bd44 19be 86a4 cbbb
000000c0: 15c0 f1bf c8ee 1640 47f9 55bf 0905 ff3d
000000d0: d99e fdbf 14cd 7dbf bc56 00c0 386b 243f
000000e0: f18d d33e 1df0 073f 18e5 0740 c23e 973e
000000f0: 6479 703b 32a0 6b3f b995 53bf d335 0b3f
00000100: 3f5d 853f 9c2d 08c0 cdfe e9bf 57be a7be
00000110: 5ffb debf 5d3e fcbe 95c0 00c0 1a8b 1d3f
00000120: 576f 43bd f979 093f 7f03 e4bf 8921 49bf
00000130: ef3e e33f 3d6e eb3e abb1 53bf 49db 403f
00000140: eee5 de3e 2e5d 493f 51ec 07bf 0ca0 c4be
00000150: c6c4 85bf 2cc0 c73f 1d2e 913e e151 20c0
00000160: a59c a5bf a169 86be 4a1e 7cbe b1e3 7cbf
00000170: 0215 be3f debc f73f bde0 523f c99d 7bbd
00000180: 40d5 533f 9551 f5bd b95c 3e3e 7a49 40c0
00000190: ae56 aa3e 2b26 b93c d1fd b83e ed53 003f
000001a0: 60c7 f23e 9d0b bc3d 17c4 9340 3089 67bf
000001b0: dab9 c23f c2a0 f83f 6e98 e73d 241c 293f
000001c0: 67e6 ae3f 539c 433e 7ecd 1cbf a576 5cbe
000001d0: b896 0a40 73cf 213f c252 babe 3eb7 37bf
000001e0: e1ff d33e 3740 50bf 1bb9 cd3e 8300 abbf
000001f0: 6e8f aabe a62c e9bf 88ba f43e 25e6 523e

fc1.bias f4 [16]
0.075683534 -0.30501527 1.5091084 -0.2232946 1.2914213 0.20789267 -0.65987235 0.8503475
1.2239735 0.3034301 0.4507529 -1.0378494 0.71853685 0.5207544 -0.29655778 1.508366
00000000: f8ff 9a3d f62a 9cbe 772a c13f 57a7 64be
00000010: 4b4d a53f d1e1 543e 65ed 28bf 60b0 593f
00000020: 2aab 9c3f 315b 9b3e 16c9 e63e 40d8 84bf
00000030: 08f2 373f 2950 053f 6cd6 97be 2312 c13f

fc2.weight f4 [16, 16]
1.003729 1.4181123 -0.20153438 1.5105104 -2.231912 2.3191407 1.6861062 0.0034921688
-1.8840685 1.3648177 1.2170438 2.333429 -0.5315316 0.47209528 0.024516078 -0.3596228
0.28380388 2.6837673 0.1782592 0.41719407 -1.5722816 2.4663024 1.9132247 0.26220587
0.42802322 0.9151927 1.4331489 2.1408732 0.3158215 0.65552264 1.0193768 0.8101869
-0.5829459 0.8673009 0.6570703 -0.27825102 -0.34037897 0.96726334 2.0048568 1.6399479
0.8957261 0.008789999 -0.8616348 1.2541765 -1.5292853 0.34424323 1.4055817 0.5045551
-2.6616752 0.9964433 -1.5207717 -5.100215 3.2543397 0.2995496 1.8717352 -4.163458
-0.6458884 -2.5137992 -2.5184731 -2.0331573 1.965202 3.0205057 2.9143054 -1.669641
0.7472232 -0.65338004 0.18346806 -1.0543826 0.5721195 1.2578791 2.1757085 0.16839945
-0.23386098 1.5932999 2.8807836 2.3657627 -0.17136095 0.15636924 -1.7457588 -0.11964694
-0.38187113 0.06039524 0.98807114 0.8567319 0.18875237 1.0741643 -0.56547785 1.1431369
-0.72645193 0.93133396 1.3469434 1.9601494 -1.2697494 1.1107106 -0.5395818 0.67326
-0.04835072 0.4229952 0.26457506 1.1694714 -1.6388966 2.1864495 1.3223063 0.47494534
1.6675811 1.3052936 0.33111054 2.3532953 -0.64282864 -0.22146794 0.60007083 -0.14440502
0.6083877 2.5194983 -0.5039539 0.56363 -2.528115 1.9579164 1.0383356 0.5693729
-1.1452969 1.2301817 0.39030468 1.3429465 -0.43973222 0.5877997 -0.004506436 -0.80042076
-0.62621844 -0.5428454 -4.485732 0.29329637 0.22174752 1.7721258 0.9935957 -0.5358233
2.8814864 -0.04204764 1.6746308 -2.439114 0.17937395 -0.6088027 4.232974 1.9969876
0.19019392 1.3450627 3.14412 -0.05118 -1.3771112 -1.1978523 0.055493608 0.8548944
-1.7590652 0.37444296 0.06746163 -0.26840845 0.6106478 1.9455261 1.3018366 0.22570324
0.5110386 -0.62384725 1.7241788 1.3003653 -0.023974698 0.2663125 -0.26575842 -2.229938
0.30128852 0.64424205 0.69014597 0.5007898 -1.3039361 -1.4379473 1.3348066 -1.176219
-0.54529846 1.8061522 1.4467337 0.12303786 -1.7249556 1.3269241 1.7539059 0.14200932
0.62401545 0.32921717 1.380131 1.953618 0.16760758 -0.07622862 -0.688482 -0.056494538
0.73238534 -1.3537118 0.6202973 1.8374213 -0.9849502 2.2230828 0.41395995 1.1861812
-2.9122279 0.4395277 0.6131457 2.1071944 -2.9757075 0.9988358 0.8506875 -5.5486913
-1.3001761 -1.2669904 0.19246317 0.57444525 -0.8855949 2.2595325 -0.24268256 0.29671893
5.3989506 0.100930244 -1.0066885 -4.2355704 1.7903279 -0.5239777 2.5211751 2.9221952
-0.55333036 1.6677947 -0.37578237 -0.906 -1.8855098 0.7699852 1.9151462 1.8557172
1.4968789 0.9927623 0.8785377 1.1623025 -0.47068706 -1.0124385 -0.8480637 1.0276316
0.9548225 1.7524627 0.23956259 1.0278139 -3.3580406 2.2667756 -0.120013945 0.873817
-1.6100755 0.30133367 0.11285118 1.79246 -0.46497408 0.6974769 -0.7221167 -0.6493371
00000000: 317a 803f b484 b53f 075f 4ebe 6858 c13f
00000010: a5d7 0ec0 cd6c 1440 54d2 d73f dfdc 643b
00000020: 2829 f1bf 59b2 ae3f 17c8 9b3f e756 1540
00000030: 7412 08bf 79b6 f13e f1d5 c83c 7b20 b8be
00000040: be4e 913e d8c2 2b40 9489 363e 769a d53e
00000050: 8640 c9bf e6d7 1d40 8ce4 f43f d93f 863e
00000060: dc25 db3e 124a 6a3f 6c71 b73f 1104 0940
00000070: 5bb3 a13e 55d0 273f f07a 823f 6968 4f3f
00000080: f13b 15bf 6f07 5e3f c235 283f eb76 8ebe
00000090: 2746 aebe 929e 773f 934f 0040 d0e9 d13f
000000a0: 4e4e 653f ee03 103c 1994 5cbf db88 a03f
000000b0: 9fbf c3bf a640 b03e 1aea b33f 862a 013f
000000c0: e358 2ac0 e816 7f3f a6a8 c2bf f634 a3c0
000000d0: 1a47 5040 915e 993e 0595 ef3f 0c3b 85c0
000000e0: f158 25bf 16e2 20c0 aa2e 21c0 401f 02c0
000000f0: bd8b fb3f f74f 4140 fb83 3a40 ccb6 d5bf
00000100: 054a 3f3f ea43 27bf 0ddf 3b3e 02f6 86bf
00000110: 6c76 123f 2f02 a13f cf3e 0b40 e870 2c3e
00000120: 4179 6fbe 40f1 cb3f c25e 3840 a868 1740
00000130: 3f79 2fbe 421f 203e 0675 dfbf 7409 f5bd
00000140: 9d84 c3be 0061 773d 3bf2 7c3f c852 5b3f
00000150: 4d48 413e 377e 893f 28c3 10bf 4f52 923f
00000160: c1f8 39bf e76b 6e3f a468 ac3f 2de6 fa3f
00000170: 2687 a2bf c42b 8e3f 0822 0abf c45a 2c3f
00000180: 680b 46bd d492 d83e 6276 873e 3db1 953f
00000190: 5dc7 d1bf caee 0b40 5541 a93f 092c f33e
000001a0: 4c73 d53f dc13 a73f 5287 a93e 649c 1640
000001b0: 6b90 24bf 7ec8 62be 3e9e 193f e9de 13be
000001c0: 4cbf 1b3f 763f 2140 1f03 01bf 0e4a 103f
000001d0: a3cc 21c0 019d fa3f 2ee8 843f 6cc2 113f
000001e0: 1799 92bf 9876 9d3f 04d6 c73e ace5 ab3f
000001f0: 9524 e1be 0b7a 163f baaa 93bb 60e8 4cbf
00000200: da4f 20bf ebf7 0abf 1e8b 8fc0 f12a 963e
00000210: c811 633e 05d5 e23f 4a5c 7e3f b72b 09bf
00000220: 466a 3840 253a 2cbd 4d5a d63f 721a 1cc0
00000230: cead 373e 7eda 1bbf 8674 8740 4a9d ff3f
00000240: 32c2 423e 042b ac3f 4339 4940 1fa2 51bd
00000250: 2e45 b0bf 3953 99bf 444d 633d 5cda 5a3f
00000260: 0c29 e1bf fdb6 bf3e 5329 8a3d d56c 89be
00000270: 6a53 1c3f 0007 f93f 95a2 a63f c01e 673e
00000280: 6dd3 023f 74b4 1fbf e4b1 dc3f 5f72 a63f
00000290: 9666 c4bc 1d5a 883e 7d11 88be 4eb7 0ec0
000002a0: 7d42 9a3e 0ced 243f 68ad 303f c333 003f
000002b0: 61e7 a6bf a80e b8bf f1da aa3f 588e 96bf
000002c0: ae98 0bbf ff2f e73f 922e b93f 46fb fb3d
000002d0: 58cb dcbf a6d8 a93f fd7f e03f e46a 113e
000002e0: 7abf 1f3f 278f a83e 22a8 b03f 2810 fa3f
000002f0: 52a1 2b3e c01d 9cbd 5b40 30bf d166 67bd
00000300: 9b7d 3b3f 6e46 adbf cecb 1e3f 9f30 eb3f
00000310: b225 7cbf fd46 0e40 8ff2 d33e c9d4 973f
00000320: f161 3ac0 c609 e13e 1ef7 1c3f 46dc 0640
00000330: fe71 3ec0 b4b3 7f3f a8c6 593f e18e b1c0
00000340: 2c6c a6bf be2c a2bf 1115 453e d80e 133f
00000350: 59b6 62bf 2e9c 1040 c781 78be 8beb 973e
00000360: 34c4 ac40 84b4 ce3d 2bdb 80bf cb89 87c0
00000370: 7729 e53f 6723 06bf ef5a 2140 3f05 3b40
00000380: 0fa7 0dbf 4c7a d53f 8c66 c0be 9eef 67bf
00000390: 6358 f1bf c01d 453f 8323 f53f 2488 ed3f
000003a0: ba99 bf3f ac25 7e3f d9e7 603f 54c6 943f
000003b0: e5fd f0be 9697 81bf b41a 59bf 6f89 833f
000003c0: 3f6f 743f b350 e03f e54f 753e 688f 833f
000003d0: 23ea 56c0 da12 1140 dfc9 f5bd 79b2 5f3f
000003e0: f416 cebf 6848 9a3e 851e e73d 546f e53f
000003f0: 1511 eebe d98d 323f a4dc 38bf f53a 26bf

fc2.bias f4 [16]
-2.6875014 -2.547957 -1.717761 2.8149068 -0.38056144 -2.2302704 -1.6459284 -2.2166977
0.65537417 1.0240388 1.9224646 -1.5086467 -3.028456 0.21876745 -1.4691386 -1.8828346
00000000: 0600 2cc0 ba11 23c0 98df dbbf 6f27 3440
00000010: f3d8 c2be c0bc 0ec0 c8ad d2bf 60de 0dc0
00000020: 9ac6 273f b413 833f 5213 f63f 561b c1bf
00000030: 39d2 41c0 9304 603e bc0c bcbf b900 f1bf

fc3.weight f4 [4, 16]
-1.7999016 -1.5985674 -0.26470286 8.113103 -1.8227177 -1.3466886 -1.5547851 -1.6319855
2.5452952 3.0124981 1.5864445 -2.0916123 -2.5509927 1.947425 -2.235786 -1.856419
-1.5413316 -1.1755718 0.028702298 7.871592 -2.0842752 -1.7262309 -2.3180785 -2.718285
2.585997 3.0586698 1.2282289 -1.9280758 -3.5999398 1.7911783 -1.8004652 -1.3320642
-1.3890156 -1.9190469 -1.8439553 8.137274 -1.1703707 -2.5511014 -1.914194 -3.0002162
2.8577979 3.7012615 -0.1532278 -0.6441405 -1.4830145 2.0355303 -2.5063124 -0.45822838
-1.7265962 -2.190879 -0.19567308 8.010747 -1.5757707 -1.9400821 -1.6986988 -0.8589922
2.6450229 3.3368826 2.4396977 -2.0332808 -2.44691 1.9795827 -2.0570445 -2.6085906
00000000: 2d63 e6bf db9d ccbf 2287 87be 45cf 0141
00000010: d04e e9bf 4b60 acbf 3303 c7bf e7e4 d0bf
00000020: 1ee6 2240 c5cc 4040 9d10 cb3f fadc 05c0
00000030: 7743 23c0 3945 f93f 1e17 0fc0 239f edbf
00000040: 5b4a c5bf 2379 96bf 1521 eb3c 15e4 fb40
00000050: c464 05c0 22f5 dcbf 665b 14c0 62f8 2dc0
00000060: fa80 2540 3fc1 4340 9b36 9d3f 30cb f6bf
00000070: 6a65 66c0 5545 e53f a575 e6bf 1481 aabf
00000080: 43cb b1bf 54a3 f5bf ba06 ecbf 4632 0241
00000090: b5ce 95bf 3f45 23c0 4f04 f5bf 8b03 40c0
000000a0: 29e6 3640 78e1 6c40 c0e7 1cbe 64e6 24bf
000000b0: 6bd3 bdbf 2146 0240 6c67 20c0 e99c eabe
000000c0: 1b01 ddbf 5d37 0cc0 865e 48be 052c 0041
000000d0: dbb2 c9bf 9c54 f8bf f66e d9bf eae6 5bbf
000000e0: 0e48 2940 7c8f 5540 0224 1c40 4621 02c0
000000f0: 2c9a 1cc0 f762 fd3f 9ea6 03c0 26f3 26c0

fc3.bias f4 [4]
4.435742 5.4772806 0.89103115 3.3748887
00000000: 99f1 8d40 e245 af40 9e1a 643f 2dfe 5740
