NeurPiRL/LunarLander/DQN/checkpoints/200.pth (torch, 22315 bytes, 6 tensors)

fc1.weight f4 [64, 8]
00000000: 0b84 07be 5241 a3be 758e c43f e5d3 3d3f
00000010: e661 11bf d68a 85be 2731 473f 3cf3 b43d
00000020: 5728 67be 0cdb 3abf 304c 5c3e d351 07bf
00000030: 3352 483e bc00 513e 545d 333f 7c62 233e
00000040: 4e0e 01bf 81bb 443f 2d80 97bd aea9 2c3f
00000050: 7664 453f 9de4 6e3f 149a 54bf b7d4 a6bf
00000060: be0c 2b3e 686e 61bf 9f1a 86be ddbe 2fbe
00000070: d1c5 e8be 5ae1 803e b66b 413e da3b ecbe
00000080: 2541 8f3c 3b27 abbf c3e6 113f 2e37 0cbf
00000090: 4082 10bf 9df4 34be d87b ba3e d57c 253e
000000a0: cbd6 98be 4727 083f 6e2f 413f 75f8 94bf
000000b0: e13e 303e ddaf a23e 3cdf 263e f8ff 1ebf
000000c0: c167 3a3f 8600 a3bf 6702 2b3e a4dc b4be
000000d0: a636 933e 8839 2d3e 5ac6 2cbd 1a62 e73e
000000e0: d0b8 f93d fe51 293c c3b4 c1bd a03a 243e
000000f0: 8ccd 7abf 782a aabf e612 37bf 1fd7 6d3f
00000100: b05c a3bd e311 1d3f b714 1dbf f697 ae3e
00000110: eb07 643f 18e3 55bf e837 51be 815f 4d3f
00000120: 5e8e 0b3f 12aa a0bc 9840 acbe d62c 8d3e
00000130: 642e 893f 983e 3fbf ac54 9c3d 5eab 5a3f
00000140: 9a41 073f a527 71bf 5492 193e b46a d6be
00000150: 6c86 3cbe fdbb 843e f667 8ebe 896c fe3e
00000160: ecff e7be 137d c83e 7113 32be 8d02 ddbd
00000170: 005f 0cbf 3be0 42bf 2189 813d 7293 133f
00000180: c0f1 4e3f 88b4 76bf fced 453f 23e0 9f3d
00000190: a6c6 cebe a82e 2f3e 79b9 ea3e 25e2 5d3e
000001a0: 44a4 4ebf 4c74 24bf 9721 d6be d6cf e2be
000001b0: ab29 d03d 0bdc 05bf 6634 a33e 7247 273e
000001c0: c271 4fbf e44d 053f 9417 093e 6eb3 47be
000001d0: b18a 97be 613e 8dbe cc6d 2b3f 0537 6dbf
000001e0: b383 70bf b8c4 7ebf 734b 55bf 10b6 9dbe
000001f0: 5914 ddbd 6690 b8be 912a 52be 1843 7d3e
00000200: ca2c 9cbe cc89 15bf 8653 d3be 0062 68be
00000210: 4a60 19be 80f2 36be 7237 123f 8324 023f
00000220: d659 2f3e 8514 47bf 8921 253f 8f83 2fbf
00000230: 5daa 0ebe d54c ddbe 1680 ed3e a341 c13e
00000240: 7edf 8cbe 165c 2fbf 27ef 6cbf cada e9be
00000250: e9a7 ecbd 1ab8 f4bd cc17 4a3e 444c c93e
00000260: bde1 1bbf ed13 30be 1147 2fbf 59d3 39bf
00000270: 9c19 a73f cb44 a23e ca09 a1be a99b c6bd
00000280: ef5a bebe 9278 283f 778b 953e 13ae c13e
00000290: 645d f03d cb99 4cbf 6f96 1b3f 97e6 bebe
000002a0: 0f4f 97bc 9043 e1be cd5a ff3e 77f9 8bbd
000002b0: 7db3 0dbf e9ba b4be a017 b13e 11a8 0e3f
000002c0: 7dcc 753e 453f 9ebf 426a 59be 14a5 a2be
000002d0: fc7f 0e3f 51fb fc3e 267d 81be cd7c e03d
000002e0: 2212 cf3e e484 febe 446f 833e 0148 9cbc
000002f0: 89e5 2bbf 3336 1bbf 69fe d33e 14da 103f
00000300: 6311 19bd d5ab 1fbf d26e b6bd 3b8b 21bf
00000310: 0736 84be aec1 a6bd e914 a0bf 8ecb 5ebf
00000320: 681b c93e 3b80 8d3f 370e eabd 3081 1f3f
00000330: 1917 c13f cf36 d93d 4d79 acbe 2dbd 4cbd
00000340: b1c8 ba3e 2770 08bf 7323 353e 9465 ad3c
00000350: e7d5 453e 9b6a 6ebf ec6f a13e 46db 033f
00000360: 6b61 3cbf 9683 db3d e5b8 1abe 932e cabc
00000370: 4297 c5be a747 a2bf 28dd 97be 207f 113e
00000380: 1c3e d53d 4bbb aabf 28c8 5bbe 8182 fdbe
00000390: da16 3e3f 8e1b f93e 2339 4cbe 5cae 8d3e
000003a0: f5a6 9b3e ceb0 393e ab18 37be 471a aabe
000003b0: fa7f 793f 96f8 b53e 5f74 0fbe c295 013f
000003c0: 1e69 9ebe c1c3 12be fb2a dd3e 7a2c 4cbf
000003d0: bfb9 9cbf 99c4 363f ac4b 253e 0031 123f
000003e0: 58a9 1a3e 8cde 60bc b2ff c83e e4ca fdbe
000003f0: a312 9c3e 307b 42bf 9573 9b3e c8e9 e0be
-0.13233964 -0.31885773 1.5355974 0.7415145 -0.56790006 -0.26082486 0.77809376 0.08835456
-0.22573982 -0.7299049 0.21513438 -0.5285923 0.19562607 0.20410436 0.7006428 0.15955538
-0.5041245 0.7684861 -0.073974945 0.6744641 0.77106416 0.93317586 -0.83047605 -1.3033665
0.1670408 -0.8805909 -0.26192185 -0.17162652 -0.45463422 0.2517193 0.18888745 -0.46139413
0.017487118 -1.3371347 0.5699274 -0.547717 -0.56448746 -0.17671438 0.3642261 0.16160901
-0.29851374 0.5318493 0.75462997 -1.1638323 0.17211486 0.31774798 0.16296095 -0.6210933
0.72814566 -1.2734535 0.16700135 -0.35324585 0.2875263 0.16916478 -0.04218135 0.45192033
0.12193453 0.01033449 -0.09458306 0.16037989 -0.9796989 -1.329421 -0.7151321 0.92906374
-0.07976663 0.6135542 -0.61359733 0.34100312 0.8907458 -0.8354964 -0.20431483 0.8022385
0.5451411 -0.019612346 -0.3364303 0.2757327 1.0717282 -0.74704885 0.076333374 0.85417736
0.52834475 -0.9420112 0.14997226 -0.41878283 -0.18410653 0.25924674 -0.2781369 0.4969218
-0.4531244 0.39157924 -0.17390229 -0.10791502 -0.5483246 -0.761234 0.063249834 0.5764686
0.8083763 -0.9636922 0.7731626 0.078064226 -0.40385932 0.17107642 0.4584463 0.21668299
-0.807194 -0.64239955 -0.41822502 -0.4429919 0.101641975 -0.52288884 0.31875914 0.16335848
-0.81032956 0.52071977 0.133879 -0.1950204 -0.29598 -0.27586654 0.6696441 -0.9266208
-0.9395096 -0.9951892 -0.8331825 -0.30802965 -0.10794897 -0.36047667 -0.2052405 0.24732625
-0.3050292 -0.58413386 -0.4127466 -0.22693634 -0.14978138 -0.17865944 0.5711585 0.5083696
0.17124113 -0.77765685 0.64504296 -0.6856012 -0.13932176 -0.4322268 0.46386784 0.3774539
-0.2751426 -0.68499887 -0.9255242 -0.45674735 -0.11555464 -0.11949177 0.1973564 0.39316
-0.60891324 -0.17195101 -0.68467814 -0.72588116 1.305469 0.3169311 -0.3145278 -0.096976586
-0.37178752 0.65808976 0.29207966 0.3782812 0.11736563 -0.7992217 0.6077642 -0.372853
-0.018470315 -0.4399686 0.49873963 -0.06834691 -0.55352 -0.3529885 0.34588337 0.557252
0.24003787 -1.2363058 -0.2123194 -0.3176657 0.5566404 0.4941049 -0.25290793 0.10961304
0.40443522 -0.49710763 0.25670826 -0.019077303 -0.6714712 -0.60629576 0.41405037 0.5658276
-0.037370097 -0.6237157 -0.08907856 -0.63103074 -0.2582247 -0.0814241 -1.2506381 -0.8702935
0.39278722 1.1054758 -0.114284925 0.623065 1.5085174 0.10606157 -0.33686295 -0.0499851
0.3648124 -0.5329613 0.17689304 0.0211666 0.19319879 -0.9313142 0.31530702 0.5150646
-0.7358615 0.107184574 -0.15109594 -0.024680411 -0.38591963 -1.2678117 -0.29660916 0.1420865
0.10412237 -1.3338407 -0.21463072 -0.4951363 0.7425362 0.48653835 -0.19943671 0.27672088
0.30400816 0.18133852 -0.17880504 -0.33223173 0.974609 0.3554122 -0.14009236 0.5061914
-0.30939573 -0.14332487 0.43196854 -0.79755366 -1.2244185 0.71393734 0.16142148 0.5710602
0.15103662 -0.013724934 0.3925758 -0.49568856 0.3048297 -0.7596922 0.3036162 -0.4392836

fc1.bias f4 [64]
00000000: 0ee0 e53e 4d96 6d3e 3499 5cbe 261b 563f
00000010: fd0d 633e 5d51 703f c254 aa3e de55 983d
00000020: ae26 d9bd 820b c63d 8879 8c3e a3df 05bf
00000030: f638 d53e 9320 0cbe 93de e03d 4267 e83d
00000040: c745 e7be 73ba 323e aa38 c2be 6c4d f73d
00000050: cb4a 803e 6b90 ff3c 8d57 b13e 3fbc 563e
00000060: a900 d73d 2738 143f 3e29 7abe b802 dabd
00000070: abbb 4d3e 2013 fd3e ec4c ca3c 3e19 d33e
00000080: acb0 953e 6b61 dfbe 522a 4cbe a07c bb3e
00000090: bb3c 6fbc 6da7 0e3f 1a58 bb3e d579 0ebd
000000a0: b210 603e 864d 9c3e bcfc b73e 20c4 ea3e
000000b0: 55f9 b3bc 5d2c ba3c 1ee0 1cbd e111 103f
000000c0: b128 6d3e 17c2 36bf 4a55 4abe b330 cabe
000000d0: aeb6 d5bc f6ed 2c3e 3982 bb3d ef5f 253e
000000e0: 6825 f93e 394b 4c3d 3534 a73e b6d0 c63e
000000f0: 35f5 953d 47eb 4b3f 6441 84bc 818f bc3e
0.44897503 0.23201866 -0.21542817 0.83635175 0.22173305 0.9387415 0.3326779 0.07438253
-0.10603081 0.09670164 0.2743647 -0.5229437 0.4164502 -0.13684301 0.10979953 0.1134782
-0.45170423 0.17453937 -0.37933856 0.12075314 0.25057063 0.031196794 0.34637108 0.20970248
0.10498173 0.5789818 -0.24429795 -0.1064505 0.20091121 0.49428654 0.024694882 0.41230196
0.29236352 -0.43629012 -0.19938019 0.3661852 -0.014601882 0.5572422 0.36590654 -0.034784157
0.21881369 0.30527896 0.3593501 0.45852757 -0.021969477 0.022726232 -0.038299672 0.5627728
0.23160054 -0.7138991 -0.19759098 -0.3949028 -0.026088085 0.1688765 0.091556974 0.16149877
0.4866135 0.049876425 0.32657018 0.3883111 0.0732216 0.7965588 -0.016144462 0.36828235

fc2.weight f4 [64, 64]
00000000: cf31 b53d 9f5b a23e 1734 7f3f a926 9bbe
00000010: 4767 c63e 9676 7b3e 14ef e03e 208d 463f
00000020: 2573 a9be fe8d 3cbf bf64 4d3d 9f89 d33e
00000030: d02e ae3e 07e4 d03c da1a 85be 8ed6 903e
00000040: f4ea 4ebd fe74 c43e 2d6a 193f d445 8b3e
00000050: df96 463e 5154 9d3e ef19 db3e 34ab 883e
00000060: bdd5 db3e f595 94bc d3db 9fbe bbf5 d03e
00000070: fa5b 003f 1dde a93e c0db 46be 04a8 d1bc
00000080: 1581 b13c b06a b7be 91f9 363f 4dce aa3e
00000090: 0a28 363f 8bed a03e 2541 4b3e c428 ae3e
000000a0: e36d 17be 04f4 b1be 0b39 d83e e2bf 943e
000000b0: 9eda 71be 5f90 e5be f1ad a53e 0ef1 333e
000000c0: 8d06 b23e 8a43 93bc b6cb f93d f8e3 093f
000000d0: ac58 b63d b006 df3e 8332 493f 0622 013f
000000e0: 40ac b03e 2e84 013f 44ce 443f 5244 a53e
000000f0: f929 dc3e 8764 123e 89d4 b0be ad96 503e
00000100: 22a1 1b3e e6b3 be3d 399e 3cbe df25 37bd
00000110: aec5 2fbd 548f aebd fd85 243d 8e6a a1bd
00000120: bdd6 143e 4515 883c d893 c43d ff22 dc3d
00000130: 112d 75bd eb58 0e3e 6e0c 1ebd 2ab3 d8bc
00000140: 3580 c33d e218 f63d 8621 703d 44c3 85bd
00000150: a942 833d d1d2 313d 1df3 96bd 03dd 0d3e
00000160: f8d9 68bd 9890 ffbd 0017 2dbd cd81 cdbc
00000170: 05cb ffbc 353d afbd b3df 2e3d bfa1 82bd
00000180: 7577 b83c d8a0 d53d 2ea4 1ebb 00e5 173d
00000190: 5cd3 86bc c34d 6b3d 4f58 5abd adde 0e3d
000001a0: 668e e13c c719 c4bd e069 a93c 9fe6 d7bd
000001b0: 354e 773d d113 17be 5c89 563d fdef 113e
000001c0: e667 aa3a fa13 07bd 72b1 cc3d d733 a03d
000001d0: 3169 60bd a05b 153d d133 5ebe 0a95 493d
000001e0: c2c0 d2bc 1c25 273e d5a7 8dbd d710 41bd
000001f0: ba89 c2bd f73f 37be d22f 043e f0df 83bc
00000200: 4e86 18be 75d5 063f 2138 a03f 2a59 b63c
00000210: 3ca5 163f 1a78 ae3e f893 cb3e 6e73 823f
00000220: 83f3 13bf ced8 10bf 282d 693d 2cdf 103f
00000230: 4bb9 bc3e cbad bd3e 80fc 62be 9c66 a13e
00000240: f1f1 f93d 2917 9b3e 5923 fa3e 1ee1 a63e
00000250: 4216 3b3e 7854 a53e f741 bd3e d65c 103f
00000260: 7e6e 143f 2a31 273e 0e4a 4dbe 854c f93e
00000270: ac92 093f 2217 a23e bffa f3be 9147 493e
00000280: 266c 22be 3150 c7be adb3 0b3f a46a 0e3f
00000290: 31df 1a3f ae2f 693e d26a 2f3e 95b0 bf3e
000002a0: e38a c33c 5d08 8bbe 7fd9 193f 7b2c c23e
000002b0: 308c 6abe 745a c2be 8371 dd3e 82af 213e
000002c0: da33 d53e e214 acbe 67c8 833e 1c8c 343f
000002d0: a77a a73e 4e33 0c3f 3bc6 5b3f f0b6 e23e
000002e0: 1abb 1f3f 5b54 b73e bb45 1e3f 1a5d bc3e
000002f0: 09e1 133f da3d 2c3e 13f4 d8bc e6e8 8f3e
00000300: 1e8d d8be d656 003e c229 673f 4f78 dfbd
00000310: 4926 b03e 4dca 12be 6d4e 663e e1f0 593f
00000320: e852 02be 23e5 8cbe e441 25bd f5c7 213f
00000330: 3248 113d dd53 1a3f ad16 ac3d e6fa 073f
00000340: fb37 013e c2ef ab3e 8fb9 efbc 0876 5f3e
00000350: 0c03 83be 340f cd3e 8661 e43e 118b c93e
00000360: c0dd 093f 3839 9f3e ffa5 21be 492a 163f
00000370: 87a3 a73e 52da 473d 70fe e9be 0050 ac3e
00000380: ba3d dabd 6135 37be 0c32 443e 45f2 3f3d
00000390: 1ac9 9b3d 9780 743e 0fd2 bb3e fb25 1a3f
000003a0: a018 82be 60ba d8bd 3808 283e 2fb1 823e
000003b0: 2ece 653e b528 16be 0608 453e 097c cb3d
000003c0: 893c 4d3e bea7 56bf c797 88bc 0cc1 043f
000003d0: d3d6 ee3d 21c5 023f 8168 7d3f c4f6 cb3e
000003e0: af70 7e3e c09b 883f 6a5a e53e 0f34 2a3d
000003f0: 362e 613f c895 98bd d746 8e3e f089 a03e
0.08847391 0.31710526 0.9968886 -0.30302933 0.3875067 0.24556956 0.43932402 0.7755909
-0.3309566 -0.7365416 0.050144907 0.41315934 0.3402009 0.025499357 -0.2599705 0.28288692
-0.050517038 0.38370508 0.59927636 0.27201712 0.1939349 0.3072839 0.42793223 0.26693118
0.42936507 -0.018137911 -0.312224 0.40812477 0.50140345 0.3317727 -0.19419765 -0.025592811
0.021667996 -0.35823584 0.7147456 0.3336052 0.71154845 0.3143123 0.1984907 0.34015477
-0.14788012 -0.34756482 0.4223102 0.29052645 -0.23618552 -0.4483671 0.3235927 0.17572424
0.34770623 -0.017976541 0.12197058 0.5386348 0.089036316 0.4355979 0.785927 0.5044254
0.34506416 0.50592315 0.76877236 0.32278687 0.43000773 0.1429616 -0.3453715 0.20369978
0.15198186 0.09311657 -0.18419732 -0.04471385 -0.04291313 -0.085234314 0.040166844 -0.07881652
0.14535041 0.016611705 0.095985115 0.107488625 -0.05985743 0.13901107 -0.038586073 -0.02645262
0.09545938 0.12016465 0.05862572 -0.065313846 0.06409199 0.04341394 -0.07370589 0.1385384
-0.056848496 -0.12478751 -0.042258263 -0.025086308 -0.031224737 -0.08556596 0.042693805 -0.06378507
0.022517899 0.10431069 -0.0024206745 0.037083626 -0.016458206 0.057447206 -0.053306874 0.03488033
0.027533721 -0.09575229 0.020680368 -0.10542034 0.06037732 -0.14753653 0.05237709 0.14251705
0.0013000935 -0.032978036 0.099947825 0.07822388 -0.05478782 0.036464334 -0.21699454 0.0492144
-0.02572668 0.1632275 -0.06916777 -0.0471352 -0.094989255 -0.17895494 0.12908867 -0.016097993
-0.14894983 0.5266946 1.2517129 0.022259314 0.5884588 0.34076005 0.3976133 1.0191476
-0.57793444 -0.5658082 0.05692783 0.56590533 0.36860117 0.37046656 -0.22166634 0.31523597
0.1220435 0.30291107 0.48855093 0.32593626 0.1827021 0.32291007 0.3696439 0.56391656
0.579811 0.16327348 -0.20047781 0.48691192 0.5373943 0.31658274 -0.47652242 0.19656207
-0.15861568 -0.3892837 0.5457104 0.5563147 0.60496813 0.22772095 0.17130592 0.3743941
0.023869937 -0.27154818 0.600975 0.3792456 -0.2290504 -0.37959635 0.43250665 0.15789607
0.41641122 -0.33609682 0.25738832 0.7052629 0.32710764 0.54765785 0.8584935 0.44280195
0.6239487 0.35806546 0.6182515 0.3678978 0.5776525 0.1682047 -0.026483571 0.28107375
-0.42295164 0.12533125 0.9029809 -0.10911619 0.3440421 -0.14334984 0.22490855 0.8513318
-0.12726939 -0.27518567 -0.04034604 0.63195735 0.03546924 0.60284215 0.084027626 0.53117216
0.12619011 0.33581358 -0.029263286 0.21822369 -0.25588262 0.40050662 0.44605654 0.39363912
0.5385399 0.31098342 -0.15785979 0.5865827 0.3274195 0.04879219 -0.45701933 0.33654785
-0.10656305 -0.17891456 0.19159716 0.046861906 0.076067165 0.23877178 0.366837 0.60214204
-0.25409412 -0.10582423 0.16409385 0.25525805 0.22441933 -0.14663966 0.19241342 0.09935767
0.20042624 -0.83849704 -0.016673936 0.51857066 0.11662068 0.51082045 0.98987585 0.39836705
0.24847673 1.0672531 0.44795543 0.041553553 0.8796114 -0.074504435 0.27788422 0.31355238

fc2.bias f4 [64]
00000000: 5082 943e eb28 25bd abdc 9c3e 5a38 153e
00000010: 4151 a23d 1568 0dbd 10a4 b33d c142 e93d
00000020: eda8 e73e 2632 183e 453a ba3d 2302 ab3e
00000030: c78c 4c3d 15c2 b03e cf39 febb ae8a 603e
00000040: 2fe2 563d 4445 b53e 510a 433e 46ee 7e3e
00000050: a6cd c1bd 4160 1b3f 3ec4 bcbd d914 9f3e
00000060: 4095 fcbd 984f b53b 6657 9dbe c4f2 8a3d
00000070: cab8 bebe 3ed2 d6bd 1bcb e9bc 975b d63e
00000080: 48ca cf3e 8337 3fbd cd57 013e 6a48 863e
00000090: 704f eb3d 3a0d 793d bf4c 403e fa21 5b3e
000000a0: 3eeb bb3e d3f7 39be ef42 c6bd 2c24 f83d
000000b0: a371 12be e22b 3a3e 2352 b83e 7b2e c23b
000000c0: 0a9f 683e 87dd 333e 42a5 933e 4cf6 b93d
000000d0: 09e8 f5bd 6e29 213f ab7e 8d3e 8e16 0b3e
000000e0: b9e9 093e 3cbe 8f3e 6d83 853e d0e1 013e
000000f0: a8b8 c83e 9b27 bebd 49dd f73b 6a9c 923e
0.2900567 -0.040322226 0.30637106 0.14572278 0.07925654 -0.03452309 0.08771527 0.113896854
0.45246068 0.1486288 0.09093145 0.33400068 0.049938943 0.34523073 -0.007758356 0.21927902
0.0524618 0.35404408 0.19046904 0.24895582 -0.094630525 0.60693747 -0.09217118 0.31070593
-0.12333155 0.00553317 -0.30730742 0.06784585 -0.37250358 -0.10489319 -0.028539231 0.41866753
0.40584016 -0.0466838 0.1263115 0.26227123 0.11489761 0.06080363 0.18779276 0.2139968
0.36702913 -0.18160944 -0.09680735 0.12116274 -0.14301161 0.18180802 0.36000165 0.005925951
0.22716919 0.17564975 0.2883702 0.090801805 -0.12007148 0.6295384 0.27635702 0.13582823
0.13468064 0.28074825 0.26076832 0.12683797 0.39203382 -0.09284898 0.007564221 0.2863496

fc3.weight f4 [4, 64]
00000000: e013 8dbe aa4e 1ebe 57ca b5be 6d3a abbe
00000010: fe07 e1be 2089 94be 8bba 00bf 16f2 b43e
00000020: fbcf 9d3f d2ad 38bf 4ef5 173e 9e30 a83f
00000030: a6e2 a23f 4ce1 9c3f e65e c63e 6544 543f
00000040: 1437 2d3d c573 cc3e 4f86 fa3e e144 abbe
00000050: 2b81 34bf d80c cf3f 6bf5 d4bb 4bcd 9dbe
00000060: c01c 6dbd 300e 053d 59fe c9bd 4386 16be
00000070: 35a9 f0be 2cf2 743e 2a20 d3be a038 4abe
00000080: f969 743f 863f 07bd 4089 af3e 13a1 87bd
00000090: 47df 2bbf ab5f c1be 6e8d a5be 426b 02bf
000000a0: d1f0 82be f4a3 b3be 90b4 2a3e 6676 313d
000000b0: a6da c3bd b555 84be 6886 b9be bdce f0be
000000c0: f28f 853f bef2 ce3f 39ce edbd 4c0a 813e
000000d0: 8bee 59bd 6900 ca3f c2e2 ca3f ab77 02bf
000000e0: 3734 bcbe 271b b4be e300 f7be 62f7 913d
000000f0: ea37 1f3e 97f2 acbe 04bc a9be fd16 f3be
00000100: ddb6 22be dfc4 7fbc 904b 9ebe db46 6ebf
00000110: daf2 eebe 222b 443e a587 ccbe b2ed 5d3f
00000120: dbe9 6f3f eb51 53bf 1f81 86be 79d4 ab3f
00000130: f32b 2e3f d098 ac3f 87e8 dc3e dbc1 0d3f
00000140: 9243 a43d 9bda 703e b348 fd3e 34f4 313e
00000150: d095 7d3e 04ed ef3f c810 7dbd 67dc d5be
00000160: 102e a4bd 0dc0 8d3f 03c8 28bf 916e 53bf
00000170: 8897 62bf 09c3 993d 1ef3 e0be 9390 bcbd
00000180: ae19 513f c95a f23d 26b3 43bf 580f a53e
00000190: ec8b fabd df77 223e 74a2 dfbe 5c19 7abe
000001a0: a2d2 56be d81a 31bf aa25 503f 12fa 37be
000001b0: adbe 993d 670b b0be 1d47 2ebe b58c ddbe
000001c0: 238a c73f bdc7 833f 9b21 eb3e 0c4d fe3e
000001d0: 3514 043e 6051 0340 0fbc de3f 7306 c9be
000001e0: dac4 41be 0a6e aabe cddf 5fbe fa51 65bf
000001f0: 846b 0bbe 4fab 95bf e5d0 cfbd b6c6 63be
00000200: 180b 03bf f45c c43d e38a f2be 66d9 e7be
00000210: 4735 bbbe e06f efbe cb2f 06bf 55cc 013f
00000220: 4676 b43f d53f 38bf 7c91 333f 24a5 d73f
00000230: f869 293f 5349 b53f 438c 2a3f 3dd4 fd3e
00000240: da4d cbbd c92e df3e 01c9 253f 228e e0be
00000250: 905a 84bf d302 803f 249f 8b3d 7a86 0bbd
00000260: 9c88 35bd 3a55 343f 596f 3a3f e599 e1be
00000270: fef4 c0be ff48 793f 0ef7 a2bd b284 d73e
00000280: ca40 ce3f 6e75 2e3b 192d d53d f157 cdbe
00000290: 9b21 0abe cf1f 14bf b5a7 fbbe b0ff 9ebc
000002a0: 26d5 dabe 6ee6 9ebe bbd7 563f 5d71 5a3a
000002b0: 9b01 e63c f493 b7be 3072 a8be d780 bbbe
000002c0: d184 b83f 0f90 9f3f 490e e7be f1d0 87bf
000002d0: 9549 41bf f9bc 753f e60a 643f 6a23 d9be
000002e0: 13cb d2be 6f8a a7be 7a1a d4be f36d b3be
000002f0: 684b dc3e e224 a0be b291 1fbf 2004 f13d
00000300: 9683 babe a075 62bd b345 e7be e0d3 3b3b
00000310: ef56 d0be 4866 d4be 6eca bcbe 65f7 afba
00000320: 37fc ad3f 20a6 1dbf cf81 3c3f d815 c93f
00000330: dd82 343f 08e0 293f 4060 333e 0391 77be
00000340: 007b dd3c 1fdb f53f d6a4 813e 6c96 f7be
00000350: 74c6 a2bd 0c39 ce3f b8ac e0bd 0c1f c9be
00000360: 78ba afbd b3e7 603e 44c7 8cbe 14b8 413e
00000370: 7eb0 403f 069a 373f 9b63 e5be 82e2 b0be
00000380: 771c a53f 3bcc d43d a321 833e fc82 04bf
00000390: f26e 88be a03d 54be c933 b0be 791e d9be
000003a0: 73f4 f3be c468 393e 436f 483d b8cb 69bf
000003b0: 0d39 a23d a0e2 edbe 5b3b 04bf 9d54 babe
000003c0: 1ba3 3f3f 8ac8 b83f 5bd7 cabe 411a fcbe
000003d0: 3d9e b4be 5bf6 973f 58c1 f53f f3cd fbbe
000003e0: 7ac6 b2be 82ad ddbe d131 f0be c68f d63a
000003f0: 2db8 b4be 60c7 bfbe b693 5e3c f9a9 8abe
-0.27554226 -0.15459695 -0.35505936 -0.33443013 -0.4395141 -0.29010868 -0.5028464 0.35340947
1.2329096 -0.7214023 0.1483967 1.3139837 1.2725418 1.2256255 0.38744277 0.8291686
0.042288855 0.39932075 0.48930594 -0.33450988 -0.70509595 1.6175795 -0.0064989827 -0.3082069
-0.057888746 0.032484233 -0.09862966 -0.14699654 -0.47004095 0.23920506 -0.41235477 -0.19748163
0.954742 -0.033019565 0.342844 -0.06622519 -0.6713757 -0.377683 -0.32334465 -0.5094491
-0.25574353 -0.35086024 0.16670442 0.043325804 -0.09563188 -0.2584664 -0.36235356 -0.4703273
1.0434554 1.6167829 -0.116115995 0.25203168 -0.053206008 1.5781375 1.5850451 -0.5096385
-0.36758587 -0.35176966 -0.48242864 0.07127263 0.15548673 -0.3377883 -0.33151257 -0.47478476
-0.1589007 -0.015610903 -0.30917025 -0.93076867 -0.46669656 0.19157079 -0.3994724 0.8669082
0.9371621 -0.8254687 -0.26270387 1.3424217 0.6803581 1.3484135 0.43146154 0.55373925
0.080207005 0.23520891 0.49469528 0.17378312 0.2476418 1.8744206 -0.061783582 -0.41769716
-0.08016598 1.1074234 -0.65930194 -0.82590586 -0.8851247 0.07507903 -0.43935484 -0.09207263
0.8167981 0.11833722 -0.76445234 0.3223827 -0.12233719 0.1586604 -0.4367863 -0.24423736
-0.20978788 -0.69181585 0.8130747 -0.17966488 0.07507072 -0.343837 -0.17019315 -0.43271413
1.5589031 1.029533 0.45924076 0.49668157 0.12898333 2.0518417 1.7401141 -0.39262733
-0.18922749 -0.33287078 -0.21862717 -0.8957821 -0.13615233 -1.1692904 -0.10147265 -0.22243771
-0.511888 0.09588042 -0.47371587 -0.4528305 -0.36564085 -0.4676504 -0.52416676 0.5070241
1.4098594 -0.719724 0.70143867 1.6847272 0.6617732 1.4163002 0.6662027 0.49575987
-0.099269584 0.43590382 0.6475983 -0.4385844 -1.0340137 1.0000862 0.06817463 -0.034063794
-0.044319734 0.70442545 0.72826153 -0.44062725 -0.37686914 0.9737701 -0.07957278 0.42093426
1.6113522 0.0026620287 0.10408992 -0.40106156 -0.13489382 -0.57861036 -0.49151388 -0.01940903
-0.42740744 -0.3103518 0.8392293 0.00083329325 0.028076937 -0.35855067 -0.32899618 -0.36621734
1.4415532 1.2465838 -0.45128086 -1.0610639 -0.755029 0.95991474 0.8907913 -0.4240983
-0.41170558 -0.32722804 -0.4142645 -0.35044822 0.4302628 -0.3127814 -0.6233169 0.11768365
-0.36428517 -0.055287957 -0.45170364 0.0028660223 -0.40691325 -0.41484284 -0.36873192 -0.001342517
1.3592595 -0.6158161 0.7363557 1.5709791 0.7051218 0.6635747 0.17517185 -0.24176411
0.02703619 1.9207495 0.25321072 -0.4835695 -0.07948008 1.6111159 -0.109704435 -0.392815
-0.08580488 0.21963386 -0.27495778 0.18917876 0.75269306 0.71719396 -0.44802555 -0.34547812
1.2899312 0.10390516 0.256116 -0.51762366 -0.26647145 -0.20726633 -0.3441451 -0.4240606
-0.47647437 0.18106371 0.048934232 -0.91326475 0.07921038 -0.46461964 -0.5165307 -0.3639268
0.74858254 1.44362 -0.39617428 -0.4923878 -0.35276976 1.1872057 1.9199629 -0.49180564
-0.3491705 -0.43296438 -0.46913007 0.0016369752 -0.35296765 -0.374568 0.013585022 -0.27082804

fc3.bias f4 [4]
00000000: 095e a4bb 7b5b 3abb 2b9a c03c f936 97be
-0.0050160927 -0.0028435874 0.023511013 -0.29534128
