NeurPiRL/LunarLander/DQN/checkpoints/200.pth (torch, 22315 bytes, 6 tensors)

fc1.weight f4 [64, 8]
000000 16 3b 00 3f 39 d3 38 bf f2 2e 0e 3f d9 37 4a be
       0.5009016 -0.721973 0.5554038 -0.19747867
000010 c1 24 1e bf e6 50 ae be ba 3f b6 bd 11 26 37 3f
       -0.6177483 -0.34046096 -0.088988736 0.7154246
000020 98 7e 26 be 4a d6 27 bf 8f f8 14 bf 3b ee 34 bf
       -0.16259229 -0.65561354 -0.5819177 -0.7067601
000030 80 f7 36 3f dd b1 d8 3e 8e a2 e6 3d 16 97 b5 3e
       0.71471405 0.423232 0.112614736 0.35466832
000040 df e3 05 be 18 36 78 bf 42 96 17 bf 76 a8 34 bf
       -0.13075207 -0.9695754 -0.5921365 -0.7056955
000050 5c c4 e4 3e 43 61 11 3f 2c 09 ad bd 12 c7 99 3e
       0.4468106 0.56789035 -0.08449015 0.3003469
000060 12 9f 02 3e 56 82 64 be 02 db d6 be a8 cc 33 bf
       0.12755993 -0.22315344 -0.41963965 -0.70234156
000070 59 f7 35 3e 0f 09 24 be 9d b6 0b 3e bf 01 24 3f
       0.17770137 -0.1601908 0.1364388 0.64065164
000080 d6 85 30 bd 9a fa bf 3b e8 e9 20 be 58 49 ac be
       -0.043096386 0.0058587315 -0.15714228 -0.33649707
000090 8a a0 02 bf 60 aa 64 bf 61 52 f2 3e 4a 1d 88 be
       -0.51026213 -0.8932247 0.47328475 -0.26584846
0000a0 a8 85 3b 3d 2e e1 1f bd 41 5f 98 3e 31 20 d4 3f
       0.04578176 -0.039033107 0.29760173 1.6572324
0000b0 78 aa 06 bf 2e 0f 11 3f af c5 1c 3e 3e e3 21 3f
       -0.52603865 0.5666379 0.15309785 0.6323737
0000c0 48 4f 0d bf 1d 08 2d 3f 97 a8 64 3e b6 7a a4 be
       -0.551991 0.67590505 0.22329937 -0.3212487
0000d0 34 3e 55 3e 14 93 e2 be 09 86 89 3d 88 74 6c 3d
       0.2082451 -0.44252837 0.06715018 0.05772832
0000e0 e0 21 60 be ba 22 24 bf 69 56 3c be f2 a3 85 be
       -0.21887922 -0.6411549 -0.18392338 -0.26101643
0000f0 e9 e0 25 3f b1 e7 ce 3e 84 d4 20 3e 51 f5 58 bf
       0.6479631 0.40411142 0.15706068 -0.84749323
000100 a0 7f 03 bf 6c 0d a5 3e 6d c3 3c be 23 0e 58 3e
       -0.51366615 0.32236803 -0.18433924 0.21099143
000110 9a e6 9b be 5a 24 44 bf a1 cb b8 bd 6f 4d 9d bd
       -0.30449373 -0.7661797 -0.09023214 -0.07680785
000120 8b a0 07 3d c4 2d 28 bf 1b 6d 10 bf 90 14 00 bf
       0.03311209 -0.6569483 -0.5641648 -0.50031376
000130 43 01 fa 3e 1a 67 23 3f 9e b5 74 be e8 49 0f 3f
       0.48829088 0.63829195 -0.23897406 0.55972147
000140 f7 b1 f9 3d 9e 2a 9a be a6 28 d1 be e3 47 20 3e
       0.12192147 -0.3011064 -0.40851325 0.15652423
000150 f2 58 30 bf 3f 3c a3 be f5 48 16 3f fa fa 6b 3e
       -0.6888572 -0.31881902 0.58705074 0.23044959
000160 4a 45 98 be a3 d7 90 3d 40 bc 8d be 7f f0 37 3b
       -0.29740363 0.070723794 -0.27682686 0.002806693
000170 d3 c9 34 3f 76 d9 c9 3e 6d b3 54 3e db c1 5c bf
       0.7062046 0.39423722 0.2077157 -0.862333
000180 77 c3 5b bf 94 13 8b be f6 eb 9d 3e 41 65 92 3e
       -0.8584513 -0.27163374 0.30844086 0.28592876
000190 19 49 95 bf 20 c4 69 3f a0 7d 7a 3e 2c 4d b2 3d
       -1.1662933 0.9131489 0.24461985 0.087061256
0001a0 6f f4 db be 36 89 28 bf b8 35 f9 be bb 6d 02 bf
       -0.42959926 -0.6583437 -0.48673797 -0.50948685
0001b0 e1 df ea be 54 37 41 bf d4 f4 d8 be 1d a0 25 3f
       -0.4587393 -0.7547505 -0.4237429 0.6469744
0001c0 74 d8 de 3e 0b 16 c2 be 24 c5 04 be 9d 81 4a bf
       0.43524516 -0.37907442 -0.12965828 -0.79104024
0001d0 95 8c 21 be ca 67 1d 3e 04 5a ac be 5b 8d bf 3e
       -0.15776284 0.15371624 -0.33662426 0.37412533
0001e0 67 57 1f 3e b8 60 1e 3f 90 8c db be c2 58 bb 3d
       0.15560685 0.6186633 -0.42880678 0.091477886
0001f0 df e4 9d 3e fa 02 ac 3e 43 71 46 3f 8d df e9 be
       0.30838677 0.3359602 0.77516574 -0.45678368
000200 1c bb b7 be bd 4e c5 3d cb 5a d3 be 44 1f 30 bf
       -0.3588494 0.09634159 -0.41280207 -0.6879771
000210 fa c1 8f be 00 12 5f 3f 71 8b 3f bf da d2 da bd
       -0.2807768 0.8713684 -0.74822146 -0.10684748
000220 14 d6 05 3e 07 19 27 3f 10 16 cd 3e 65 fe 9a 3e
       0.13069946 0.65272564 0.40055895 0.30272213
000230 5c 77 54 bf 3b 21 2e bf 26 be 7e be 8e bb 8b 3f
       -0.8299463 -0.68019456 -0.24877223 1.0916612
000240 2c c7 b0 3d f2 af 47 bf 4b be 0a bf 9e 61 cf be
       0.08631739 -0.78002846 -0.54196614 -0.40504164
000250 e5 02 fa be 54 ea 09 bf ff 60 97 3e b6 ce 16 3f
       -0.48830333 -0.5387318 0.2956619 0.58909166
000260 a6 de 4f 3f 23 20 8a bf d6 57 13 3f 42 20 26 bf
       0.8119911 -1.0791057 0.575559 -0.6489297
000270 b9 78 e1 be fe de 34 be d7 41 da 3e ea 65 b8 3e
       -0.44037417 -0.1766319 0.42628357 0.36015254
000280 24 61 4e be 0d 43 07 3e 75 bb e8 bd e7 95 5f 3e
       -0.20154244 0.13209172 -0.113638796 0.21834527
000290 09 c2 8d 3e 09 98 93 3f 26 0f e2 3e 5b b2 b0 be
       0.276871 1.1530772 0.44152182 -0.34511074
0002a0 2b 2c 65 3e d2 10 2d bf 19 71 9a bd fc dd f9 be
       0.2238013 -0.6760379 -0.07541103 -0.48802173
0002b0 58 42 83 3d 92 a6 0a 3f 33 84 f8 39 3d 65 0a 3f
       0.064091384 0.54160416 0.00047400742 0.5406073
0002c0 ca 06 11 3e c1 9c aa bf 9b ed 0a 3f 16 c2 8a be
       0.14162746 -1.3329087 0.5426881 -0.271012
0002d0 b7 bc 25 bf 2c fe 74 bd cd 8c b4 3e 14 9d be 3e
       -0.6474108 -0.05981271 0.35263672 0.37229216
0002e0 a5 2c a3 3c 44 83 83 be 46 b1 d4 3e 40 eb 1e bd
       0.01991875 -0.25686085 0.415415 -0.03879857
0002f0 1f 88 c2 bf 09 f2 41 bf 59 0d b9 bd 88 1d ed 3d
       -1.5197791 -0.7575994 -0.09035749 0.11577898
000300 ec 1b 19 be aa 5d e3 3e 50 e6 cc 3c b1 df a2 be
       -0.14952058 0.44407398 0.025012165 -0.31811288
000310 40 9c 39 3f 75 b4 13 bf 59 6e 9b 3d 3d c3 f5 3e
       0.72504044 -0.5769723 0.075894065 0.48000517
000320 c3 f5 9f 3e 2f fd a5 bf d0 3f d7 3e ec a8 ec be
       0.3124219 -1.296789 0.42040873 -0.46222627
000330 d3 7b 7f bf f5 2b 31 bf 60 06 06 be bb cd 3e 3d
       -0.99798316 -0.692077 -0.1308837 0.04658292
000340 9b 15 e4 3b 46 1a 6a 3e 8b 0f d6 3e 4d be c8 be
       0.0069605834 0.22861585 0.41808733 -0.39207688
000350 19 b6 fe 3e 94 c0 99 be 2d 4b 4f bf bc 3c 66 be
       0.49748304 -0.30029738 -0.80974084 -0.22484106
000360 6b 57 fb be 94 e0 7d be 7e 85 cf be a5 c1 04 bf
       -0.49090132 -0.24792701 -0.40531534 -0.5185798
000370 27 47 81 be 4b c7 99 bd 74 64 08 3e b0 29 a3 3e
       -0.25249597 -0.07508715 0.1331957 0.31867743
000380 95 07 0e be 4e 6c 17 c0 be 09 7b 3d 48 bd e1 be
       -0.1387008 -2.3659854 0.061288588 -0.44089723
000390 64 1a 0d bf 1d d0 11 3f 18 65 3b 3e a7 b4 d1 be
       -0.55118394 0.5695818 0.18300283 -0.4095814
0003a0 55 ce 25 3e b0 92 c7 be 5e 96 9f be 23 83 ed be
       0.1619199 -0.389791 -0.3116941 -0.46389112
0003b0 f7 eb 64 be 40 31 9d 3e bf a7 3e 3f d2 02 c0 3e
       -0.22355638 0.30701637 0.7447471 0.37502152
0003c0 19 cf 19 3f 6e 3d f1 3d 05 1e b7 3d 43 9a 91 be
       0.6008163 0.11779295 0.08941273 -0.28438005
0003d0 51 06 2a bf 7b 77 2a bf ed a0 11 3f 0a d9 ba 3e
       -0.6641589 -0.6658856 0.5688618 0.36493713
0003e0 c7 7d 2a 3f 37 82 b9 be 03 1b 6c bf 4c d4 39 3f
       0.6659817 -0.3623216 -0.92228717 0.72589564
0003f0 6f 65 1a bf 17 5f ef 3e 1a b4 be 3e 38 2c 6e bf
       -0.60311025 0.46752235 0.37246782 -0.9303622

fc1.bias f4 [64]
000000 2a 80 7f 3b 33 27 8a bd 3b da 0d 3e ed 00 d8 3e
       0.0038986304 -0.06745758 0.1385278 0.42188206
000010 72 77 a8 3d 3f 13 4d 3d 0c 2e 24 bc ba 2c 10 3e
       0.082259074 0.050067183 -0.010020744 0.14079562
000020 e9 a2 ab 3e 54 11 bf 3d ac e8 b9 3e 0f 0e 93 3e
       0.33522728 0.09329477 0.36310327 0.28721663
000030 2b 9b e1 3e 27 60 4f 3e 9b ff 8e bd 7f 3a a1 3e
       0.44063696 0.20251523 -0.069823466 0.3148994
000040 81 4e 58 be 53 e3 ad bd bf c3 11 3f 01 3e 15 3e
       -0.21123697 -0.08490624 0.5693931 0.14574434
000050 c2 bd ff 3d df 47 e4 3e 70 9e 02 3f 82 f2 bc 3e
       0.12487365 0.44586083 0.51023006 0.3690377
000060 6e 22 af 3e f4 89 a4 3e 18 4a ce 3e 8b 97 a2 3e
       0.34205955 0.321365 0.40290904 0.31756243
000070 de 8d 79 bc b5 5a 95 3e 2f 2d 31 3e ec fe 0a 3f
       -0.015231578 0.29170766 0.17302392 0.5429523
000080 59 8f 5b ba cc 90 84 bc 33 9f e0 3e fc 8a 6a bd
       -0.00083755475 -0.016182326 0.4387146 -0.057261452
000090 b0 75 04 3f 4f b8 b7 3e 9d c2 0b be ef b8 bf 3d
       0.51742077 0.35882804 -0.13648458 0.09361445
0000a0 da 4c 5e 3e 1a a2 83 bc e8 85 86 bd c6 2b 62 3d
       0.21709004 -0.016068507 -0.06568509 0.055217527
0000b0 f7 0c 4e 3f 58 41 a6 bc 7a 80 6d be 75 f0 8e 3e
       0.8048853 -0.02029483 -0.23193541 0.2791783
0000c0 1a 63 36 3f 5c f5 54 3e ec d5 10 bd 5d 24 5e be
       0.71244967 0.20796722 -0.03536026 -0.21693559
0000d0 74 4c 0b be 9a 08 b2 3e 0f 45 f3 3e 70 69 a0 3e
       -0.13603383 0.34772187 0.47513625 0.31330442
0000e0 b5 bf 04 3d 7c aa 7a be 39 57 05 3e 03 48 98 3e
       0.03240939 -0.24479097 0.13021554 0.2974244
0000f0 3e 57 62 be c7 a1 c1 3d b9 8e 0b 3f e0 53 cd bd
       -0.22103593 0.09454685 0.5451465 -0.100257635

fc2.weight f4 [64, 64]
000000 ef 83 fe 3e 48 52 79 bf 6b 48 ed be de ab 48 be
       0.49710032 -0.97391176 -0.46344313 -0.19596812
000010 35 7e 7b 3e b5 d3 92 bf 05 aa 0e be 32 c9 70 bf
       0.24559863 -1.1470858 -0.13932045 -0.94057
000020 68 b0 b8 3d 19 37 1f bf 11 a5 97 3e 65 f0 c6 be
       0.09018022 -0.6219345 0.29618123 -0.3885528
000030 f0 bd 63 be 5b 6b 72 3e 67 12 5d 3a b3 b9 c9 bf
       -0.22240424 0.23673765 0.0008433223 -1.5759796
000040 1c 82 ab bd 33 1c 96 3e 0c d0 f5 3d 03 ac cd 3e
       -0.08374426 0.2931839 0.120025724 0.40170297
000050 37 10 8c be f4 0a 77 be 4e 5f a2 3e 02 f2 ee 3e
       -0.2735612 -0.24125272 0.31713337 0.46669012
000060 d1 d4 de be ad 1b 95 3e 8a 82 1b bf 38 82 52 ba
       -0.4352174 0.29122677 -0.6074606 -0.00080302684
000070 09 be a1 3e c3 e6 94 3e 20 29 9c 3e db a9 3e be
       0.31590298 0.29082307 0.30500126 -0.18619482
000080 17 f2 bf 3d c4 5b fa be ce 54 32 bd 6f c4 a9 3f
       0.09372347 -0.48898137 -0.043537907 1.3263072
000090 ff 69 a0 be 77 c4 26 3d 11 42 18 3f e9 3a 8a be
       -0.3133087 0.040714707 0.5947581 -0.2699807
0000a0 bb ea 06 bf 44 dd 84 3c eb 01 13 be fc 4e 92 bf
       -0.5270192 0.016218789 -0.143562 -1.1430354
0000b0 82 84 9c 3e 35 c8 86 bf 2e 11 1a 3c c6 27 c5 bd
       0.30569845 -1.0529848 0.00940351 -0.09626727
0000c0 b3 b0 13 bd 94 c0 aa 3e a1 40 de be 3b e2 3a bf
       -0.036057185 0.3335005 -0.43408683 -0.7300145
0000d0 3e 7e 34 be 49 4b a8 be d4 7b 0c 3e 83 ab 62 3d
       -0.17626283 -0.32869938 0.13719112 0.055339348
0000e0 c9 f3 31 3e 21 82 8a be 62 b5 f6 3d 40 28 70 bd
       0.17378153 -0.27052405 0.12046315 -0.058632135
0000f0 0f de fe 3e bf 35 8a bc 7e 4f 0c bf 39 cb 20 bf
       0.49778792 -0.016871331 -0.54808795 -0.62810093
000100 1e 15 03 3d c6 36 d8 bd 4e 98 05 3e 80 86 fa 3d
       0.03200256 -0.10557322 0.13046381 0.12232685
000110 64 43 3b 3e 98 78 37 bf 1e e1 03 3f e2 f8 ed 3d
       0.18287426 -0.71668386 0.51515377 0.11619736
000120 e5 0c 0d 3f e2 03 3d 3d 22 8f c8 3c 81 46 5e bf
       0.550978 0.04614628 0.024482314 -0.8682633
000130 50 00 ae be ab 69 03 3e fe 1e 0f 3e aa 7e 99 be
       -0.33984613 0.12833278 0.13976666 -0.2997945
000140 66 0f 2a bf 4a fb 2e 3f 84 54 a7 3d 8a e2 70 3e
       -0.66429746 0.68352187 0.08170417 0.23523918
000150 fd 2b 3d bf 37 d3 ae 3e f1 a2 88 3e c5 c2 c9 3d
       -0.73895246 0.3414552 0.26686814 0.098516025
000160 67 14 e7 3e b5 0c 30 3e 7e 46 38 3e 9d f0 84 3e
       0.45132753 0.17192347 0.1799564 0.25964823
000170 e9 b2 18 bf 3e 93 9d bc 91 11 08 3e d9 36 fa be
       -0.59647995 -0.01923525 0.13287951 -0.4886997
000180 81 ee de bd 02 f3 a4 be 06 8a ae 3e 69 d2 59 be
       -0.10885335 -0.3221665 0.3408968 -0.21271671
000190 b9 64 db 3e e4 b6 4f be 4c 94 8b 3f 72 ec fc be
       0.42850283 -0.20284611 1.0904632 -0.49399143
0001a0 dd 0e 0e c0 eb 9d ab 3e ed 66 0a 3d c4 3c 52 bd
       -2.2196572 0.3351892 0.033789564 -0.051327482
0001b0 d2 49 5b 3d 31 77 53 bf 12 f0 69 bd 4a af 26 3e
       0.053537197 -0.82603747 -0.057113715 0.16277805
0001c0 bf eb 12 3e f8 08 d2 3d 7a 90 84 be ce 10 1e 3e
       0.14347742 0.10255617 -0.25891477 0.15436098
0001d0 d0 9b 12 bf fc 12 b6 be 1f 42 dd 3d 62 43 29 be
       -0.57269 -0.3556136 0.10803627 -0.16529611
0001e0 03 64 02 bf 6a f7 ed 3e 2e c9 02 3e 8b 9c 01 3e
       -0.50933856 0.46477824 0.12772056 0.12657373
0001f0 e0 e1 42 be a8 64 61 3d fc 88 23 3e 7a 94 37 3f
       -0.19031477 0.055027634 0.15970224 0.7171093
000200 45 5f a2 be e9 ad e3 3e 71 31 70 3e 31 b2 34 3e
       -0.3171331 0.4446862 0.2345636 0.176461
000210 12 2e 01 bf 81 d7 eb be f1 98 fa be d7 a6 01 3f
       -0.5046092 -0.46062854 -0.4894481 0.506452
000220 34 f5 41 bf df e4 c6 3e 33 50 16 bf 93 4b d5 bd
       -0.75764775 0.3884649 -0.58716124 -0.10414805
000230 f1 74 54 be 4d f6 e9 bc f2 8e 84 3e a1 52 af be
       -0.20747735 -0.028559828 0.2589031 -0.34242728
000240 c6 4b 9a be 17 5d bb bf 89 0a 56 3e 1f a0 b9 3e
       -0.30135936 -1.4637784 0.20902456 0.36254975
000250 fc f9 71 3d 56 c9 dc 3e a4 77 af 3c f5 11 b1 bf
       0.059076294 0.43122357 0.021419354 -1.3833605
000260 ee f3 76 3d 7d 54 a5 bf bb 8d a2 ba 2f 6b 1a be
       0.060291223 -1.2916409 -0.0012401858 -0.1507995
000270 92 02 23 3d de f6 60 3e d9 c4 34 bf 64 d9 ca 3d
       0.039797373 0.21969172 -0.70612866 0.09904745
000280 fd a7 2e bf 43 83 6e be ec a7 91 bd 19 72 21 3e
       -0.6822508 -0.2329226 -0.07112107 0.15766181
000290 1d c2 40 3d 00 84 a4 3e e9 fa 85 bf 6f ac de bd
       0.04706012 0.32131958 -1.0467197 -0.10872733
0002a0 54 4b 9d be f7 7b b2 bd f8 ed b9 3e c3 58 8c 3e
       -0.30721533 -0.08715051 0.36314368 0.2741147
0002b0 c1 f0 85 bf b0 8c 18 bf 21 b0 58 3e 72 9e b8 3e
       -1.0464097 -0.5958967 0.21160938 0.36058384
0002c0 a2 39 04 be ab 8f ac bf 1d 6a f4 3e ea 4e ba 3e
       -0.1291261 -1.3481344 0.47737208 0.36388332
0002d0 f1 3b 6b 3e fd 72 ab bd 76 44 af 3e 42 60 c9 3e
       0.22972085 -0.08371542 0.3423192 0.3933125
0002e0 cf f1 cc bd 8a 4b bd 3d 9b 35 ee bc ea af 63 bf
       -0.10007059 0.092429236 -0.029078295 -0.889403
0002f0 ef 1e 05 c0 4e cd 52 bd e4 86 ec 3d d7 61 63 bf
       -2.080013 -0.051465325 0.11549166 -0.88821167
000300 c0 ed fb bd 64 ef 8c 3c 8d 09 46 3e 64 d1 85 3e
       -0.123012066 0.017203994 0.19339581 0.26136315
000310 06 31 83 3e 34 f8 2b bf 34 37 25 3e 7f ec 51 3d
       0.2562334 -0.671756 0.1613434 0.05125093
000320 f2 9f e4 3d 0a e4 0e bd 4b 22 01 3e 92 a6 bf bd
       0.1116332 -0.034885444 0.12610738 -0.09357943
000330 73 c5 00 be 6f 3c 09 3e 9d 3b 30 be 03 85 82 3e
       -0.12575321 0.1340196 -0.1721024 0.25492105
000340 48 f2 5b 3e 67 0d 01 3b 74 a4 45 3e 43 89 9d 3d
       0.21479142 0.0019691826 0.19301015 0.07692196
000350 fa a8 81 3e 5e df 32 bd d3 09 d4 3e ed 4f 66 bd
       0.2532423 -0.04367005 0.41413745 -0.056228567
000360 60 b0 a6 3c 30 0c 60 be 65 8b a7 3e e7 55 6f 3e
       0.020347774 -0.21879649 0.32723537 0.23372613
000370 8e f2 2a be 01 af e1 3e b2 d5 82 bb 79 7b a5 be
       -0.1669409 0.4407883 -0.0039927596 -0.32320765
000380 57 89 81 3e 65 af 7f bf 4b c1 40 3e 97 35 be 3d
       0.25300094 -0.99877006 0.18823735 0.09287565
000390 c1 6d 06 3e d8 a6 a8 3d fa 4a fa 3e 58 0a 94 be
       0.13127805 0.08234948 0.48885328 -0.28914142
0003a0 a5 c1 d3 be c2 62 08 3f f5 5b 06 3e cb a8 2d 3d
       -0.41358677 0.5327569 0.13121016 0.0423973
0003b0 b3 22 8c 3d af 7c af 3e 90 dd 01 3e 45 fa 07 3d
       0.06842556 0.34274814 0.12682176 0.03319766
0003c0 28 e8 a9 3e f2 e2 2e bd ab da 00 bf 24 3b 2c 3b
       0.33184934 -0.0426969 -0.5033366 0.0026280368
0003d0 7d aa 0f bf 30 21 5f 3e 05 91 8b 3e 00 66 00 3e
       -0.5611952 0.21790004 0.2725908 0.1253891
0003e0 22 67 58 bd ac 3f 70 be 32 b2 3b 3e 83 b1 b5 3e
       -0.05283273 -0.23461789 0.18329695 0.35486993
0003f0 2a 4d 97 be 03 a5 8a 3e 09 12 14 3e 0f fa dd be
       -0.2955106 0.2707902 0.14460005 -0.43354842

fc2.bias f4 [64]
000000 e2 d4 76 be 1e c2 04 3f 92 8a 27 be a6 1e 86 3e
       -0.24104646 0.518587 -0.16361454 0.26195258
000010 eb 3f 06 3e cd 5b de 3d b2 8f e8 3e f2 c6 12 3e
       0.1311032 0.10857353 0.4542213 0.14333704
000020 a0 0d a6 3e d4 83 9d 3e 20 e5 df bd 89 92 55 3e
       0.3243227 0.3076464 -0.10932374 0.2085668
000030 71 5c 9d 3e b4 58 b3 3d 54 14 84 3e 97 e4 0d 3c
       0.3073459 0.08757153 0.2579676 0.008660457
000040 5c 9a b3 3e d5 35 7f 3e f6 8a a2 3e a7 58 0e 3e
       0.35078704 0.24922879 0.31746644 0.13901006
000050 bf 0f c6 be c9 60 a5 3e 4e 91 f1 3d 5e 1c d6 3e
       -0.38683888 0.32300404 0.11795293 0.41818517
000060 ce 54 35 be 72 cd 19 3f fa 72 d5 3e 3c e0 21 3e
       -0.17708132 0.6007911 0.41689283 0.15808195
000070 8a 37 5c 3e 85 ba 0c 3e 63 71 99 3e 27 a9 80 3e
       0.21505561 0.13743027 0.2996932 0.25129053
000080 79 44 cc 3e 4e 02 4c 3e 46 e3 94 bb 05 d9 5a 3d
       0.3989599 0.19922754 -0.0045436947 0.053429622
000090 a1 cf ae 3e 9e d0 5f 3e bd 87 8a 3e ac cb a5 3e
       0.34142783 0.21856925 0.27056685 0.32381952
0000a0 8c bb 8c 3e 07 b9 84 3e 88 f6 a3 bc 6d 90 d6 be
       0.27486837 0.25922415 -0.020015016 -0.41907063
0000b0 b9 78 99 3e ac 24 c6 3e 9f ab 90 3e 6e 7f bd bd
       0.29974917 0.38699853 0.28255937 -0.09252821
0000c0 3e 0d c6 3d f0 19 9b 3e 20 6b 13 3f 71 ff ee 3e
       0.096704945 0.30293226 0.57585335 0.4667926
0000d0 58 1c dd bd d0 41 9e 3e 48 94 ce 3e 6c e3 66 3e
       -0.10796422 0.30909586 0.40347505 0.22547692
0000e0 4b d5 2b be df a0 b1 3e 50 68 6b bd 98 61 c9 3d
       -0.16780584 0.34693047 -0.057472527 0.09833068
0000f0 a4 2c ec 3d 25 1f 70 3e bb b4 e2 bc e4 8d c9 3d
       0.11531952 0.2344938 -0.02767407 0.098415166

fc3.weight f4 [4, 64]
000000 93 25 ec 3e df 8f f7 be 9b a8 32 3f 42 9d 84 be
       0.46122417 -0.48351952 0.6978852 -0.25901228
000010 98 ca ba be 56 96 70 be 87 1b b8 be 37 09 1b 3f
       -0.36482692 -0.23494849 -0.35958502 0.60560936
000020 2a ad bd be 8e e2 d9 3f e1 09 fe 3d 82 b6 55 3f
       -0.37046176 1.7022264 0.12404228 0.8348161
000030 b1 dc d1 be ec fb bf be e6 64 51 3f a0 37 c5 be
       -0.40988687 -0.3749689 0.81794584 -0.38519
000040 8f 96 e3 be fd ae 43 3e c9 a8 ac be da bc ed bd
       -0.44450805 0.19109721 -0.33722523 -0.11608286
000050 27 34 29 3f f6 aa 80 be 48 47 1e 3f 54 06 a4 be
       0.66095203 -0.25130433 0.61827517 -0.32036078
000060 cc 43 a1 be 60 07 c5 bf 14 2e 23 bf cd be b7 be
       -0.31497037 -1.5392876 -0.63742185 -0.35887757
000070 f3 2a 1d bf 74 5c 47 3f 16 81 f1 be be 6a 20 bf
       -0.6139366 0.7787545 -0.47168797 -0.62662876
000080 3c db 09 bf 3e d2 7e 3f 80 a8 ad 3f 42 88 f6 be
       -0.5385015 0.99539554 1.3567047 -0.4815083
000090 41 2a b4 be 17 0b bf be 29 ac 82 be e9 e5 f8 be
       -0.35188487 -0.37313148 -0.25521973 -0.48612908
0000a0 60 68 e0 be a2 88 0b bf 48 04 95 3c f8 cc 26 bd
       -0.43829632 -0.5450536 0.018190518 -0.040722817
0000b0 e4 4a bd be 28 87 e7 be 23 07 a7 be e8 58 ab bd
       -0.369712 -0.45220304 -0.32622632 -0.08366567
0000c0 e1 4a a7 be 74 9d ec 3f 61 68 ec be fd 3b 01 40
       -0.32674316 1.8485551 -0.46173385 2.0192864
0000d0 e8 68 1c 3e 29 20 b5 3f a9 5d 0d bf 69 76 2d bf
       0.15274394 1.415044 -0.5522104 -0.67758805
0000e0 91 38 7b bf 67 0f d6 3f 16 13 ee bd 68 c7 ba 3f
       -0.9813319 1.672345 -0.11624734 1.4592104
0000f0 35 d4 88 3f 8a e4 ba be 7e e0 b5 3a 07 b2 98 3f
       1.068976 -0.36502486 0.0013876108 1.192933
000100 3f 12 2e bf f2 03 2b 3e 2b 7a 4b bf 56 c4 4d be
       -0.6799659 0.16700724 -0.7948329 -0.20094427
000110 a7 89 4a bf 1a 96 73 be c9 4f a4 be 94 c4 1a 3f
       -0.7911629 -0.23787728 -0.3209212 0.60456204
000120 45 58 0d bf ea 13 8b 3f 73 db 55 3e c3 83 7a 3f
       -0.55212814 1.0865452 0.20884494 0.978573
000130 d7 f7 c9 be 00 a2 f0 bd 00 8a 58 3e 1f 29 a1 be
       -0.394469 -0.11749649 0.21146393 -0.31476685
000140 78 58 bc be 97 00 58 be a5 bf d8 be f8 17 32 bf
       -0.36786246 -0.21093975 -0.42333713 -0.69567823
000150 f1 2e 83 3f ab a4 71 be c4 0b 8d 3f 5b 79 b5 be
       1.02487 -0.23597972 1.1019216 -0.3544415
000160 8b 13 ae be a2 92 b8 bf 76 58 68 bf 46 89 f4 be
       -0.33999285 -1.4419749 -0.9075998 -0.4776098
000170 18 c8 db be 7b 29 69 3f 31 23 ec be 32 6c 1d bf
       -0.42926097 0.9107892 -0.461206 -0.6149322
000180 f2 6b e8 be ca b2 ab 3f dd 9d 8a 3f c2 35 a7 be
       -0.45394856 1.3413937 1.0829426 -0.326582
000190 c0 03 18 bf 33 f1 ad bd 6f 64 d4 be b3 06 b8 be
       -0.5938072 -0.08493271 -0.41482875 -0.3594261
0001a0 8a 6c 06 bf af 8c b7 be 66 9e e7 3d d3 63 7c 3d
       -0.5250937 -0.3584952 0.11309509 0.061618637
0001b0 fd fb 11 bf ae 3e c9 be 02 33 99 be 80 e4 ac bb
       -0.5702513 -0.39305633 -0.29921728 -0.0052762628
0001c0 00 79 eb be 69 1f f3 3f 95 e2 14 bf 31 b0 e6 3f
       -0.45990753 1.8993961 -0.58158237 1.8022519
0001d0 5c f8 95 3e de 02 03 40 a7 ac 19 bf 0e 8a 11 bf
       0.29291046 2.04705 -0.6002907 -0.5685128
0001e0 9b d3 01 bf 07 6b ba 3f 51 f8 46 3d a7 51 3e 3f
       -0.5071351 1.4563912 0.048576657 0.7434334
0001f0 03 f1 a2 3f f8 9a ef bd d6 0f ba be 18 d8 6d 3f
       1.2729801 -0.1169948 -0.36340207 0.9290786
000200 f3 65 a7 be 69 49 3b bd 87 86 ae 3d e6 c7 58 3e
       -0.3269497 -0.045724306 0.08521753 0.21170005
000210 19 f7 51 be a2 82 28 bf b1 7d d6 bd bb c7 86 3f
       -0.20504417 -0.6582433 -0.104731925 1.0529703
000220 a5 b2 fb be 88 ff cc 3f e9 2d 8b 3f 62 2c 74 3f
       -0.49159732 1.6015482 1.0873386 0.9538022
000230 00 94 23 3e 82 b3 08 bf 4d 63 85 3f cb 84 15 bf
       0.15974426 -0.5339891 1.0420929 -0.5840575
000240 9b 04 a7 bd 68 23 c2 3e 51 2a 0f bf 00 80 fa be
       -0.08155175 0.37917638 -0.55923945 -0.4892578
000250 2f 4d 01 3f 82 c2 55 3e a4 20 3e 3f 96 05 7d 3d
       0.505084 0.2087498 0.74268556 0.061772905
000260 41 2a 21 bf 5b 20 9c bf 94 65 fd be 94 48 fc be
       -0.629551 -1.2197374 -0.4949156 -0.49274123
000270 fc 9c 3e 3e 55 85 53 3f 60 f7 c3 be a2 be 63 be
       0.18614572 0.82625324 -0.3827467 -0.2224069
000280 ac b1 a4 be fa 9c b5 3f ba 67 24 3f c2 46 22 bf
       -0.32166803 1.418853 0.64220774 -0.6338922
000290 71 46 ff be c2 6f 07 bf 81 3d 21 bf 17 15 19 bf
       -0.4985843 -0.52904904 -0.6298447 -0.59797806
0002a0 b3 c0 25 bf a9 cb 09 bf 02 1e dc 3d fd 6d 58 bf
       -0.6474716 -0.53826386 0.10747911 -0.8454283
0002b0 0a 48 0d bf 60 2f bf be cc 7e f3 bc f0 47 ef bc
       -0.5518805 -0.37340832 -0.029723547 -0.029209107
0002c0 81 75 32 bf 8e 97 d5 3f c6 5e 2d 3e 32 fa 94 3f
       -0.69710547 1.6686876 0.16930684 1.1638854
0002d0 2d 08 79 3f 1a 0c db 3f c6 45 b6 bd 93 f8 ad bd
       0.972781 1.7113068 -0.08900027 -0.084946774
0002e0 c2 a6 fa bc ef 9e d3 3f ac 5c 27 bf c7 91 22 3e
       -0.030597094 1.6532878 -0.6537578 0.15875922
0002f0 7e 91 70 3f 21 15 17 bf 3a 41 91 3f f1 13 70 3f
       0.93972003 -0.59016615 1.134803 0.9378043
000300 8b 40 e2 3e ce 7d 1c bf be 8c 50 3f 12 d7 f7 be
       0.44189867 -0.6112946 0.81464756 -0.48406273
000310 48 b7 9a bd 77 cb aa be 69 1c db be c0 87 bd 3f
       -0.075544894 -0.33358356 -0.42795113 1.4807053
000320 e0 85 a2 be 91 56 b6 3f f8 24 1e 3f 4a 37 ad 3f
       -0.31742764 1.4245168 0.6177516 1.3532498
000330 c0 55 3d bd 22 f9 29 be bd 35 66 3f 3b 5a e3 be
       -0.046224356 -0.16598943 0.8992575 -0.44404778
000340 f2 a4 d4 be 6a f1 58 3e 4e 06 11 bf 79 c3 84 be
       -0.41532093 0.21185842 -0.56650245 -0.25930384
000350 d0 c9 56 3f 57 be d2 be f0 7a c5 3e 77 bb ed be
       0.8390169 -0.41160843 0.38570356 -0.46432087
000360 36 b6 c0 bd 08 f8 7e bf a5 46 21 bd 7f 2f 91 be
       -0.09409754 -0.99597216 -0.039374013 -0.2835655
000370 ec 2b 8c be f3 d7 57 3f 3b 2f ee be 12 60 f6 be
       -0.2737726 0.8431389 -0.4652041 -0.4812017
000380 5c 6e e5 be 1b 4e bd 3f 5a 63 9b 3f 7d 97 a4 be
       -0.4481076 1.4789461 1.2139695 -0.32146826
000390 2c cf ec be 50 94 df be 98 eb e2 be 46 89 0c bf
       -0.4625181 -0.4366784 -0.4432037 -0.5489696
0003a0 22 52 dd be b6 8a 12 bf 60 25 81 3b a4 0c 1e 3f
       -0.43226725 -0.57242906 0.003941223 0.6173804
0003b0 a5 b3 79 be d8 fa 1a bf 82 c7 e4 be 5c 74 d2 bd
       -0.24384935 -0.6053901 -0.44683462 -0.102761
0003c0 25 b5 b5 be 0c 9e ae 3f 2a 7d b0 bd a3 c3 fb 3f
       -0.35489765 1.3641982 -0.08617623 1.9669079
0003d0 6b ce fa 3e 7d 1b a6 3f 6f 12 a7 be 18 dc 85 be
       0.4898561 1.2977139 -0.3263125 -0.2614448
0003e0 76 54 fc bf 59 80 c4 3f c8 58 32 bf 9c ce 88 3f
       -1.9713275 1.5351669 -0.6966672 1.0688052
0003f0 cf 17 8f 3f 0a c1 0b bf 60 cd c5 3e e2 74 79 3f
       1.1179141 -0.5459143 0.3863325 0.97443974

fc3.bias f4 [4]
000000 71 e2 26 be 5c 0f 52 be 77 8d 15 3e 38 96 ab be
       -0.16297318 -0.20513672 0.14604746 -0.33513045
