NeurPiRL/LunarLander/DQN/checkpoints/200_220.pth (torch, 22315 bytes, 6 tensors)

fc1.weight f4 [64, 8]
0	0x3e3ad1d9	0.18244113
1	0x3ddb4498	0.107064426
2	0x3d4fc6b5	0.05072661
3	0xbfb0956a	-1.3795598
4	0xbe85e7b3	-0.26153335
5	0xbe24d06e	-0.16095135
6	0x3e0ab5f8	0.13545978
7	0xbaf695e2	-0.0018812979
8	0x3d20936b	0.03920309
9	0xbda9b600	-0.08286667
10	0x3e7ecdee	0.24883243
11	0xbd223767	-0.039603617
12	0x3e2381e2	0.15967515
13	0x3fc2219d	1.5166508
14	0x3d9aaa23	0.07551982
15	0x3ddd8c92	0.10817827
16	0x3ec8ac41	0.3919392
17	0xc008b51c	-2.136054
18	0xbf38bdf4	-0.72164845
19	0xba7c4927	-0.00096239377
20	0x3f10dda9	0.56588227
21	0x3e8b0fdb	0.27160534
22	0x3f094ca4	0.5363257
23	0x3f632d9b	0.88741463
24	0x3df29ff0	0.11846912
25	0xbf97951c	-1.184238
26	0x3f07e8a2	0.53089345
27	0xbf16ce80	-0.58908844
28	0xbfadba7e	-1.3572538
29	0xbe31a410	-0.17347741
30	0x3f397133	0.72438353
31	0x3edf89f3	0.43659934
32	0xbee17931	-0.44037774
33	0xbf064634	-0.5245087
34	0xbdb5ce7c	-0.088772744
35	0xbef0b4af	-0.4701285
36	0xbeafc4eb	-0.34329924
37	0xbe62b318	-0.22138631
38	0x3f3c3f55	0.73534137
39	0xbf65db1d	-0.89787465
40	0x3f2ff653	0.68735236
41	0xbf793b46	-0.9735607
42	0x3f1d7e35	0.615207
43	0xbf1a086a	-0.6016909
44	0x3eef3a41	0.46724132
45	0x3d86d3cd	0.065833665
46	0x3f0af29c	0.5427644
47	0x3e8b9451	0.27261594
48	0x3e9f69fc	0.31135547
49	0xbf8b447d	-1.0880276
50	0x3f3e22d7	0.7427191
51	0x3ec0c93b	0.37653527
52	0xbf1c29a0	-0.61001015
53	0xbf4fb49e	-0.81134975
54	0x3f446a67	0.7672486
55	0x3e1f8390	0.15577531
56	0x3f59150b	0.84797734
57	0xbf94c277	-1.1621846
58	0x3f2a57a9	0.6654001
59	0xbed5abd9	-0.41732672
60	0x3ebabef4	0.3647381
61	0x3d9650f6	0.07339661
62	0x3ea191bb	0.31556496
63	0x3ed06c56	0.40707654
64	0xbf377a85	-0.71671325
65	0xbf1c32a0	-0.6101475
66	0x3c74943c	0.01492792
67	0xbea6a2e4	-0.3254615
68	0x3f34bb6a	0.7059847
69	0x3f51a91c	0.81898665
70	0x3e118a1c	0.14212841
71	0x3efc0908	0.4922564
72	0xbee54b65	-0.44784084
73	0xbf81170f	-1.0085162
74	0xbea8a159	-0.32935598
75	0xbea0aeff	-0.3138351
76	0x3f5ab57a	0.8543316
77	0x3e8c5a1d	0.274125
78	0x3eda585e	0.42645544
79	0x3dc87210	0.09787381
80	0xbdb113f5	-0.086463846
81	0xbf20ff71	-0.6288977
82	0xbe96d9d8	-0.29463077
83	0xbed7b983	-0.42133722
84	0x3e9f9ff6	0.31176728
85	0x3fb89581	1.4420625
86	0xbd8c7822	-0.06858851
87	0x3df365dc	0.118846625
88	0x3e902d65	0.28159633
89	0xbe11aa36	-0.14225087
90	0x3f2a0807	0.664185
91	0xbf08a058	-0.53369665
92	0x3e3dfae0	0.18552732
93	0xbed7949f	-0.42105576
94	0xbe4c1fcc	-0.19934005
95	0xbf9f5b3c	-1.2449718
96	0x3f2feab5	0.6871751
97	0xbfc8314b	-1.5640043
98	0x3fb73052	1.4311621
99	0x3eb9719f	0.362195
100	0xbf80f94a	-1.0076077
101	0xbee4704e	-0.44616932
102	0x3ed01f71	0.40648988
103	0xbd360af0	-0.044444025
104	0xbedbb2b1	-0.42909768
105	0x3f47e886	0.7808918
106	0xbf171406	-0.5901493
107	0xbefd8885	-0.4951822
108	0x3e65ec1c	0.2245335
109	0xbf0708e7	-0.5274796
110	0x3de3c7fa	0.11122127
111	0x3b867e85	0.004104438
112	0x3ea7f0cd	0.32800904
113	0x3fa419a3	1.2820324
114	0x3de280cd	0.11059723
115	0xbeb74d3d	-0.35801116
116	0xbddad1e2	-0.10684563
117	0x3f4bcc45	0.79608566
118	0xbe4dda56	-0.2010282
119	0x3e86f46a	0.26358348
120	0xbe433f5b	-0.19067137
121	0xbf94d5af	-1.1627711
122	0xbf111810	-0.5667734
123	0xbea2d1aa	-0.31800586
124	0x3f52ddb9	0.8236957
125	0x3e9768ce	0.29572147
126	0x3ec1d77b	0.3785971
127	0x3ed3b360	0.4134779
128	0xbeff2ae2	-0.49837404
129	0x3f0719ef	0.52773947
130	0xbf120597	-0.5703978
131	0xbe8a4151	-0.27002957
132	0xbf405812	-0.75134385
133	0xbeec138e	-0.4610867
134	0x3eb3d1f8	0.3512113
135	0xbf1f7aaf	-0.62296575
136	0x3ea42d35	0.3206574
137	0xbe8cb1ff	-0.2747955
138	0x3e6e0078	0.23242366
139	0xbf004dbe	-0.50118625
140	0xbf55f8fc	-0.83583045
141	0xbf5d2594	-0.86385465
142	0x3e87156d	0.26383534
143	0x3e9f3c3b	0.3110064
144	0xbef45d06	-0.4772722
145	0x3f6fce1d	0.9367388
146	0xbe6dc4d9	-0.23219623
147	0xbde7ef4a	-0.11324938
148	0x3e807781	0.25091174
149	0x3eb46014	0.35229552
150	0x3e40b686	0.18819627
151	0xbe205ace	-0.15659639
152	0xbf05aad7	-0.52213806
153	0x3ea2a593	0.31766948
154	0xbed8a015	-0.42309633
155	0x3f29d7d2	0.6634494
156	0x3dd6b979	0.10484595
157	0x3f42b4ee	0.76057327
158	0x3ee63796	0.44964284
159	0x3e245d79	0.16051282
160	0xbe1e6337	-0.15467535
161	0xbf33f15d	-0.70290166
162	0x3c5835d4	0.013196427
163	0xbf95dc69	-1.1707889
164	0xbd503b16	-0.0508376
165	0xbe5562f6	-0.20838532
166	0x3f4b19e9	0.7933641
167	0xbe35ccb6	-0.17753872
168	0xbe0eb9ed	-0.13938113
169	0xbfcf81c5	-1.6211478
170	0xbe8039f4	-0.25044215
171	0xbefc0af2	-0.492271
172	0xbf52a76b	-0.8228671
173	0x3f66dba2	0.90178883
174	0x3d3fe278	0.046846837
175	0x3ef7de1e	0.4841165
176	0xbf1d2591	-0.61385447
177	0xbcff5a0c	-0.031170867
178	0xbd952c8c	-0.07283887
179	0xbe499c60	-0.19688559
180	0xbf1c51a4	-0.61062074
181	0xbfcd96d8	-1.6061659
182	0x3db4f71e	0.08836196
183	0x3e9ad055	0.3023707
184	0x3d9b4f44	0.07583478
185	0xbd4a1346	-0.049334787
186	0xbe5282c2	-0.20557693
187	0x3df8b487	0.12143808
188	0xbf554838	-0.8331332
189	0xbf57e60a	-0.84335387
190	0xbee88d15	-0.45420137
191	0x3ef185e9	0.47172478
192	0xbeb500de	-0.35352224
193	0xbf0086ad	-0.502055
194	0x3e0ea779	0.13931073
195	0xbf719ae4	-0.9437697
196	0x3eb0060f	0.34379622
197	0x3e228f50	0.15874982
198	0x3f19ae63	0.6003172
199	0x3c3d990e	0.011572136
200	0xbedcb7bf	-0.43108937
201	0x3ec2c311	0.3803945
202	0xbe8e0d9e	-0.27744764
203	0x3deccbf1	0.11562336
204	0x3f07ae8f	0.5300073
205	0x3ecf566c	0.40495622
206	0xbf93189e	-1.1491888
207	0x3d543c81	0.051815514
208	0xbeb10d9b	-0.34580693
209	0x3e2977d1	0.16549613
210	0x3ebede11	0.37278798
211	0xbe9d9dc3	-0.30784425
212	0x3eecd781	0.46258166
213	0x3ec1f692	0.3788343
214	0x3efa8b75	0.48934522
215	0xbe6cb674	-0.23116475
216	0x3d12b0cb	0.035813134
217	0x3f7e2304	0.9927218
218	0xbd68fa26	-0.056879185
219	0xbf45acb1	-0.7721663
220	0x3f6943f2	0.911193
221	0xbed4c943	-0.415598
222	0x3f6e4d70	0.9308691
223	0xbed6320f	-0.41835067
224	0x3eb28381	0.34865955
225	0xbf419836	-0.7562288
226	0xbe5ee6da	-0.2176775
227	0xbf60feff	-0.87889093
228	0xbe25cdbb	-0.16191761
229	0x3e9197c9	0.28436115
230	0xbe17b6ee	-0.14815876
231	0x3efddc67	0.49582216
232	0xbeec683e	-0.4617328
233	0x3f364435	0.71197826
234	0xbef799c4	-0.483595
235	0xbed31635	-0.4122788
236	0xbdcacdba	-0.099025205
237	0x3f04c317	0.51860183
238	0xbf63c85c	-0.889776
239	0xbe90dcae	-0.28293365
240	0x3d22ed78	0.03977725
241	0xbf945f7c	-1.159164
242	0x3f00879f	0.5020694
243	0x3ed46412	0.41482598
244	0x3ed7b6a9	0.42131546
245	0xbf9a9adc	-1.2078509
246	0x3f8c4449	1.0958339
247	0xbec929d0	-0.39289713
248	0xbe6510a2	-0.22369626
249	0xbf5d11ba	-0.86355174
250	0xbe17c83b	-0.14822476
251	0xbf16fa9b	-0.58976144
252	0x3f6f0d08	0.9337926
253	0x3e4e1e4d	0.20128746
254	0x3e1705d6	0.1474832
255	0x3e5e4b82	0.21708491

fc1.bias f4 [64]
0	0xbe71214a	-0.23547855
1	0x3e496554	0.1966756
2	0x3da89571	0.08231629
3	0x3e392e44	0.18084055
4	0xbcf2f85c	-0.029659443
5	0x3e0513ac	0.12995785
6	0xbeeffd67	-0.46873018
7	0x3ec65797	0.387387
8	0x3e66d4d2	0.22542122
9	0x3e3f6ba8	0.18693411
10	0x3e2fd3f5	0.17170699
11	0x3dc2e8a5	0.0951703
12	0xbee98c3c	-0.45614803
13	0x3eb451ba	0.35218602
14	0x3f198911	0.5997477
15	0x3ea355c4	0.3190137
16	0x3df49b1a	0.11943646
17	0xbe94e15f	-0.29078194
18	0x3f06186e	0.52381027
19	0x3e84ea2e	0.25959915
20	0xbe10bec1	-0.14135267
21	0x3ce4903f	0.027900813
22	0xbd2e2c84	-0.042522922
23	0x3e011b69	0.12608112
24	0xbe03ccc5	-0.12871082
25	0x3ec7d25f	0.39027688
26	0x3eedd0ba	0.46448308
27	0x3d9a0550	0.075205445
28	0x3e9551b5	0.291639
29	0xbeb0e334	-0.34548342
30	0x3f07d07d	0.530525
31	0x3e75499c	0.23953861
32	0xbec1e43c	-0.37869442
33	0x3eb0381f	0.34417817
34	0x3e96d25d	0.2945737
35	0xbdb9feb5	-0.09081785
36	0x3e8fffe4	0.28124917
37	0xbe35254a	-0.17690006
38	0x3dfdc991	0.12391961
39	0x3e088822	0.1333318
40	0x3efb2b19	0.49056318
41	0xbdebd6bc	-0.11515567
42	0x3f06d0e9	0.5266252
43	0xbd86d4db	-0.06583568
44	0x3f78e203	0.97219867
45	0x3d3ab1d8	0.04557976
46	0xbdd42e61	-0.103604086
47	0x3e97c08b	0.29639086
48	0x3e541b42	0.20713523
49	0x3e2c74c7	0.16841422
50	0xbd4ab629	-0.049490128
51	0x3de0ba48	0.1097303
52	0x3e1efd76	0.15526375
53	0xbe123a7c	-0.14280123
54	0xbda1bd92	-0.07897486
55	0xbcf2c79b	-0.029636195
56	0x3ddbc171	0.107302554
57	0x3f13dc14	0.5775769
58	0x3e10c75b	0.14138548
59	0x3ea7e19c	0.32789314
60	0xbbef207b	-0.007297573
61	0x3ed1297c	0.40851963
62	0xbcbd4c2b	-0.023107609
63	0x3da8a6bb	0.08234926

fc2.weight f4 [64, 64]
0	0x3d23292e	0.039834194
1	0x3e0f4a1a	0.13993111
2	0x3f3a86c2	0.72861874
3	0xbde8ba59	-0.11363668
4	0xbdf896c8	-0.12138134
5	0xbe2e484e	-0.1701977
6	0x3c49f13c	0.012325581
7	0x3d3db6ba	0.04631684
8	0xbd81c28e	-0.063359365
9	0xbe25c45d	-0.16188188
10	0xbda0b7f5	-0.07847587
11	0x3e90e10e	0.28296703
12	0x3e8008e3	0.2500678
13	0x3e2a2d36	0.16618809
14	0x3dc995b8	0.0984301
15	0xbd8a75a2	-0.06760718
16	0xbe3ce8e9	-0.18448223
17	0xbe77218f	-0.24133895
18	0x3ea1a548	0.31571412
19	0xbe62ce43	-0.22148995
20	0xbd9c53b1	-0.0763315
21	0x3ede4e9a	0.43419343
22	0xbefa2c91	-0.48862126
23	0xbe8ec9e8	-0.27888417
24	0xbdbdc7c4	-0.09266618
25	0x3e5953c3	0.21223359
26	0xbc7f3a4a	-0.015577862
27	0x3eb7af6f	0.35876033
28	0x3cf8b8b6	0.030361515
29	0x3f3aeabc	0.73014426
30	0x3e9c5183	0.30530939
31	0xbc5d9d00	-0.013526201
32	0x3e547a6d	0.20749827
33	0x3e34cf34	0.17657167
34	0xbe22b6b5	-0.1589001
35	0x3e7d710c	0.24750155
36	0x3da4aad6	0.08040397
37	0xbeda02bf	-0.4258022
38	0xbe1a4cc9	-0.15068354
39	0x3f459e5b	0.77194756
40	0x3ecc36cc	0.39885557
41	0xbd65df0d	-0.05612092
42	0x3e35bb14	0.17747146
43	0xbec1d50d	-0.37857857
44	0x3eb26fac	0.34850824
45	0xbe1f50e5	-0.15558203
46	0x3f086d29	0.53291565
47	0x3eef6929	0.46759918
48	0x3e713215	0.23554261
49	0x3f0890d2	0.5334598
50	0xbd246cfe	-0.040143006
51	0x3f1964ec	0.5991962
52	0x3f82d1fa	1.022033
53	0xbb63ef18	-0.0034779962
54	0xbebfbca3	-0.37448606
55	0x3edf0830	0.43560934
56	0xbef0a0cb	-0.46997675
57	0x3f0005b1	0.50008684
58	0xbe5804dd	-0.21095605
59	0x3d850814	0.064956814
60	0x3f14fea3	0.58201045
61	0x3e17e244	0.14832407
62	0x3df398f3	0.11894407
63	0x3e6fffca	0.2343742
64	0x3f1ad15b	0.604757
65	0x3ea99d37	0.33127758
66	0xbdd531a4	-0.10409859
67	0x3eef644c	0.46756208
68	0x3d1ed652	0.03877861
69	0x3e73589d	0.23764272
70	0xbfafba8e	-1.3728807
71	0x3df40b64	0.11916235
72	0x3f0a83b3	0.5410721
73	0x3e8ad7cc	0.27117765
74	0x3e426910	0.1898539
75	0xbf7247b2	-0.9464065
76	0xbf0e3096	-0.55542886
77	0x3e341d0b	0.17589204
78	0x3dd1fddf	0.102535
79	0x3ed0d0c7	0.40784284
80	0xbe9d4cb8	-0.30722594
81	0x3ea2cdf0	0.31797743
82	0x3e03581a	0.12826577
83	0x3ec3e30b	0.38259158
84	0x3f09ab33	0.53776854
85	0xbeec3729	-0.46135834
86	0x3f001745	0.50035506
87	0x3ebdca98	0.3706863
88	0x3ebdf8d0	0.3710389
89	0xbc44884e	-0.011995388
90	0x3e9b048c	0.30276906
91	0x3d8e94cb	0.06961974
92	0x3dc71ce5	0.09722308
93	0xbf8c7763	-1.0973934
94	0xc00fbed8	-2.2460232
95	0x3eeea15a	0.46607476
96	0xbf9bc2fb	-1.2168878
97	0x3dfbbcfb	0.122919045
98	0x3eeb83e4	0.45999062
99	0x3f116937	0.5680117
100	0x3ec6e986	0.3885004
101	0x3f1ba3dc	0.60796905
102	0xbdd3b11a	-0.10336514
103	0xbea02cdb	-0.31284222
104	0xbd75082f	-0.059822258
105	0x3d821e5b	0.06353446
106	0x3e47be3f	0.19506167
107	0x3f4d30f9	0.8015285
108	0xbdf030c4	-0.11728051
109	0x3f0ed40f	0.55792326
110	0xbe02b98f	-0.12766097
111	0x3de2b9ab	0.110705696
112	0xbc2974f3	-0.010342824
113	0xbfa30129	-1.2734729
114	0xbf5d3d1d	-0.86421376
115	0xbf977ece	-1.1835573
116	0xbe8cbf4b	-0.27489695
117	0x3efe885f	0.49713418
118	0x3f36faa8	0.7147622
119	0xbf057764	-0.521353
120	0x3ecc6182	0.39918143
121	0xbeccfadd	-0.40035143
122	0x3f0adf26	0.5424675
123	0x3ebf4d1c	0.37363517
124	0xbf38d2d3	-0.7219669
125	0xbf642afb	-0.89128083
126	0x3e81207c	0.25220096
127	0xbf231da6	-0.63717115
128	0x3e847a3a	0.258745
129	0x3c830241	0.015992286
130	0x3f106ece	0.56419075
131	0x3d46e1ff	0.04855537
132	0xbd96bb7b	-0.07359978
133	0xbe31f416	-0.17378268
134	0xbd8b51ce	-0.068027124
135	0x3d8abb2a	0.0677398
136	0x3daa2b8d	0.08309088
137	0xbe732b35	-0.23746951
138	0xbdf79bb5	-0.12090246
139	0x3ec64a05	0.38728347
140	0x3efcc046	0.49365443
141	0xbc509912	-0.012731807
142	0xbccea745	-0.025226245
143	0xbd76f776	-0.06029459
144	0xbbbc24db	-0.005741698
145	0xbdc122d9	-0.09430475
146	0x3e1f941d	0.15583844
147	0xbe0ba01e	-0.13635299
148	0xbcdc48c4	-0.026890166
149	0xbd230342	-0.03979803
150	0xbe22119b	-0.15827028
151	0xbe3e49b1	-0.18582799
152	0xbbf39b4a	-0.0074342834
153	0x3eb3a139	0.3508394
154	0xbe072e68	-0.13201296
155	0x3cf2a6de	0.029620584
156	0xbe2f7eb9	-0.17138185
157	0x3edc0a92	0.42976815
158	0xbd8deb4c	-0.06929645
159	0xbe8dd4f3	-0.2770153
160	0x3e924d6c	0.28574693
161	0x3c9696f8	0.018382534
162	0xbd82c2fe	-0.06384848
163	0x3e9b40b6	0.30322808
164	0x3e6ffd27	0.23436414
165	0xba059db6	-0.0005097048
166	0x3d973cf1	0.073846705
167	0x3efe1b7e	0.4963035
168	0x3f21c8a9	0.6319681
169	0x3ecac7a1	0.3960543
170	0xbda9691d	-0.08272002
171	0x3cad1768	0.021129325
172	0x3eb660c7	0.3562071
173	0xbd1247a2	-0.035712846
174	0x3e67b1e4	0.22626454
175	0x3d105426	0.0352365
176	0xbda51d68	-0.080622494
177	0x3f2fabd6	0.68621576
178	0x3be39750	0.006945528
179	0x3ea6d2b7	0.32582638
180	0x3f3dd636	0.74154985
181	0x3de81c03	0.11333468
182	0xbdda42d1	-0.106572755
183	0x3dd49ead	0.103818275
184	0xbe59d0e7	-0.21271096
185	0x3eb5f60a	0.35539275
186	0xbd2b09f6	-0.041757546
187	0x3ebf1ae5	0.37325206
188	0x3eb02c0f	0.34408614
189	0xbcba6a79	-0.022755848
190	0xbd391ede	-0.045195453
191	0x3d499f03	0.04922391
192	0x3ea495a3	0.32145414
193	0x3ed2f35f	0.41201302
194	0xbf0f44df	-0.55964464
195	0x3ee7d09c	0.45276344
196	0x3f232899	0.6373382
197	0x3ed2540a	0.41079742
198	0xbf0045c2	-0.5010644
199	0x3ec90114	0.39258635
200	0x3f0d0283	0.5508196
201	0x3ee3b8c7	0.4447691
202	0x3efdaccf	0.49545905
203	0xbf52b6ab	-0.8230998
204	0xbf1cf52d	-0.6131161
205	0x3da4cec4	0.0804725
206	0x3e77e1b9	0.242072
207	0x3f040fb2	0.5158645
208	0x3f30a4a4	0.6900122
209	0x3f26249e	0.64899623
210	0x3d8a4680	0.06751728
211	0x3f271484	0.6526568
212	0x3f120bed	0.5704945
213	0xbe9cb8aa	-0.30609637
214	0x3f4f4b9d	0.8097475
215	0x3f1adf53	0.60497016
216	0x3eb194b1	0.34683755
217	0xbd4f9620	-0.05068028
218	0x3e86fdcf	0.26365516
219	0x3e30e8e2	0.17276338
220	0x3e8fea78	0.28108573
221	0xbf6d0d56	-0.92598474
222	0xbf810ef5	-1.008269
223	0x3ed46677	0.41484424
224	0xbf97b62e	-1.1852472
225	0x3dcf4c9e	0.101220354
226	0x3f10bb66	0.5653595
227	0x3e8e13b4	0.27749407
228	0x3f0e04f7	0.55476326
229	0x3f0b5a58	0.5443473
230	0x3e1101e8	0.14160883
231	0xbeee2a70	-0.46516752
232	0x3d5c9477	0.053852525
233	0x3ed0a622	0.4075175
234	0x3ec5f627	0.38664362
235	0x3f35df88	0.71044207
236	0xbc03dafb	-0.0080478145
237	0x3ef36307	0.4753649
238	0xbe15f00d	-0.14642353
239	0x3c2b30f5	0.010448684
240	0x3c35fde3	0.011107895
241	0xbfb85a31	-1.4402524
242	0xbe6aea10	-0.2294085
243	0xbfc20894	-1.5158868
244	0xbf78123e	-0.96902835
245	0x3e7393c5	0.23786838
246	0x3f56fde8	0.8398118
247	0xbeb9e64a	-0.3630851
248	0x3f461402	0.7737428
249	0xbe93ffb8	-0.28906035
250	0x3f03c31d	0.51469594
251	0x3f1996bb	0.5999562
252	0xbed55c5c	-0.41672027
253	0xbf1b43dc	-0.6065042
254	0x3e5e8ac0	0.21732616
255	0xbf5fcb87	-0.87419933

fc2.bias f4 [64]
0	0x3e3befae	0.1835315
1	0x3e1157f6	0.1419371
2	0x3dd89779	0.10575766
3	0x3e050de8	0.12993586
4	0x3d85208c	0.065003484
5	0x3d46f628	0.048574597
6	0xbeb709ce	-0.35749668
7	0x3daa0f45	0.08303694
8	0x3e393ffe	0.18090817
9	0xbd0be36c	-0.034152433
10	0xbd8fc5c1	-0.070201404
11	0xbde0aba2	-0.10970236
12	0xbd7dca38	-0.06196043
13	0xbeab1a76	-0.33418626
14	0x3e68ecf7	0.22746645
15	0x3e8b4706	0.27202624
16	0xbe545ff8	-0.20739734
17	0xbe666cb8	-0.2250241
18	0x3e0846c7	0.1330825
19	0xbe086bfb	-0.13322441
20	0x3cbcea50	0.023060948
21	0xbd8e1a41	-0.06938601
22	0xbbf5be5d	-0.0074994997
23	0xbd2f50cc	-0.042801663
24	0x3e227e38	0.15868461
25	0x3ce8c733	0.028415298
26	0x3f1dbb4d	0.61613923
27	0x3c000b46	0.007815188
28	0xbd1f174c	-0.038840577
29	0x3ecf09e7	0.40437242
30	0x3e282eb7	0.1642407
31	0x3e4b77a6	0.19869861
32	0x3efac349	0.48977116
33	0xbe03b3ea	-0.128616
34	0xbde5f18e	-0.112277135
35	0x3e425ef6	0.18981537
36	0x3de62111	0.11236776
37	0x3d3817c8	0.044944555
38	0x3e138999	0.14407958
39	0x3e022fb0	0.12713504
40	0xbee27b33	-0.4423462
41	0xbe2630ae	-0.16229507
42	0xbee8b14a	-0.4544776
43	0x3d94b245	0.07260565
44	0x3dff53d7	0.12467163
45	0x3e63d143	0.22247796
46	0xbc749e22	-0.01493028
47	0xbd1ddb8e	-0.03853946
48	0x3d944043	0.072388195
49	0xbdc38c28	-0.09548217
50	0xbd727b99	-0.059199903
51	0x3e50efd2	0.20403984
52	0xbd234d0c	-0.0398684
53	0xbe5704a8	-0.2099787
54	0x3d26bb06	0.040705703
55	0x3ec204b7	0.37894222
56	0x3d57f10a	0.052720107
57	0xbca1a451	-0.019731672
58	0x3e17c34a	0.1482059
59	0xbe14d66d	-0.14534922
60	0x3d96bc10	0.07360089
61	0x3d9ff50c	0.07810411
62	0x3e2a7e1b	0.16649668
63	0x3f21d92a	0.6322199

fc3.weight f4 [4, 64]
0	0x3f544330	0.8291502
1	0xbe15422a	-0.14576021
2	0x3f0b803e	0.5449256
3	0xbef7d020	-0.48400974
4	0xbefa234b	-0.4885505
5	0x3dcb2f86	0.09921174
6	0xbe6e2ccb	-0.23259275
7	0xbeea5053	-0.45764408
8	0xbc34447f	-0.011002659
9	0xbf00a540	-0.5025215
10	0xbf0729a4	-0.52797914
11	0x3dc09e5f	0.09405207
12	0x3fa1106d	1.2583138
13	0xbf4594f4	-0.7718041
14	0x3edcecf8	0.43149543
15	0x3c17500e	0.009235395
16	0xbee8d4e8	-0.45474935
17	0xbf06b014	-0.52612424
18	0xbed6ed68	-0.41978002
19	0x3fb6bcd8	1.427638
20	0x3d3ffbd2	0.046871014
21	0xbf183bd5	-0.59466296
22	0xbd35f958	-0.044427246
23	0xbf31bf2a	-0.6943232
24	0xbef91141	-0.48645976
25	0xbf01e48b	-0.50739354
26	0x3fa709af	1.304983
27	0x40045cf6	2.068174
28	0xbefa60bc	-0.48901927
29	0x3f9df0a6	1.2339065
30	0x3f0603b4	0.523494
31	0xbe2c7910	-0.16843057
32	0x3e466e96	0.19378123
33	0x3d17e24c	0.037081048
34	0xbd6830c8	-0.056687146
35	0xbefff4e6	-0.4999153
36	0x3f782ebc	0.9694631
37	0xbec73e53	-0.38914737
38	0xbf004e77	-0.5011973
39	0x3fcbfa06	1.5935676
40	0xbeabcf23	-0.3355647
41	0x3d1c756f	0.03819793
42	0xbeb91e36	-0.36155862
43	0xbf01464f	-0.5049791
44	0x3ee45f43	0.4460393
45	0x3fe5a5ad	1.7941185
46	0xbf3751a2	-0.71608937
47	0xbf501a99	-0.81290585
48	0x3f8b23e5	1.0870329
49	0x3d5c25d6	0.05374702
50	0xbee6c0c6	-0.4506895
51	0x3fc5a121	1.5439798
52	0xbefec171	-0.4975696
53	0xbd4b6f76	-0.049666844
54	0xbf30ef5b	-0.6911523
55	0xbf8e5433	-1.1119446
56	0xbf065133	-0.5246765
57	0xbc6edc58	-0.014578901
58	0xbf3ac673	-0.7295906
59	0xbd86c093	-0.06579699
60	0xbef04ead	-0.46935025
61	0xbeeead20	-0.4661646
62	0x3f24ab16	0.64323556
63	0xbe37b07b	-0.17938416
64	0x3e762a21	0.24039508
65	0xbf02520b	-0.5090644
66	0xbd83a5ba	-0.06428094
67	0xbf18eb49	-0.59734017
68	0xbf0278b2	-0.50965416
69	0xbb26cac5	-0.002545045
70	0x3e0c69c5	0.13712223
71	0xbebccefc	-0.36876667
72	0x3f02ebca	0.51141036
73	0xbeef7366	-0.4676773
74	0xbf2a0cf0	-0.6642599
75	0x3d76ddc6	0.060270093
76	0x3f5f7fa1	0.8730412
77	0xbe600f6e	-0.21880886
78	0xbcdabb29	-0.026700573
79	0x3f5624dd	0.8365
80	0xbf3681a3	-0.7129156
81	0xbf4f3dbc	-0.80953574
82	0xbefca3cf	-0.49343726
83	0x3f928f39	1.1449958
84	0xbda3c4ab	-0.07996496
85	0xbebdf253	-0.3709894
86	0x3dbc3baf	0.09191071
87	0xbf45cb74	-0.7726357
88	0xbdab2fa5	-0.08358697
89	0xbeba4e31	-0.3638778
90	0x3f8303a3	1.0235485
91	0x3ff90b1e	1.9456518
92	0xbf113760	-0.5672512
93	0x3f565e6c	0.83737826
94	0x3f1267b5	0.57189494
95	0x3e8d8e5a	0.27647668
96	0xbea09077	-0.31360218
97	0x3da3dc3e	0.08000992
98	0xbbe5e7a0	-0.0070161372
99	0xbf2bef53	-0.67162055
100	0x3dba00f2	0.090822116
101	0xbeb7fc14	-0.35934508
102	0xbf1d5d88	-0.6147084
103	0x4024bb4f	2.5739324
104	0x3f24e913	0.64418143
105	0x3cfbfd0e	0.030760314
106	0x3ebfe6aa	0.3748067
107	0xbedcef82	-0.4315148
108	0x3f17564f	0.5911607
109	0x3fe73829	1.8064014
110	0xbf195b97	-0.5990538
111	0xbefe662f	-0.49687335
112	0x3f837de5	1.0272795
113	0x3df66480	0.120308876
114	0xbf10af97	-0.5651793
115	0x3fb3780b	1.4021009
116	0xbeb0d063	-0.34533986
117	0xbe745f9f	-0.23864602
118	0xbee60f67	-0.44933626
119	0x3ec9f0fb	0.39441666
120	0xbefd4725	-0.4946834
121	0xbeee2090	-0.46509218
122	0xbecdc318	-0.40187907
123	0x3f946c10	1.1595478
124	0xbecee0e6	-0.4040596
125	0xbea22079	-0.316654
126	0x3e0266c2	0.12734511
127	0xbdcc6a94	-0.09981266
128	0xbc4523a5	-0.012032424
129	0xbf425186	-0.75905645
130	0xbed55c1d	-0.4167184
131	0xbede5715	-0.43425813
132	0xbee0b0d4	-0.4388491
133	0x3d250a9c	0.04029332
134	0x3f5e3b13	0.8680889
135	0x3dbb2fe4	0.09139994
136	0x3f5a9638	0.85385466
137	0xbf06d214	-0.52664304
138	0xbfb46958	-1.4094648
139	0xbd8f90d3	-0.07010045
140	0x3fdd6a49	1.7298061
141	0xbe97b0e9	-0.2962716
142	0xbec1ae9d	-0.37828532
143	0x3f475478	0.77863264
144	0xbef80fb6	-0.48449486
145	0xbf217bb1	-0.63079363
146	0xbe9354c8	-0.2877562
147	0x3fd34295	1.6504694
148	0xbd787d92	-0.06066663
149	0xbef6c08e	-0.48193783
150	0x3dbfca5c	0.09364769
151	0xbf24f1b5	-0.64431316
152	0xbf2bf77c	-0.67174506
153	0xbe8b6b55	-0.27230325
154	0x3fe3255b	1.7745775
155	0x401975fb	2.397826
156	0xbe83bdd2	-0.2573076
157	0x3f9b76a0	1.2145576
158	0x3f226b4e	0.63444984
159	0xbf12025b	-0.57034844
160	0x3f05d130	0.5227232
161	0x3cf249f3	0.029576277
162	0xbc98a940	-0.018635392
163	0xbf069646	-0.5257305
164	0x3fae1622	1.3600504
165	0xbecbab53	-0.39779148
166	0xbeddbbf1	-0.4330745
167	0x3f2a2e2f	0.6647672
168	0xbf132918	-0.5748458
169	0x3dbb59a4	0.09147957
170	0x3e8914a8	0.26773572
171	0xbf5ca2dd	-0.8618601
172	0x3f8900d6	1.070338
173	0x3f5e9c0d	0.86956865
174	0xbf0bf588	-0.54671526
175	0x3e486282	0.19568828
176	0x3fb96bbf	1.4486006
177	0x3de5be68	0.11217958
178	0xbe720884	-0.23636061
179	0x3e9ae9c4	0.30256474
180	0xbef0fe5c	-0.4706906
181	0xbf37da7a	-0.71817744
182	0xbeab9c7a	-0.3351782
183	0xbec5f048	-0.38659883
184	0xbee8a592	-0.4543882
185	0xbf3ae5e0	-0.7300701
186	0xbd3b4087	-0.045715835
187	0x3f65ac45	0.8971599
188	0xbf08ff2f	-0.5351438
189	0xbf086579	-0.53279835
190	0xbeb6f9ac	-0.3573736
191	0xbf38f7bd	-0.7225302
192	0x3f03d291	0.51493174
193	0xbf22ec89	-0.63642174
194	0x3e509f16	0.20373186
195	0xbf197379	-0.5994182
196	0xbf09ecbe	-0.53876865
197	0x3dcbed30	0.09957349
198	0x3f10a5ee	0.5650319
199	0xbf11f500	-0.57014465
200	0xbf8bfa00	-1.0935669
201	0xbf12db16	-0.5736555
202	0xbda42ec4	-0.08016732
203	0x3d615fdf	0.05502307
204	0x3f9fd1aa	1.2485859
205	0xbd906911	-0.0705129
206	0x3e8d2b68	0.2757218
207	0xbd6d934d	-0.058001805
208	0xbf477b5a	-0.77922595
209	0xbe282267	-0.16419373
210	0xbecf37ae	-0.40472168
211	0x3fcae706	1.5851753
212	0xbd8c2e26	-0.068447396
213	0xbf0c7b57	-0.548757
214	0x3df570e8	0.11984426
215	0xbdbe11f1	-0.09280766
216	0x3cd26cdd	0.025686676
217	0xbf2ad0e7	-0.6672501
218	0x3fe35719	1.7760955
219	0x3fa006b9	1.2502052
220	0xbd898a34	-0.06715813
221	0x3f5a4f1b	0.85276955
222	0x3e690107	0.22754298
223	0xbf0d3a32	-0.55166924
224	0xbdcfbfe6	-0.101440236
225	0xbdd17795	-0.102278866
226	0x3d5b5d50	0.053555787
227	0xbf1322ea	-0.5747515
228	0x3f365741	0.7122689
229	0xbf1ca0fe	-0.61183155
230	0xbec0eea2	-0.37682062
231	0x3fc134ca	1.5094235
232	0x3f2e8c5c	0.6818292
233	0x3d7d73c4	0.06187798
234	0x3ec716b8	0.3888452
235	0xbf20b73e	-0.62779605
236	0x3f2b8a9f	0.67008394
237	0x40155a65	2.3336422
238	0xbeb27015	-0.34851137
239	0x3eaa51f3	0.33265647
240	0x3fbaeee3	1.4604152
241	0xbd89b430	-0.06723821
242	0xbed4fb0a	-0.41597778
243	0x3f74a8a9	0.95569855
244	0xbf0d98eb	-0.5531146
245	0xbeeab0f2	-0.45838124
246	0xbe8dfad0	-0.27730417
247	0x3f4f1f4a	0.8090712
248	0xbeff79ec	-0.49897707
249	0xbf288715	-0.6583112
250	0xbf8ec8a5	-1.1154982
251	0x3f81274d	1.0090119
252	0xbf0c3e68	-0.54782724
253	0xbf184082	-0.5947343
254	0x3e766730	0.240628
255	0xbf6a1e0c	-0.914521

fc3.bias f4 [4]
0	0x3e30f3e7	0.17280541
1	0xbd20ac2b	-0.039226692
2	0xbd5d9227	-0.05409446
3	0xbdd3e33e	-0.103460774
