NeurPiRL/LunarLander/DQN/checkpoints/300.pth (torch, 22315 bytes, 6 tensors)

fc1.weight f4 [64, 8]
0	0x3e3fccff	0.18730544
1	0xbf075c05	-0.52874786
2	0x3f1eedfa	0.62081873
3	0xbefad10e	-0.4898762
4	0xbf1fbc3c	-0.623966
5	0xbeefcb31	-0.4683471
6	0xbe96635e	-0.29372686
7	0x3f48a5b6	0.78377855
8	0xbe3f930d	-0.18708439
9	0xbee8d94c	-0.45478284
10	0xbecab35b	-0.39589962
11	0xbf4ece36	-0.807834
12	0x3f908f36	1.1293705
13	0x3e987210	0.29774523
14	0x3ec2eea6	0.380727
15	0x3efdadf1	0.4954677
16	0xbe666193	-0.22498159
17	0xbed14595	-0.408734
18	0xbeba923c	-0.36439693
19	0xbf500736	-0.81261003
20	0x3f515b42	0.81779873
21	0x3f0470fb	0.51734895
22	0xbd226c53	-0.039654087
23	0x3f165e11	0.58737284
24	0x3dbd23fa	0.092353776
25	0xbee3f607	-0.4452364
26	0xbed65df8	-0.41868567
27	0xbf3121dd	-0.69192296
28	0x3d480c29	0.04883972
29	0xbd3e435c	-0.046450958
30	0x3dd4f8d1	0.103990205
31	0x3f141450	0.57843494
32	0x3d901a2c	0.07036242
33	0x3ea85c55	0.32882944
34	0x3e1f1308	0.15534604
35	0xbedee8f4	-0.43537104
36	0xbeb4b74a	-0.35296088
37	0xbf8758d4	-1.0573983
38	0x3f0cac5b	0.54950494
39	0xbeba9e6d	-0.36448994
40	0x3c8de707	0.017322076
41	0x3d0a2f3b	0.03373645
42	0xbe42af72	-0.1901224
43	0x3f9a58ee	1.2058389
44	0xbf05ed8c	-0.5231559
45	0x3ea4a6b8	0.32158446
46	0x3e82d537	0.25553295
47	0x3f8ed9d4	1.1160226
48	0xbf03be64	-0.5146239
49	0x3f544bd4	0.82928205
50	0x3f3cf052	0.738042
51	0xbe7a61ed	-0.24451418
52	0x3e8fed13	0.2811056
53	0xbe656787	-0.22402774
54	0xba17059e	-0.000576103
55	0x3e33ba6d	0.17551585
56	0xbe2ba4dd	-0.16762109
57	0xbdef6a0a	-0.11690147
58	0xbe11b743	-0.14230065
59	0xbeb23a0d	-0.34809914
60	0x3f8523a9	1.0401508
61	0x3eda5e36	0.42650002
62	0x3f1aa2ec	0.6040485
63	0xbf5d4b39	-0.86442906
64	0xbf31cced	-0.69453317
65	0x3f31e680	0.6949234
66	0xbdf6faa1	-0.120595224
67	0x3e88e41d	0.26736537
68	0xbe111283	-0.14167218
69	0xbf5a361a	-0.852388
70	0x3c3758b0	0.011190578
71	0x3cf1237e	0.02943587
72	0xbe073b3c	-0.1320619
73	0xbe9c016d	-0.30469838
74	0xbeb94dca	-0.3619216
75	0xbf2f1eec	-0.6840656
76	0x3f529fc7	0.8227505
77	0x3f2c122b	0.6721522
78	0xbe5445f9	-0.20729817
79	0x3f3fe1a8	0.749537
80	0x3e263df0	0.16234565
81	0xbf4da7d0	-0.80334187
82	0xbe98d0ba	-0.29846746
83	0x3e7dd7f5	0.24789412
84	0xbf0a29d2	-0.5397006
85	0xbefece81	-0.49766925
86	0x3effa75e	0.4993238
87	0x3e3dcd0e	0.18535253
88	0xbe08b5a5	-0.13350542
89	0xbdc1ca68	-0.09462434
90	0xbef9dc65	-0.4880096
91	0x3c988ad4	0.018620886
92	0x3f4a5c88	0.7904744
93	0x3ec1c00b	0.3784183
94	0x3e85e1f5	0.26148954
95	0xbf77b709	-0.96763664
96	0xbf70fb72	-0.94133675
97	0xbd9f8e9a	-0.07790871
98	0x3ecf5dde	0.40501302
99	0x3ecb48b9	0.3970392
100	0xbfbb8f29	-1.4653064
101	0x3f535c39	0.82562596
102	0x3d8b7119	0.06808681
103	0xbe5d490a	-0.21609893
104	0xbf1c841f	-0.611391
105	0xbf3bc85c	-0.733526
106	0xbf1ecf6a	-0.6203524
107	0xbefa875f	-0.48931405
108	0xbe804450	-0.25052118
109	0xbf262f37	-0.64915794
110	0xbe6ea442	-0.23304847
111	0x3f53cbb2	0.8273269
112	0x3eef0f8b	0.46691546
113	0xbda6d66a	-0.08146365
114	0x3c30d0dd	0.010791984
115	0xbfa31d00	-1.2743225
116	0x3ebad33d	0.36489287
117	0x3da180aa	0.07885869
118	0xbe1686a9	-0.14699806
119	0x3dff4bb9	0.12465615
120	0xbe56011e	-0.20898864
121	0x3f4735f6	0.7781671
122	0xbf026798	-0.5093932
123	0x3dd6a78b	0.10481175
124	0x3ddd73c0	0.10813093
125	0x3ea96f81	0.33092883
126	0x3f5cbefe	0.8622893
127	0xbf1ffe97	-0.6249785
128	0xbd831264	-0.06399992
129	0x3d9256d2	0.07145466
130	0xbf30ee74	-0.6911385
131	0xbf5a2605	-0.85214263
132	0xbee1959f	-0.44059464
133	0x3eecd2ac	0.4625448
134	0xbfa0029d	-1.2500798
135	0xbe164a28	-0.14676726
136	0x3da95299	0.082677074
137	0x3ef9943b	0.48745903
138	0x3ebbebaa	0.36703235
139	0x3ee898af	0.45428988
140	0xbf7bd114	-0.983659
141	0xbf5a9ee0	-0.85398674
142	0xbe7c01a9	-0.24610008
143	0x3f913f0b	1.1347364
144	0xbe45a687	-0.19301806
145	0xbf4a241e	-0.7896136
146	0xbeee6a0b	-0.4656528
147	0xbef6a7f7	-0.48175022
148	0xbf1185eb	-0.5684497
149	0xbf1661de	-0.58743083
150	0x3ecb7a87	0.39741918
151	0x3ee83942	0.45356184
152	0x3f77d002	0.9680177
153	0xbf9714b5	-1.1803194
154	0x3e950116	0.2910239
155	0xbf4cf62d	-0.80063134
156	0xbe7fc9f0	-0.24979377
157	0xbdea0c03	-0.11428072
158	0x3ef8152d	0.48453656
159	0x3ed598e4	0.4171821
160	0x3d82da70	0.0638932
161	0x3e0b832c	0.13624257
162	0xbeee05d2	-0.46488816
163	0x3f01cd8a	0.5070425
164	0x3ed305d4	0.41215384
165	0x3f8f2523	1.1183208
166	0x3f28881e	0.658327
167	0xbead5b76	-0.33858842
168	0x3eada9e8	0.3391869
169	0xbdb969b0	-0.090533614
170	0x3d28c7d2	0.04120619
171	0xbf531e22	-0.82467854
172	0x3e8d8561	0.27640823
173	0x3f0856a7	0.5325722
174	0x3da7fd3c	0.082025975
175	0x3ee61180	0.44935226
176	0x3d101098	0.035172075
177	0xbf538f81	-0.82640845
178	0x3f2b99b6	0.6703142
179	0xbe572e93	-0.2101386
180	0xbf9ae1c0	-1.2100143
181	0xbefbdc9a	-0.49191743
182	0x3ea091e6	0.31361312
183	0x3e4eee24	0.20208031
184	0xbed0a08b	-0.40747485
185	0xbdbb9196	-0.09158628
186	0xbe3b4c85	-0.18290909
187	0x3e650970	0.22366881
188	0xbff1fda9	-1.8905536
189	0xbf80b5de	-1.0055501
190	0xbea26f1e	-0.317254
191	0xbd882479	-0.066475816
192	0xbe5e2fbe	-0.216979
193	0x3ed844f4	0.42240107
194	0x3e586083	0.21130566
195	0xbe20a1a3	-0.1568666
196	0x3f111a94	0.5668118
197	0xbf0d28a1	-0.5514012
198	0x3d81bf29	0.06335289
199	0x3eff2f68	0.49840856
200	0x3e6a0683	0.22854047
201	0xbf4815da	-0.7815834
202	0x3ecfee6d	0.40611592
203	0xbf53870a	-0.8262793
204	0xbf8e42a7	-1.1114091
205	0xbf52be5a	-0.82321703
206	0x3d8a1dc3	0.06743958
207	0xbebe2825	-0.37140003
208	0xbda8081a	-0.0820467
209	0x3d9ecee6	0.077543065
210	0x3f2e3655	0.68051654
211	0xbe88f4b9	-0.2674921
212	0x3e830eec	0.25597322
213	0xbe67b465	-0.22627409
214	0xbf5edc81	-0.8705521
215	0xbe75da57	-0.24009071
216	0xbec6218e	-0.38697475
217	0xbe878510	-0.26468706
218	0xbf3279dd	-0.697172
219	0xbf1d9543	-0.6155588
220	0xbee46fb7	-0.44616482
221	0x3d434975	0.047677476
222	0x3e22429c	0.15845722
223	0x3eca1fb5	0.39477316
224	0xbeb05611	-0.34440663
225	0xc0442fa5	-3.065408
226	0x3ec0635b	0.37575802
227	0xbeb79d18	-0.3586204
228	0xbed93600	-0.4242401
229	0x3f4312f6	0.7620081
230	0x3d707257	0.058702793
231	0xbeecd06b	-0.4625276
232	0x3db523e8	0.08844739
233	0x3d5f9bfb	0.054592114
234	0xbeed1977	-0.4630849
235	0xbf22f7d5	-0.6365941
236	0xbe087595	-0.13326104
237	0x3ea44332	0.32082516
238	0x3f4baec2	0.79563534
239	0x3eb7f562	0.359294
240	0x3ed3301f	0.4124765
241	0x3e07e2bf	0.1327009
242	0x3f017e5d	0.5058344
243	0xbee9662e	-0.4558577
244	0xbf15de65	-0.5854247
245	0xbf557af7	-0.83390754
246	0x3f1f46d6	0.6221746
247	0x3e48da6f	0.19614576
248	0x3efbc02f	0.49170062
249	0xbf0e19f4	-0.5550835
250	0xbf8c736b	-1.0972723
251	0x3f0d7a84	0.5526507
252	0xbf064aa3	-0.52457637
253	0x3effec40	0.49984932
254	0x3ec5aee9	0.38610008
255	0xbf98a74f	-1.1926059

fc1.bias f4 [64]
0	0xbecdf75d	-0.40227786
1	0xbe58bda4	-0.21166092
2	0xbe2c5bef	-0.16831945
3	0x3eef34bc	0.4671992
4	0x3d4234bb	0.04741357
5	0x3c8dde5c	0.017317943
6	0xbdf95084	-0.1217356
7	0xbe3a2bbf	-0.1818075
8	0x3eb7d723	0.35906324
9	0xbe32a7a3	-0.17446761
10	0x3f13ec6c	0.57782626
11	0x3eb40d07	0.3516619
12	0x3e6208d5	0.22073682
13	0xbe554592	-0.2082732
14	0xbec2d36e	-0.38051933
15	0x3f1cd8c8	0.6126828
16	0xbe637d1f	-0.22215699
17	0x3d7e5d52	0.062100716
18	0x3ed8b946	0.42328852
19	0x3e02334d	0.12714882
20	0x3e7b6b32	0.2455261
21	0x3ee705fa	0.45121747
22	0x3f188936	0.5958437
23	0x3e7edb15	0.2488826
24	0x3f017d95	0.5058225
25	0x3cf42b10	0.02980569
26	0x3f4beb3d	0.7965582
27	0x3e39915f	0.18121861
28	0x3f04e4c1	0.5191155
29	0x3e7bec05	0.24601753
30	0x3e52d0b7	0.20587431
31	0x3f4680e9	0.7754045
32	0xbbe2b219	-0.0069182036
33	0x3e3399e8	0.1753918
34	0x3f11fcf1	0.5702658
35	0xbdc61933	-0.09672775
36	0x3f4826ad	0.78184015
37	0x3e0ec303	0.13941579
38	0xbe8d1162	-0.27552325
39	0x3ea1c1aa	0.31593066
40	0x3ebcbd15	0.36863008
41	0x3d974b78	0.073874414
42	0xbe863583	-0.262127
43	0xbe945c5e	-0.2897672
44	0x3f5076b5	0.8143113
45	0xbe36663d	-0.17812438
46	0xbe4a0e08	-0.19731915
47	0x3ef5c17f	0.47999188
48	0x3f2bb719	0.6707626
49	0x3e569d62	0.20958474
50	0x3d49668e	0.04917007
51	0xbee359bd	-0.44404402
52	0x3ddc5881	0.10759068
53	0x3f1a8bf4	0.603698
54	0x3f216967	0.63051456
55	0x3ea0bf80	0.31396103
56	0xbd039a0d	-0.032129336
57	0xbd9f455b	-0.077769004
58	0xbe53f50d	-0.20698948
59	0x3ecd12e8	0.40053487
60	0x3d5e4673	0.054266404
61	0xbd439971	-0.047753755
62	0x3f667061	0.90015227
63	0x3ecb6005	0.39721695

fc2.weight f4 [64, 64]
0	0x3f233583	0.6375353
1	0xbf96cca2	-1.1781199
2	0xbe1d4ef7	-0.15362154
3	0xbea8f548	-0.32999635
4	0x3e930db0	0.2872138
5	0xbfe4932c	-1.7857413
6	0x3c40e9e6	0.011774516
7	0xbf63bc9b	-0.88959664
8	0x3d017559	0.031606052
9	0x3d8af5de	0.06785177
10	0x3e054eb7	0.13018309
11	0xbe263c92	-0.16234043
12	0xbec7f3e0	-0.3905325
13	0x3e6b1434	0.22956926
14	0x3f1ebdde	0.62008464
15	0xc03ec647	-2.980852
16	0x3f5cbba9	0.86223847
17	0x3eb3d2ad	0.3512167
18	0xbd0d5c6c	-0.03451197
19	0x3f06f1b4	0.5271256
20	0xbeda52f6	-0.4264142
21	0xbdf01b94	-0.1172401
22	0x3eab956c	0.33512437
23	0x3efd41d9	0.494643
24	0xbf1a1cfd	-0.6020048
25	0x3ec3a67c	0.38212955
26	0xbf083190	-0.53200626
27	0x3c1f4602	0.009721281
28	0x3f176d1e	0.59150875
29	0x3e883f23	0.2661067
30	0x3ebbfeb2	0.36717755
31	0xbfc59211	-1.5435201
32	0x3e8cd387	0.27505133
33	0xbe46db8d	-0.1941969
34	0xbe345ce2	-0.17613557
35	0x4017d67d	2.3724663
36	0xbef2c474	-0.47415507
37	0x3e58740f	0.21138023
38	0x3f961d4c	1.1727691
39	0x3e2ee5ee	0.17079899
40	0x3d11b903	0.03557683
41	0x3e08b535	0.13350375
42	0x3eb245bd	0.3481883
43	0xbf8e5970	-1.1121044
44	0x3efa8873	0.48932227
45	0xbe12d610	-0.14339471
46	0x3f45931c	0.77177596
47	0xbcb21947	-0.021740569
48	0x3dc0e02e	0.09417759
49	0x3ece86aa	0.40337116
50	0xbef92e67	-0.48668215
51	0xbeb3178f	-0.3497891
52	0xbda3f368	-0.080054104
53	0x3d9e210f	0.07721149
54	0x3dd6378d	0.10459814
55	0x3d3e756d	0.046498705
56	0x3f3ee4e3	0.74568003
57	0xbe471766	-0.1944252
58	0x3dfe1c8b	0.12407788
59	0xbdd05b51	-0.10173667
60	0x3f18c1d5	0.59670764
61	0x3f054d4a	0.5207106
62	0xbf3aa319	-0.7290512
63	0xbf1bb3ca	-0.6082121
64	0x3e5729bf	0.21012019
65	0xbe1ddb67	-0.15415727
66	0xbe8aa335	-0.27077642
67	0x3dce459b	0.1007187
68	0x3e530e9e	0.20611045
69	0xbf077275	-0.5290902
70	0x3f612920	0.87953377
71	0xbe950236	-0.2910325
72	0x3ed2090b	0.41022524
73	0xbeffd4f7	-0.49967167
74	0x3da9281a	0.08259602
75	0xbe65cdda	-0.22441807
76	0xbe08c3ae	-0.13355896
77	0x3e3437b4	0.17599374
78	0x3e238e52	0.1597226
79	0xbe376194	-0.17908317
80	0xbf8dab26	-1.1067855
81	0x3f0762d4	0.52885175
82	0x3deff968	0.11717492
83	0x3ee34e36	0.44395608
84	0x3d82b403	0.06381991
85	0x3e95f256	0.2928645
86	0x3f0c0ec7	0.5471005
87	0x3dacbb0e	0.08434115
88	0x3f22731c	0.6345689
89	0x3ea2ae52	0.3177362
90	0x3f413e20	0.7548542
91	0x3e2357f6	0.15951523
92	0xbed90a07	-0.42390463
93	0xbe37db61	-0.1795478
94	0x3e366a4b	0.17813985
95	0xbe6af594	-0.22945243
96	0xbf00c45e	-0.5029963
97	0xbeec63f0	-0.46169996
98	0x3ee7a1d8	0.45240664
99	0xbf0c9851	-0.54919916
100	0x3f1c8617	0.61142105
101	0xbeda14aa	-0.4259389
102	0x3f189b43	0.5961191
103	0xbde4065a	-0.11134024
104	0xbfd11c9b	-1.6336855
105	0xbe4d6e6e	-0.20061657
106	0xbe4f0640	-0.20217228
107	0xbe68f950	-0.22751355
108	0x3e651e3c	0.22374815
109	0xbf71cc57	-0.9445242
110	0x3d66688d	0.05625205
111	0x3ca2985e	0.019848045
112	0x3e72dda0	0.23717356
113	0x3dbb401d	0.09143088
114	0x3d7bb903	0.061455738
115	0x3cd1192a	0.025524694
116	0xbecc944f	-0.399569
117	0xbe97ea89	-0.29671124
118	0x3e8de648	0.27714753
119	0xbea0527d	-0.31312934
120	0xbe16fa10	-0.14743829
121	0x3e30dbc7	0.17271338
122	0x3dcd1508	0.10013777
123	0xbccf5d77	-0.025313122
124	0xbdfe5a15	-0.124195255
125	0x3d79c4fd	0.06097888
126	0x3e3b266f	0.1827638
127	0x3f87ee0b	1.061952
128	0xbfb89035	-1.4419008
129	0x3f0ae570	0.54256344
130	0x3ec0f73b	0.37688622
131	0x3e41422f	0.18872903
132	0xbe5ea4c2	-0.21742538
133	0xbf2e0b1d	-0.6798571
134	0xbf1fd73c	-0.62437797
135	0x3f0e949c	0.5569551
136	0xbf960d4e	-1.172281
137	0x3eeb6fee	0.45983833
138	0xbf703001	-0.9382325
139	0xbd934637	-0.07191127
140	0xbd3a85aa	-0.04553763
141	0x3e5ad748	0.21371186
142	0x3e874b33	0.2642456
143	0xbefb09be	-0.4903087
144	0xbd91fc59	-0.071282096
145	0xc04013db	-3.001212
146	0x3ec4941b	0.38394246
147	0xbd9c20b7	-0.07623427
148	0xbd914ed7	-0.07095116
149	0x3edb4fb4	0.42834246
150	0xbf3bdae4	-0.73380876
151	0xc0268475	-2.6018345
152	0x3c8ba5cd	0.017046833
153	0xc01c0948	-2.4380665
154	0x3e33ca99	0.17557754
155	0x3d47ca47	0.04877689
156	0x3f3d92f6	0.7405237
157	0x3e0ff27e	0.14057347
158	0xbfc2a225	-1.5205733
159	0x3e4dfbfb	0.20115654
160	0xbf426c20	-0.75946236
161	0xbdced404	-0.100990325
162	0xbe329250	-0.17438626
163	0xbe26ada7	-0.1627718
164	0x3d9783cf	0.07398187
165	0x3efa4b70	0.4888568
166	0xbfbc8b27	-1.4729966
167	0x3aed7d62	0.0018119032
168	0xbe825d16	-0.25461644
169	0xbe0ec028	-0.1394049
170	0x3ee8071b	0.4531792
171	0x3ec6229e	0.38698286
172	0xbfef1f86	-1.8681495
173	0xbf5daa24	-0.8658774
174	0x3e870a72	0.26375157
175	0x3f150419	0.5820938
176	0xbefbcaa4	-0.4917804
177	0xbfddeb9b	-1.7337526
178	0x3e9edcc9	0.3102782
179	0x3ee6e133	0.45093688
180	0x3e80565c	0.25065887
181	0xbe221ef4	-0.1583212
182	0x3f2518e1	0.6449109
183	0x3f4659f2	0.77480996
184	0x3dac34de	0.08408521
185	0x3ee8d753	0.4547678
186	0x3e94cd4b	0.29062876
187	0xbf990f09	-1.1957713
188	0xc05775ab	-3.366557
189	0x3dee5ac9	0.1163841
190	0x3e344bc2	0.17607024
191	0xbfd45016	-1.658694
192	0xbd9f2850	-0.07771361
193	0x3db44a60	0.088032484
194	0x3e5dfb99	0.21678008
195	0x3ec27c49	0.37985447
196	0x3e254847	0.16140853
197	0xbf4b00d8	-0.7929816
198	0x3e89fd5d	0.26951113
199	0xbe70f200	-0.23529816
200	0xbdda990b	-0.10673722
201	0xbdb23bfa	-0.08702846
202	0xbcd01e6d	-0.025405133
203	0xbe1a509c	-0.15069813
204	0x3d6feced	0.05857556
205	0x3e7d5e09	0.24742903
206	0x3d7583f8	0.05994031
207	0x3e9cf911	0.30658773
208	0xbd839974	-0.06425753
209	0xbe3a9083	-0.1821919
210	0x3e9487df	0.2900991
211	0x3e5fbb9a	0.21848908
212	0x3f28b2c4	0.65897775
213	0x3cec5fbc	0.028854243
214	0x3ed26cc9	0.4109862
215	0xbd484a9c	-0.048899278
216	0xbd86c0c2	-0.065797344
217	0xbe46f7fc	-0.19430536
218	0x3e10ba9e	0.14133689
219	0x3edceeaa	0.43150836
220	0xbe227c5c	-0.15867752
221	0x3f1e84de	0.6192149
222	0xbe657bc9	-0.22410502
223	0xbe444f9a	-0.1917099
224	0x3e60024a	0.21875873
225	0xbf803968	-1.0017519
226	0x3d911d42	0.070856586
227	0xbe9d5236	-0.30726784
228	0x3c0f8f47	0.008762187
229	0xbe21823e	-0.1577234
230	0x3e9c92dc	0.30580795
231	0x3e26fadd	0.16306634
232	0xbecfb1a8	-0.40565228
233	0x3f2108e1	0.62904173
234	0x3e819275	0.2530705
235	0xbcfa7282	-0.03057218
236	0xbd1f23a1	-0.038852338
237	0x3e676942	0.22598746
238	0xbd9f83df	-0.07788824
239	0x3e4cb548	0.19991028
240	0x3ec77d11	0.38962606
241	0xbd1ef6da	-0.038809635
242	0xbecdfa2b	-0.40229926
243	0x3e0db12e	0.1383712
244	0xbf123d3a	-0.57124674
245	0x3e75e718	0.24013937
246	0x3ea66898	0.32501674
247	0x3e47b35b	0.19502012
248	0xbf09c304	-0.53813195
249	0xbf14d515	-0.5813764
250	0x3e0a9a02	0.13535312
251	0x3ea64464	0.32474053
252	0xbf1b044e	-0.60553443
253	0x3eda6589	0.4265559
254	0xb7142548	-8.830168e-06
255	0xbec438c0	-0.38324547

fc2.bias f4 [64]
0	0xbee938ab	-0.45551047
1	0x3f3925a7	0.7232308
2	0xbdbee15c	-0.09320328
3	0x3c99e277	0.018784745
4	0x3eb787a2	0.35845667
5	0xbd1dbd67	-0.038510706
6	0x3eb03517	0.34415504
7	0x3e9d96d3	0.30779132
8	0x3e01c638	0.1267327
9	0x3e8a7e6e	0.27049583
10	0xbe4f10a3	-0.2022119
11	0x3ec7c97d	0.3902091
12	0x3e219ed0	0.15783238
13	0xbecb3ce0	-0.3969488
14	0x3f215974	0.6302712
15	0xbee0ae03	-0.4388276
16	0x3e94c755	0.29058328
17	0x3eb4cb21	0.35311225
18	0x3d8c0228	0.06836349
19	0xbe19cee3	-0.15020327
20	0xbd2e0dbb	-0.042493563
21	0x3dad1bfc	0.08452603
22	0x3e991c39	0.29904345
23	0x3eaa94ce	0.33316654
24	0xbf0b757b	-0.54476136
25	0x3f574fbe	0.8410605
26	0x3f1f1bf2	0.62152016
27	0xb99cb494	-0.0002988918
28	0xbe82f644	-0.2557851
29	0x3eb913d6	0.36147946
30	0x3d053928	0.03252521
31	0x3e667b82	0.22508052
32	0x3de10059	0.109863944
33	0x3e1d21a7	0.15344869
34	0x3d8aca11	0.06776822
35	0x3d8df121	0.06930757
36	0x3d92a36e	0.07160078
37	0x3d208ab3	0.039194774
38	0x3deaf32a	0.11472161
39	0x3ded7543	0.115946315
40	0x3ddca116	0.10772912
41	0x3d0fc787	0.035102393
42	0x3e8e9edd	0.27855578
43	0xbf02d067	-0.51099247
44	0x3ddabe80	0.10680866
45	0x3db7385c	0.089462966
46	0x3dc5b28f	0.09653198
47	0xbdde0534	-0.10840836
48	0xbe8d5c64	-0.2760955
49	0x3f0d1df7	0.5512385
50	0x3f11883c	0.568485
51	0x3f12ffcf	0.5742158
52	0xbec706c0	-0.38872337
53	0x3ed68df7	0.41905186
54	0x3ed62bb1	0.4183021
55	0xbeae276b	-0.3401445
56	0xbea04b6f	-0.3130755
57	0x3eb1c3bc	0.34719646
58	0xbda1f307	-0.07907682
59	0x3e6ce026	0.23132381
60	0x3e6711cc	0.22565383
61	0x3d005a01	0.031335834
62	0x3e15d3c1	0.14631559
63	0x3e92aaf7	0.2864606

fc3.weight f4 [4, 64]
0	0xbcc2128c	-0.023690484
1	0xbed66503	-0.4187394
2	0x3fc8229a	1.563556
3	0xbe714821	-0.23562671
4	0xbf26dbcf	-0.6517915
5	0xbee4988e	-0.4464764
6	0xbf03b0ac	-0.51441455
7	0x3f99b187	1.2007302
8	0xbf0eb18c	-0.55739665
9	0x40001870	2.0014915
10	0x3ebcb8b8	0.3685968
11	0x3f8eb902	1.115021
12	0xbf0601e6	-0.52346647
13	0xbf4a568f	-0.7903833
14	0x3fa4f747	1.2887963
15	0xbf2f89f2	-0.6856986
16	0xbf04c1d5	-0.51858264
17	0x3f0113cf	0.5042085
18	0xbed9796b	-0.42475447
19	0xbeb3dbb1	-0.3512855
20	0x3f7e5e28	0.9936242
21	0xbe9bf4c9	-0.30460194
22	0x3f3c4832	0.7354766
23	0xbf4864aa	-0.782786
24	0xbf292b5d	-0.6608179
25	0xbfcd468e	-1.6037157
26	0xbf69c4f3	-0.91316146
27	0xbef7d289	-0.48402813
28	0xbf90fafc	-1.1326594
29	0x3f6d8a40	0.9278908
30	0xbf1a6bb1	-0.60320574
31	0xbf17730a	-0.5915991
32	0xbf2bd2d1	-0.67118555
33	0x3fc302c6	1.5235221
34	0x3fd035fa	1.6266472
35	0xbf4ce43c	-0.8003576
36	0xbf043d7a	-0.51656306
37	0xbf0ccc7b	-0.5499951
38	0xbeb56a86	-0.35432833
39	0xbf16e434	-0.5894196
40	0xbf119ca8	-0.56879663
41	0xbf1cd976	-0.6126932
42	0x3f5c0b20	0.85954475
43	0x3df98964	0.12184408
44	0xbef5c4c7	-0.48001692
45	0xbf0fba21	-0.56143385
46	0xbee96b41	-0.4558964
47	0xbdab58e8	-0.08366567
48	0xbed858c5	-0.42255226
49	0x400b6ad9	2.1783965
50	0xbf158c44	-0.58417153
51	0x400de0a0	2.216835
52	0x3eae20ba	0.34009343
53	0x401575d9	2.3353179
54	0xbf0b4f6c	-0.54418063
55	0xbf5d7504	-0.86506677
56	0xbfde549d	-1.7369572
57	0x40007501	2.0071414
58	0xbe27dc03	-0.16392522
59	0x3fc0b731	1.5055906
60	0x3fcf9d78	1.6219931
61	0xbed8f0b0	-0.4237113
62	0x3f26abf6	0.6510614
63	0x3fbc9c2b	1.4735159
64	0xbf9aa10c	-1.2080398
65	0x3dac2914	0.084062725
66	0xbf910745	-1.1330343
67	0xbe962f3c	-0.29332912
68	0xbf9e0abf	-1.234703
69	0xbf0562a1	-0.5210362
70	0xbf08ed5b	-0.53487176
71	0x3f8cf954	1.1013589
72	0xbf484c2c	-0.7824123
73	0x3fa23b9a	1.2674439
74	0x3ea80c55	0.3282191
75	0x3f90e7c8	1.1320734
76	0xbeec3cc7	-0.4614012
77	0xbf1b780f	-0.6073007
78	0x3f02d3fb	0.51104707
79	0xbed43f59	-0.4145458
80	0xbee4b54a	-0.44669563
81	0xbcd213b7	-0.025644166
82	0xbeee0615	-0.46489015
83	0xbf9087af	-1.1291407
84	0x3f91cd4d	1.1390778
85	0xbe8adc3b	-0.27121148
86	0x3f9ec61d	1.2404209
87	0xbe889210	-0.26673937
88	0xbf11f9c8	-0.5702176
89	0xbfcb7952	-1.5896399
90	0xbf9df360	-1.2339897
91	0xbf0e7689	-0.5564962
92	0xbef23b97	-0.47311088
93	0x3f847249	1.0347377
94	0xbf02a41b	-0.51031655
95	0xbf370c70	-0.71503353
96	0xbef86582	-0.48514944
97	0x3ff2f1ef	1.8980082
98	0x3fbdbad4	1.482264
99	0xbefe0811	-0.4961553
100	0xbf33e156	-0.7026571
101	0xbe9adc69	-0.30246285
102	0xbf02d923	-0.51112574
103	0xbed46d16	-0.41489476
104	0xbf15e481	-0.58551794
105	0xbed7706e	-0.42077965
106	0x3f9d83a0	1.2305794
107	0xbe1c1b62	-0.1524482
108	0xbf37a43d	-0.7173498
109	0xbed6e074	-0.4196812
110	0xbf0e0e90	-0.5549097
111	0xbbace480	-0.0052762628
112	0xbf298268	-0.6621461
113	0x40114afe	2.2702022
114	0xbf5c8359	-0.8613792
115	0x3ffc030c	1.968843
116	0x3f06bde2	0.5263349
117	0x402b48e5	2.6763241
118	0xbf25d026	-0.64770734
119	0xbf9587bf	-1.1682051
120	0xbf7f9ab8	-0.9984546
121	0x400a1e63	2.1581047
122	0xbc98023f	-0.018555759
123	0x3f8853dc	1.0650592
124	0x3fcadf1e	1.584934
125	0xbe5a9559	-0.21346034
126	0xbe80508b	-0.2506145
127	0x3f8d9dde	1.1063802
128	0xbf4cf470	-0.8006048
129	0x3d42e50f	0.04758173
130	0x3ebb7ba3	0.36617765
131	0x3e384c8d	0.17997952
132	0xbe9cd69b	-0.3063248
133	0xbf72fb94	-0.9491513
134	0xbf3bf092	-0.73413956
135	0x3fad067d	1.3517605
136	0xbf24a2d4	-0.64310956
137	0x3ff3a78e	1.9035509
138	0x3f9b126b	1.2114996
139	0x3f945fa5	1.1591688
140	0x3d996166	0.074892804
141	0xbf9cce1c	-1.22504
142	0x3fb2fd57	1.3983563
143	0xbf500ae8	-0.8126664
144	0xbe8555d7	-0.26042053
145	0x3fa4ae03	1.2865604
146	0xbf13beb4	-0.57712865
147	0xbf10bf84	-0.5654223
148	0x3f77807c	0.96680427
149	0x3e58ca97	0.21171032
150	0x3f6f32aa	0.9343668
151	0xbd007661	-0.031362895
152	0xbf7322e1	-0.94975096
153	0xbfd516cb	-1.6647581
154	0xbf914b8d	-1.1351181
155	0xbf1130f2	-0.5671531
156	0x3ea0c14b	0.3139747
157	0x3f802426	1.0011032
158	0xbee4f475	-0.44717756
159	0xbedab5ce	-0.4271683
160	0xbed34363	-0.4126235
161	0x3fd2080e	1.6408708
162	0x3f80b42d	1.0054985
163	0xbf89265e	-1.0714834
164	0xbf1576b9	-0.5838428
165	0xbf2c5ef2	-0.67332375
166	0xbf2a0a7b	-0.6642224
167	0xbf280482	-0.6563188
168	0xbf386c74	-0.72040486
169	0xbf11ea7f	-0.5699844
170	0x3ec17cf4	0.37790644
171	0xbf946cdf	-1.1595725
172	0xbf301e4a	-0.6879622
173	0xbeda4198	-0.4262817
174	0xbecad7f0	-0.39617872
175	0xbcef47f0	-0.029209107
176	0xbf725970	-0.9466772
177	0x40064a78	2.0982952
178	0x3ea13a30	0.31489706
179	0x3fcec801	1.6154786
180	0x3f9fd7a8	1.2487688
181	0x40310f5c	2.7665625
182	0xbeced633	-0.40397796
183	0xbee32b3e	-0.4436893
184	0x3f192c21	0.5983296
185	0x4020e4d1	2.5139658
186	0xbf3134e6	-0.6922134
187	0x3e761473	0.24031238
188	0x3fb5f290	1.4214649
189	0xbf1b1cfb	-0.60591096
190	0x3fdb9e79	1.7157737
191	0x3f86d166	1.0532653
192	0x3d8bba70	0.068226695
193	0xbf382649	-0.7193342
194	0x3f9ef741	1.2419206
195	0xbf12377e	-0.57115924
196	0xbebdf5c8	-0.3710158
197	0xbf2713be	-0.652645
198	0xbf2774cd	-0.654126
199	0x3fdfc2a1	1.7481271
200	0xbed76bc8	-0.42074418
201	0x3ff67826	1.9255416
202	0x3f318484	0.6934283
203	0x3fcd09ae	1.6018579
204	0x3d237552	0.039906807
205	0xbf044489	-0.51667076
206	0x3f9aebc9	1.2103206
207	0xbf45b901	-0.7723542
208	0xbeed08e1	-0.46295837
209	0x3ee8d1d0	0.45472574
210	0xbf259e49	-0.6469465
211	0xbe9b9b07	-0.30391714
212	0x3fa1e55c	1.264812
213	0xbef83175	-0.48475233
214	0x3eeb6f08	0.45983148
215	0xbf3a8f0a	-0.7287451
216	0xbec31d0d	-0.381081
217	0xbfd95c24	-1.6981244
218	0xbee0f5b1	-0.43937448
219	0xbeba1cef	-0.363502
220	0xbf16c11e	-0.58888423
221	0x3f6b3bfc	0.91888404
222	0xbf0b4f86	-0.5441822
223	0xbef27033	-0.47351226
224	0xbf07fae6	-0.53117216
225	0x4002c7fc	2.043456
226	0x3fc34b4b	1.5257353
227	0xbf120529	-0.57039124
228	0xbf13cd5d	-0.57735234
229	0xbf2ad967	-0.6673798
230	0xbf019e91	-0.5063258
231	0xbf260368	-0.6484895
232	0xbf05d290	-0.5227442
233	0xbf25af64	-0.6472075
234	0x3f071e49	0.52780586
235	0x3f103978	0.5633769
236	0xbea42b80	-0.32064438
237	0xbf2e9228	-0.68191767
238	0xbf2c2c01	-0.67254645
239	0xbdb398ba	-0.08769365
240	0xbf1b17e5	-0.60583335
241	0x3febd300	1.8423767
242	0xbe1faec1	-0.15594007
243	0x40191cfc	2.392394
244	0x3ed5091a	0.41608506
245	0x3fddc6d1	1.7326299
246	0xbeabbc84	-0.33542264
247	0xbedb0686	-0.42778414
248	0xbff0c836	-1.88111
249	0x3fe3c51a	1.7794526
250	0xbf403b77	-0.75090736
251	0x3fa5c5ee	1.2951028
252	0x3fcd140e	1.6021745
253	0xbf2761f2	-0.6538383
254	0xbbc7d460	-0.006098315
255	0x3f99c4db	1.20132

fc3.bias f4 [4]
0	0xbbbfcfdf	-0.0058536376
1	0xbdece98a	-0.115679815
2	0x3e590c95	0.21196206
3	0xbd9fb153	-0.07797494
