NeurPiRL/LunarLander/DQN/checkpoints/300_220.pth (torch, 22315 bytes, 6 tensors)

fc1.weight f4 [64, 8]
-0.059759907 -0.030526668 0.3771888 -1.8095901 -0.33614656 -0.108244225 0.017911252 0.043664396
-0.2059586 0.08204854 0.17573747 -0.0055126864 0.2131624 1.4236554 0.043464992 -0.0342088
0.23181981 -1.0833968 -0.5658689 0.21933661 0.8121097 0.603849 0.97592485 0.86375314
0.5940418 -1.191886 0.67191637 -0.4672674 -1.9478962 -0.47821143 0.6561741 0.5365322
-0.025859298 -0.7372425 0.31053618 -0.7552038 -0.4254676 -0.48285958 0.62414825 -1.7911696
0.8148468 0.024104912 0.75856376 -0.5163569 0.40025133 0.083468154 0.4546016 0.4833869
0.67288464 -0.16744561 0.8235886 0.78650683 -0.87343526 -0.7225082 1.1972027 0.29346862
1.1041946 -0.1375914 1.0050617 -0.25728923 0.38945574 0.20300786 0.13666424 0.2771062
-0.9715997 -0.39355528 0.057623602 -0.33333838 0.4931772 0.849224 0.2799864 0.6097703
-0.46507972 -1.4103788 -0.35474312 -0.49562472 0.99562013 0.16100936 0.52082163 -0.022390945
-0.14416006 -0.6328678 -0.19035333 -0.7003626 0.0054628127 1.7242681 -0.6174352 0.38001212
-0.018184919 -0.19044693 1.399293 -0.48401383 0.56324 0.10746404 -0.079346925 -1.2737203
0.6977558 -1.4513438 1.7481532 0.37347746 -1.2521619 -0.6503213 0.07564265 0.31022406
-0.73061705 0.7220535 -0.61044824 -0.63707703 0.056457885 -0.84095126 -0.0035579326 -0.09055138
1.0524952 1.427095 -0.21223013 -0.20555706 -0.51288843 0.9631375 -0.29548198 0.3954713
0.118033364 -0.77253824 -0.25680494 -0.34344608 1.3144282 0.20925207 0.61749554 0.19532818
-0.09153205 0.43171838 -0.73529655 -0.42391962 -0.6226483 -1.107188 0.07185558 -0.8264885
0.3578736 0.029402025 0.2242006 -0.5956274 -0.5629365 -0.6805726 0.40692854 0.38162175
-0.22159632 0.820778 -0.327527 0.20360766 0.18874486 0.28499097 0.34483036 -0.24749273
-0.64402807 0.12281052 -0.89548206 0.9401488 -0.02612635 0.5597597 0.34001538 0.39828002
-0.44523504 -0.61560726 0.09531298 -1.322614 -0.10203669 -0.26171684 0.7171745 -0.16193032
-0.17071253 -1.3600354 -0.7261873 -1.1163497 -0.70198524 1.0014453 -0.021116903 0.24841315
-0.37300518 -0.0052065006 -0.015948854 0.2518071 -0.37720415 -1.7048167 0.06311518 0.3591503
0.07123639 -0.26146245 -0.35695523 0.13710578 -0.8290891 -0.9262238 -0.39278045 0.43862846
-0.39166516 -1.2022004 -0.13619041 -1.1142877 0.6653296 0.03820807 0.32518423 -0.03208518
-0.24370694 0.543831 -0.5700532 0.15703279 0.71736616 0.4978119 -1.1491888 -0.14963372
-0.26418623 0.28201228 0.69314414 -0.21157855 0.4360016 0.80733055 0.6958637 -0.37470496
-0.28535163 0.99256396 0.111739755 -0.9067043 1.1287854 -0.5257362 1.030115 0.0083438
0.5110015 -0.9089055 0.09038063 -0.94827116 -0.1915362 0.5628193 0.0039177644 0.52197987
-0.21022688 0.88185346 -0.9700638 -0.2830506 -0.046222903 0.3811891 -0.889776 -0.30274132
0.011359104 -1.2603928 0.7928964 0.250566 0.46433592 -1.3862784 0.97279847 -0.46759766
-0.27631578 -0.37808007 -0.2627987 -0.7370995 1.5309751 -0.032132354 0.37581447 0.40075654
00000000: cec6 74bd 1013 fabc e41e c13e a6a0 e7bf
00000010: 671b acbe 26af ddbd 9eba 923c 70d9 323d
00000020: d0e6 52be 1109 a83d 86f4 333e c4a3 b4bb
00000030: 3f47 5a3e 573a b63f 5908 323d 871e 0cbd
00000040: 2c62 6d3e bfac 8abf c9dc 10bf c799 603e
00000050: 6ce6 4f3f d995 1a3f 36d6 793f ed1e 5d3f
00000060: 2013 183f b88f 98bf b602 2c3f ac3d efbe
00000070: aa54 f9bf 21d8 f4be 07fb 273f 2d5a 093f
00000080: e1d6 d3bc edbb 3cbf 99fe 9e3e 0955 41bf
00000090: e4d6 d9be 5f39 f7be 2ec8 1f3f 0c45 e5bf
000000a0: cd99 503f aa77 c53c 3c31 423f f72f 04bf
000000b0: beed cc3e 5af1 aa3d 8ac1 e83e 7d7e f73e
000000c0: 2b42 2c3f dd76 2bbe b4d6 523f 8358 493f
000000d0: 7499 5fbf 4cf6 38bf f03d 993f 8541 963e
000000e0: 4056 8d3f c3e4 0cbe dda5 803f 6abb 83be
000000f0: be66 c73e 4be1 4f3e b6f1 0b3e dde0 8d3e
00000100: c2ba 78bf 1480 c9be ba06 6c3d 54ab aabe
00000110: b981 fc3e be66 593f 615a 8f3e e819 1c3f
00000120: ee1e eebe 4b87 b4bf e4a0 b5be 86c2 fdbe
00000130: f6e0 7e3f a3df 243e 9154 053f 376d b7bc
00000140: b29e 13be a003 22bf fceb 42be f74a 33bf
00000150: 6501 b33b d1b4 dc3f 3c10 1ebf f390 c23e
00000160: 8af8 94bc 8504 43be 081c b33f a9d0 f7be
00000170: 7f30 103f 1b16 dc3d a480 a2bd 4409 a3bf
00000180: 20a0 323f a2c5 b9bf 7cc3 df3f 7038 bf3e
00000190: d746 a0bf 757b 26bf 89ea 9a3d b0d5 9e3e
000001a0: b809 3bbf 80d8 383f 5646 1cbf 7b17 23bf
000001b0: 6240 673d 9548 57bf 342c 69bb 0073 b9bd
000001c0: 2ab8 863f 0dab b63f db52 59be 8d7d 52be
000001d0: a84c 03bf 2e90 763f 6a49 97be 377b ca3e
000001e0: 7abb f13d 11c5 45bf f07b 83be 2ad8 afbe
000001f0: 2f3f a83f 2d46 563e 3014 1e3f 1c04 483e
00000200: 2875 bbbd 310a dd3e 653c 3cbf fe0b d9be
00000210: e165 1fbf 56b8 8dbf 0529 933d c094 53bf
00000220: 353b b73e 84dc f03c d894 653e 0a7b 18bf
00000230: 9b1c 10bf 023a 2ebf f058 d03e ed63 c33e
00000240: 25ea 62be 821e 523f 9eb1 a7be 877e 503e
00000250: 5546 413e 56ea 913e 9b8d b03e bc6e 7dbe
00000260: 06df 24bf 1584 fb3d 503e 65bf 97ad 703f
00000270: ed06 d6bc 694c 0f3f 7f16 ae3e 5ceb cb3e
00000280: d9f5 e3be 7098 1dbf 7433 c33d 6a4b a9bf
00000290: 9df8 d0bd c0ff 85be bf98 373f 10d1 25be
000002a0: 44cf 2ebe a415 aebf 69e7 39bf 8ce4 8ebf
000002b0: 4eb5 33bf 5c2f 803f 5bfd acbc 0460 7e3e
000002c0: 89fa bebe 4b9b aabb 2ca7 82bc dcec 803e
000002d0: e720 c1be 6f37 dabf 8842 813d 8ce2 b73e
000002e0: 62e4 913d 68de 85be d6c2 b6be 7565 0c3e
000002f0: 2f3f 54bf 011d 6dbf 851a c9be e993 e03e
00000300: 5688 c8be b4e1 99bf 8075 0bbe fba0 8ebf
00000310: 0a53 2a3f 1180 1c3d 8c7e a63e c06b 03bd
00000320: 508e 79be 8238 0b3f 02ef 11bf 34cd 203e
00000330: 4fa5 373f 34e1 fe3e 9e18 93bf 9539 19be
00000340: 6b43 87be ea63 903e e571 313f 0ca8 58be
00000350: 9a3b df3e 37ad 4e3f 2024 323f 54d9 bfbe
00000360: 9c19 92be ac18 7e3f d0d7 e43d c61d 68bf
00000370: 0a7c 903f a696 06bf cfda 833f 6fb4 083c
00000380: ffd0 023f 08ae 68bf 7b19 b93d e6c1 72bf
00000390: 1122 44be ed14 103f 9760 803b 79a0 053f
000003a0: b745 57be 26c1 613f 1a56 78bf 02ec 90be
000003b0: 3a54 3dbd 382b c33e 5cc8 63bf e900 9bbe
000003c0: 891b 3a3c 8d54 a1bf 42fb 4a3f 304a 803e
000003d0: 70bd ed3e 9271 b1bf 5209 793f f668 efbe
000003e0: 4379 8dbe b693 c1be 8d8d 86be 8eb2 3cbf
000003f0: fef6 c33f 379d 03bd c16a c03e f62f cd3e

fc1.bias f4 [64]
-0.31593928 0.41479895 0.046459362 0.54710835 -0.1256633 0.035686348 -0.83948237 0.22254474
0.35755575 -0.020942345 0.0777703 0.13806477 -1.3853668 0.3411081 0.8933355 0.37536323
0.25331527 -0.52173 0.79734373 0.3207714 -0.32908568 0.14780666 -0.045557816 0.38972017
-0.43452647 0.1058745 0.5111175 0.0034630524 0.4062401 -0.6151154 0.7747345 -0.17294705
-0.23281859 0.4503123 0.44510233 -0.4925717 0.4247347 -0.2092027 0.19775543 0.10193051
0.47292876 -0.3835872 0.77632266 -0.28574297 1.2780844 0.32536888 0.011426148 0.42149907
0.4409616 0.013980655 0.37495548 0.06332569 0.09386103 -0.4928085 -0.25581193 0.011956703
0.036814738 0.7474769 0.5593302 0.19364646 -0.025542947 0.7067072 -0.17259485 0.22260347
00000000: cbc2 a1be 8760 d43e 2c4c 3e3d 4b0f 0c3f
00000010: e1ad 00be d92b 123d 51e8 56bf c5e2 633e
00000020: 8c11 b73e 488f abbc 0946 9f3d da60 0d3e
00000030: b353 b1bf b9a5 ae3e a3b1 643f 9c2f c03e
00000040: 8ab2 813e 1990 05bf b81e 4c3f 263c a43e
00000050: eb7d a8be a15a 173e d59a 3abd 6789 c73e
00000060: 417a debe bbd4 d83d 99d8 023f 61f4 623b
00000070: b4fe cf3e 3478 1dbf 0055 463f 0819 31be
00000080: ff67 6ebe 558f e63e 74e4 e33e 5c32 fcbe
00000090: d476 d93e 3c39 56be 6680 4a3e f1c0 d03d
000000a0: b823 f23e 8b65 c4be 15bd 463f e74c 92be
000000b0: 4598 a33f c096 a63e bd34 3b3c bace d73e
000000c0: b8c5 e13e 1e0f 653c 2afa bf3e e6b0 813d
000000d0: 363a c03d 6551 fcbe c8f9 82be 0ce6 433c
000000e0: 0dcb 163d a55a 3f3f 4430 0f3f 424b 463e
000000f0: 713f d1bc c3ea 343f b4bc 30be 2af2 633e

fc2.weight f4 [64, 64]
0.011760125 0.30180836 0.715863 -0.30871472 -0.21432061 -0.07895264 -0.13470516 0.20228013
-0.021940064 -0.13049233 0.018383306 0.41241497 -0.32657748 0.24998395 0.006706836 -0.019846963
-0.35070512 -0.14108633 0.41588777 -0.32622075 -0.18546808 0.6736705 -0.20232981 -0.24686192
-0.33680478 0.16537653 0.21157765 0.49469128 0.07841294 1.0465499 0.5382954 0.08223602
0.32823485 0.32836562 -0.13376674 0.06289843 0.35162205 -0.39376584 -0.30417627 1.0566059
0.60980046 -0.15359028 0.23184024 -0.31304812 0.54415196 -0.21665756 0.5996891 1.0475117
0.40441436 0.47787696 -0.17941287 0.7632974 0.728732 -0.24583845 -0.6778064 0.82433957
-0.5236085 0.82615644 -0.41937563 0.32768095 1.0122797 0.44469807 0.274361 0.53276706
1.0135686 0.26103297 -0.04462713 0.97231734 0.1793939 0.3379058 -0.8796172 0.21513899
0.49511084 0.18691581 0.13001563 -1.1094958 -1.5225708 0.03309158 -0.033420667 0.34553403
-0.5280494 0.3171374 -0.08232231 0.49938235 0.6014693 -0.6678569 0.51956445 0.6700355
0.6802419 0.24189924 0.11575649 0.15208483 -0.14026947 -1.1513485 -2.4187758 0.47243837
-1.6209235 -0.22665733 0.39969122 1.1502342 0.3865303 0.62115216 0.2737514 -0.38908178
-0.14616631 0.015841486 -0.0038116695 0.8573867 -0.390365 0.89484644 -0.34607375 0.28661144
0.20599753 -1.5448228 -0.8289104 -1.7853076 0.11993794 0.8133467 0.8406049 -0.6980776
0.4262972 -0.5804734 0.7960909 0.21832828 -1.0120132 -0.78265023 0.32042488 -0.438684
0.2950284 0.15549572 0.4779044 -0.037605364 -0.11193654 -0.15917154 0.10227711 0.228407
0.0032449479 -0.291324 0.037766006 0.18918754 0.44794515 -0.15910308 -0.20920739 -0.09175007
-0.2316216 -0.072548494 0.16705842 -0.09048455 -0.35582662 -0.13974203 -0.10467041 -0.18525746
-0.30273387 0.5320893 -0.08039276 0.021257518 -0.28063965 0.49963555 0.08070272 -0.2819596
0.35997036 0.06877781 -0.16053435 0.046859577 0.54324305 -0.079810746 -0.14365737 0.58389384
0.87839985 0.26396966 -0.11281559 0.21410054 0.4285022 -0.16953297 0.05406458 0.06584884
0.104751036 0.62060016 -0.0063187163 0.24801779 0.5163693 0.05215313 -0.3514637 0.47315314
-0.27070445 0.4072336 -0.15867297 0.62498057 0.4683469 0.114296965 -0.27663186 0.40381882
0.5001912 0.37465996 -0.52216035 0.83145416 0.84235 0.19565985 -0.52445257 0.26003805
0.41557634 0.35700154 0.53082585 -1.2048641 -0.81253153 0.19234255 0.37345204 0.43909028
1.0987926 0.4659182 0.27410716 0.8726474 0.623693 -0.5793977 0.6291945 0.8660308
0.47961333 0.12005672 0.18238223 0.17748055 0.24614097 -1.2144045 -1.0027037 0.2270421
-1.5832021 0.04378621 0.45462474 0.44668898 0.5565974 -0.030219827 0.24906175 -0.6985434
-0.09627817 0.13670224 0.5786563 0.7367988 0.0016794205 0.4955867 -0.20867169 -0.33672225
0.24061984 -1.261433 0.0323887 -1.875641 -0.45993608 0.5452246 1.0957938 -0.35665485
0.7789699 -0.39961666 0.90249395 0.3847361 -0.48724252 -0.9565982 -0.08638835 -0.95343536
00000000: 8aad 403c a086 9a3e cc42 373f db0f 9ebe
00000010: dd76 5bbe ecb1 a1bd 26f0 09be 8622 4f3e
00000020: a6bb b3bc c89f 05be 9698 963c 0e28 d33e
00000030: 2a35 a7be cbfb 7f3e 05c5 db3b 1996 a2bc
00000040: 9f8f b3be ef78 10be 3eef d43e 6806 a7be
00000050: 58eb 3dbe ab75 2c3f 8c2f 4fbe 5fc9 7cbe
00000060: ad71 acbe 7758 293e d0a7 583e 2d48 fd3e
00000070: f796 a03d 59f5 853f bacd 093f 5c6b a83d
00000080: 660e a83e 8a1f a83e 26fa 08be e4d0 803d
00000090: ce07 b43e ad9b c9be febc 9bbe dd3e 873f
000000a0: e21b 1c3f c546 1dbe 8767 6d3e d847 a0be
000000b0: 8b4d 0b3f 7bdb 5dbe 3a85 193f dd14 863f
000000c0: 660f cf3e 4aac f43e 02b8 37be 7567 433f
000000d0: 2e8e 3a3f 13bd 7bbe b884 2dbf eb07 533f
000000e0: 350b 06bf fd7e 533f 67b8 d6be ccc5 a73e
000000f0: 6292 813f 77af e33e 0c79 8c3e 6c63 083f
00000100: 9ebc 813f 1da6 853e f0ca 36bd cae9 783f
00000110: 09b3 373e fd01 ad3e 982e 61bf 654d 5c3e
00000120: 2b7f fd3e dc66 3f3e d122 053e f503 8ebf
00000130: 9ae3 c2bf 098b 073d 1ce4 08bd d6e9 b03e
00000140: 3f2e 07bf d55f a23e 9998 a8bd 0baf ff3e
00000150: e4f9 193f abf8 2abf 2d02 053f 7287 2b3f
00000160: 5524 2e3f 6fb4 773e bd11 ed3d 20bc 1b3e
00000170: cda2 0fbe 635f 93bf 39cd 1ac0 71e3 f13e
00000180: 6c7a cfbf dc18 68be 54a4 cc3e e03a 933f
00000190: 4de7 c53e d403 1f3f 2529 8c3e ba35 c7be
000001a0: 9fac 15be 01c6 813c 34cd 79bb b27d 5b3f
000001b0: ecdd c7be a814 653f 9430 b1be bcbe 923e
000001c0: 04f1 523e c1bc c5bf 7933 54bf f684 e4bf
000001d0: 06a2 f53d 7d37 503f e231 573f 37b5 32bf
000001e0: a043 da3e e899 14bf 9dcc 4b3f 7391 5f3e
000001f0: a689 81bf c45b 48bf bb0e a43e 309b e0be
00000200: f60d 973e 453a 1f3e e3af f43e 1508 1abd
00000210: fc3e e5bd ddfd 22be a976 d13d 86e3 693e
00000220: 31a9 543b 6b28 95be 87b0 1a3d 61ba 413e
00000230: 1159 e53e ebeb 22be 763a 56be 76e7 bbbd
00000240: 362e 6dbe 4e94 94bd 5d11 2b3e f74f b9bd
00000250: e82e b6be 8918 0fbe 715d d6bd 22b4 3dbe
00000260: efff 9abe 0137 083f f6a4 a4bd 3f24 ae3c
00000270: 00b0 8fbe 3bd0 ff3e 7847 a53d 025d 90be
00000280: 094e b83e 61db 8c3d 1e63 24be d4ef 3f3d
00000290: fa11 0b3f d173 a3bd eb1a 13be 117a 153f
000002a0: d0de 603f 0827 873e dc0b e7bd 2c3d 5b3e
000002b0: a464 db3e 0d9a 2dbe d272 5d3d c2db 863d
000002c0: b687 d63d a7df 1e3f 3c0d cfbb 60f8 7d3e
000002d0: c730 043f 859e 553d 0df3 b3be 2141 f23e
000002e0: c699 8abe ec80 d03e 2b7b 22be bafe 1f3f
000002f0: 2acb ef3e 8714 ea3d b1a2 8dbe 57c1 ce3e
00000300: 880c 003f 6ed3 bf3e 4dac 05bf 2eda 543f
00000310: 40a4 573f 0e5b 483e 8642 06bf b523 853e
00000320: 6cc6 d43e e8c8 b63e 34e4 073f fd38 9abf
00000330: 1102 50bf 72f5 443e 1b35 bf3e 71d0 e03e
00000340: 3ca5 8c3f d58c ee3e c657 8c3e d265 5f3f
00000350: 58aa 1f3f 6853 14bf e412 213f 32b4 5d3f
00000360: e18f f53e 4ce0 f53d 68c2 3a3e 76bd 353e
00000370: 610c 7c3e 9b71 9bbf 9858 80bf b97d 683e
00000380: 5ea6 cabf 2b59 333d 93c4 e83e 6bb4 e43e
00000390: 2b7d 0e3f 928f f7bc 0b0a 7f3e bed3 32bf
000003a0: 7d2d c5bd acfb 0b3e d222 143f d99e 3c3f
000003b0: 0020 dc3a 8abd fd3e 08ae 55be dc66 acbe
000003c0: 0c65 763e a376 a1bf 03aa 043d 0115 f0bf
000003d0: be7c ebbe d793 0b3f f942 8c3f 779b b6be
000003e0: 926a 473f 8e9a ccbe d809 673f 21fc c43e
000003f0: da77 f9be 9fe3 74bf 60ec b0bd 5714 74bf

fc2.bias f4 [64]
0.4432813 -0.105151646 0.31461102 0.30781168 0.053405665 0.048574597 -0.6132267 0.14988832
0.05847705 -0.34361225 -0.22145878 -0.10970236 -0.31127647 -0.7383058 0.44403908 0.2801117
-0.52618605 -0.3796517 0.059888206 -0.14300041 0.023060948 -0.43961906 -0.0074994997 -0.14104685
0.36599976 -0.385611 0.8936732 -0.05662516 -0.20121323 0.68520314 0.22747587 0.40783504
0.37762764 -0.14449647 -0.112277135 0.35202795 0.27736598 -0.24115163 0.20686358 0.17801481
-0.66859514 -0.16229507 -0.5695843 -0.23089549 0.20155053 0.52412814 -0.28625554 -0.123792
0.24965398 -0.10681349 -0.18974665 0.23492953 -0.2839711 -0.1631565 -0.019060269 0.46722582
0.03558767 -0.023233606 0.06659833 0.10167842 -0.11305399 -0.10067419 0.42353737 0.7860555
00000000: c4f5 e23e bf59 d7bd b214 a13e 7e99 9d3e
00000010: e6bf 5a3d 28f6 463d 6dfc 1cbf 537c 193e
00000020: a285 6f3d f2ed afbe 17c6 62be a2ab e0bd
00000030: a15f 9fbe 9c01 3dbf 1759 e33e cd6a 8f3e
00000040: 21b4 06bf b561 c2be 564d 753d b36e 12be
00000050: 50ea bc3c c015 e1be 5dbe f5bb 966e 10be
00000060: 5264 bb3e ce6e c5be c4c7 643f c9ef 67bd
00000070: d70a 4ebe 7969 2f3f 6fef 683e c1cf d03e
00000080: 6958 c13e e2f6 13be 8ef1 e5bd 023d b43e
00000090: ea02 8e3e 74f0 76be 0cd4 533e 8449 363e
000000a0: 0d29 2bbf ae30 26be 47d0 11bf de6f 6cbe
000000b0: 4363 4e3e 432d 063f 1690 92be a986 fdbd
000000c0: 4ba5 7f3e 08c1 dabd f24c 42be 5e91 703e
000000d0: a964 91be 7f12 27be 4824 9cbc 3938 ef3e
000000e0: 60c4 113d 6754 bebc b564 883d c73c d03d
000000f0: da88 e7bd 452e cebd e4d9 d83e ef3a 493f

fc3.weight f4 [4, 64]
1.0001355 -0.5212756 0.53017545 -0.59786433 -0.57478863 0.09921174 0.6168036 -0.43918213
0.1343567 -1.0447159 -0.9966794 0.09405207 1.653162 -1.3664945 0.42667934 0.24946584
-0.8079323 -0.60541767 -0.50750077 1.7559272 0.046871014 -1.0239481 -0.044427246 -0.92422885
-0.7717315 -0.8973755 2.2608156 2.3046575 -0.62320644 1.668461 0.8909488 -0.15750816
0.30514362 0.037081048 -0.056687146 -0.82152957 1.8754733 -0.84960467 -0.8986352 1.8912176
-0.69062036 0.03819793 -0.5051932 -1.0324216 0.71423835 2.5450442 -1.2083391 -1.0107398
1.9431763 0.05374702 -0.5921821 2.0050564 -0.95818186 -0.32289487 -0.7783908 -1.1119467
-0.58954865 -0.38762197 -0.9802582 0.6504638 -0.7488994 -0.5478175 0.74114925 -0.40280184
0.5026586 -0.7865877 0.09273215 -0.8067622 -0.68037623 -0.002545045 0.56334454 -0.5233177
0.50436383 -1.0264928 -1.3113585 0.060270093 1.1146519 -0.99651104 0.080517754 1.152708
-1.0179491 -0.8993032 -0.67454153 1.4425821 -0.07996496 -0.8538522 0.09191071 -1.2779189
-0.48054835 -0.8284648 2.3898761 2.5446322 -0.98911184 1.4318212 1.0624002 0.44112116
-0.16296618 0.06413811 -0.0070161372 -0.9410139 0.6314164 -0.7636602 -0.97295296 2.8006766
0.79391825 0.030760314 0.36705786 -0.9737455 0.9974309 2.1163917 -1.0125678 -0.6481314
2.0455632 0.104426034 -0.75801444 1.7368066 -0.7977357 -0.4545286 -0.6364537 0.25661507
-0.6519565 -0.72624254 -0.7165766 1.2491176 -0.6853787 -0.41489205 0.3288838 0.100391515
0.11611407 -0.8869171 -0.45127353 -0.5989631 -0.47852618 0.04029332 1.5862746 0.12593424
1.0304157 -0.9144693 -2.0231588 -0.07010045 1.9641924 -0.7056877 -0.38559598 1.0170039
-0.5669977 -0.8390175 -0.34158516 1.9090555 -0.06066663 -0.9242915 0.09364769 -0.84186494
-0.9284751 -0.4456454 2.3521707 2.6041813 -0.35586017 1.6680758 1.183514 -0.9487457
0.76728606 0.029576277 -0.018635392 -0.91003907 1.6370109 -0.7430963 -1.0367525 1.133988
-1.5274545 0.09147957 0.6997458 -1.4873053 1.5514439 1.7469712 -1.2439498 0.53740966
2.0240195 0.12799115 -0.28656322 1.2404393 -0.9544747 -0.9312332 -0.43670288 -0.31760985
-0.50432783 -0.83537334 -0.43028647 1.636117 -0.77648216 -0.670694 -0.32253966 -1.0119193
0.8040458 -0.916394 0.36568332 -0.65856254 -0.56425846 0.09957349 0.90130275 -0.84956664
-0.84546244 -1.1409967 -0.77338904 0.05502307 1.7731216 -0.644197 0.5401445 0.16060108
-0.99474937 -0.46823484 -0.47736332 2.2455425 -0.068447396 -0.9310215 0.11984426 -0.34561536
-0.1892889 -1.2278874 2.2591522 1.3414435 -0.18162915 1.2687829 0.5921928 -0.5879309
0.083361484 -0.102278866 0.053555787 -0.8700818 1.1627369 -1.1671009 -0.88321894 1.8380704
0.93698066 0.06187798 0.28067678 -1.0826206 0.8623658 2.7256873 -0.8619255 -0.082673006
1.9704533 -0.06723821 -0.4890663 1.8818734 -1.052188 -0.53874195 -0.4031802 0.8484278
-0.5446744 -0.8812554 -1.4261729 1.6031489 -0.9331534 -0.7196309 0.48836496 -0.9281709
00000000: 7104 803f 5172 05bf 94b9 073f a30d 19bf
00000010: 5925 13bf 862f cb3d d7e6 1d3f 7bdc e0be
00000020: ce94 093e 40b9 85bf 6226 7fbf 5f9e c03d
00000030: d09a d33f 4be9 aebf b775 da3e f973 7f3e
00000040: a7d4 4ebf a7fc 1abf 92eb 01bf 39c2 e03f
00000050: d2fb 3f3d bb10 83bf 58f9 35bd 439a 6cbf
00000060: 3290 45bf 67ba 65bf 34b1 1040 827f 1340
00000070: 758a 1fbf 2190 d53f 3815 643f d249 21be
00000080: c93b 9c3e 4ce2 173d c830 68bd c34f 52bf
00000090: 820f f03f b17f 59bf f50c 66bf 6b13 f23f
000000a0: 7fcc 30bf 6f75 1c3d 5754 01bf 6426 84bf
000000b0: 53d8 363f 01e2 2240 dbaa 9abf ec5f 81bf
000000c0: 00ba f83f d625 5c3d 3f99 17bf d852 0040
000000d0: 684b 75bf 7a52 a5be 9f44 47bf 4554 8ebf
000000e0: a9ec 16bf 6376 c6be 34f2 7abf cc84 263f
000000f0: dfb7 3fbf c53d 0cbf f5bb 3d3f 0b3c cebe
00000100: 3cae 003f d05d 49bf 5aea bd3d f887 4ebf
00000110: 232d 2ebf c5ca 26bb 5937 103f 26f8 05bf
00000120: fd1d 013f 1e64 83bf 98da a7bf c6dd 763d
00000130: eaac 8e3f 591b 7fbf 7ee6 a43d f08b 933f
00000140: 284c 82bf bc38 66bf c1ae 2cbf 88a6 b83f
00000150: abc4 a3bd 0f96 5abf af3b bc3d d992 a3bf
00000160: 6f0a f6be 4516 54bf bbf3 1840 41db 2240
00000170: 6f36 7dbf eb45 b73f bbfc 873f a2da e13e
00000180: 9be0 26be d75a 833d a0e7 e5bb 49e6 70bf
00000190: 81a4 213f 3c7f 43bf 7213 79bf 493e 3340
000001a0: 3a3e 4b3f 0efd fb3c 02ef bb3e 6347 79bf
000001b0: a257 7f3f f672 0740 d29b 81bf f0eb 25bf
000001c0: 82ea 0240 51dd d53d 3c0d 42bf ae4f de3f
000001d0: 6838 4cbf f9b7 e8be a1ee 22bf 0d63 833e
000001e0: 9fe6 26bf 08eb 39bf 9071 37bf 16e3 9f3f
000001f0: fa74 2fbf bb6c d4be 7563 a83e 119a cd3d
00000200: 37cd ed3d 000d 63bf 530d e7be a555 19bf
00000210: 6201 f5be 9c0a 253d 0c0b cb3f e8f4 003e
00000220: a9e4 833f a91a 6abf 6f7b 01c0 d390 8fbd
00000230: a86a fb3f f3a7 34bf d66c c5be 2f2d 823f
00000240: c326 11bf dac9 56bf 40e4 aebe ee5b f43f
00000250: 927d 78bd 5e9e 6cbf 5cca bf3d 7684 57bf
00000260: 8bb0 6dbf a22b e4be f789 1640 e8aa 2640
00000270: 4e33 b6be 8283 d53f 637d 973f 00e1 72bf
00000280: dc6c 443f f349 f23c 40a9 98bc 52f8 68bf
00000290: 9389 d13f 8f3b 3ebf 4eb4 84bf 8526 913f
000002a0: a183 c3bf a459 bb3d 8a22 333f 0560 bebf
000002b0: b795 c63f c19c df3f bf39 9fbf ae93 093f
000002c0: 8989 0140 1d10 033e 6ab8 92be b7c6 9e3f
000002d0: 7458 74bf 4d65 6ebf 8597 dfbe c29d a2be
000002e0: a11b 01bf 07db 55bf 824e dcbe 486c d13f
000002f0: 89c7 46bf 9ab2 2bbf eb23 a5be 9286 81bf
00000300: f2d5 4d3f cc98 6abf d83a bb3e 8e97 28bf
00000310: 3e73 10bf 30ed cb3d c7bb 663f 337d 59bf
00000320: 3a70 58bf 2e0c 92bf d3fc 45bf df5f 613d
00000330: a6f5 e23f 18ea 24bf e946 0a3f 9c74 243e
00000340: e5a7 7ebf 7abc efbe f768 f4be f8b6 0f40
00000350: 262e 8cbd 6d57 6ebf e870 f53d 7ff4 b0be
00000360: f3d4 41be 6a2b 9dbf f395 1040 6cb4 ab3f
00000370: fefc 39be 7a67 a23f f399 173f a482 16bf
00000380: 6db9 aa3d 9577 d1bd 505d 5b3d aebd 5ebf
00000390: 90d4 943f 9063 95bf a31a 62bf e445 eb3f
000003a0: f7dd 6f3f c473 7d3d deb4 8f3e 5093 8abf
000003b0: 01c4 5c3f a971 2e40 26a7 5cbf 7750 a9bd
000003c0: d037 fc3f 30b4 89bd e666 fabe 3ae1 f03f
000003d0: 19ae 86bf feea 09bf a36d cebe 9032 593f
000003e0: c86f 0bbf f499 61bf d58c b6bf fc33 cd3f
000003f0: 24e3 6ebf bb39 38bf f90a fa3e 9c9c 6dbf

fc3.bias f4 [4]
0.33553866 0.10721095 -0.14777784 0.11992456
00000000: b9cb ab3e 6a91 db3d 1353 17be 029b f53d
