NeurPiRL/LunarLander/DQN/checkpoints/400.pth (torch, 22315 bytes, 6 tensors)

fc1.weight f4 [64, 8]
0.19813503 -0.29244745 0.6927873 -0.5635637 -0.56873304 -0.49272192 -0.28747576 0.8177201
-0.15281908 -0.9426077 -0.4984138 -0.7463614 1.0635835 0.25996506 0.40866622 0.53418285
-0.19003454 -0.5064127 -0.22766829 -0.8501803 0.7632687 0.59448075 0.008316827 0.6606879
0.066825785 -0.42550674 -0.09881966 -0.8883114 -0.0018071441 -0.0094071 0.07500257 0.5392216
-0.09145441 0.42051777 0.19776852 -0.43432888 -0.12090878 -1.165686 0.45958337 -0.4045169
0.021872275 0.02379523 -0.32578003 1.2080946 -0.29758438 0.26297814 0.29999062 1.2101549
-0.4240083 0.82710534 0.8256013 -0.04912069 0.39213923 -0.1980704 0.06933038 0.21571605
-0.16155104 -0.015895152 0.27957043 -0.26910824 1.0353465 0.65898895 0.33123323 -1.0542203
-1.1298759 0.7749646 -0.3657268 0.3053167 0.15455388 -0.814245 -0.12972885 -0.019701215
-0.084720664 -0.509528 -0.21667376 -0.7272937 0.7394764 0.73068166 -0.15317643 0.83401924
0.009462962 -0.7159999 -0.48529476 0.4196227 -0.49159935 -0.44905755 0.5178464 0.24363495
-0.065744855 0.10268634 -0.6902829 -0.051343236 0.8445967 0.37530336 0.083803855 -1.0475192
-1.1550615 -0.09811427 0.15670484 0.11906003 -2.1255443 0.16937912 0.13139878 -0.10375537
-0.32298222 -0.53988117 -1.0242022 -0.46754602 0.010594199 -0.5408078 -0.34512118 0.8771997
0.7833442 -0.19505313 0.25210196 -1.3942511 0.6499874 -0.023683013 -0.34644502 -0.059172302
-0.48059866 0.8703369 -0.2694737 0.25208756 0.13907138 0.16536751 0.87623596 -0.6790364
0.12038651 0.19169416 -0.7245962 -0.97310907 -0.5410011 0.47995618 -1.1775243 -0.36893559
-0.09346135 0.511456 0.15577237 0.4484876 -0.97807276 -0.9642135 -0.23349003 1.0902206
-0.89299315 -0.42614713 -0.7306077 -0.46934745 -0.72897273 -0.4513055 0.39089227 0.4271566
1.147118 -1.346294 0.0095065255 -0.7281646 -0.17183323 -0.09336528 0.4974108 0.39674228
-0.15785284 0.290851 -0.38059387 0.4908944 0.39793533 1.2093533 0.54636854 -0.49185127
0.45742422 -0.12383078 -0.021890754 -1.1766317 0.4181842 0.3365308 0.09671409 0.44114596
-0.23730071 -0.68515927 0.8382741 -0.21949129 -1.1277486 -0.6191005 0.22920685 0.112617046
-0.480884 -0.0594805 -0.17599504 0.26965824 -1.285062 -0.9603781 -0.5273717 -0.10513024
-0.32242334 0.39149588 0.5757428 -0.20755509 0.4745017 -0.7226416 -0.056115378 0.40676406
0.5177888 -0.64989436 0.1834187 -0.7100952 -1.3035452 -1.011928 -0.13285363 -0.50527596
-0.48233876 0.04550313 0.90600497 -0.423402 -0.022821158 -0.1811965 -0.83963794 -0.2346939
-0.20410626 -0.053731535 -1.0657787 -0.7624859 -0.31948978 -0.08604533 0.030574102 0.42092767
-0.3606003 -3.096875 0.56075937 -0.36911345 -0.68384236 0.55052644 -0.024441505 -0.55365676
0.085054904 0.1316061 -0.76115066 -0.6989691 -0.05003397 0.16623424 0.76786864 0.39032304
0.101914026 0.17996551 0.82964236 -0.5217407 -0.52628195 -0.72648764 0.6232119 0.18590719
0.15845448 -0.44807363 -0.9006248 0.38458762 -0.37830022 0.4570517 0.41188946 -1.2258818
00000000: e9e3 4a3e acbb 95be 825a 313f b645 10bf
00000010: 7d98 11bf 0c46 fcbe 0630 93be 1b56 513f
00000020: 9b7c 1cbe bd4e 71bf 1830 ffbe 8a11 3fbf
00000030: 8123 883f 241a 853e b33c d13e 35c0 083f
00000040: 6a98 42be 43a4 01bf e021 69be 6ba5 59bf
00000050: 9465 433f e42f 183f 4d43 083c d822 293f
00000060: f5db 883d 05dc d9be f661 cabd 6068 63bf
00000070: b2dd ecba 3d20 1abc f39a 993d 6d0a 0a3f
00000080: 734c bbbd 1b4e d73e d583 4a3e 5b60 debe
00000090: 069f f7bd 3335 95bf 834e eb3e d71c cfbe
000000a0: 7c2d b33c 37ee c23c a4cc a6be d8a2 9a3f
000000b0: fb5c 98be 12a5 863e 5f98 993e 5be6 9a3f
000000c0: 9e17 d9be 2dbd 533f 9b5a 533f c732 49bd
000000d0: 79c6 c83e f8d2 4abe 16fd 8d3d abe4 5c3e
000000e0: a36d 25be 8d36 82bc db23 8f3e 8ec8 89be
000000f0: 3c86 843f 80b3 283f 6797 a93e b1f0 86bf
00000100: c69f 90bf 1464 463f 8b40 bbbe 7852 9c3e
00000110: 5f43 1e3e 5c72 50bf a4d7 04be 7164 a1bc
00000120: 0782 adbd 6d70 02bf badf 5dbe ec2f 3abf
00000130: 534e 3d3f f40d 3b3f 48da 1cbe 4982 553f
00000140: 8a0a 1b3c c54b 37bf 8e78 f8be c9d8 d63e
00000150: e9b2 fbbe dfea e5be 9591 043f 717b 793e
00000160: 3da5 86bd 374d d23d 61b6 30bf 494d 52bd
00000170: 7d37 583f c327 c03e 5ba1 ab3d 1c15 86bf
00000180: 0ed9 93bf 22f0 c8bd 3c77 203e bfd5 f33d
00000190: eb08 08c0 b871 2d3e 678d 063e b27d d4bd
000001a0: ed5d a5be a735 0abf 0f19 83bf 3162 efbe
000001b0: 4b93 2d3c 6172 0abf b9b3 b0be 2990 603f
000001c0: 3f89 483f 02bc 47be 8213 813e d276 b2bf
000001d0: 9365 263f e102 c2bc 3e61 b1be a85e 72bd
000001e0: 0711 f6be 66ce 5e3f 75f8 89be 9f11 813e
000001f0: ba68 0e3e 1a56 293e 0051 603f 54d5 2dbf
00000200: 348d f63d 794b 443e 237f 39bf ad1d 79bf
00000210: 0c7f 0abf d1bc f53e 1eb9 96bf 20e5 bcbe
00000220: aa68 bfbd c8ee 023f cb82 1f3e 2ba0 e53e
00000230: fa62 7abf b2d6 76bf 0318 6fbe 598c 8b3f
00000240: 339b 64bf f52f dabe 1b09 3bbf 4f4e f0be
00000250: f59d 3abf 8411 e7be 0823 c83e 45b4 da3e
00000260: c3d4 923f 5d53 acbf 42c1 1b3c ff68 3abf
00000270: 0df5 2fbe 4c36 bfbd a1ac fe3e ce21 cb3e
00000280: 2da4 21be 6cea 943e 33dd c2be 8356 fb3e
00000290: 2ebe cb3e 17cc 9a3f cfde 0b3f eed3 fbbe
000002a0: 8233 ea3e fe9a fdbd 3d54 b3bc de9b 96bf
000002b0: 3d1c d63e c44d ac3e 0912 c63d e2dd e13e
000002c0: f5fe 72be 9966 2fbf 2299 563f 53c2 60be
000002d0: 115a 90bf 5f7d 1ebf 33b5 6a3e c4a3 e63d
000002e0: 6d36 f6be d3a1 73bd 0b38 34be a510 8a3e
000002f0: e97c a4bf 57db 75bf d501 07bf 864e d7bd
00000300: ac14 a5be 2672 c83e e163 133f 5289 54be
00000310: e3f1 f23e 0aff 38bf 3dd9 65bd 6143 d03e
00000320: cf8d 043f 7a5f 26bf 1dd2 3b3e cdc8 35bf
00000330: 92da a6bf db86 81bf c80a 08be c459 01bf
00000340: 1bf5 f6be 7d61 3a3d f1ef 673f 26c8 d8be
00000350: 70f3 babc 938b 39be 83f2 56bf 9953 70be
00000360: 3b01 51be 9915 5cbd 706b 88bf 4732 43bf
00000370: 2a94 a3be 8938 b0bd 8a76 fa3c d583 d73e
00000380: 9aa0 b8be 3333 46c0 ed8d 0f3f 70fc bcbe
00000390: 4b10 2fbf 4def 0c3f 8d39 c8bc 73bc 0dbf
000003a0: 4431 ae3d c0c3 063e c5da 42bf a4ef 32bf
000003b0: 6cf0 4cbd 4f39 2a3e 0a93 443f 6cd8 c73e
000003c0: 4db8 d03d e148 383e 7163 543f cc90 05bf
000003d0: 6aba 06bf 18fb 39bf d18a 1f3f 745e 3e3e
000003e0: e441 223e e869 e5be 598f 66bf abe8 c43e
000003f0: 91b0 c1be ae02 ea3e 2de3 d23e b2e9 9cbf

fc1.bias f4 [64]
-0.37999973 -0.21373102 -0.14870179 0.43465 0.04916656 -0.00089128676 -0.31907344 -0.116266586
0.28898305 -0.12664996 0.7192205 0.35150382 0.16163503 -0.33362547 -0.44472846 0.58995855
-0.2339649 0.09172516 0.49447623 0.023297813 0.1915265 0.41655633 0.7463372 0.40496564
0.46157756 -0.068394035 0.9511466 0.0088576265 0.6386315 0.20452969 0.23932135 0.82927907
-0.012214686 0.21886162 0.5835656 -0.14570081 0.7847176 0.21527874 -0.4915439 0.34247148
0.42504054 -0.03630962 -0.27391312 -0.40047824 0.7851018 -0.22769533 -0.34918946 0.5078158
0.61718106 0.28614628 -0.014175679 -0.5223809 0.14072588 0.6112582 0.7333667 0.35390344
-0.060087826 -0.06304271 -0.36871722 0.44249114 0.06874391 -0.024686942 0.9158912 0.5222606
00000000: 538f c2be 4edc 5abe 4845 18be 728a de3e
00000010: e062 493d 3ea5 69ba 985d a3be 2d1d eebd
00000020: 96f5 933e 87b0 01be d61e 383f 4ff8 b33e
00000030: a783 253e f5d0 aabe 73b3 e3be 8607 173f
00000040: 7f94 6fbe 67da bb3d fd2b fd3e 0edb be3c
00000050: 861f 443e df46 d53e f40f 3f3f a857 cf3e
00000060: e553 ec3e 2c12 8cbd 587e 733f 941f 113c
00000070: 5b7d 233f 3b70 513e a810 753e a24b 543f
00000080: 1b20 48bc 431d 603e 8e64 153f 9832 15be
00000090: 41e3 483f 0872 5c3e a4ab fbbe 6c58 af3e
000000a0: ea9e d93e 65b9 14bd 573e 8cbe 7c0b cdbe
000000b0: 6efc 483f f728 69be f6c8 b2be 3700 023f
000000c0: 94ff 1d3f c481 923e 1b41 68bc c1ba 05bf
000000d0: 721a 103e 6b7b 1c3f ecbd 3b3f d532 b53e
000000e0: a71e 76bd 891c 81bd 81c8 bcbe 338e e23e
000000f0: 9bc9 8c3d 453c cabc d877 6a3f dfb2 053f

fc2.weight f4 [64, 64]
1.1537677 -1.1671529 -0.08684074 -0.389025 0.46559623 -2.3651726 0.24979742 -0.8732889
-0.053018592 0.05712916 -0.062769644 0.093371175 -0.4733266 0.26029187 0.9355048 -3.4158058
1.2170765 0.5379286 0.06426704 0.62812513 -0.47580338 -0.03871371 0.39761502 0.51820236
-0.5955376 0.6414466 -0.24737245 0.12781991 0.38366535 0.040849376 0.41384217 -1.5503241
0.29317415 -0.11569342 -0.042776365 2.5714817 -0.5145359 0.3562486 1.3362598 -0.24423721
0.07587135 -0.05474649 0.2734171 -1.1247938 0.41621965 0.15559973 0.7641329 0.040505603
0.12304362 0.60306394 -0.44248334 -0.34944895 0.09058363 0.08778009 0.0024635457 0.13048117
0.6072676 -0.26971534 0.18499705 0.019781873 0.55004245 0.88875896 -0.94957733 -1.0147685
0.41583204 -0.21067578 -0.44817328 0.108229056 0.4671744 -0.8006358 1.0815578 0.15533759
0.4502333 -0.7297292 0.027317936 0.090786114 -0.11865251 0.17095703 0.2829384 -0.17102766
-1.1489189 0.32537952 0.089342 0.48716712 -0.1614355 0.39598683 0.51214176 0.04281653
0.7365674 0.24654636 0.81333256 0.06506878 0.54128885 -0.21151361 0.26459166 -0.08568081
-0.4686292 -0.5490423 0.4243385 -0.31003177 0.6908257 -0.49853322 0.5751475 -0.39663458
-1.6468161 -0.71900016 -0.08789691 -0.29784665 0.202954 -0.87481165 0.37638333 -0.008827944
0.2971413 0.17884912 0.11115465 0.3231347 -0.3451142 -0.31137353 0.28197297 -0.3353866
-0.108504556 0.037426297 -0.043872666 0.0032098612 -0.13918018 -0.15768972 0.15111196 0.749317
-1.3592619 0.47007176 0.31310287 0.14419152 -1.0991294 -0.96228176 -0.4962925 0.71173626
-1.639896 0.38097018 -0.9691686 -0.025563795 0.43017504 0.15566796 0.25704953 -0.2883248
0.018314045 -3.0868323 0.39990264 -0.15269615 -0.06012377 0.44086978 -0.5456517 -2.7414327
0.101242155 -3.2654269 0.63341075 -0.015679035 1.2937151 0.08760149 -1.4798744 0.25495622
-0.5115605 -0.15866268 -0.16835019 -0.24386114 0.24177435 0.63448846 -1.5502315 -0.06251665
-0.21410151 -0.25687933 0.33038083 0.30394265 -2.1862435 -0.8500715 0.43637657 0.6025543
-0.5238228 -1.8487037 0.20285161 0.4346919 0.1887384 -0.06734638 0.90837055 0.83121437
0.5571279 0.049919717 0.28005636 -1.050474 -3.0672958 0.29224116 0.3553891 -1.7200983
-0.7640807 0.1503902 0.25605056 0.38502952 -0.076163776 -0.79527086 0.6004371 -0.30416447
-0.08283886 -0.028080264 0.00059298193 -0.21820368 0.026151484 0.24071911 0.12814815 0.37087378
-0.27180004 -0.5674621 0.32344866 0.13278452 0.7898035 0.07413411 0.33294845 -0.17369795
-0.115644254 -0.22897013 -0.018131534 0.4641064 0.26432988 0.6788119 -0.38106817 -0.16306911
-0.2667837 -0.76919776 0.05565223 -0.0010173065 0.0075744023 -0.027607394 0.12244127 0.18692124
-0.2767934 0.6177075 0.37004125 0.015079185 -0.06604968 0.43922356 0.048624493 0.30738255
0.33950374 -0.22124006 -0.42783302 0.027156627 -0.52746356 0.2890155 0.39967743 0.26043496
-0.42590597 -1.2013673 0.0920796 0.2865039 -0.6950026 0.4840558 0.08040376 -0.4940997
00000000: a9ae 933f 4465 95bf 8fd9 b1bd 492e c7be
00000010: a162 ee3e fd5e 17c0 e5ca 7f3e dd8f 5fbf
00000020: 062a 59bd 4400 6a3d 5f8d 80bd 6339 bf3d
00000030: dd57 f2be fa44 853e 3e7d 6f3f 909c 5ac0
00000040: 2ac9 9b3f b0b5 093f 709e 833d cfcc 203f
00000050: 809c f3be 4492 1ebd 3294 cb3e e9a8 043f
00000060: 2775 18bf d835 243f 344f 7dbe 39e3 023e
00000070: c96f c43e ad51 273d 1fe3 d33e 0571 c6bf
00000080: ec1a 963e acf0 ecbd 4536 2fbd 2893 2440
00000090: a0b8 03bf 3766 b63e 900a ab3f 5219 7abe
000000a0: 7062 9b3d db3d 60bd 53fd 8b3e 3ef9 8fbf
000000b0: be1a d53e 8955 1f3e 379e 433f 34e9 253d
000000c0: 4bfe fb3d 6662 1a3f 2d8d e2be f9ea b2be
000000d0: e983 b93d 0cc6 b33d 7073 213b db9c 053e
000000e0: e475 1b3f 2118 8abe de6f 3d3e 980d a23c
000000f0: 95cf 0c3f b585 633f 8017 73bf efe3 81bf
00000100: f0e7 d43e 64bb 57be f876 e5be 32a7 dd3d
00000110: 7c31 ef3e 78f6 4cbf 7c70 8a3f d110 1f3e
00000120: fb84 e63e 88cf 3abf ddc9 df3c 12ee b93d
00000130: 1600 f3bd 5c0f 2f3e 4ddd 903e e021 2fbe
00000140: c60f 93bf 2598 a63e f0f8 b63d f86d f93e
00000150: 594f 25be c9be ca3e b91b 033f 6360 2f3d
00000160: ae8f 3c3f a676 7c3e 9036 503f c842 853d
00000170: e891 0a3f 0697 58be 8f78 873e 6c79 afbd
00000180: 2bf0 efbe 098e 0cbf e542 d93e 7cbc 9ebe
00000190: f4d9 303f bf3f ffbe de3c 133f b013 cbbe
000001a0: dfca d2bf 6510 38bf 4c03 b4bd 5b7f 98be
000001b0: 2cd3 4f3e a8f3 5fbf 51b5 c03e 15a3 10bc
000001c0: e822 983e 3924 373e 0da5 e33d e971 a53e
000001d0: cfb2 b0be 5a6c 9fbe c35e 903e cbb7 abbe
000001e0: a337 debd 514c 193d d3b3 33bd 895c 523b
000001f0: 4085 0ebe 6a79 21be 18bd 1a3e 3dd3 3f3f
00000200: 4bfc adbf 3fad f03e 054f a03e f1a6 133e
00000210: 46b0 8cbf 1958 76bf 0d1a febe 5934 363f
00000220: 1de8 d1bf 860e c33e 6f1b 78bf 2a6b d1bc
00000230: e73f dc3e 6c67 1f3e ff9b 833e 4f9f 93be
00000240: 5607 963c a98e 45c0 0ac0 cc3e 615c 1cbe
00000250: 5844 76bd afb9 e13e d4af 0bbf a273 2fc0
00000260: 0c58 cf3d c1fc 50c0 3527 223f 5271 80bc
00000270: 7598 a53f 6968 b33d 866c bdbf 9f89 823e
00000280: a1f5 02bf 7878 22be fe63 2cbe bcb6 79be
00000290: b293 773e d66d 223f fc6d c6bf bb08 80bd
000002a0: 6d3d 5bbe b085 83be ad27 a93e 5f9e 9b3e
000002b0: 6aeb 0bc0 499e 59bf c06c df3e 0041 1a3f
000002c0: 4019 06bf 53a2 ecbf 55b8 4f3e f08f de3e
000002d0: a444 413e e6ec 89bd f98a 683f 77ca 543f
000002e0: ef9f 0e3f 9e78 4c3d 8c63 8f3e ef75 86bf
000002f0: 934e 44c0 a2a0 953e 8ff5 b53e 2e2c dcbf
00000300: cb9a 43bf e3ff 193e 0f19 833e 9722 c53e
00000310: c1fb 9bbd df96 4bbf 3fb6 193f 72bb 9bbe
00000320: 6ca7 a9bd 9508 e6bc 5872 1b3a c970 5fbe
00000330: a33b d63c 127f 763e 4539 033e 2be3 bd3e
00000340: 6029 8bbe 3245 11bf 109b a53e aaf8 073e
00000350: 9030 4a3f a0d3 973d 3878 aa3e e0dd 31be
00000360: e5d6 ecbd 2577 6abe 9588 94bc 5b9f ed3e
00000370: 3f56 873e 9ec6 2d3f 5e1b c3be 97fb 26be
00000380: e097 88be 25ea 44bf 98f3 633d 2457 85ba
00000390: b132 f83b e728 e2bc 7dc2 fa3d 4868 3f3e
000003a0: ddb7 8dbe 1422 1e3f 0c76 bd3e b00e 773c
000003b0: 0e45 87bd e9e1 e03e 7a2a 473d 3f61 9d3e
000003c0: 6fd3 ad3e c18c 62be ee0c dbbe 9377 de3c
000003d0: da07 07bf d7f9 933e 85a2 cc3e bb57 853e
000003e0: 5910 dabe 67c6 99bf 3b94 bc3d a4b0 923e
000003f0: b1eb 31bf 29d6 f73e baaa a43d a3fa fcbe

fc2.bias f4 [64]
-0.44316542 0.7552105 0.030906264 0.023670368 0.3386352 -0.03185703 0.36348543 0.21412167
0.14254786 0.3230068 -0.18993041 0.45355842 0.14063038 -0.40621847 0.5931057 -0.46322936
0.2866486 0.3810239 -0.020584531 -0.21479224 0.009142593 0.07990309 0.3051885 0.3334575
-0.602145 0.89319426 0.5951468 -0.04465109 -0.32111952 0.38895842 -0.02396245 0.24484815
0.05066448 0.14038698 0.08894637 -0.03167883 0.0656464 0.011110241 0.09140526 0.09223445
0.057843845 0.02424923 0.3624398 -0.5631754 0.10324937 0.0031370206 0.0791973 -0.10840836
-0.31961626 0.5717596 0.3585549 0.56275624 -0.6010375 0.43899703 0.39672717 -0.52159595
-0.41308123 0.3787591 -0.052954543 0.2848358 0.28265834 0.023310306 0.2997406 0.34455892
00000000: 94e6 e2be 7a55 413f 222f fd3c 5ce8 c13c
00000010: 9861 ad3e 847c 02bd c31a ba3e b642 5b3e
00000020: 11f8 113e 2661 a53e 1e7d 42be cf38 e83e
00000030: 6901 103e defb cfbe c6d5 173f 662c edbe
00000040: 9bc3 923e 9115 c33e e4a0 a8bc 7ff2 5bbe
00000050: d0ca 153c 3ba4 a33d ab41 9c3e f1ba aa3e
00000060: 2d26 1abf 61a8 643f 8a5b 183f 10e4 36bd
00000070: c769 a4be 8f25 c73e e64c c4bc 79b9 7a3e
00000080: 8f85 4f3d 9bc1 0f3e 8429 b63d a9c1 01bd
00000090: 9f71 863d ba07 363c ae32 bb3d 6ae5 bc3d
000000a0: abed 6c3d 52a6 c63c b691 b93e 432c 10bf
000000b0: 6874 d33d 7996 4d3b 3232 a23d 3405 debd
000000c0: bea4 a3be d65e 123f 8294 b73e cb10 103f
000000d0: 98dd 19bf 38c4 e03e d31f cb3e 5087 05bf
000000e0: 627f d3be b6ec c13e dde6 58bd ffd5 913e
000000f0: 98b8 903e 41f5 be3c 9a77 993e 076a b03e

fc3.weight f4 [4, 64]
-0.54341215 -0.2985042 1.695953 -0.16658142 -0.7403544 -0.77868176 -0.6479839 1.3741819
-0.59345716 2.215833 0.31719956 1.1222416 -0.5487586 -1.0512135 1.5781599 -0.8674406
-0.4140571 0.8482421 -0.42653233 -0.5104938 1.1731361 -0.23473716 0.7334237 -0.66373295
-0.8507027 -1.8460522 -0.92519915 -0.5279717 -1.2349352 0.9195936 -0.6004547 -0.49164873
-0.6509587 1.9183173 1.5217942 -1.0365454 -0.5511319 -0.6730041 -0.42524287 -0.5658193
-0.574814 -0.6370666 1.0184072 0.46591613 -0.45669326 -0.53497434 -0.47672024 -0.08366567
-0.47833613 2.1758342 -0.7221559 2.3504348 0.50424933 2.4747956 -0.46435466 -0.42343074
-2.3262925 2.27902 -0.09855107 1.4740187 1.6274037 -0.41889146 0.9110311 1.4706583
-1.5128813 0.17808707 -0.23036547 -0.31096977 -1.2199863 -0.68138725 -0.6226779 1.0980841
-0.8504939 1.73212 0.34795654 1.1119758 -0.39289752 -1.0479165 1.0299102 -0.5851468
-0.3840429 0.7034728 -0.5259092 -1.3355232 1.1626692 -0.27017576 1.2207879 -0.18221277
-0.6573363 -1.6226217 -1.2311805 -0.7240317 -0.4490427 1.0104109 -0.4603471 -0.61092085
-0.4981702 1.988016 1.5321754 -0.72590846 -0.7327188 -0.45153916 -0.5171173 -0.38686386
-0.53682566 -0.36159474 1.3337604 -0.48553962 -0.7199827 -0.3875494 -0.61750495 -0.0052762628
-0.7573371 2.233242 -1.1527592 2.0354235 0.7691609 2.9591594 -0.6451096 -1.051433
-1.1326865 2.5105107 0.015339688 1.0591354 1.5475817 -0.15247251 1.3582205 1.1086192
-1.57331 0.12718087 0.51842755 0.16583073 -0.3326695 -1.1444018 -0.9030155 1.5886894
-0.8937661 1.9591888 1.273456 1.2524649 0.03758827 -1.8739552 1.541678 -0.949085
-0.28464007 1.5321988 -0.42327806 -0.556724 1.156117 0.25341925 1.0316608 -0.020813582
-1.2688317 -1.7227993 -1.2060573 -0.49521157 0.13079551 1.107801 -0.41842672 -0.45200917
-0.39241752 1.9260684 1.0757455 -1.0337424 -0.5650259 -0.7599995 -0.71069366 -0.5728186
-0.7124122 -0.54638666 0.89067084 -1.409812 -0.7979962 -0.35709193 -0.5177718 -0.029209107
-1.0893778 2.1541834 0.21463014 1.6275622 1.2942135 2.811708 -0.43927306 -0.4961202
0.516639 2.4916337 -0.7170168 0.38025898 1.5218052 -0.5921718 1.7614237 1.13277
-0.75466084 -0.86877996 1.4893609 -0.64681166 -0.33541825 -0.90428877 -0.476462 2.079535
-0.32740727 2.0195522 0.75900567 1.6298954 0.061295018 -1.050958 1.5890863 -0.91551954
-0.50123465 0.610793 -0.711897 -0.44424194 1.4023222 -0.46871352 0.50552934 -0.7973203
-0.49602458 -1.8604628 -0.55267876 -0.31636968 -1.1191843 0.9208152 -0.57756364 -0.4492943
-0.6332823 2.3161325 1.5613151 -0.5395939 -0.5912761 -0.843752 -0.4401827 -0.6668809
-0.50001454 -0.6534127 0.8076546 0.35744503 -0.29350966 -0.72006553 -0.882686 -0.08769365
-0.75655305 2.0249143 -0.28966662 2.530931 0.35183004 2.342617 -0.35218188 -0.87916744
-2.167545 1.9283363 -0.64013803 1.3258682 1.701434 -0.6506125 0.13700159 1.2114311
00000000: 0f1d 0bbf 8bd5 98be fd14 d93f 5294 2abe
00000010: de87 3dbf b057 47bf 46e2 25bf 31e5 af3f
00000020: cfec 17bf 35d0 0d40 fb67 a23e 9da5 8f3f
00000030: 727b 0cbf 2a8e 86bf 2501 ca3f 9610 5ebf
00000040: 4bff d3be 6526 593f 7262 dabe b9af 02bf
00000050: 5329 963f f05e 70be a8c1 3b3f 67ea 29bf
00000060: a7c7 59bf 704b ecbf dad9 6cbf 2729 07bf
00000070: 5b12 9ebf 7c6a 6b3f 66b7 19bf 62b9 fbbe
00000080: 3ba5 26bf 6c8b f53f 27ca c23f 85ad 84bf
00000090: fb16 0dbf ff49 2cbf 6fb9 d9be 89d9 10bf
000000a0: 0327 13bf cc16 23bf 2b5b 823f 8f8c ee3e
000000b0: b3d3 e9be 14f4 08bf ad14 f4be e858 abbd
000000c0: 79e8 f4be de40 0b40 36df 38bf 866d 1640
000000d0: 7c16 013f 0d63 1e40 e5bf edbe eacb d8be
000000e0: fae1 14c0 77db 1140 25d5 c9bd a5ac bc3f
000000f0: c44e d03f f178 d6be 5639 693f 883e bc3f
00000100: 18a6 c1bf 755c 363e ede4 6bbe 6e37 9fbe
00000110: 8328 9cbf 656f 2ebf d267 1fbf 058e 8c3f
00000120: f8b9 59bf 1cb6 dd3f 5c27 b23e 3955 8e3f
00000130: dd29 c9be 2122 86bf 19d4 833f 2ecc 15bf
00000140: 45a1 c4be cb16 343f fca1 06bf 6df2 aabf
00000150: 58d2 943f 7a54 8abe c742 9c3f fc95 3abe
00000160: 3147 28bf 11b2 cfbf 5397 9dbf 245a 39bf
00000170: ede8 e5be 2555 813f 9db2 ebbe 4f65 1cbf
00000180: 2a10 ffbe 4f77 fe3f 531e c43f 23d5 39bf
00000190: 7693 3bbf 2430 e7be cd61 04bf 0513 c6be
000001a0: 686d 09bf f222 b9be a9b8 aa3f a698 f8be
000001b0: c950 38bf e06c c6be ce14 1ebf 80e4 acbb
000001c0: d8e0 41bf 70ed 0e40 9d8d 93bf 6144 0240
000001d0: bbe7 443f de62 3d40 e725 25bf 5b95 86bf
000001e0: dffb 90bf 35ac 2040 5153 7b3c c091 873f
000001f0: 2817 c63f c121 1cbe 2bda ad3f 3ce7 8d3f
00000200: 3962 c9bf b43b 023e abb7 043f 88cf 293e
00000210: a853 aabe c27b 92bf 062c 67bf 2d5a cb3f
00000220: dbcd 64bf b3c6 fa3f 9b00 a33f c550 a03f
00000230: 28f6 193d c4dd efbf b455 c53f 3cf7 72bf
00000240: 58bc 91be 171f c43f e7b7 d8be 7785 0ebf
00000250: a4fb 933f 2bc0 813e 760d 843f 3f81 aabc
00000260: 1469 a2bf b084 dcbf 1660 9abf 5f8c fdbe
00000270: 42ef 053e 6ccc 8d3f 073c d6be bf6d e7be
00000280: f3ea c8be 6989 f63f 07b2 893f ac51 84bf
00000290: 8aa5 10bf 548f 42bf 05f0 35bf 3da4 12bf
000002a0: a560 36bf ffdf 0bbf 0103 643f b874 b4bf
000002b0: 7b49 4cbf c1d4 b6be b18c 04bf f047 efbc
000002c0: bb70 8bbf 24de 0940 01c8 5b3e f553 d03f
000002d0: caa8 a53f 06f3 3340 66e8 e0be 7803 febe
000002e0: 7442 043f ed76 1f40 6a8e 37bf 4eb1 c23e
000002f0: 83ca c23f 9298 17bf 5576 e13f 9bfe 903f
00000300: 7431 41bf 5d68 5ebf 61a3 be3f 7395 25bf
00000310: f1bb abbe 787f 67bf d4f2 f3be 1a17 0540
00000320: eda1 a7be 5840 0140 324e 423f 6aa0 d03f
00000330: 7c10 7b3d cb85 86bf 2e67 cb3f 7d5f 6abf
00000340: ea50 00bf ee5c 1c3f e23e 36bf ae73 e3be
00000350: 4b7f b33f 38fb efbe 5f6a 013f 2f1d 4cbf
00000360: eff6 fdbe a523 eebf 5b7c 0dbf 35fb a1be
00000370: 6e41 8fbf 8cba 6b3f 36db 13bf e709 e6be
00000380: ca1e 22bf 843b 1440 2cd9 c73f d322 0abf
00000390: df5d 17bf 2200 58bf a05f e1be b5b8 2abf
000003a0: f400 00bf 0e46 27bf 74c2 4e3f 0903 b73e
000003b0: e646 96be 3756 38bf b6f7 61bf ba98 b3bd
000003c0: 76ad 41bf 3298 0140 2f4f 94be c6fa 2140
000003d0: 1123 b43e 70ed 1540 2f51 b4be 1e11 61bf
000003e0: 0fb9 0ac0 b9d3 f63f 16e0 23bf 0db6 a93f
000003f0: 97c8 d93f 8a8e 26bf 254a 0c3e 2d10 9b3f

fc3.bias f4 [4]
-0.0061022695 -0.15427102 0.21995123 0.021608591
00000000: 8cf5 c7bb 39f9 1dbe e53a 613e 8004 b13c
