NeurPiRL/LunarLander/DQN/checkpoints/700.pth (torch, 22315 bytes, 6 tensors)

fc1.weight f4 [64, 8]
0	0xbfbb11a8	-1.4614763
1	0xbf597a1d	-0.84951955
2	0x3f0825e7	0.53182834
3	0xbdf0e508	-0.11762434
4	0xbed5a9c1	-0.41731074
5	0xbdacde7e	-0.084408745
6	0x3f2af0cb	0.6677367
7	0x3f2f1f02	0.6840669
8	0xbe823961	-0.25434402
9	0x3f22fbd9	0.6366554
10	0xbdc3350c	-0.09531602
11	0xbf106f34	-0.5641968
12	0x3e937527	0.28800318
13	0x3d7f8844	0.062385812
14	0x3f64798e	0.8924798
15	0x3dbac98d	0.09120474
16	0xbdb15c8a	-0.086602286
17	0x3f1ede5f	0.6205806
18	0x3e211e4a	0.1573421
19	0x3fb83e33	1.4393982
20	0x3f5078ec	0.8143451
21	0x3f865ed7	1.0497693
22	0xbd881e9e	-0.06646465
23	0xbf34a8e6	-0.7057022
24	0x3df08b51	0.117453225
25	0xbf78099d	-0.9688967
26	0xbf137317	-0.5759749
27	0xbf3efbba	-0.74602854
28	0xbf3a8498	-0.7285857
29	0x3eb4e7c6	0.3533308
30	0x3cd6a644	0.026202329
31	0xbf2d9ca9	-0.6781717
32	0x3ef50b24	0.47860062
33	0xbd4b4fa7	-0.04963651
34	0x3eb89ffb	0.36059555
35	0xbee78b6c	-0.45223558
36	0xbf47cf59	-0.7805076
37	0xbf6fe575	-0.937095
38	0x3f2d0fe1	0.67602354
39	0x3e2b6089	0.16736044
40	0xbf0b5fe5	-0.544432
41	0x3f55d896	0.8353361
42	0x3f901dff	1.1259154
43	0xbfcfa2f0	-1.62216
44	0xbdb23cab	-0.08702978
45	0xbbad8378	-0.0052952133
46	0xbe205470	-0.1565721
47	0xbf5961ab	-0.84914654
48	0x4015a97e	2.33847
49	0xbd8a2a36	-0.06746332
50	0x3fcb97e5	1.590573
51	0xbe9c87bb	-0.30572304
52	0x3b39b3f2	0.0028336016
53	0x3ec7d11b	0.39026722
54	0xbe0dc301	-0.1384392
55	0x3dc3d02e	0.095611915
56	0x3e46ede5	0.19426687
57	0x3baca2be	0.005268424
58	0x3dbbdaaf	0.0917257
59	0x3e901fb7	0.28149197
60	0x3f7dc3d3	0.9912693
61	0xbefe2b34	-0.49642336
62	0xbef5376d	-0.4789385
63	0x3f5dda95	0.86661655
64	0xbdccc75b	-0.099989615
65	0xbd486974	-0.048928693
66	0x3d6fab37	0.058512893
67	0x3f16a3dd	0.58843786
68	0x3f65e717	0.8980574
69	0xbf6327da	-0.88732684
70	0xbe4b95d0	-0.19881368
71	0x3f834259	1.0254623
72	0x3c80b16a	0.015709598
73	0xbc3baeec	-0.011455279
74	0xbdccb355	-0.09995142
75	0x3daee0e0	0.08538985
76	0x401e7bcd	2.4763062
77	0xbe4d5645	-0.2005244
78	0xbdc0741f	-0.09397148
79	0x3ecf7bdd	0.40524188
80	0xbe2b07b7	-0.16702162
81	0xc0198efe	-2.3993526
82	0xbeb837a5	-0.35979953
83	0xbfcbb439	-1.5914375
84	0xbf02e220	-0.5112629
85	0x3ecd576c	0.4010576
86	0xbed2e669	-0.41191414
87	0xbe1eca01	-0.15506746
88	0xbf08bc53	-0.5341236
89	0xbf7c2bd9	-0.98504406
90	0xbe9f3fa1	-0.31103233
91	0x3f40107d	0.7502516
92	0x3e29c8df	0.16580532
93	0xbf378d5d	-0.7170008
94	0x3e3e3403	0.18574528
95	0x3f798302	0.9746553
96	0x3f12d402	0.5735475
97	0x3c8b73bb	0.017022958
98	0x4013f5d4	2.3118792
99	0xbfb5f9ba	-1.4216835
100	0xbf8f769f	-1.1208075
101	0x3f129d59	0.57271343
102	0x3ca59aef	0.02021548
103	0xbdcd9794	-0.10038677
104	0xbf7393a3	-0.9514715
105	0xbe35a780	-0.17739677
106	0xbfcca028	-1.5986376
107	0xbe206966	-0.15665206
108	0x3f510c7a	0.8165966
109	0xbf738293	-0.95121115
110	0x3e533adb	0.2062792
111	0x3e6b9320	0.23005342
112	0xbfc9d9bf	-1.5769576
113	0x3b13010c	0.0022431044
114	0xbee2af36	-0.442743
115	0xbf1bedf1	-0.60909945
116	0x3bd4da4e	0.0064957505
117	0x3aa41b86	0.001252041
118	0x3e8c48a1	0.2739916
119	0xbf8107e6	-1.0080535
120	0xc00341cb	-2.0508907
121	0xbfb2dfe1	-1.3974572
122	0xbf8662a3	-1.0498852
123	0xbf30c3ec	-0.69048953
124	0x3b3d1e00	0.0028856993
125	0x3e072d9b	0.13200991
126	0xbd68d31b	-0.05684195
127	0x3ec8fa87	0.39253637
128	0xbec95ba9	-0.39327744
129	0xc022c269	-2.5431159
130	0xbf9d29bc	-1.2278361
131	0xbf179730	-0.5921507
132	0xbf97128e	-1.1802537
133	0xbf9bd2c7	-1.2173699
134	0x3f3aa178	0.7290263
135	0x3ddb7d31	0.10717238
136	0x3eddb664	0.43303216
137	0xbf80f464	-1.0074582
138	0x3f567ae6	0.8378128
139	0xbf69cbb7	-0.9132647
140	0xbfa15be3	-1.2606167
141	0xbbaed854	-0.005335847
142	0x3ef93c8c	0.48679006
143	0x3e99f729	0.3007138
144	0xbfa8c67d	-1.3185574
145	0x3e18f60b	0.14937608
146	0xbf7bb68e	-0.9832543
147	0xbe5ced27	-0.21574841
148	0x3f06a118	0.5258956
149	0xbdd58cd9	-0.10427255
150	0x3e295635	0.16536792
151	0x3f0ac03f	0.54199594
152	0x3f2598d5	0.6468633
153	0xbe46f926	-0.1943098
154	0x3f756bac	0.9586742
155	0xbef6fd53	-0.48240146
156	0x3ff6a082	1.9267733
157	0x3f9ba97e	1.21611
158	0xbdbe9624	-0.09305981
159	0xbc5c1d6f	-0.013434752
160	0xbf49abf8	-0.7877803
161	0x3eb9f144	0.36316884
162	0x3fb1f3bf	1.390251
163	0x3f2a9c5c	0.66644835
164	0x3f7c5662	0.9856931
165	0xbf47db57	-0.7806906
166	0x3f6cc4ba	0.9248768
167	0xbe403152	-0.18768814
168	0x3ea3f8c1	0.32025722
169	0xbfb9c66b	-1.4513677
170	0xbeb76813	-0.3582159
171	0xbcae88b3	-0.021305418
172	0xbf5426fb	-0.8287198
173	0xbf802809	-1.0012218
174	0x3eef10b0	0.4669242
175	0x3f300eb2	0.68772423
176	0x3f656878	0.8961253
177	0xbed2e3e2	-0.41189486
178	0x3f1b2546	0.6060375
179	0xbf30ade6	-0.6901535
180	0xbe5a8319	-0.21339072
181	0x3f7884c6	0.97077596
182	0xbf339e62	-0.7016355
183	0x3e9cc65c	0.30620086
184	0x3d517f84	0.051147
185	0xbf0fb3cb	-0.5613372
186	0x3ef98284	0.48732388
187	0x3e1e49de	0.15457866
188	0xbf0bc5f5	-0.54598933
189	0xbf986cf3	-1.1908249
190	0x3ebfc6fa	0.37456495
191	0x3e91ccbd	0.28476515
192	0xbe5b74c1	-0.21431257
193	0x3ea4a060	0.32153606
194	0xbe5db277	-0.2165011
195	0xbf22e0ab	-0.63624066
196	0x3da492f1	0.08035839
197	0xbec140ac	-0.37744653
198	0xbfc483ba	-1.53527
199	0xbfd0018f	-1.6250476
200	0x3ec4dde3	0.38450536
201	0x3f4fb433	0.8113434
202	0x3ef4f001	0.47839358
203	0x3f873b1a	1.0564911
204	0x3fb3d45c	1.4049182
205	0x3f1f7aaf	0.62296575
206	0xbef6939d	-0.48159495
207	0xbe3ef046	-0.18646345
208	0x3f1892bd	0.59598905
209	0xbf80d249	-1.0064174
210	0x3ec83361	0.391017
211	0xbf7072d5	-0.9392522
212	0x3f2fb9e1	0.68643004
213	0xbf80baab	-1.0056967
214	0x3eb1dd05	0.34738937
215	0x3eb92e4e	0.3616814
216	0xbcc35918	-0.023846194
217	0x3e8280ed	0.25488988
218	0xbec93200	-0.3929596
219	0x3e466fa6	0.19378528
220	0x3f33bcce	0.7020997
221	0xbfcf1988	-1.6179667
222	0x3dafc3d5	0.08582274
223	0xbd6e8ce0	-0.058239818
224	0x3d75ef77	0.060042825
225	0xbf9afab4	-1.2107759
226	0x3c08ea4f	0.008356645
227	0xbf427f41	-0.75975424
228	0x3f2106c1	0.6290093
229	0x3fba7dec	1.4569678
230	0xbd0215be	-0.031759016
231	0x3ef05088	0.4693644
232	0x3f994062	1.1972773
233	0x3f5b8113	0.85743827
234	0x3e51b586	0.20479402
235	0xbfc5bb4a	-1.5447781
236	0x3fe0aa09	1.7551891
237	0x3ca64875	0.020298222
238	0xbea0d82b	-0.31414923
239	0x3f0f9a8f	0.5609521
240	0x3eadaf36	0.33922738
241	0xbe8cd87a	-0.2750891
242	0xbea68b38	-0.3252809
243	0xbf2ff61b	-0.687349
244	0xc0214273	-2.5196807
245	0xbe6cb20e	-0.23114797
246	0xbd9db5f1	-0.07700718
247	0x3ef55c22	0.47921854
248	0xbcc37e22	-0.023863856
249	0xbea4915e	-0.32142156
250	0x3fccffcf	1.6015567
251	0xbfc35596	-1.5260494
252	0x3fa08114	1.2539392
253	0xbf25c0d2	-0.64747345
254	0x3eee35cb	0.46525416
255	0xbf1916a2	-0.5980016

fc1.bias f4 [64]
0	0x3f549665	0.83041984
1	0x3d635bab	0.055507343
2	0x3ecd0ab2	0.40047222
3	0x3fb2d993	1.3972648
4	0xbef586e8	-0.47954488
5	0x3f914ee3	1.1352199
6	0x3d3f274a	0.04666833
7	0xbd86a32a	-0.0657409
8	0x3dd55064	0.10415724
9	0x3d3167f7	0.04331204
10	0x3eadb102	0.3392411
11	0xbf276a56	-0.6539663
12	0x3e911103	0.2833329
13	0xbe65310d	-0.22381993
14	0x3eec3c1c	0.4613961
15	0x3a63d0d2	0.00086904794
16	0xbf259782	-0.6468431
17	0xbd8467bd	-0.06465099
18	0xbf3b7937	-0.73231834
19	0xbf06c91f	-0.52650636
20	0x3e82a71c	0.2551812
21	0xbd61983d	-0.055076826
22	0xbe094369	-0.13404621
23	0x3ebed661	0.37272933
24	0x3e003e77	0.12523828
25	0x3f5a2d58	0.8522544
26	0xbe8a53ef	-0.2701716
27	0xbec5e8b1	-0.38654092
28	0xbeaae7c4	-0.33379948
29	0x3ecc7724	0.39934647
30	0x3e24da51	0.16098906
31	0x3ea8e506	0.3298723
32	0x3f0f4e8a	0.55979216
33	0xbf022a88	-0.5084615
34	0xbf05c98f	-0.5226068
35	0x3e88d3c9	0.2672408
36	0x3b41db37	0.0029580125
37	0x3ee4f0bb	0.44714913
38	0x3eaddec0	0.33959007
39	0xbee1e665	-0.4412109
40	0x3f045ce3	0.51704234
41	0x3e485dcd	0.19567032
42	0xbef40ab1	-0.47664407
43	0x3f5b3ea9	0.85642487
44	0x3f29be0e	0.66305625
45	0xbddd261f	-0.10798287
46	0x3eac4f04	0.33654034
47	0x3f0f5499	0.5598846
48	0x3e819d7a	0.25315458
49	0xbf096efa	-0.5368496
50	0xbdf63313	-0.120214604
51	0xbef2a1d8	-0.47389102
52	0xbf1719f6	-0.5902399
53	0xbeb84820	-0.35992527
54	0x3eaa7002	0.3328858
55	0x3e9538a9	0.2914479
56	0x3e6f5816	0.23373446
57	0x3eb026d5	0.34404626
58	0x3f04d46a	0.5188662
59	0x3f05ca07	0.52261394
60	0x3e971d91	0.29514745
61	0x3f911012	1.1333029
62	0x3cc9f428	0.024652556
63	0x3f2c9794	0.6741879

fc2.weight f4 [64, 64]
0	0xbda75449	-0.08170373
1	0x3da4819f	0.08032536
2	0x3f295eb2	0.6616012
3	0xbf2edf95	-0.6830991
4	0x3f07ec9d	0.5309542
5	0xbd942c01	-0.072349556
6	0x3fa0b733	1.2555908
7	0x3ebf1210	0.37318468
8	0xbe97bd0a	-0.29636413
9	0xbf532c6a	-0.82489645
10	0xbf3aaf5d	-0.72923833
11	0x3f3e9dd6	0.7445959
12	0x3e393564	0.18086773
13	0x3e8a2320	0.26979923
14	0xbea65075	-0.3248326
15	0x3f1815f6	0.5940851
16	0x3e91e4cb	0.28494868
17	0x3ea20317	0.31642982
18	0x3fb24c88	1.3929605
19	0xbe86275f	-0.26201913
20	0xbdfd98bf	-0.1238265
21	0x3eccb90e	0.39984936
22	0x3eecec55	0.46274057
23	0x3de46478	0.111519754
24	0xbe8bc36b	-0.2729753
25	0xbc8b6c71	-0.017019482
26	0xbecbd150	-0.3980813
27	0x3f4e1263	0.80496806
28	0x3efb0a67	0.49031374
29	0x3f169d14	0.5883343
30	0xbf1ab671	-0.60434633
31	0xbdc37a55	-0.09544817
32	0xbe28da70	-0.16489577
33	0xbf942c2a	-1.1575978
34	0x3fabe88f	1.3430346
35	0x3d590564	0.052983657
36	0x3e9d7807	0.30755636
37	0x3bab9452	0.005236187
38	0x3e105ee4	0.14098698
39	0x3ed4af8b	0.4154018
40	0xbee2b9ca	-0.4428237
41	0xbed7325b	-0.42030606
42	0x3f0f0a51	0.55875117
43	0x3ed8899d	0.4229249
44	0xbf797a11	-0.97451884
45	0xbf698f6a	-0.9123446
46	0x3ea6fd15	0.3261496
47	0xbd9e9d06	-0.077447936
48	0x3f909b7c	1.129745
49	0xbf5317cf	-0.82458204
50	0xbeeddd48	-0.46457887
51	0x3f0a96c6	0.5413631
52	0x3fc18cb2	1.5121062
53	0x3ec67ab4	0.3876549
54	0x3f3cb30a	0.7371069
55	0x3eee7113	0.46570644
56	0xbdb75886	-0.089524314
57	0x3f0bf671	0.54672915
58	0x3e4bb870	0.19894576
59	0x3d350d98	0.044202417
60	0x3f15031d	0.58207875
61	0xbdf74d69	-0.12075312
62	0xbe08ba2e	-0.13352272
63	0x3d09323c	0.033495173
64	0xbea8be17	-0.32957527
65	0x3d7348cc	0.059395596
66	0xbfa0b309	-1.2554637
67	0x3f30e6f6	0.6910242
68	0xbefdb12e	-0.4954924
69	0xbe9a87c2	-0.301817
70	0xbdb92364	-0.09039953
71	0xbe297274	-0.16547567
72	0xbebbccd7	-0.36679718
73	0x3e8dc5ad	0.27689877
74	0xbd846b9d	-0.06465838
75	0xbe80614f	-0.2507424
76	0xbd50d2b0	-0.050982177
77	0xbda3bea2	-0.07995345
78	0xbf01929b	-0.5061433
79	0xbf1daaf4	-0.6158898
80	0xbcd05f94	-0.0254362
81	0xbeecf4a6	-0.46280402
82	0x3e9556df	0.2916784
83	0x3e9e0273	0.30861244
84	0xbf63a151	-0.88918024
85	0xbee20fc9	-0.44152668
86	0x3d8f1f50	0.06988394
87	0xbe35623e	-0.17713258
88	0xbe476630	-0.19472575
89	0xbeba3221	-0.3636637
90	0xbeb193b9	-0.34683016
91	0xbe1c1d0f	-0.1524546
92	0x3d995b72	0.07488145
93	0x3ed65b44	0.41866505
94	0x3ee021e5	0.4377586
95	0xbf1187c8	-0.5684781
96	0x3e3dde68	0.18541873
97	0xbffcbb93	-1.9744743
98	0x3f0daf0d	0.5534523
99	0xbeab6115	-0.33472505
100	0xbfab0b6d	-1.3362862
101	0xbeab2d7c	-0.3343314
102	0xbf0c1ffd	-0.5473631
103	0xbe42ac65	-0.19011076
104	0x3d94d7b6	0.07267706
105	0x3ea718fd	0.32636252
106	0x3ef79c9a	0.48361665
107	0xbdcab508	-0.0989781
108	0xbedbb55d	-0.42911807
109	0x3f0c09f4	0.5470269
110	0xbe865bf2	-0.26242024
111	0xbdc459ef	-0.09587466
112	0x3ea3fa9e	0.32027143
113	0xbf4ac642	-0.7920877
114	0x3f9fdd3a	1.2489388
115	0x3f4910f0	0.7854147
116	0x3f344e7d	0.70432264
117	0xbedf34dc	-0.43595016
118	0xbea5818a	-0.32325393
119	0x3d8559b4	0.0651125
120	0xbe6fb3e9	-0.23408474
121	0x3ecad671	0.3961673
122	0x3df7831c	0.12085554
123	0xbf1b29d5	-0.60610706
124	0x3eb1d658	0.34733844
125	0x3e7025bb	0.23451893
126	0xbdd3b540	-0.10337305
127	0xbf0ad569	-0.5423189
128	0xbeb48ca0	-0.35263538
129	0x3e98fd98	0.29880977
130	0x3f87f9db	1.0623125
131	0xbf1c5415	-0.610658
132	0x3f253aeb	0.64543027
133	0xbdcb6f2b	-0.09933313
134	0x3f90be43	1.1308063
135	0x3f0bafea	0.545653
136	0xbf1173da	-0.568174
137	0xbf19f805	-0.6014407
138	0xbf36e0b7	-0.7143664
139	0x3f50c707	0.8155369
140	0x3e36fbd2	0.178695
141	0x3f057413	0.5213024
142	0xbee07baa	-0.43844348
143	0x3f09b48d	0.53791124
144	0x3ee6147e	0.4493751
145	0x3e937cf3	0.28806266
146	0x3fab8db5	1.340262
147	0xbde384a9	-0.11109287
148	0xbde6b246	-0.11264472
149	0x3ed0541b	0.40689167
150	0x3eeb6caa	0.45981342
151	0x3ec2099e	0.37897962
152	0xbebee82d	-0.3728651
153	0x3da97829	0.08274872
154	0xbe9fa17c	-0.3117789
155	0x3f171a01	0.59024054
156	0x3f0ec2a3	0.5576574
157	0x3f0e8fc6	0.5568813
158	0xbf6c81ce	-0.92385566
159	0x3d9bbd07	0.076044135
160	0xbecf8ed6	-0.40538663
161	0xbf8ab5d0	-1.0836735
162	0x3f8c4895	1.095965
163	0x3e4c9a04	0.19980627
164	0x3e725ba7	0.23667775
165	0xbdc54ae3	-0.09633424
166	0x3cd112ea	0.025521714
167	0x3efe1eeb	0.49632964
168	0xbe885192	-0.26624733
169	0xbec7c840	-0.39019966
170	0x3f523e87	0.8212666
171	0x3ee293b5	0.44253317
172	0xbf8ed613	-1.115908
173	0xbf783fc4	-0.969723
174	0x3edb1740	0.42791176
175	0xbde22250	-0.11041701
176	0x3f744500	0.95417786
177	0xbf9304bf	-1.1485823
178	0xbe89c508	-0.26908135
179	0x3f3eda87	0.74552196
180	0x3fd21bfb	1.6414789
181	0x3f0c7e23	0.5487997
182	0x3f52a26e	0.822791
183	0x3ed229ec	0.4104761
184	0x3e08e4c1	0.13368513
185	0x3ecbe506	0.3982317
186	0x3d28e9c5	0.041238565
187	0x3d239ebd	0.039946306
188	0x3f51c421	0.81939894
189	0xbe76c9d6	-0.24100432
190	0x3db297af	0.087203376
191	0x3d85ae37	0.065273695
192	0xbf1eb5e2	-0.6199628
193	0xbd11ab6f	-0.035563882
194	0x3f510680	0.81650543
195	0xbef3dd4e	-0.4762978
196	0xbcd3c59d	-0.025851065
197	0xbdf49520	-0.11942506
198	0x3f06e011	0.5268565
199	0x3f0784f4	0.52937245
200	0xbdf4a054	-0.11944643
201	0xbf265a5e	-0.6498164
202	0xbf0ef006	-0.55834997
203	0x3f537844	0.82605386
204	0xbe759a6d	-0.2398469
205	0x3f3e3529	0.74299866
206	0x3e069b1f	0.13145112
207	0x3f5b6ad2	0.8570987
208	0xb9c8293b	-0.00038177692
209	0x3e5acc23	0.21366934
210	0x3f2e3806	0.68054235
211	0xbe207a7f	-0.15671729
212	0xbe9171ef	-0.28407237
213	0x3ea63d38	0.3246858
214	0x3f0465a5	0.517176
215	0x3e834f31	0.25646356
216	0x3deef04a	0.11666925
217	0x3e3eec73	0.18644886
218	0xbeafcf1c	-0.343377
219	0x3d8eb38a	0.06967838
220	0x3ec129b7	0.37727138
221	0x3db2656b	0.0871075
222	0xbf4ded2a	-0.8044001
223	0x3eb41a67	0.35176393
224	0xbe155ab8	-0.14585388
225	0xbf55653f	-0.83357614
226	0x3f52dac6	0.8236507
227	0xbdfbac6c	-0.12288746
228	0x3ba472c1	0.0050185625
229	0xbdcbefe4	-0.09957865
230	0x3f48ed60	0.78487206
231	0x3f29daca	0.6634947
232	0xbe42299a	-0.18961182
233	0xbead6f08	-0.33873773
234	0x3ed62d94	0.41831648
235	0x3f1e1b8f	0.617608
236	0xbf1a98d0	-0.60389423
237	0xbf08fd7d	-0.5351179
238	0x3e7b007e	0.24511907
239	0x3e204587	0.15651523
240	0x3f0a45db	0.5401284
241	0xbf90df2f	-1.131811
242	0x3e807453	0.25088748
243	0x3f22d1fe	0.6360167
244	0x3f93933c	1.1529307
245	0x3ebd7855	0.3700587
246	0x3f6d9178	0.9280009
247	0x3ead0c91	0.3379865
248	0xbd1a4d4f	-0.037671383
249	0x3f5f980c	0.8734138
250	0x3ef68a0b	0.48152193
251	0x3bcc83b3	0.0062412857
252	0x3f6353c7	0.8879971
253	0xbd02e15d	-0.031953204
254	0x3f0d046a	0.5508486
255	0x3e8c7129	0.27430084

fc2.bias f4 [64]
0	0xbd2d9be9	-0.042385016
1	0x3e7f7192	0.24945667
2	0xbe1a5a18	-0.1507343
3	0xbd67b745	-0.056571264
4	0xbdff36da	-0.12461634
5	0xbe823f1b	-0.2543877
6	0xbeb926a1	-0.36162284
7	0x3e6d732e	0.23188469
8	0x3f52a900	0.82289124
9	0xbe117d12	-0.14207867
10	0x3d53d8ce	0.051720433
11	0x3f0d1c82	0.55121624
12	0x3dcd9c38	0.10039562
13	0x3f0178d3	0.5057499
14	0x3c6d3379	0.014477604
15	0x3f367306	0.7126926
16	0x3d56e22f	0.0524618
17	0x3f1a5317	0.60283035
18	0x3ec0b696	0.37639302
19	0xbf36bdc2	-0.713833
20	0xbe9302aa	-0.2871297
21	0x3f13f0cf	0.5778932
22	0xbdbcc43e	-0.09217118
23	0x3db77999	0.0895874
24	0xbdfc9540	-0.12333155
25	0x3e957fc5	0.29199043
26	0xbec884b0	-0.39163733
27	0xbd988c3d	-0.07448623
28	0xbf1043b2	-0.56353295
29	0xbe8308e7	-0.2559273
30	0xbea5ea37	-0.32405254
31	0x3ede0ad1	0.43367627
32	0x3f0c0e5a	0.547094
33	0xbd3f3783	-0.0466838
34	0xbe5c1d6f	-0.21495603
35	0x3eca5888	0.3952067
36	0x3eccf3af	0.40029666
37	0xbe3c6f28	-0.18401778
38	0xbe963435	-0.29336706
39	0x3e00448d	0.1252615
40	0xbd6433a0	-0.055713296
41	0xbf58ffb5	-0.8476518
42	0xbf21945c	-0.63117003
43	0xbda508e9	-0.0805834
44	0xbe1271a3	-0.14301161
45	0xbf476fe6	-0.7790512
46	0x3dd94de6	0.10610561
47	0xbea295ec	-0.31755006
48	0x3cc2e522	0.0237909
49	0xbd68de20	-0.05685246
50	0xbe9507e1	-0.29107574
51	0x3ce830c4	0.028343566
52	0xbf828843	-1.0197834
53	0x3f967b13	1.1756309
54	0x3ebe9ad0	0.37227488
55	0xbe8f3775	-0.27971998
56	0xbe258f48	-0.16167939
57	0xbddb845d	-0.10718606
58	0xbd539303	-0.051653873
59	0xbed8c8c1	-0.42340663
60	0x3e5f9ad3	0.21836405
61	0x3ea21d48	0.31662965
62	0xbd144dfb	-0.03620718
63	0x3e6405d3	0.22267847

fc3.weight f4 [4, 64]
0	0xbef9cf88	-0.48791146
1	0x3f89ffac	1.078115
2	0xbeee920b	-0.46595797
3	0xbee2e916	-0.44318455
4	0xbf0403c2	-0.51568234
5	0xbecbbd50	-0.3979287
6	0xbf0fdd71	-0.5619727
7	0x3f4fe56a	0.81209433
8	0x3fe0a2e0	1.7549706
9	0xbf4133ea	-0.7546984
10	0x3f10c20a	0.5654608
11	0x404681b8	3.1016674
12	0x3fe78b08	1.8089304
13	0x402257f7	2.536619
14	0x4002adf6	2.0418677
15	0x4004fa16	2.077764
16	0x3d2d3714	0.042288855
17	0x401b7508	2.429018
18	0x3fe2b4d8	1.7711439
19	0xbfbe769c	-1.4879947
20	0xbf973e97	-1.1815976
21	0x3fd9215f	1.6963309
22	0xbbd4f56b	-0.0064989827
23	0xbea567a2	-0.32305628
24	0xbd6d1cc0	-0.057888746
25	0x3f5f93bc	0.873348
26	0x3e511a7f	0.20420264
27	0xbe3517af	-0.17684816
28	0xbf9d0e1d	-1.2269932
29	0x3ec10418	0.37698436
30	0xbf117b92	-0.5682918
31	0x3ed919cf	0.42402503
32	0x405b33ab	3.4250286
33	0xbd073f86	-0.033019565
34	0x3f044113	0.51661795
35	0xbd80f151	-0.062960275
36	0xbfa2f34d	-1.27305
37	0xbf30a85c	-0.69006896
38	0xbef4ef7a	-0.47838956
39	0xbf062972	-0.5240699
40	0xbe60a584	-0.21938139
41	0xbf23359e	-0.6375369
42	0x3f7710f8	0.9651027
43	0xbf89281d	-1.0715367
44	0xbdc3daa6	-0.09563188
45	0xbfbe064c	-1.4845672
46	0xbed69d7a	-0.4191702
47	0xbec6c5da	-0.38822824
48	0x402fca32	2.746716
49	0x4001b1a1	2.0264666
50	0xbd52ea8c	-0.051493213
51	0x3ea9ef0d	0.33190194
52	0xc0059a85	-2.0875561
53	0x4007ec7e	2.1238093
54	0x400db7ac	2.2143354
55	0xbf07ff11	-0.53123575
56	0xbf03bdb8	-0.5146136
57	0xbef19aad	-0.4718832
58	0xbee108c3	-0.43951997
59	0xbe3fa94d	-0.18716927
60	0x3ed24617	0.410691
61	0xbfe7ccd5	-1.8109385
62	0xbf7d861f	-0.9903278
63	0xbfba2854	-1.4543557
64	0xbed8da57	-0.4235408
65	0x3ecb4f35	0.39708868
66	0xbf06f501	-0.52717596
67	0xbf5d2f94	-0.86400723
68	0xbf0c648f	-0.5484094
69	0xbe817349	-0.25283268
70	0xbf0ae9b2	-0.5426284
71	0x3feb4a1b	1.838199
72	0x3fb2ebdf	1.3978232
73	0xbf3cb07b	-0.7370679
74	0x3db5d3aa	0.08878262
75	0x4048fdee	3.1404986
76	0x3f7c7c35	0.98627025
77	0x402f09ff	2.734985
78	0x3fd4d756	1.6628215
79	0x400fff0c	2.2499418
80	0x3da44392	0.080207005
81	0x401a834a	2.4142632
82	0x3fc1e095	1.5146662
83	0xbf23a86a	-0.63928854
84	0xbe6cfdba	-0.23143664
85	0x40030708	2.0473042
86	0xbd7d10c8	-0.061783582
87	0xbf17a92e	-0.5924252
88	0xbda42e10	-0.08016598
89	0x3fc7eb5c	1.5618701
90	0xbfa74f57	-1.3071088
91	0xbf4a1165	-0.7893279
92	0xbfc5ecb5	-1.5462862
93	0x3ea0fc8b	0.31442675
94	0xbf145411	-0.57940775
95	0x3e3c2ca0	0.18376398
96	0x40763636	3.8470588
97	0x3df25ac9	0.11833722
98	0xbf4b4fb6	-0.79418504
99	0x3f040a5a	0.51578295
100	0xbf198b95	-0.5997861
101	0xbef01364	-0.46889794
102	0xbf130882	-0.57434857
103	0xbead3bbf	-0.33834645
104	0xbf04db7f	-0.51897424
105	0xbf91ef3c	-1.1401134
106	0x3fcc2254	1.5947976
107	0xbfa59248	-1.2935266
108	0x3d99bead	0.07507072
109	0xbfc69c0c	-1.5516372
110	0xbeac0adc	-0.33602035
111	0xbf0fc30c	-0.5615699
112	0x402519b1	2.579693
113	0x4007d20b	2.122195
114	0x3e891051	0.2677026
115	0x3e86fecd	0.26366273
116	0xbf7e64a7	-0.99372333
117	0x401fa175	2.4942296
118	0x4011813d	2.273513
119	0xbf03b4b4	-0.51447606
120	0xbed10761	-0.40825942
121	0xbf156b14	-0.58366513
122	0xbeb6779e	-0.35638136
123	0xbf9ac2b8	-1.2090673
124	0x3f8fd022	1.1235392
125	0xbffe1f55	-1.9853312
126	0xbf9ec41c	-1.2403598
127	0xbf3862a2	-0.720255
128	0xbf07da78	-0.5306773
129	0x3f9dd238	1.2329779
130	0xbef5e87e	-0.4802894
131	0xbf33a6b1	-0.70176226
132	0xbf0721c1	-0.5278588
133	0xbf565c9b	-0.83735055
134	0xbf2e221e	-0.6802081
135	0x3fc5658b	1.5421613
136	0x40184050	2.3789253
137	0xbf6cac08	-0.9245
138	0x3f87f6dc	1.062221
139	0x4026da4e	2.6070743
140	0x3fd807e8	1.6877413
141	0x402488e6	2.5708556
142	0x3fa43d0d	1.2831131
143	0x3ff9587b	1.9480127
144	0xbdcb4dda	-0.099269584
145	0x3fe50fe9	1.789548
146	0x3fc8fe43	1.5702595
147	0xbfc643ae	-1.5489404
148	0xbfe3a4a1	-1.7784616
149	0x3ffab657	1.9586896
150	0x3d8b9f24	0.06817463
151	0xbea918b3	-0.33026657
152	0xbd35889c	-0.044319734
153	0x3f418553	0.7559406
154	0x3f600dbe	0.8752097
155	0xbf44cdf5	-0.76876765
156	0xbf2ac30b	-0.6670386
157	0x3f9ad43c	1.2096019
158	0xbe48d30c	-0.19611758
159	0x3f18d151	0.5969439
160	0x403d5ad1	2.958668
161	0x3b2e756e	0.0026620287
162	0x3f1f936b	0.62334317
163	0xbe2392e4	-0.15974003
164	0xbf6032cf	-0.8757753
165	0xbf951806	-1.1647956
166	0xbf13dd88	-0.57759905
167	0xbe69f095	-0.22845681
168	0xbf010e3b	-0.5041234
169	0xbf398e61	-0.7248288
170	0x3fb51df5	1.4149767
171	0xbf882b2f	-1.0638179
172	0x3ce6019b	0.028076937
173	0xbfb216ed	-1.3913246
174	0xbeb9645a	-0.36209375
175	0xbf26c238	-0.65140104
176	0x402bfff9	2.6874983
177	0x401658f4	2.3491793
178	0xbf9d1783	-1.22728
179	0xbfe82580	-1.8136444
180	0xc012505c	-2.2861547
181	0x3fed635e	1.854595
182	0x3fe59661	1.7936517
183	0xbef31efc	-0.47484577
184	0xbeefc220	-0.46827793
185	0xbe7affdd	-0.24511667
186	0xbf1b90d7	-0.60767883
187	0xbf387a2b	-0.72061414
188	0x3f94d41a	1.1627228
189	0xbfd15e70	-1.6356945
190	0xbfdc4515	-1.7208582
191	0xbf03a2f0	-0.514205
192	0xbf12d82f	-0.5736112
193	0x3f86476d	1.0490547
194	0xbf12e01a	-0.573732
195	0xbda9740c	-0.08274087
196	0xbf0ef5ac	-0.55843616
197	0xbf222611	-0.63339335
198	0xbecc58b8	-0.39911437
199	0x3f0a51fb	0.5403134
200	0x400bbe28	2.1834812
201	0xbf2e7f10	-0.6816263
202	0x3f819958	1.0124922
203	0x403ef0a9	2.9834387
204	0x3f984c86	1.1898353
205	0x401dd9ec	2.466426
206	0x3fdbf71c	1.7184787
207	0x3fee1db8	1.860282
208	0x3cdd7b00	0.02703619
209	0x401c42a2	2.441567
210	0x3ff5551a	1.9166596
211	0xbfe508e1	-1.7893335
212	0xbfca13a1	-1.578724
213	0x3ffa6cda	1.9564469
214	0xbde0acb8	-0.109704435
215	0xbf13e3d0	-0.5776949
216	0xbdafba78	-0.08580488
217	0x3f3f0385	0.74614745
218	0xbe929609	-0.28630093
219	0x3dc3b11b	0.095552646
220	0xbc777811	-0.01510431
221	0x3f659f5e	0.896963
222	0xbf11c4bf	-0.56940836
223	0xbe6f49e2	-0.23368028
224	0x40522747	3.2836473
225	0x3dd4cc3b	0.10390516
226	0x3f99a37f	1.200302
227	0xbef7b245	-0.48378196
228	0xbf84f24e	-1.0386446
229	0xbf8bb3bd	-1.0914227
230	0xbf036479	-0.51325184
231	0xbef1f1ba	-0.47254735
232	0xbedf08ed	-0.43561497
233	0xbe47486b	-0.19461219
234	0x3f2824be	0.65681064
235	0xbfae7421	-1.362919
236	0x3da2390d	0.07921038
237	0xbffe7a04	-1.9880986
238	0xbf13b768	-0.5770173
239	0xbf4d367a	-0.8016125
240	0x40372890	2.8618507
241	0x401342bd	2.3009484
242	0xbf498a04	-0.7872622
243	0xbee85057	-0.45373794
244	0xc00af956	-2.1714683
245	0x40069427	2.1027925
246	0x401804a1	2.3752825
247	0xbf0471aa	-0.5173594
248	0xbeb3597d	-0.35029212
249	0xbf1ab68a	-0.6043478
250	0xbed3c245	-0.41359153
251	0x3e58087d	0.21096988
252	0xbd493153	-0.049119305
253	0xbfe1a82f	-1.762945
254	0xbf4e1f61	-0.8051663
255	0xbf8f7f48	-1.1210718

fc3.bias f4 [4]
0	0x3cc6efcd	0.024284268
1	0x3f005468	0.50128794
2	0xbcadd1d7	-0.021218223
3	0x3d885477	0.066567354
