NeurPiRL_SA/LunarLander_old/ActorCritic/preTrained/LunarLander_0.02_0.9_0.999.pth (torch, 9579 bytes, 5 tensors)

affine.weight f4 [128, 8]
0	0xbf961514	-1.1725183
1	0xbf99a518	-1.2003508
2	0xbfcc348b	-1.5953535
3	0x400eae2a	2.2293801
4	0x40042681	2.06485
5	0x3ee42a1f	0.44563386
6	0x3e435b29	0.19077744
7	0xbe9a6061	-0.30151656
8	0xbd11b8d3	-0.035576653
9	0xbe372e35	-0.1788872
10	0xbe8865e6	-0.26640242
11	0x3e1055cd	0.1409523
12	0xbe800b7a	-0.25008756
13	0x3e5dadf1	0.21648385
14	0xbf086725	-0.53282386
15	0xbd97313e	-0.07382439
16	0xbe41bf86	-0.18920717
17	0xbe849bc1	-0.2590008
18	0xbf2d9a53	-0.67813605
19	0x3f05ec7c	0.5231397
20	0x3d9156e6	0.07096653
21	0x3ec44343	0.38332567
22	0x3e1db1e3	0.1539989
23	0xbddd10a7	-0.10794192
24	0x3f4de2e9	0.8042436
25	0xbe85539d	-0.26040354
26	0xbf7889bc	-0.97085166
27	0x3fd3f3ae	1.655874
28	0x3dc81189	0.097689696
29	0x3e442282	0.19153789
30	0xbf543889	-0.82898766
31	0xbf912074	-1.1338029
32	0xbdda7e4e	-0.10668622
33	0xbf726b0a	-0.9469458
34	0xbfd0d85e	-1.631603
35	0x3eec9371	0.4620624
36	0x3f88a2c2	1.067467
37	0xbf085d62	-0.5326749
38	0x3f55e1b8	0.83547544
39	0xbf782930	-0.9693785
40	0x3db4ef6d	0.08834729
41	0xbdaa8e0e	-0.08327876
42	0xbe1495f4	-0.14510328
43	0x3d098309	0.03357223
44	0xbe426a52	-0.1898587
45	0x3ce061cb	0.027390381
46	0xbe0bb248	-0.13642228
47	0xbebba3bd	-0.3664836
48	0x3964d0e0	0.00021821586
49	0xbeae39a8	-0.34028363
50	0xbe5a5743	-0.2132235
51	0xbda39f1d	-0.07989333
52	0xbdacf6af	-0.08445489
53	0x3c263a40	0.010145724
54	0xbed2f281	-0.4120064
55	0x3dfa066a	0.12208255
56	0x3d937a79	0.07201094
57	0xbe633d38	-0.22191322
58	0xbeb9bae2	-0.36275393
59	0x3e82d9cf	0.255568
60	0x3e0582c2	0.13038161
61	0xbe657624	-0.22408348
62	0xbee5aa38	-0.4485643
63	0xbf1c4d12	-0.610551
64	0xbf29ebde	-0.6637553
65	0xbf0263d8	-0.509336
66	0x3d7e8e41	0.062147383
67	0x3ec94b81	0.39315417
68	0xbe2d1fe2	-0.16906694
69	0x3b9374ca	0.0045000063
70	0xbe2ce0c0	-0.1688261
71	0xbec9abaa	-0.39388782
72	0xbfb29cc0	-1.3954086
73	0xbfacab55	-1.3489786
74	0x3d4dc01d	0.05023204
75	0x402a1650	2.6576118
76	0x3fa9d113	1.3266929
77	0xbf80a0ec	-1.004911
78	0x3ecf97b6	0.40545434
79	0xbf2fe3fb	-0.68707246
80	0x3dfff4de	0.124978766
81	0xbea4896f	-0.32136104
82	0xbe914f74	-0.2838093
83	0x3ec33926	0.38129538
84	0xbe1c74b0	-0.15278888
85	0x3ea2acb4	0.31772387
86	0xbf5faa6b	-0.8736941
87	0xbf0220a7	-0.50831074
88	0xbdb7c922	-0.0897391
89	0xbe428da1	-0.1899934
90	0xbdf7a045	-0.12091116
91	0x3e5cc75c	0.21560425
92	0x3d6f517a	0.05842731
93	0xbcef35d7	-0.029200478
94	0xbe513f39	-0.20434274
95	0xbf31f036	-0.6950716
96	0xbcc32b81	-0.023824455
97	0xbee52fda	-0.4476307
98	0xbf95e3ae	-1.1710107
99	0x403d237e	2.9552913
100	0xbd0d45ab	-0.03449027
101	0xbdee797e	-0.116442665
102	0xbfb69608	-1.4264536
103	0xbfb5631a	-1.4170868
104	0x3e609453	0.21931581
105	0xbe5773f0	-0.2104032
106	0xbefcb416	-0.49356145
107	0x3fb74987	1.4319314
108	0x3e70995a	0.23495999
109	0x3dd353b2	0.10318698
110	0xbfb7f9ad	-1.437307
111	0xbfa43db5	-1.2831331
112	0xbeeee6eb	-0.4666055
113	0xbf150d71	-0.58223635
114	0xbf21f7f8	-0.63268995
115	0x3f303b49	0.6884046
116	0x3dfc4f43	0.123198055
117	0xbee10b4a	-0.43953925
118	0xbe380730	-0.17971492
119	0xbea60e4c	-0.32432783
120	0x3d3edcae	0.046597175
121	0xbe8ce7b4	-0.27520525
122	0x3e093291	0.13398196
123	0xbcdd0402	-0.02697945
124	0x3cd4964c	0.025950573
125	0xbd19bf5c	-0.03753601
126	0x3d060003	0.032714855
127	0xbdee636c	-0.11640057
128	0xbe57a2dd	-0.21058221
129	0xbf08488a	-0.53235686
130	0xbedd33a6	-0.43203467
131	0x3e9692d2	0.2940889
132	0xbd054b07	-0.032542255
133	0x3e07aff7	0.13250719
134	0xbeb3e9ac	-0.35139215
135	0xbd3b5d44	-0.045743242
136	0x3ecefdec	0.40428102
137	0xbf7030ef	-0.93824667
138	0x3e50f7b1	0.20406987
139	0xbece4208	-0.40284753
140	0xbeb66b58	-0.35628772
141	0x3dcfce9d	0.1014683
142	0xbd83b571	-0.064310916
143	0xbf05bfa1	-0.5224553
144	0xbf0f715c	-0.5603235
145	0xbf0c3ea2	-0.5478307
146	0x3e0e30a7	0.13885747
147	0x3eeb8ccc	0.46005857
148	0xbe850bcc	-0.25985563
149	0x3e4fd02b	0.20294254
150	0xbefc405a	-0.49267846
151	0xbf3639a0	-0.7118168
152	0xbf57ff0f	-0.84373564
153	0xbfc1f350	-1.5152378
154	0x3db20b20	0.08693528
155	0xbfd19737	-1.6374272
156	0xbd48807a	-0.04895065
157	0x4015542c	2.3332624
158	0x3dbf8dfe	0.09353255
159	0xbe3538fd	-0.1769752
160	0xbe550ba8	-0.20805228
161	0xbf061723	-0.52379054
162	0x3d8430e8	0.064546406
163	0x3e1d6c8f	0.15373443
164	0x3e0f1166	0.1397148
165	0xbdbb871f	-0.09156632
166	0xbea0ef1a	-0.3143242
167	0xbecd97ac	-0.4015478
168	0x3ed017ee	0.40643257
169	0xbeea5efe	-0.45775598
170	0x3f21be78	0.6318126
171	0x3ff14d7b	1.885177
172	0xbfe540af	-1.7910365
173	0x3e0175f7	0.12642656
174	0xc01bd8f8	-2.4351177
175	0xbd8c7252	-0.06857742
176	0xbe6215de	-0.22078654
177	0xbf273205	-0.653107
178	0xbdc26858	-0.09492558
179	0xbca0d86a	-0.019634444
180	0xbd715b5d	-0.05892502
181	0xbd31f110	-0.043442786
182	0xbea263de	-0.31716818
183	0xbe0ccc0f	-0.13749717
184	0xbc343517	-0.010998986
185	0x3e8e305b	0.27771267
186	0x3d8b9c8d	0.06816969
187	0x402a98dc	2.6655798
188	0x3ec03a60	0.37544537
189	0xbe3b4ebb	-0.18291752
190	0xbf945382	-1.1587985
191	0xbf71afc0	-0.944088
192	0xbe9992c4	-0.29994786
193	0xbf377d6f	-0.7167577
194	0xbe4e1a0a	-0.2012712
195	0x3e2be1de	0.1678538
196	0xbebd770f	-0.37004897
197	0xbe0451d7	-0.12921844
198	0xbee48dc4	-0.4463941
199	0xbd4470d5	-0.047959168
200	0xbe8e0459	-0.27737692
201	0xc003b009	-2.0576193
202	0x3f791807	0.9730229
203	0xbf367032	-0.71264946
204	0x3dc80354	0.0976626
205	0xbfa8d8a6	-1.3191116
206	0xbeb04ff8	-0.3443601
207	0x3e9f1eb4	0.31078112
208	0xbea64d07	-0.32480642
209	0x3cb95463	0.022623247
210	0x3ddb216c	0.10699734
211	0x3ec57cef	0.3857188
212	0xbddeac0b	-0.10872658
213	0xbc87826e	-0.016541686
214	0xbf128afa	-0.5724331
215	0xbdaab613	-0.08335509
216	0xbe303cb0	-0.1721065
217	0xbeefbf72	-0.4682575
218	0xbea132e7	-0.31484148
219	0x3e24e8e6	0.16104469
220	0x3d2039f4	0.03911777
221	0x3e8a6765	0.2703201
222	0xbf16b45e	-0.5886897
223	0xbf2a7264	-0.66580796
224	0xbf030cc3	-0.5119135
225	0xbee13920	-0.43988895
226	0x3bf8e035	0.007595087
227	0x3ec02154	0.37525427
228	0x3d9db4ec	0.07700524
229	0x3efab9bd	0.48969832
230	0xbf6a731b	-0.91581887
231	0x3eb2791b	0.3485802
232	0xbe0fbeff	-0.14037703
233	0xbf36a76c	-0.71349216
234	0xbf07ad5b	-0.52998894
235	0xbe371dcd	-0.17882462
236	0x3ef7d777	0.48406574
237	0x3db6bad9	0.08922357
238	0xbea5947e	-0.32339853
239	0xbed28d7e	-0.41123575
240	0x3e1097fe	0.1412048
241	0xbe8d2897	-0.2757003
242	0x3e36dbc2	0.17857268
243	0x3e8f27a7	0.2795994
244	0xbd72eef1	-0.059309904
245	0xbd523f91	-0.051330153
246	0xbf250941	-0.64467245
247	0xbed557aa	-0.41668445
248	0xbe3aa747	-0.18227874
249	0xbe9b3a05	-0.30317703
250	0xbc7117a9	-0.014715114
251	0x3f1b4561	0.6065274
252	0x3e2c5397	0.16828762
253	0x3de11446	0.10990195
254	0xbdd9b31a	-0.10629864
255	0xbf096e6b	-0.5368411

affine.bias f4 [128]
0	0xbf03c824	-0.51477265
1	0xbf08b9aa	-0.534083
2	0xbf3c6017	-0.7358412
3	0xbf931b75	-1.1492754
4	0xbf4d9b58	-0.8031516
5	0xbf15e8ad	-0.5855816
6	0xbec34cd1	-0.38144544
7	0xbf443491	-0.7664271
8	0xbf82adf8	-1.0209341
9	0xbf47d14b	-0.7805373
10	0xbef5f0be	-0.48035234
11	0xbe414364	-0.18873364
12	0x3e4613e4	0.19343525
13	0xbeb5db59	-0.3551891
14	0xbf86c1a2	-1.0527842
15	0xbf00f34b	-0.50371236
16	0xbf07bc30	-0.53021526
17	0xbfcd87c7	-1.6057061
18	0xbec5e6be	-0.38652605
19	0xbf8bdcc9	-1.0926753
20	0xbf1c1714	-0.60972714
21	0xbd9a8929	-0.075456925
22	0xbf17983a	-0.59216654
23	0xbf66c583	-0.9014513
24	0xbf156a1b	-0.5836503
25	0xbea9fd12	-0.3320089
26	0xbf068baa	-0.5255686
27	0xbf2dba2d	-0.67862207
28	0xbf60942f	-0.8772611
29	0xbf3f34cb	-0.7468993
30	0xbf49213a	-0.78566325
31	0xbf09b0e3	-0.5378553
32	0xbf46a800	-0.776001
33	0xbefa009e	-0.48828596
34	0xbeaffa2d	-0.34370556
35	0xbefc7d49	-0.49314335
36	0xbfaf42ab	-1.369222
37	0x3ce86a47	0.02837099
38	0xbf463cc5	-0.77436477
39	0xbf6592c8	-0.89677095
40	0xbf13a24c	-0.5766952
41	0xbf4d29da	-0.80141985
42	0xbc8d07d2	-0.017215643
43	0xbf0804f4	-0.5313256
44	0xbf7e82c4	-0.9941828
45	0x3e129b9c	0.14317173
46	0xbef5c8e2	-0.48004824
47	0xbeb748a9	-0.35797623
48	0xbee2a888	-0.44269204
49	0xbee5f92e	-0.44916672
50	0xbf33f91d	-0.7030199
51	0xbf5982bf	-0.8496513
52	0xbf43017f	-0.7617416
53	0xbf89c2ab	-1.0762533
54	0xbf946ab9	-1.1595069
55	0xbf26a063	-0.6508848
56	0xbf95d9d0	-1.1707096
57	0xbf4b2924	-0.7935965
58	0xbf16f825	-0.5897239
59	0xbf43d512	-0.76496994
60	0xbf82776e	-1.0192697
61	0xbf07b22e	-0.53006256
62	0xbecca19e	-0.39967054
63	0xbf8720b8	-1.055686
64	0xbf6c9095	-0.92408115
65	0xbf00e3c8	-0.50347567
66	0xbf634cb2	-0.887889
67	0xbea9076e	-0.3301348
68	0xbefef10f	-0.49793288
69	0xbf34bea6	-0.70603406
70	0xbee4ff8b	-0.44726214
71	0xbef3fc93	-0.47653636
72	0xbfdbf573	-1.718428
73	0xbfbc606c	-1.4716926
74	0xbf47d8bd	-0.7806509
75	0xbe9abaf7	-0.30220768
76	0xbf32db99	-0.6986633
77	0xbe4dfcd1	-0.20115973
78	0xbf3824be	-0.71931064
79	0x3e1403fb	0.14454643
80	0xbffb89e3	-1.9651455
81	0xbec52c36	-0.38510293
82	0xbeaa2b34	-0.33236086
83	0xbf8ceda0	-1.1010017
84	0xbe6f5aa6	-0.23374423
85	0xbf0c352c	-0.54768634
86	0xbf2c7249	-0.67361885
87	0xbfa194a3	-1.2623485
88	0xbf95b906	-1.169709
89	0xbf2cd57d	-0.6751326
90	0x3dff9399	0.12479324
91	0xbf56caf7	-0.8390345
92	0xbf35b316	-0.7097639
93	0xbee167ba	-0.4402445
94	0xbf76f238	-0.96463346
95	0xbf117bcb	-0.5682952
96	0xbf14b755	-0.5809224
97	0xbf69844c	-0.91217494
98	0x3c1ad766	0.009450769
99	0xbeb12c1f	-0.34603974
100	0xbeac1cac	-0.33615625
101	0xbf6b65e8	-0.9195237
102	0xbf9a29e3	-1.2044033
103	0xbfc8833b	-1.5665048
104	0xbec7fc64	-0.39059746
105	0xbf0222bf	-0.5083427
106	0x3e0e2920	0.13882875
107	0xbf46a7af	-0.77599615
108	0xbf99bd2a	-1.2010853
109	0xbfd2d371	-1.6470777
110	0xbedba7f5	-0.4290158
111	0xbef14c20	-0.4712839
112	0xbf02e7cf	-0.5113496
113	0xbf754e9d	-0.9582308
114	0xbef05ebd	-0.4694728
115	0xbf09e0dc	-0.53858733
116	0xbe51101a	-0.20416299
117	0xbf3a0b33	-0.7267334
118	0xbf32fdbb	-0.6991841
119	0xbf30e1f7	-0.69094795
120	0xbf0d4ff5	-0.5520013
121	0xbf063538	-0.52424955
122	0xbd6bec5f	-0.057598468
123	0xbebbe56e	-0.36698478
124	0xbf4ad47a	-0.79230464
125	0xbf810403	-1.0079349
126	0xbf1d6d1a	-0.614946
127	0xbf8adcf6	-1.0848682

action_layer.weight f4 [4, 128]
0	0xbf9fcef3	-1.2485031
1	0x3a101280	0.0005495921
2	0x3d25f672	0.04051823
3	0xbd0cae32	-0.034345813
4	0x3f38731d	0.7205065
5	0xbe628135	-0.22119601
6	0xbde9f713	-0.11424079
7	0xbd4d3385	-0.05009796
8	0x3eedeffc	0.46472156
9	0x3f8cedb6	1.1010044
10	0xbf0d0e31	-0.5509978
11	0xbe12970b	-0.14315431
12	0x3f90b1d0	1.1304264
13	0x3f55875d	0.8340967
14	0x3ee27122	0.44226938
15	0xbe155798	-0.14584196
16	0xbe62fc00	-0.22166443
17	0xbf48d329	-0.78447205
18	0x3f036831	0.5133086
19	0xbec49242	-0.38392836
20	0x3d105555	0.03523763
21	0x3f6d1a99	0.9261871
22	0xbe301926	-0.17197093
23	0x3fb425db	1.4074053
24	0xbe510bf6	-0.20414719
25	0x3e117c75	0.14207633
26	0xbe0db413	-0.13838224
27	0xbca5bbc6	-0.020231139
28	0x3daef064	0.085419446
29	0x3ef35b62	0.47530657
30	0xbea4e001	-0.3220215
31	0xbe6f866e	-0.23391125
32	0xbe6de8a2	-0.23233274
33	0x3d86255d	0.06550095
34	0x3d444c1f	0.047924157
35	0xbbda47e3	-0.0066614016
36	0xbf12310d	-0.57106096
37	0xbe6a19fb	-0.22861473
38	0x3f099d87	0.5375599
39	0xbf0a9dbb	-0.5414693
40	0xbeb0f5ea	-0.34562618
41	0xbe9b8f0a	-0.30382568
42	0xc0238196	-2.5547843
43	0x3e94cf70	0.29064512
44	0xbf85144a	-1.0396817
45	0x3f65dac4	0.89786935
46	0xbe45e08e	-0.19323942
47	0xbf2a9578	-0.6663432
48	0xbf6638d5	-0.8993047
49	0xbe7d5bf3	-0.24742107
50	0x3f1f9a90	0.6234522
51	0xbebf50a9	-0.37366226
52	0x3e3d516f	0.18488096
53	0xbd8c3b4a	-0.06847246
54	0x3dd946d2	0.10609211
55	0xbf9ba534	-1.2159791
56	0xbf639cd8	-0.889112
57	0xbe57532f	-0.21027826
58	0x3e0e4355	0.13892873
59	0xbeb8011d	-0.3593835
60	0xbfb5f649	-1.4215785
61	0xbe5d5ec2	-0.21618178
62	0x3d7da29c	0.061922655
63	0xbfedfc8e	-1.8592699
64	0xbf0a422f	-0.5400724
65	0xbe130bad	-0.14359923
66	0xbe741901	-0.23837663
67	0xbeb90415	-0.36135927
68	0xbbcaa7cf	-0.006184555
69	0xbebda3b5	-0.3703896
70	0xbdc654fb	-0.096841775
71	0xbd56805d	-0.05236851
72	0xbf9d3d39	-1.2284309
73	0x3f4de97c	0.80434394
74	0xbe90e684	-0.2830087
75	0x3f5007d9	0.81261975
76	0x3ea9cc01	0.33163455
77	0xbdb3f94a	-0.087877825
78	0xbdae82e1	-0.08521057
79	0x3ebbec54	0.36703742
80	0xbf4a1841	-0.7894326
81	0xbd92cc76	-0.07167904
82	0xbe03341c	-0.12812847
83	0xbd127e11	-0.035764758
84	0x3d8183dc	0.06323978
85	0xbd9b88de	-0.07594465
86	0x3d678329	0.05652157
87	0xbf4c37d4	-0.79772687
88	0xbf0350ef	-0.5129537
89	0xbd8080e1	-0.06274582
90	0x3f32ecd6	0.6989263
91	0xbc8b7d0c	-0.0170274
92	0x3eb38e6e	0.35069603
93	0xbda5267d	-0.08063982
94	0x3f30929b	0.689737
95	0xbefcaac6	-0.4934904
96	0xbdf09062	-0.11746289
97	0xc0141d25	-2.3142788
98	0x3f46e05e	0.7768611
99	0xbeb6fc12	-0.3573919
100	0xbe39ec3d	-0.18156524
101	0xbf6edec1	-0.93308645
102	0xbfb652dd	-1.4244038
103	0xbf51be5f	-0.8193111
104	0x402b627f	2.6778867
105	0xbe52d60c	-0.20589465
106	0xbf0a1dde	-0.53951824
107	0x3eb0ca9f	0.34529588
108	0x3e147942	0.14499381
109	0xbfb41fc2	-1.4072192
110	0xbf0d0ef8	-0.55100965
111	0xbcf77ad7	-0.030209942
112	0x3e8d5434	0.27603304
113	0x3d109185	0.03529503
114	0xbde7f1a3	-0.113253854
115	0xbdba8f14	-0.09109321
116	0xbdedd933	-0.11613693
117	0xbe1b487e	-0.15164372
118	0xbd7fe335	-0.06247254
119	0xbecba3bc	-0.39773357
120	0x3b21acfb	0.0024669755
121	0x3e7dc13e	0.24780747
122	0x3f8a0ca5	1.0785109
123	0xbf923bd0	-1.1424503
124	0xbdaa4b1e	-0.08315109
125	0xbf35421a	-0.7080399
126	0xbe858b8f	-0.26083037
127	0x3fb70f74	1.4301591
128	0xbf5057e3	-0.81384104
129	0x3cf189b9	0.029484617
130	0xbe2e117c	-0.16998857
131	0xbe68bfaf	-0.22729371
132	0x3e812b47	0.2522833
133	0x3e311944	0.17294794
134	0x3c522f65	0.012828683
135	0xbe29fba9	-0.16599907
136	0x3d63f0b2	0.055649467
137	0x3ec2a415	0.3801581
138	0x3dd0c370	0.10193527
139	0x3e6e70b5	0.23285182
140	0xbebb1bb7	-0.36544582
141	0xbece0d17	-0.40244362
142	0xbe123d83	-0.14281277
143	0x3cc4b904	0.024014004
144	0x3e2f8390	0.17140031
145	0x3f2fd70e	0.6868752
146	0xbe0271a1	-0.12738658
147	0xbf025246	-0.5090679
148	0xbc681660	-0.014165491
149	0x402a50bc	2.6611776
150	0x3e2b6f98	0.16741788
151	0x3ce321e7	0.027726127
152	0xbea212e8	-0.3165505
153	0x3e2108ba	0.15725985
154	0x3ea8c6fc	0.32964313
155	0x3c0fe22a	0.008781949
156	0xbe72506a	-0.23663488
157	0x3f400a0e	0.7501534
158	0xbe337c1a	-0.1752781
159	0x3ed1b3c7	0.40957472
160	0x3fa11023	1.258305
161	0x3ddd6f84	0.108122855
162	0x3d718f8a	0.05897478
163	0x3d43c20c	0.04779248
164	0x3ea6ea37	0.32600567
165	0xbf6ef33e	-0.9333991
166	0x399fddb8	0.00030492037
167	0xbe00da01	-0.12583162
168	0xbe2724b9	-0.16322602
169	0x3e1268b8	0.1429776
170	0xbff55df3	-1.9169296
171	0x3e556140	0.20837879
172	0xbfa680f4	-1.3008103
173	0x405c900a	3.4462914
174	0x3e208ab5	0.15677913
175	0x3e72ecc8	0.23723137
176	0x40471695	3.1107533
177	0x3d7d5c4f	0.06185561
178	0x3e07cd9f	0.13262032
179	0xbe848cd5	-0.25888696
180	0x3eb622df	0.3557348
181	0x3e9a556e	0.30143303
182	0x3e00d97b	0.12582962
183	0xbf5f4f59	-0.8723045
184	0x3d0ddeda	0.034636356
185	0x3e997486	0.29971713
186	0x3d8ab759	0.06773252
187	0xbcd34c29	-0.025793152
188	0xbe979d2e	-0.29612106
189	0xbe3d9bbe	-0.18516442
190	0x3e3710a2	0.17877439
191	0xbf7a39de	-0.9774455
192	0xbdb7d2e0	-0.08975768
193	0x3da17fcd	0.07885704
194	0x3d202a03	0.039102565
195	0xbbf58848	-0.0074930526
196	0x3e05bca2	0.13060239
197	0x3ea1d596	0.31608266
198	0x3e2a7cd9	0.16649188
199	0x3db01da1	0.08599401
200	0x3ee1110f	0.43958327
201	0xbe92ad5c	-0.28647888
202	0xbe13de02	-0.14440158
203	0xbd951471	-0.072792895
204	0xbfce2c57	-1.6107281
205	0x3e1242c4	0.14283282
206	0xbd1460a4	-0.036224976
207	0xbfc01e02	-1.5009158
208	0x3e29be72	0.16576555
209	0x3db383bd	0.087653615
210	0x3e42e77e	0.1903362
211	0x3ec9e3ea	0.39431697
212	0x3e28301e	0.16424605
213	0x3de61000	0.112335205
214	0x3e0d9220	0.13825274
215	0x3df69b9f	0.12041401
216	0x3c5cf904	0.013487104
217	0x3f00c12e	0.5029477
218	0x3f0e82bf	0.5566825
219	0x3dffef68	0.12496835
220	0x3f374d0f	0.7160196
221	0x3d0dd176	0.034623586
222	0xbe070caa	-0.13188425
223	0xbe4e2eeb	-0.20135085
224	0x3d23d35a	0.039996482
225	0xbfeeabc0	-1.8646164
226	0xc012208d	-2.2832367
227	0xbe1f9230	-0.1558311
228	0xbd90ed02	-0.07076456
229	0xbec950fc	-0.393196
230	0x3cbde203	0.02317906
231	0x3e386f2b	0.18011157
232	0xbed9991a	-0.4249962
233	0xbe8d58bd	-0.27606764
234	0xbfc9d07a	-1.5766747
235	0x3e87b50f	0.26505324
236	0x3d22e96e	0.039773397
237	0x3c08f61d	0.008359459
238	0xbfc90fcb	-1.5707945
239	0xbd903f20	-0.0704329
240	0x3eae0970	0.33991575
241	0x3c9434d0	0.01809159
242	0x3d4f78e5	0.050652403
243	0xbea232a3	-0.31679258
244	0x3c8accc0	0.016943336
245	0xbd8e906d	-0.06961141
246	0x3e2ab276	0.1666964
247	0xbdeafe99	-0.11474342
248	0x3ddc3ecf	0.10754167
249	0x3ecc2624	0.3987285
250	0xbd68f4c7	-0.056874063
251	0xbf77fffc	-0.96874976
252	0xbda86226	-0.08221845
253	0xbe3874b6	-0.18013272
254	0x3dae5c5a	0.085137084
255	0xbeaa94d0	-0.3331666

action_layer.bias f4 [4]
0	0x3ec1a7da	0.37823373
1	0x3caf7e38	0.02142249
2	0x3f59c387	0.85063976
3	0xbf10190d	-0.56288224

value_layer.weight f4 [1, 128]
0	0x3e284449	0.16432299
1	0xbc80ffd2	-0.015746985
2	0xbd8c8008	-0.068603575
3	0xbe079298	-0.13239515
4	0x3edc22e5	0.42995372
5	0xbda5bc21	-0.08092523
6	0x3c26d526	0.0101826545
7	0x3d8b5be5	0.06804637
8	0x3e3ca418	0.18421972
9	0x3e8c4dab	0.27403006
10	0x3dfa50e7	0.12222462
11	0xbd48d108	-0.049027473
12	0xbdd3a65d	-0.10334466
13	0xbd961ebe	-0.07330082
14	0x3e03a237	0.12854849
15	0x3b4b430b	0.0031015303
16	0xbd352e27	-0.044233467
17	0x3dc9807f	0.09838962
18	0xbd1ca256	-0.038240753
19	0xbeee80c6	-0.4658262
20	0x3e8dbed8	0.27684665
21	0x3e1a9a95	0.15098031
22	0x3e19239b	0.14954989
23	0x3f01cae8	0.50700235
24	0x3d206722	0.039160855
25	0x3e315a05	0.17319496
26	0x3cde7fd1	0.027160557
27	0xbcff7ef6	-0.03118847
28	0xbe46fb4d	-0.19431801
29	0x3e6d6192	0.23181751
30	0x3d77f1e2	0.06053341
31	0x3d214bdc	0.039378986
32	0xbe22cb0b	-0.15897767
33	0x3cc0047e	0.023439642
34	0xbd8e19ff	-0.06938552
35	0x3cd39ca9	0.025831537
36	0x3eb33635	0.35002294
37	0x3e181d8f	0.14855026
38	0xbd9ee10e	-0.077577695
39	0xbdc11479	-0.09427733
40	0x3c89a897	0.016804023
41	0x3deb23f2	0.114814654
42	0x3e05cc4e	0.13066217
43	0xbc4d4943	-0.012529674
44	0xbc1a2efc	-0.009410616
45	0xbe22d6e1	-0.15902282
46	0xbe08cc1b	-0.1335911
47	0x3c8685dd	0.016421253
48	0x3e8ac760	0.27105236
49	0xbcef481c	-0.02920919
50	0xbe88ee76	-0.2674443
51	0x3e61b631	0.22042157
52	0x3e174400	0.14772034
53	0x3e4c9651	0.19979216
54	0xbccf3199	-0.025292205
55	0x3f246867	0.64221805
56	0xbde55f04	-0.111997634
57	0x3df39782	0.11894132
58	0x3cc7de69	0.024398046
59	0x3ddac558	0.106821716
60	0xbe7942a1	-0.24341823
61	0x3d17483d	0.036934126
62	0x3d622716	0.055213057
63	0x3e24a95c	0.1608023
64	0x3d62031f	0.055178758
65	0x3c9d96a5	0.019236872
66	0xbda8ef19	-0.08248729
67	0x3c7581ce	0.014984561
68	0x3d226e1f	0.0396558
69	0x3c043711	0.0080697695
70	0x3cec7d86	0.028868448
71	0x3b1889fa	0.00232756
72	0x3dae5a32	0.08513297
73	0x3edc89c1	0.43073848
74	0x3c8db0f9	0.017296301
75	0x3e969fdd	0.2941884
76	0x3ed17d63	0.40915975
77	0xbbc797a6	-0.006091076
78	0x3d91fa92	0.071278706
79	0xbeac4cca	-0.33652335
80	0x3f24c901	0.6436921
81	0xbba7715f	-0.0051099504
82	0xbdcb62df	-0.099309675
83	0x3e26e206	0.16297159
84	0x3d37c6f3	0.044867467
85	0xbd47234b	-0.048617642
86	0xbc329158	-0.01089891
87	0x3cdca971	0.026936265
88	0x3dc11305	0.09427456
89	0x3c91c5de	0.017794546
90	0x3c865646	0.01639856
91	0x3cc2854d	0.023745203
92	0x3e98aa8c	0.29817617
93	0x3c755d39	0.014975839
94	0x3e917a51	0.28413633
95	0xbc5ae69b	-0.013360645
96	0x3bc98aef	0.0061505954
97	0x3f457498	0.7713103
98	0x3ef578fd	0.4794387
99	0xbd03ce7d	-0.032179344
100	0x3bcf2249	0.006321226
101	0x3e7fd835	0.2498482
102	0x3d81592f	0.063158385
103	0x3d58227d	0.052767266
104	0xbcb646ac	-0.022250496
105	0x3d918eb2	0.07107295
106	0xbea31971	-0.31855348
107	0xbdd36e2e	-0.103237495
108	0xbdd69175	-0.104769625
109	0x3dc93d46	0.0982614
110	0x3e9536b7	0.29143307
111	0x3d2a6b1f	0.041606065
112	0xbd3ef952	-0.04662449
113	0x3db339f4	0.08751288
114	0xbc995096	-0.018715184
115	0x3de3bb9a	0.111197665
116	0x3d4b5c17	0.04964837
117	0xbd827046	-0.06369071
118	0xbcbc4028	-0.02297981
119	0xbdd913d2	-0.105994835
120	0xbde0a007	-0.10968023
121	0x3dd5a525	0.104318894
122	0xbc056a24	-0.008142982
123	0x3e3cdcbd	0.1844358
124	0x3defc97d	0.11708353
125	0x3b82d3f5	0.0039925524
126	0xbd76a604	-0.06021692
127	0x3ca0963b	0.019602885
