NeurPiRL_SA/LunarLander_old/ActorCritic/preTrained/LunarLander_2.pth (torch, 9579 bytes, 5 tensors)

affine.weight f4 [128, 8]
0.10663961 -0.11989475 0.16134211 -0.1610196 0.1374601 0.4723498 0.013211568 -0.10761546
-0.018930897 -0.6603111 0.09468369 0.32265678 -0.22021362 0.20000158 0.0067421915 0.09105838
0.07851463 -0.63696307 -0.10304238 0.82606643 -0.3002635 -0.009867019 0.09822285 0.34883228
-0.029833319 -0.017739577 0.077580415 -0.59867346 -0.3252201 -0.43455726 -0.2618304 -0.028531559
0.038403418 0.101417854 0.0125809 -0.26171935 0.15411253 -0.42754802 -0.031434506 0.007470206
-0.032843366 -0.20266409 0.19340959 -0.07997289 0.050115135 0.27461174 0.2446399 0.07727397
0.020748619 0.17896675 0.07302152 0.3568651 0.12573192 0.14332983 -0.18180536 -0.0018127357
-0.13254803 0.1819987 0.026537959 0.27421847 0.2514355 -0.27332658 0.15773341 0.371695
0.39864412 -0.17080069 0.17788368 -0.406225 -0.26975188 0.15137686 -0.30500954 0.29643703
-0.2726697 0.10675875 0.12778866 -0.21539727 -0.11664377 -0.5295454 -0.19465503 -0.275282
0.47196826 -0.23142095 -0.47740757 0.21171306 0.34641317 -0.16940936 0.15325579 0.25827426
-0.2073715 -0.2758148 -0.020020047 -0.40702847 0.18230206 0.014709251 0.2516178 0.23834802
-0.23636118 -0.21441452 -0.31425807 -0.3170256 -0.055760883 -0.23124558 -0.35487217 0.17179248
-0.063634664 0.19507521 0.19325332 0.02434132 -0.6898259 0.04864766 0.3020606 -0.22232895
-0.15068054 -0.044751212 -0.21616112 -0.024684075 -0.23819853 0.23122598 -0.056685098 0.14661522
0.2988628 0.113206096 -0.36740923 0.2337453 0.62369347 -0.03283394 -0.09651781 0.23582809
-0.42189643 -0.52183735 -0.10973433 0.18181439 -0.20927136 -0.43307826 -0.0025141223 0.08249345
-0.049058 -0.38762796 0.31184766 0.14603588 -0.50116605 0.0016983901 0.22559522 0.16542545
0.022735298 0.25335416 -0.2840595 0.095830016 0.50323284 -0.14531718 -0.030510832 -0.25264958
-0.25208324 -0.19440001 -0.13875547 -0.35306606 -0.1728073 -0.04421282 0.3749595 0.17111982
-0.133619 0.3330341 0.017419113 -0.49737972 0.007937188 0.12849548 -0.337267 -0.15813532
-0.13500889 -0.48253152 -0.092798725 0.18657695 0.46646568 0.0028815656 -0.21954447 0.029839035
-0.48451072 0.015099416 0.3122313 0.03317765 -0.61393374 -0.14465822 -0.028624529 -0.039292052
-0.38509884 -0.15393949 -0.14101838 0.14760607 0.40772626 0.27122772 0.26477048 -0.1532467
0.20964083 0.12932478 -0.08883865 -0.20979828 0.09600027 -0.21378914 0.090516336 0.22838233
-0.20082386 -0.16739905 -0.22761068 -0.49623343 0.08542242 0.3176254 0.121388905 -0.015688196
0.030503875 -0.18715636 -0.24149016 -0.0149176 0.07554599 -0.06463973 -0.25817272 -0.01402993
0.016592897 -0.4740651 -0.010615596 0.9096673 0.0756552 -0.22652541 0.48502585 0.40071493
-0.020558199 -0.14673501 -0.13795565 0.34829465 0.16964358 -0.12400267 0.015513738 0.039434563
0.123454124 -0.09948055 -0.105483525 -0.20075324 -0.109993905 -0.42610827 -0.10361567 -0.10485934
-0.14243226 0.09925233 -0.31870738 -0.44497055 0.3816751 0.15235852 0.17338355 0.14320458
-0.1578491 -0.2421113 -0.26606 -0.060058184 0.41354117 -0.120051496 -0.42346266 0.05230385
00000000: de65 da3d 618b f5bd de36 253e 52e2 24be
00000010: 57c2 0c3e d5d7 f13e 5575 583c 7f65 dcbd
00000020: f814 9bbc 260a 29bf 86e9 c13d 4533 a53e
00000030: ae7f 61be 37cd 4c3e 9aed dc3b d17c ba3d
00000040: 47cc a03d 0310 23bf e207 d3bd 1779 533f
00000050: 23bc 99be 47a9 21bc 1029 c93d 259a b23e
00000060: 0165 f4bc 9752 91bc 7be2 9e3d aa42 19bf
00000070: 4083 a6be 4a7e debe a20e 86be 04bb e9bc
00000080: e74c 1d3d 2ab4 cf3d 1f20 4e3c 1400 86be
00000090: adcf 1d3e 93e7 dabe 78c1 00bd a1c8 f43b
000000a0: c486 06bd 2d87 4fbe 2a0d 463e d4c8 a3bd
000000b0: 8745 4d3d e999 8c3e e282 7a3e d141 9e3d
000000c0: 02f9 a93c 0f43 373e 4f8c 953d 06b7 b63e
000000d0: debf 003e 0ec5 123e 2f2b 3abe 5199 edba
000000e0: acba 07be de5d 3a3e 2266 d93c 5d66 8c3e
000000f0: 27bc 803e 76f1 8bbe de84 213e cf4e be3e
00000100: 151b cc3e 60e6 2ebe 2427 363e b9fc cfbe
00000110: eb1c 8abe 8902 1b3e 362a 9cbe 98c6 973e
00000120: 5d9b 8bbe 55a4 da3d 08db 023e 1a91 5cbe
00000130: eee2 eebd 4a90 07bf a653 47be c3f1 8cbe
00000140: d3a5 f13e 9df9 6cbe c46e f4be 4fcb 583e
00000150: 115d b13e a679 2dbe 16ef 1c3e 863c 843e
00000160: 3259 54be 9937 8dbe 1501 a4bc 0966 d0be
00000170: 64ad 3a3e 12ff 703c 0cd4 803e 8111 743e
00000180: aa08 72be 7b8f 5bbe 6fe6 a0be 2e51 a2be
00000190: 8665 64bd a4cb 6cbe ceb1 b5be 5eea 2f3e
000001a0: e452 82bd ccc1 473e 33e4 453e 7367 c73c
000001b0: 6e98 30bf c542 473d b0a7 9a3e 33aa 63be
000001c0: 004c 1abe 0c4d 37bd 5759 5dbe 4236 cabc
000001d0: 51ea 73be 81c6 6c3e a22e 68bd 4d22 163e
000001e0: 8b04 993e 99d8 e73d 101d bcbe ee5a 6f3e
000001f0: 60aa 1f3f e27c 06bd 21ab c5bd eb7c 713e
00000200: cf02 d8be 2297 05bf 64bc e0bd 8d2d 3a3e
00000210: 3b4b 56be 6fbc ddbe f9c3 24bb 53f2 a83d
00000220: 0bf1 48bd 2c77 c6be 7faa 9f3e 6e8a 153e
00000230: 6b4c 00bf 849c de3a 6f02 673e 4a65 293e
00000240: 603f ba3c a3b7 813e 3f70 91be 8742 c43d
00000250: ded3 003f 07ce 14be daf1 f9bc 495b 81be
00000260: 0e11 81be cc10 47be ea15 0ebe 13c5 b4be
00000270: 66f4 30be 8018 35bd b1fa bf3e 093a 2f3e
00000280: 6bd3 08be 7283 aa3e 87b2 8e3c 8ea8 febe
00000290: fb0a 023c 5294 033e 43ae acbe 3aee 21be
000002a0: c53f 0abe 5f0e f7be 420d bebd 070e 3f3e
000002b0: 97d4 ee3e a6d8 3c3b 44d0 60be fe70 f43c
000002c0: ca11 f8be 8a63 773c c8dc 9f3e 4ae5 073d
000002d0: c32a 1dbf 4921 14be fd7d eabc b4f0 20bd
000002e0: ad2b c5be 50a2 1dbe 1f67 10be 0c26 173e
000002f0: 7fc1 d03e 5cde 8a3e ff8f 873e b4ec 1cbe
00000300: 16ac 563e b76d 043e 0af1 b5bd 5cd5 56be
00000310: ca9b c43d 8aeb 5abe a160 b93d 0fdd 693e
00000320: c5a4 4dbe a86a 2bbe c612 69be 4f12 febe
00000330: f3f1 ae3d cc9f a23e bf9a f83d 8884 80bc
00000340: 43e3 f93c eba5 3fbe 3249 77be f368 74bc
00000350: dbb7 9a3d d661 84bd 372f 84be cbdd 65bc
00000360: d4ed 873c a9b8 f2be 09ed 2dbc f5df 683f
00000370: 1df1 9a3d 47f6 67be 4f55 f83e 822a cd3e
00000380: ab69 a8bc b441 16be 3f44 0dbe ad53 b23e
00000390: 0cb7 2d3e 1df5 fdbd 552d 7e3c 2386 213d
000003a0: 84d5 fc3d 75bc cbbd bf07 d8bd 4292 4dbe
000003b0: 7c44 e1bd dd2a dabe 7434 d4bd 7ec0 d6bd
000003c0: c3d9 11be ce44 cb3d 9d2d a3be 2ed3 e3be
000003d0: eb6a c33e df03 1c3e 758b 313e 39a4 123e
000003e0: 32a3 21be 06ec 77be 0439 88be 92ff 75bd
000003f0: abbb d33e 8fdd f5bd 19d0 d8be 903c 563d

affine.bias f4 [128]
0.03765152 0.116870865 0.29249334 0.27798697 0.018554742 0.12480022 0.19902699 0.33633342
-0.08389132 0.32194582 -0.118385665 0.11995132 -0.07565492 -0.2155818 0.02270742 0.13108537
-0.14818083 -0.09336031 0.18012588 0.11185255 -0.2836954 0.12977561 -0.021801896 0.3257367
0.22504345 -0.14600058 -0.19541298 0.23256811 -0.40363058 0.08326675 0.28923368 0.29160196
0.12989889 0.16577795 0.028086325 0.0873369 0.12078258 0.21449009 0.19572735 0.1752406
-0.16351616 -0.22562902 0.15145601 0.005493922 -0.22997655 -0.05958326 0.0023118323 0.3289011
-0.071559705 -0.0562675 -0.06426632 -0.21182026 -0.22361673 -0.24439737 0.0043162443 0.06665918
0.26278594 0.20703942 0.28379762 0.33594045 0.24509208 0.14419809 -0.09460359 0.21145211
0.18495141 -0.30958036 0.3761989 -0.22471291 0.17826267 0.18285775 0.16853282 -0.08142444
0.10542886 0.07149841 0.06309594 0.16625158 -0.26704523 -0.22350687 0.1119881 0.022476485
0.36865684 0.049052134 -0.009318247 0.11392905 0.01421916 0.09911219 -0.1022279 -0.15864496
-0.34391063 0.27922338 0.31445584 0.21577589 0.052802403 0.35287625 0.01969683 -0.0068094237
-0.017407311 0.25799677 -0.16094807 -0.23543845 0.09707402 0.3185776 -0.14906994 -0.21664019
-0.06341413 0.06715645 0.22634469 0.008453846 -0.18369107 0.095739186 0.31820205 0.07489878
0.03789466 0.05703461 0.36848757 -0.15071052 -0.20251852 0.3649469 0.15577157 -0.10087599
-0.29320678 0.05429173 -0.0007050306 -0.04242053 0.04023054 0.2537869 0.35296395 0.09063293
00000000: 7b38 1a3d fe59 ef3d b0c1 953e 4f54 8e3e
00000010: 1d00 983c 4297 ff3d bbcd 4b3e e533 ac3e
00000020: 36cf abbd 15d6 a43e 2f74 f2bd 0aa9 f53d
00000030: f7f0 9abd 7ac1 5cbe e904 ba3c 3e3b 063e
00000040: b7bc 17be b133 bfbd eb72 383e f312 e53d
00000050: 8640 91be e6e3 043e e499 b2bc f6c6 a63e
00000060: ca71 663e 2d81 15be 571a 48be 5626 6e3e
00000070: aba8 cebe c287 aa3d 7016 943e da4c 953e
00000080: 3704 053e b2c1 293e 4b15 e63c b0dd b23d
00000090: db5c f73d 4aa3 5b3e c06c 483e 4672 333e
000000a0: c870 27be 4b0b 67be 4917 1b3e 5c06 b43b
000000b0: f97e 6bbe 940d 74bd 1c82 173b ba65 a83e
000000c0: e58d 92bd c078 66bd 0f9e 83bd 69e7 58be
000000d0: c9fb 64be 4e43 7abe 486f 8d3b 9c84 883d
000000e0: e18b 863e 2402 543e ec4d 913e 6300 ac3e
000000f0: 6bf9 7a3e aaa8 133e 87bf c1bd e786 583e
00000100: e763 3d3e 5181 9ebe 249d c03e 241b 66be
00000110: 7d8a 363e 103f 3b3e de93 2c3e dbc1 a6bd
00000120: 16eb d73d c26d 923d 7238 813d db3d 2a3e
00000130: 27ba 88be fcde 64be 045a e53d 9b20 b83c
00000140: 97c0 bc3e e4ea 483d 90ab 18bc a253 e93d
00000150: 7bf7 683c 55fb ca3d dc5c d1bd d373 22be
00000160: 0e15 b0be 5ef6 8e3e 5b00 a13e 5bf4 5c3e
00000170: 5547 583d 32ac b43e 3f5b a13c 9621 dfbb
00000180: c799 8ebc 2718 843e 92cf 24be c716 71be
00000190: bece c63d 9a1c a33e caa5 18be edd6 5dbe
000001a0: 44df 81bd 5289 893d e7c6 673e 0082 0a3c
000001b0: 8319 3cbe e812 c43d 61eb a23e 8864 993d
000001c0: 6e37 1b3d 209d 693d 67aa bc3e dc53 1abe
000001d0: 0461 4fbe 52da ba3e 9582 1f3e 1298 cebd
000001e0: 331f 96be 0161 5e3d cdd1 38ba 26c1 2dbd
000001f0: c7c8 243d 5bf0 813e b1b7 b43e c29d b93d

action_layer.weight f4 [4, 128]
-0.27432457 0.124426596 0.40119526 -0.25764537 -0.10769216 0.21059315 -0.06784776 0.20289879
-0.09438443 -0.18410984 0.29806533 0.13688412 -0.17227429 -0.021675294 -0.058253475 0.12745526
-0.045971684 0.21333642 -0.059526123 0.161395 -0.024699118 0.017321479 -0.07919661 0.12596796
0.061376795 -0.14082973 -0.008608566 0.47992986 0.06085254 -0.23565298 0.020053733 -0.042180717
0.22591946 -0.028064668 -0.030409772 -0.28542796 0.21856609 0.03178084 -0.16133864 0.2485087
-0.13553426 -0.01286111 0.014433408 0.06519888 0.0027537642 -0.094995216 -0.16823286 0.26782396
0.0012614838 0.13449004 0.06570028 -0.0013161276 -0.0151867885 -0.23370641 0.05791368 0.16619055
0.10798533 0.090772584 -0.11138979 0.17153838 0.14974397 -0.06669607 -0.008761794 -0.03810668
0.04302086 -0.1351899 0.30201155 -0.11657126 -0.15036137 -0.14264977 0.0777478 0.23448211
0.0279313 0.13721633 0.03731945 0.02445716 -0.08833339 -0.088386625 0.24831444 -0.18004552
-0.21953292 0.16723067 -0.12631188 0.11057484 0.055549353 0.04919876 -0.26238278 -0.021343688
-0.033985335 -0.042478047 -0.06777381 -0.19570898 0.075934485 0.049595308 -0.018394135 0.18638165
0.22108914 0.07110289 0.016656896 -0.10501105 -0.071979284 -0.076144606 0.027800066 -0.254361
-0.114377275 0.011950827 -0.09723132 0.20372957 -0.20650056 -0.027276766 0.156339 -0.14186211
-0.32173562 -0.14701605 0.055882145 -0.09252276 -0.09155698 -0.07946752 -0.08748603 0.04496582
-0.0022918724 -0.10332525 0.1146939 -0.14837685 -0.1075354 -0.019618891 -0.0767589 0.15730648
-0.24322242 0.1295589 0.08097376 0.036372345 0.012331031 -0.10228528 -0.015379426 -0.058451805
0.088690504 0.11507424 -0.19512704 -0.20398772 -0.028277427 0.19740292 -0.09168193 -0.18293786
-0.052757766 0.008245744 -0.12446866 -0.019255703 -0.10744451 -0.15395975 0.3034276 -0.32362768
-0.07803711 -0.10936803 0.038664497 -0.04219042 0.0983171 -0.07022102 -0.20871748 -0.21486658
0.11387801 -0.2587178 -0.24243423 -0.205385 -0.070353486 0.12715763 0.1482326 0.10974166
-0.19649479 -0.14628352 -0.1507747 0.12140239 -0.090564236 -0.26609382 -0.18928808 -0.030325921
-0.18648127 -0.12010249 0.42606732 -0.14800182 -0.22130096 0.013586933 0.052969415 0.06078776
0.091543704 -0.29649293 -0.01856069 0.046748042 0.26924908 0.23037857 -0.2192668 -0.122684255
-0.1956276 0.0024888648 0.031992447 -0.27340683 -0.1665876 -0.12607472 0.038314395 -0.16174851
-0.11932009 0.0023804526 -0.085398585 0.23556094 -0.011485284 -0.017530374 -0.10539482 0.012485556
-0.026283188 -0.35505223 -0.2794859 -0.08296558 0.36832508 -0.15924487 -0.16335663 -0.24313964
0.009707912 0.24564414 -0.2052603 -0.032747522 -0.08721061 0.0023665852 -0.25606954 -0.22096543
0.20010021 -0.25492242 0.0683586 0.18515532 0.17383745 0.22508794 -0.15859205 -0.05783922
0.12569484 -0.19106577 -0.103310324 -0.11211967 -0.13709886 -0.020621259 0.0067147375 -0.2531344
-0.085778244 -0.2891565 0.11353607 0.22576365 0.065366074 -0.3164025 -0.065294445 0.17144689
-0.27624464 -0.27762282 -0.22169888 0.03161064 -0.0135749215 -0.17187697 0.08991542 -0.10687522
00000000: 4574 8cbe 5fd3 fe3d 7769 cd3e 18ea 83be
00000010: b58d dcbd bba5 573e c4f3 8abd b3c4 4f3e
00000020: a04c c1bd 4a87 3cbe 059c 983e 5a2b 0c3e
00000030: ac68 30be 6390 b1bc 329b 6ebd a283 023e
00000040: ce4c 3cbd dd74 5a3e aad1 73bd bb44 253e
00000050: ce55 cabc c6e5 8d3c d531 a2bd bffd 003e
00000060: 3c66 7b3d ab35 10be f10a 0dbc 5eb9 f53e
00000070: 8340 793d 044f 71be ba47 a43c b0c5 2cbd
00000080: 6e57 673e e0e7 e5bc ea1d f9bc 9d23 92be
00000090: cacf 5f3e a02c 023d f535 25be 1179 7e3e
000000a0: 7ec9 0abe 68b7 52bc 1a7a 6c3c fe86 853d
000000b0: 7f78 343b da8c c2bd 3c45 2cbe 3920 893e
000000c0: 5f58 a53a c2b7 093e de8d 863d ea81 acba
000000d0: 02d2 78bc bc50 6fbe e536 6d3d db2d 2a3e
000000e0: 6a27 dd3d fae6 b93d 5520 e4bd c2a7 2f3e
000000f0: 7c56 193e f397 88bd a18d 0fbc c015 1cbd
00000100: a436 303d 396f 0abe 42a1 9a3e eabc eebd
00000110: 55f8 19be c812 12be 3d3a 9f3d 141c 703e
00000120: 2fd0 e43c 7082 0c3e 48dc 183d 625a c83c
00000130: 23e8 b4bd 0c04 b5bd 2446 7e3e da5d 38be
00000140: 3dcd 60be 843e 2b3e e757 01be 1075 e23d
00000150: b887 633d a484 493d 0957 86be f5d8 aebc
00000160: 3534 0bbd 76fd 2dbd ffcc 8abd ef67 48be
00000170: 8a83 9b3d 7324 4b3d 4caf 96bc d5da 3e3e
00000180: 3165 623e 649e 913d 0b74 883c 0910 d7bd
00000190: e069 93bd b4f1 9bbd f7bc e33c 9b3b 82be
000001a0: a23e eabd 67cd 433c 3721 c7bd 7c9e 503e
000001b0: e274 53be 8673 dfbc 5517 203e 4d44 11be
000001c0: 88ba a4be 608b 16be ade4 643d 937c bdbd
000001d0: 3a82 bbbd debf a2bd e02b b3bd 142e 383d
000001e0: 3d33 16bb 309c d3bd a3e4 ea3d 1af0 17be
000001f0: 853b dcbd ccb7 a0bc c533 9dbd f314 213e
00000200: 4c0f 79be 17ab 043e 92d5 a53d 2bfb 143d
00000210: 1808 4a3c f27a d1bd fdf9 7bbc 296b 6fbd
00000220: 5ea3 b53d 0bac eb3d 62cf 47be 28e2 50be
00000230: 10a6 e7bc fe23 4a3e bcc3 bbbd 1054 3bbe
00000240: 8718 58bd 2819 073c 6de9 febd 23be 9dbc
00000250: de0b dcbd a0a7 1dbe dd5a 9b3e 87b2 a5be
00000260: ecd1 9fbd 59fc dfbd aa5e 1e3d ddcf 2cbd
00000270: 7a5a c93d 0ad0 8fbd 09ba 55be fc05 5cbe
00000280: e038 e93d a976 84be ae40 78be 7250 52be
00000290: 7d15 90bd 9c35 023e 49ca 173e 3cc0 e03d
000002a0: ee35 49be 59cb 15be af64 1abe d1a1 f83d
000002b0: be79 b9bd 733d 88be bcd4 41be 116e f8bc
000002c0: f2f4 3ebe 4bf8 f5bd 7f25 da3e ca8d 17be
000002d0: b89c 62be ba9b 5e3c 75f6 583d 96fc 783d
000002e0: 447b bb3d eccd 97be 970c 98bc e07a 3f3d
000002f0: 04db 893e 5ce8 6b3e 7a87 60be e241 fbbd
00000300: 9a52 48be 391c 233b 830a 033d fbfb 8bbe
00000310: f195 2abe bb19 01be 8eef 1c3d 67a1 25be
00000320: 175e f4bd 5e01 1c3b 74e5 aebd e336 713e
00000330: c62c 3cbc dc9b 8fbc 3dd9 d7bd 3890 4c3c
00000340: d74f d7bc 68c9 b5be c718 8fbe dce9 a9bd
00000350: 1b95 bc3e 1611 23be f646 27be 99f9 78be
00000360: ef0d 1f3c 238a 7b3e c22f 52be 4422 06bd
00000370: 7a9b b2bd b618 1b3b 8c1b 83be c344 62be
00000380: 12e7 4c3e 3185 82be 98ff 8b3d 5b99 3d3e
00000390: 7202 323e 747d 663e f465 22be d1e8 6cbd
000003a0: 26b6 003e bfa6 43be 5d94 d3bd ff9e e5bd
000003b0: a563 0cbe eaed a8bc 4d07 dc3b d59a 81be
000003c0: 81ac afbd 520c 94be 9985 e83d 962e 673e
000003d0: a6de 853d 82ff a1be 18b9 85bd c68f 2f3e
000003e0: f06f 8dbe 9424 8ebe 0805 63be 297a 013d
000003f0: 5969 5ebc 8400 30be 9325 b83d 65e1 dabd

action_layer.bias f4 [4]
0.018792076 0.018876266 0.073509045 -0.050527144
00000000: d7f1 993c 66a2 9a3c e98b 963d 8df5 4ebd

value_layer.weight f4 [1, 128]
-0.11731423 0.23329896 0.22358133 0.0040119984 -0.00371662 -0.07104348 -0.16872445 0.027695982
-0.095329165 0.029603602 0.27793354 -0.067737 -0.075167775 0.15414603 0.06553622 0.036599405
0.11098242 0.10860721 0.078734435 -0.046712354 0.269508 0.162816 0.27167338 -0.040854517
0.062359642 -0.121589005 -0.003646626 0.13509938 -0.07190595 -0.21111453 -0.06698454 0.03830986
0.054124802 -0.0544663 0.009019497 0.07616056 0.22806005 0.063385166 0.08802495 -0.09255587
-0.22829574 0.133171 -0.06677488 0.3192721 -0.02655595 -0.09245606 -0.0688536 0.19697234
-0.20220575 -0.10698665 -0.32905734 -0.1489456 0.16894424 -0.1346291 0.26891816 0.22280313
-0.11572459 -0.1330231 -0.09803282 -0.1391871 0.03092055 -0.111355744 -0.15797335 -0.008712318
-0.084534444 0.3506637 -0.09724441 0.2185734 0.022242006 0.07494455 -0.07123855 -0.06354545
-0.12469729 -0.090172686 0.03721464 -0.06732546 0.18950707 -0.0015994314 0.24873239 0.02190519
0.018153273 0.10790147 -0.27034855 -0.05301484 -0.30393845 0.11354204 -0.16009605 0.14862159
-0.055806477 0.14830518 -0.042596616 -0.14936535 0.31159097 -0.0536832 -0.037352037 0.03803861
-0.24311344 0.007614099 -0.17731558 0.38501585 0.00011215285 -0.050127257 -0.2655819 -0.21576229
0.13562822 -0.053088818 -0.03348624 0.20973684 -0.017712003 -0.036914885 -0.0814728 -0.03057189
-0.26070392 -0.097976334 -0.14820243 0.07165879 -0.10983665 -0.09921776 0.2448677 -0.337493
0.10045216 -0.09527473 -0.1191794 0.12730655 0.12055372 -0.053900145 0.095461145 0.18369251
00000000: 7142 f0bd ece5 6e3e 81f2 643e 1577 833b
00000010: 8992 73bb 3e7f 91bd 1ac6 2cbe afe2 e23c
00000020: f03b c3bd 4183 f23c 4e4d 8e3e b2b9 8abd
00000030: 90f1 99bd 75d8 1d3e db37 863d 42e9 153d
00000040: c04a e33d 756d de3d 853f a13d 7455 3fbd
00000050: f4fc 893e 3db9 263e c618 8b3e 1157 27bd
00000060: d36c 7f3d a803 f9bd 3bfc 6ebb 7e57 0a3e
00000070: 6d43 93bd 682e 58be 312f 89bd cdea 1c3d
00000080: f8b1 5d3d 0e18 5fbd 83c6 133c 11fa 9b3d
00000090: 9388 693e 15d0 813d 6d46 b43d ef8d bdbd
000000a0: 5cc6 69be fb5d 083e 45c1 88bd a277 a33e
000000b0: dd8b d9bc 9a59 bdbd 1e03 8dbd 1eb3 493e
000000c0: 060f 4fbe d11b dbbd 347a a8be 3285 18be
000000d0: b8ff 2c3e 36dc 09be a4af 893e 8126 643e
000000e0: 0401 edbd 3537 08be 6ec5 c8bd 1087 0ebe
000000f0: 184d fd3c 7b0e e4bd c4c3 21be 1cbe 0ebc
00000100: 6520 adbd 318a b33e 1428 c7bd b5d1 5f3e
00000110: de34 b63c 877c 993d 84e5 91bd 1e24 82bd
00000120: 4b61 ffbd 75ac b8bd 616e 183d eee1 89bd
00000130: 240e 423e 03a4 d1ba b4b3 7e3e 8372 b33c
00000140: 2cb6 943c 72fb dc3d 206b 8abe 1726 59bd
00000150: d29d 9bbe bb88 e83d 38f0 23be 4230 183e
00000160: 5595 64bd 50dd 173e ca79 2ebd 3bf3 18be
00000170: da88 9f3e eae2 5bbd 73fe 18bd 60ce 1b3d
00000180: bbf2 78be b17f f93b 3792 35be cc20 c53e
00000190: 9a33 eb38 3d52 4dbd 5afa 87be caf0 5cbe
000001a0: 20e2 0a3e a973 59bd de28 09bd 41c5 563e
000001b0: c318 91bc 1034 17bd 36db a6bd e671 fabc
000001c0: fc7a 85be d1a7 c8bd 61c2 17be d8c1 923d
000001d0: 0af2 e0bd ae32 cbbd 99be 7a3e e2cb acbe
000001e0: ddb9 cd3d 661f c3bd 5414 f4bd a65c 023e
000001f0: dee4 f63d 66c6 5cbd 2281 c33d e419 3c3e
