NeurPiRL_SA/LunarLander/DQN/Oracle/32x64/2/Policy.pth (torch, 12439 bytes, 6 tensors)

fc1.weight f4 [32, 8]
000000 c3 ec f1 be 91 15 2f 3f 31 7c 08 3e 3b 2c 7a be
       -0.47250947 0.6839228 0.13328625 -0.24430935
000010 6a 69 85 bf be fd 6f 3f d0 fd 06 3e 4e 09 bc bd
       -1.0422795 0.93746555 0.1318276 -0.09181462
000020 d1 bd f8 3d ed 75 18 c0 d5 3b e9 3e f6 d4 a1 be
       0.121455796 -2.3821976 0.4555346 -0.3160779
000030 2a 7e 1b bf d3 aa 1a 3f 8c 48 48 3e a7 65 01 be
       -0.60739386 0.6041691 0.19558924 -0.12636434
000040 73 31 71 3f 3e c7 40 be 7f bc 7e 3f 96 bb 23 be
       0.9421608 -0.18826005 0.9950637 -0.15989527
000050 c7 1b 0a bf 78 3b 4b bf 68 78 07 be 06 26 0c 3f
       -0.53948635 -0.7938762 -0.13229525 0.5474552
000060 82 53 a4 be c0 b7 8e 3f 00 38 f3 3e 34 37 9e bf
       -0.3209496 1.1149826 0.47503662 -1.2360597
000070 14 0d 3f bf 0d 57 b2 bf b2 d3 8b be ff 10 7e 3f
       -0.7462933 -1.3932816 -0.27309948 0.99244684
000080 30 c8 5f bf df 25 d4 be 54 21 3a 3f 8b b4 2f be
       -0.87414837 -0.41435143 0.72707105 -0.17158715
000090 3b 36 6d bc e1 bb c1 be bf d5 31 bd b1 4a 12 3f
       -0.014478262 -0.37838653 -0.043416735 0.5714522
0000a0 c5 57 c3 3e 59 77 7c bf 54 7e a7 3e b4 87 b0 bf
       0.381529 -0.9861961 0.32713568 -1.3791413
0000b0 3f 50 a0 3e f6 3f b5 3e c0 a2 10 3e 14 d6 ed bd
       0.31311223 0.3540036 0.14124584 -0.11613098
0000c0 89 e2 a8 3e 8c 52 5e bd 19 41 06 3f dc e8 0c 3f
       0.32985333 -0.05427794 0.5244308 0.55042815
0000d0 ea 39 09 3f 52 3c 8f 3f c4 4b 43 3c d1 c4 95 3e
       0.53603995 1.1190283 0.011919919 0.29251722
0000e0 89 3b a7 bf 1b 14 23 be 9a 06 92 be d0 9d 6d 3f
       -1.3065044 -0.15925638 -0.28520662 0.9281893
0000f0 77 ad 85 3f d8 72 60 bf e0 9e 1c be d1 c3 d9 3e
       1.0443562 -0.8767524 -0.15294981 0.4253221
000100 91 74 90 3f 83 03 5c bf f4 85 bd 3f 13 72 82 bf
       1.1285573 -0.8594286 1.4806504 -1.0191063
000110 dc 80 67 bf 7d c3 b8 be c5 d1 b0 3c a6 e3 34 3e
       -0.90431 -0.36086646 0.0215844 0.17664966
000120 bd 34 09 bf 77 b6 d1 3d f5 04 4c bf ea e6 02 bf
       -0.535961 0.102398805 -0.79695064 -0.51133597
000130 a5 1f 90 3e 63 3c 9d be da 59 f8 be 47 54 33 bd
       0.28149143 -0.30710134 -0.4850605 -0.043781545
000140 c5 b1 0b be 16 45 f2 3d 38 53 09 c0 e2 e0 f2 3e
       -0.13642032 0.11829583 -2.1457043 0.47437197
000150 0e 4b 85 3b 4c ea a6 3e fe a8 c4 bf 5f d8 8e be
       0.004067785 0.3260063 -1.5364072 -0.27899453
000160 11 25 28 bf 26 79 47 bf 89 84 28 bf dd e1 74 bf
       -0.6568156 -0.7791923 -0.6582723 -0.9565714
000170 b3 bd 74 3f 8f cb 2f 3e 34 84 12 3f f7 11 4d 3e
       0.9560196 0.17167495 0.57232976 0.20026384
000180 5c 9c bc bf df 77 0c bf 82 f7 44 bf 13 47 7b bf
       -1.4735217 -0.5487041 -0.76940167 -0.98155326
000190 97 97 a3 3e d8 ad 88 bd 06 4b 3c bd dd 3d bb bc
       0.3195159 -0.06673783 -0.045969985 -0.022856647
0001a0 0d 91 a3 be 6e da 7e 3f ad de 7c 3f c4 ec 58 be
       -0.31946602 0.9955205 0.98777276 -0.21184069
0001b0 91 0c a1 bf 50 d5 50 bf 72 4b 1b bf 43 58 4e be
       -1.258196 -0.8157549 -0.60661995 -0.20150857
0001c0 e7 fd 95 bd 70 a7 7a 3e d6 47 c4 3f 58 1a b7 bf
       -0.07323819 0.24477935 1.5334423 -1.4304914
0001d0 0b e1 bf 3e 50 7a 88 3f 30 eb 62 bd b9 24 71 bf
       0.37476382 1.0662327 -0.055400074 -0.9419666
0001e0 64 c1 8f 3d a6 b9 7c 3e dd 30 38 3f 41 a2 25 3f
       0.07019308 0.24680194 0.7194956 0.64700705
0001f0 bf c7 20 40 95 b8 42 be 36 44 41 3e cf f6 2d 3e
       2.5121915 -0.19015725 0.18873677 0.16988681
000200 ba ac d0 be 0d 8c ec bf ed 50 2c bf bc 27 77 bf
       -0.4075678 -1.848024 -0.6731098 -0.96545005
000210 d7 b9 13 3f dc 85 83 bd 64 5a 05 3e b3 88 39 3e
       0.57705444 -0.06422016 0.13022763 0.18118553
000220 0e 22 43 3f 5d 59 38 bf a4 31 0f 3f 31 43 e3 bf
       0.7622384 -0.7201136 0.5593512 -1.775488
000230 bd 67 2f bf dd 4a f4 be db a5 ad be 93 e1 e5 be
       -0.6851767 -0.47713366 -0.339156 -0.44898662
000240 13 a2 b9 be a0 74 13 3f ce 61 c6 be 69 de 8a 3f
       -0.36256465 0.5759983 -0.38746494 1.0849124
000250 59 93 d3 3f 5b 7b 6a 3f 93 ca 92 be 76 fa 02 bf
       1.6529342 0.91594476 -0.28670177 -0.51163423
000260 70 49 8d be 04 46 2e c0 f9 1d 9c be 86 64 89 bf
       -0.2759509 -2.7230234 -0.30491617 -1.0733802
000270 66 d5 bd 3d fa e6 72 3e 48 89 ef 3e da 85 70 3f
       0.09269218 0.23720923 0.46784425 0.9395424
000280 b1 a5 8d be 26 40 f2 3d e8 f7 45 3b 01 b6 f3 be
       -0.27665475 0.118286416 0.0030207578 -0.47599795
000290 05 f0 26 40 70 62 67 3f d8 1d c9 3c 7a 7e 38 bf
       2.6083996 0.9038458 0.024550363 -0.7206799
0002a0 a1 25 4b bf 98 73 c0 be 81 6f 6b bf 4b 0a e2 be
       -0.7935429 -0.3758819 -0.91967016 -0.44148478
0002b0 6b e5 8c 3f bc 9d 68 3f c5 c9 77 3d b3 37 ba bd
       1.1007513 0.90865684 0.060495157 -0.09092655
0002c0 8f 55 a8 3e 0f cd 43 be 8c 84 a6 3e 5e 37 10 3e
       0.32877776 -0.19121192 0.32523 0.14083621
0002d0 a1 92 36 bf d8 46 1b bf cd 52 41 3e e5 51 22 3f
       -0.7131749 -0.60654974 0.18879242 0.6340621
0002e0 8a 9b 51 be 02 a3 8e 3e 60 36 17 3f 1e 41 df be
       -0.2046949 0.2785874 0.59067345 -0.43604368
0002f0 d1 84 f5 3e 4f 0b 5b 3f d1 cf d8 3e 9d c5 89 bf
       0.47952893 0.8556413 0.4234605 -1.0763432
000300 b6 4e a0 3f 2d 01 9f 3d 00 d7 94 be 2a 81 3e c0
       1.2524021 0.07763896 -0.29070282 -2.9766335
000310 8c 76 1e be 9c 38 4d bf 6d 9d f6 3e f3 4d 30 3f
       -0.1547491 -0.80164504 0.4816698 0.6886894
000320 3d 97 10 3e e9 5f 56 be 34 5f 81 bf e2 6e 96 bd
       0.14120193 -0.20935024 -1.0107179 -0.07345368
000330 db 88 88 3f bf 90 6b 3f 66 f6 15 be d3 87 c8 3e
       1.0666765 0.9201774 -0.14644775 0.39166126
000340 6f 81 83 3e f6 ec d4 bb b3 68 1d 3e 33 25 95 bd
       0.25684687 -0.0064979745 0.15371971 -0.07282486
000350 18 ec 4e 3f 0b c8 fb 3e a6 0a 53 be 69 ae 33 bf
       0.80829 0.49176058 -0.20609531 -0.70188004
000360 86 ab f5 3e 3b e6 80 3d 7b c4 05 3f 04 aa 9e 3e
       0.47982424 0.06293913 0.5225293 0.30989087
000370 02 6a de be 8d da da be 86 95 20 bd 2f 0d 1b 3f
       -0.43440253 -0.42744866 -0.039205097 0.6056699
000380 29 7a 16 be 48 76 5f c0 b4 81 4d 3f d9 ab d7 be
       -0.14695038 -3.4915943 0.80276036 -0.42123297
000390 cd 51 94 3e 3d 77 f5 be bd 51 87 be 9f 64 45 bd
       0.2896866 -0.47942534 -0.2642955 -0.048191663
0003a0 61 f3 d8 3e ed d0 85 3e cc 3b 7a be 34 49 ba 3d
       0.42373183 0.2613596 -0.24436873 0.09095994
0003b0 4a df 16 3d e0 71 c8 be e1 aa 45 bf ef 0e 92 be
       0.03683404 -0.3914938 -0.77213866 -0.28527018
0003c0 34 6b 9a 3e 66 95 33 3f cb 7f 06 c0 b1 c2 bb bf
       0.30159914 0.7014984 -2.1015499 -1.466879
0003d0 83 02 90 3f 7b da 50 3f 4b aa 4b 3f a7 87 8c 3d
       1.1250767 0.81583375 0.7955672 0.06861811
0003e0 fb 61 67 bf 45 7b ae bf 8c 37 99 be 78 dd c5 bf
       -0.9038388 -1.3631369 -0.2992519 -1.5458212
0003f0 83 13 84 3e cd 9b b1 bc 14 f3 92 3e 3f 24 2c be
       0.25796136 -0.021680737 0.2870108 -0.16810702

fc1.bias f4 [32]
000000 01 e1 66 3f 54 d6 42 3f 32 bc c1 3b 81 9f 8e 3f
       0.9018708 0.7610829 0.005912327 1.1142427
000010 c3 09 0e bf 93 48 9f be 2f 5e 32 bf c2 c3 7f 3e
       -0.55483645 -0.31110057 -0.6967496 0.2497702
000020 0c 04 0f bf 3c 48 e1 3e 18 d8 c2 bd b1 d7 1b bf
       -0.5586555 0.44000423 -0.09513873 -0.60875994
000030 95 f7 e2 3d e1 f5 b7 3f a6 27 14 be de 70 b2 be
       0.11082379 1.4371911 -0.1446825 -0.34851736
000040 84 83 60 be b9 d6 01 bf ac 92 0d 3f a2 aa b9 bd
       -0.21925169 -0.50718266 0.5530193 -0.09065749
000050 da 10 6f 3e 10 b4 1b bf 93 53 08 3e 5a 4a c0 3e
       0.23346272 -0.6082163 0.13313131 0.37556726
000060 d7 f8 91 3f 35 e2 50 bf dc 1a 23 3e c7 a2 2e bd
       1.1404065 -0.81595165 0.15928215 -0.042635705
000070 81 cf 25 3f bf fc b3 3e 00 ec 46 3f 00 56 91 be
       0.6476975 0.35153767 0.7770386 -0.28385925

fc2.weight f4 [64, 32]
000000 f2 59 00 bf b3 86 15 bf 3c 15 45 3e 5d 11 8c be
       -0.50137246 -0.5840866 0.19246382 -0.27356997
000010 af b4 68 3f 6d a6 86 3f df 65 76 3f c2 8d 0a bf
       0.909007 1.0519539 0.9624919 -0.54122555
000020 56 2d b8 3f 2b b6 6b 3f 61 99 be bf 1f ec 9a 3f
       1.4388835 0.9207484 -1.4890558 1.2103308
000030 56 2a 34 3f 73 fb 3a 3d 2d 48 95 3d dd 5c 55 bf
       0.703771 0.045649957 0.07289157 -0.83344823
000040 4c 97 0d 3f c1 ef 87 3f e4 fd a5 3f 66 1e 98 bc
       0.55308986 1.0620042 1.2968106 -0.018569183
000050 00 50 3c bf f7 0e a9 3f 23 59 aa 3e 09 e9 48 3f
       -0.7355957 1.3207692 0.3327113 0.78480583
000060 2a 9f b2 3d f9 e8 75 3f 29 13 7e 3e 8d 02 ce 3e
       0.087217644 0.96058613 0.24811997 0.4023632
000070 79 93 3c bf 62 e9 58 3e 59 cb 87 3d 71 4f 87 3f
       -0.73662525 0.21182778 0.06630582 1.0571119
000080 61 6f 64 bf 32 c3 75 bf 43 ab 07 3f 00 56 a5 be
       -0.8923245 -0.9600097 0.529957 -0.32292175
000090 27 3b d3 3f 8d ad 58 3f 01 c4 08 3e a6 34 4d be
       1.6502427 0.8463982 0.1335602 -0.20039615
0000a0 6b 99 14 40 7f 61 a6 3f ce 82 f0 be 5a 0f e2 3e
       2.321864 1.2998503 -0.46974796 0.44152337
0000b0 c0 5c 96 3f 4b 84 3d 3e 30 9d 3f 3e bd eb 2f bf
       1.1747055 0.18507497 0.18712306 -0.68719083
0000c0 28 a1 84 3f 8a c7 80 3f 36 d6 ba bc 74 28 45 3e
       1.0361681 1.0060894 -0.022807222 0.19253713
0000d0 b3 6f 1b 3d fe 9b b3 3e e9 99 b6 3e db a8 84 3f
       0.03794832 0.3507995 0.356643 1.0364031
0000e0 ed 00 f6 3e 95 47 01 bf d2 00 1f 3f 01 55 ae 3e
       0.4804758 -0.5049985 0.62110627 0.34049228
0000f0 15 82 44 be 94 bd 88 3f 7a 34 66 bf 9c af 9e 3f
       -0.19190247 1.0682855 -0.8992382 1.2397342
000100 83 5a 25 bf b4 91 a4 be f1 0a d1 3e 75 5a 16 be
       -0.64591235 -0.32142413 0.4082866 -0.14682944
000110 1c 39 5e 3f 6d a9 87 3f ab 31 66 3f 42 e1 aa be
       0.8680589 1.059858 0.8991954 -0.33374983
000120 40 98 fe 3f 6f 95 d3 3e c5 1a c7 bf 14 79 91 3f
       1.9890213 0.41324946 -1.5555044 1.1365075
000130 71 ff 65 3f 9c 62 93 3d a7 de 91 bc 93 ab 72 bf
       0.898429 0.071965426 -0.017806364 -0.9479305
000140 d3 56 1f 3f 10 d6 66 3f eb ad 77 3f e2 cb a0 3e
       0.6224186 0.90170383 0.9674975 0.3140555
000150 34 05 07 bf 59 f2 98 3f 31 c5 2d 3e f2 cd 50 3f
       -0.52742314 1.1948959 0.16969754 0.8156425
000160 5b ff 1c 3e f3 fe 5c 3f 5f b1 8e 3d 4c 0e b8 3e
       0.15331785 0.8632652 0.069674246 0.35948408
000170 ec 11 37 bf 81 7d ab 3e 9d 10 f0 3d f0 c4 8a 3f
       -0.7151172 0.3349419 0.11721919 1.084135
000180 30 22 d8 bd 04 99 cf be cd 3e ab be 64 b1 bc be
       -0.10553396 -0.4054643 -0.3344635 -0.36854088
000190 42 b7 ea 3e c2 fc 85 3f 6c 45 6e 3f 1d b0 89 bc
       0.4584294 1.046776 0.9307468 -0.01680761
0001a0 e6 1d 96 3f 98 1b 8a 3f ab 9f df bf 22 65 51 3e
       1.1727874 1.0789671 -1.7470602 0.20448735
0001b0 c4 33 69 3e ed ef 0d 3e 11 dc 7d be f8 b2 aa be
       0.22773653 0.13861056 -0.2479098 -0.33339667
0001c0 de 4d af 3e 3f 79 97 3f 15 25 6e 3f 94 d7 76 3e
       0.34239095 1.1833876 0.9302533 0.24105674
0001d0 9a 5d 32 bf eb 45 5e 3f d0 67 05 bf 35 31 82 3e
       -0.69674075 0.86825436 -0.5211153 0.25428167
0001e0 d4 92 1b 3e c3 42 81 3f 2e 83 cd be aa d0 31 bf
       0.15192729 1.0098499 -0.40139145 -0.6945902
0001f0 af b4 9f bf 44 ec 87 3e c5 6e 26 3e ca bb 86 3e
       -1.2477015 0.26547444 0.16253193 0.26315147
000200 24 07 00 40 d4 de b3 3f d9 d4 ba be 4a e3 66 3f
       2.0004358 1.4052377 -0.36490515 0.90190566
000210 27 eb 6f bf 28 52 84 be 30 34 56 be 8c 3a f2 3f
       -0.9371819 -0.2584393 -0.20918345 1.8924117
000220 38 3f 2c bf 88 cd 34 bb 2e fc 74 40 e3 2d 1b 3f
       -0.67283964 -0.0027588326 3.8278918 0.6061689
000230 76 7e 78 3f d3 d3 d4 3f 2d bf 4b bf 4a 3e 22 3f
       0.97067964 1.6627144 -0.79588586 0.63376296
000240 a0 8d f4 bd 32 dc b3 be ed ce 5b 3f 7f 5c 5c be
       -0.11941075 -0.35128933 0.8586262 -0.2151966
000250 21 e2 c4 bf f1 ca a9 3f b1 54 a2 bb 4d b8 3b bf
       -1.5381509 1.3265058 -0.0049539437 -0.73328096
000260 99 f8 8f bf 91 c4 8e 3f 87 a0 c2 bf e1 cb 3a 3d
       -1.1247741 1.1153737 -1.5205239 0.04560459
000270 b6 47 8a 3e 58 77 2d 3f 20 16 97 c0 ab 5e 5a bf
       0.27007836 0.6776023 -4.721451 -0.853007
000280 75 46 43 bf a9 a8 51 bf d0 07 c9 3d 42 7a 2a be
       -0.76279384 -0.8189798 0.09815943 -0.166482
000290 c2 21 6e 3f c8 a4 83 3f 4c b8 8f bc 94 f7 ca bd
       0.9302026 1.0284662 -0.017543934 -0.09910503
0002a0 35 4f e3 3f b1 d2 a0 3f eb 5d da bf 4d d2 b6 3e
       1.7758547 1.2564298 -1.7059911 0.35707322
0002b0 98 3c 8e 3f 32 7f b3 3d aa 8d ed bd ab 6b 14 bf
       1.1112242 0.08764495 -0.11599286 -0.5797679
0002c0 11 83 44 3f b5 41 1f 3f 0b a3 17 3f a5 bc a8 3d
       0.7676249 0.62209636 0.5923316 0.08239106
0002d0 26 5b 90 bf 1a 97 2f 3f 8b 03 1c be a6 75 4a 3f
       -1.1277816 0.6858994 -0.15235727 0.7908577
0002e0 47 80 92 3e 60 7d 73 3e b3 32 f0 3c 4d 47 26 3e
       0.28613493 0.23778296 0.02932105 0.16238137
0002f0 5a 11 2b bf ba 0b cd 3e 55 6f 1d 3d cc f3 4f 3f
       -0.6682335 0.4004801 0.038436253 0.8123138
000300 72 54 75 be ff cb 33 bf 59 fe a8 3e 15 7f 2d 3c
       -0.23957995 -0.7023315 0.33006552 0.010589381
000310 b2 5d c0 be f3 a0 56 3f 15 a8 25 3f c7 06 df be
       -0.37571484 0.8383934 0.647096 -0.43559858
000320 80 61 6f 3f f9 02 0d 3f 79 99 f2 bf f9 af 9d 3f
       0.9350815 0.5508266 -1.8953086 1.2319328
000330 f1 a4 b2 bd 8f 75 1a 3f 1f ac c7 be cf a4 a6 bf
       -0.08722866 0.6033563 -0.38998505 -1.3019046
000340 86 ee 86 3c f7 e8 1e 3e 61 e1 51 3f 31 9b 4a bf
       0.016471159 0.15518557 0.81984526 -0.79143053
000350 c2 3b c8 3e 81 0a 98 3f 04 f5 13 bf 41 36 4e 3f
       0.39108092 1.1878206 -0.5779574 0.80551535
000360 9a 0a d9 3d c7 e9 32 3f 4b f4 d3 3e d8 2a ef bd
       0.10597725 0.69887966 0.41397318 -0.11678094
000370 f1 8a ae bf 49 9a 9f 3a 60 6d a0 3d 34 c5 f2 3e
       -1.3636152 0.0012176718 0.078333616 0.4741608
000380 a4 b0 66 be e8 c6 c7 bf a7 0e 17 3d cc e6 bc bd
       -0.2252832 -1.5607576 0.036879208 -0.092237085
000390 ae 75 88 3f e3 02 cd 3d 15 b3 3a 3c 4c ec 23 3f
       1.0660913 0.10010316 0.011395236 0.64032435
0003a0 5f ce af 3f 2d 17 72 3f 8e 9b 42 bf 6c 9a 2c 3d
       1.3734854 0.94566613 -0.7601861 0.042139456
0003b0 48 5a 2c bf 19 38 9a 3e a4 5c ed be 97 43 a7 bf
       -0.6732526 0.30120924 -0.46359742 -1.3067502
0003c0 b0 65 90 be b2 43 2e 3f 0b d2 75 3f db 13 ca be
       -0.2820258 0.68072045 0.96023625 -0.39468274
0003d0 39 80 6d 3e d0 ff d6 3e 85 53 88 3d fa 9f 79 3f
       0.23193444 0.41992044 0.06656555 0.9750973
0003e0 d9 79 6f bd 80 32 fd be a6 21 8a bc ea 51 f0 3d
       -0.058465812 -0.4945259 -0.016861748 0.11734374
0003f0 2a 08 65 bf 4b 4d 50 3f ac a0 0c 3c 10 b9 9d 3e
       -0.8946558 0.8136794 0.008583229 0.30805254

fc2.bias f4 [64]
000000 48 e6 83 be 2b 01 a7 bc e5 fb a2 be a1 24 c5 3c
       -0.25761628 -0.0203863 -0.31832805 0.024065318
000010 fd 21 97 3f 6b 3f 38 3c 52 64 b4 3c 05 0e 91 3d
       1.1807247 0.011245589 0.022020493 0.07082752
000020 ea 9b e8 bd bc 2c ca bd 41 54 22 3f 82 a6 bf bc
       -0.11357863 -0.09871814 0.6340981 -0.023394827
000030 6e cc ac be 4d 35 1b 3f dc 14 06 be 34 18 b8 3e
       -0.33749717 0.60628206 -0.13093895 0.35955966
000040 a9 d1 8f 3d 43 c8 af bd 79 2b 55 bb cc 7b 04 3f
       0.070224114 -0.08583119 -0.0032527132 0.517514
000050 84 17 21 3c 96 c8 cc bc d4 06 59 3e 49 fd 3c be
       0.009832267 -0.02499799 0.21194011 -0.18455996
000060 49 91 e3 bd 94 1d d5 bd 73 46 23 3f 49 fb d5 3d
       -0.11111695 -0.10406032 0.6377937 0.104483195
000070 1b 05 6d 3d 84 db 53 bf bd f1 dc 3c 45 0a 9a 3e
       0.057866197 -0.8275683 0.026970739 0.3008596
000080 52 57 ea ba a7 2d 2d 3e f1 c3 bf 3e ed 54 9b be
       -0.0017878807 0.16911946 0.3745418 -0.3033823
000090 bf 92 15 bd 82 d8 d7 bd fc 7b 03 40 f5 c0 21 bf
       -0.0365169 -0.105393425 2.0544424 -0.63185054
0000a0 03 ab c5 be ab eb 96 3d fa e5 61 3f bc 9f d9 3e
       -0.38607034 0.07369169 0.8824154 0.4250468
0000b0 1b f7 18 3f 8f d7 f6 3d 11 00 61 be 19 eb 42 bf
       0.59752053 0.12052833 -0.21972682 -0.7613998
0000c0 37 29 ce be 83 f2 bc be 67 31 e6 bd 19 95 7e 3f
       -0.4026582 -0.36903772 -0.112398915 0.99446255
0000d0 a4 b2 f7 bd a6 e1 bc 3f af a9 65 3f 58 5a 92 be
       -0.1209462 1.4756362 0.8971204 -0.28584552
0000e0 5f e9 b4 be 52 84 a4 bb 52 d7 d0 bd fe 1f 1a be
       -0.35334298 -0.0050206566 -0.10197319 -0.15051267
0000f0 1b c8 51 bf cb 63 a4 3d 59 96 8e 3d a3 bd 6f be
       -0.8194596 0.080268465 0.0696227 -0.23412184

fc3.weight f4 [4, 64]
000000 84 5e 7b bf cf 87 c2 bf ab 20 aa bf 7a 26 e9 bf
       -0.98191094 -1.5197695 -1.329122 -1.8214867
000010 3a 1f 67 40 8b 62 94 bf 79 d0 a0 bf 06 2f ae bf
       3.611281 -1.1592573 -1.2563621 -1.36081
000020 52 f9 90 bf 70 ee 63 bf 62 70 c7 3f 80 ed 71 bf
       -1.1326087 -0.890357 1.5581172 -0.9450302
000030 fd a8 a2 bf b0 bd 67 3f 8b b0 5b bf 54 0e 9f bf
       -1.2707821 0.90523815 -0.8581626 -1.2426248
000040 38 2a 50 bf 40 c2 60 bf 87 c0 74 bf dc 8c ce be
       -0.8131442 -0.877964 -0.95606273 -0.40341842
000050 3b 8c 83 bf e3 f6 88 bf a1 a3 ae bf fc fa 90 bf
       -1.027717 -1.0700344 -1.3643686 -1.1326594
000060 a7 e0 82 bf d8 0f ed bc aa f8 83 3f c4 41 33 bf
       -1.0224808 -0.028938219 1.0310261 -0.70022225
000070 c2 c7 67 bf 63 c2 9f bf 72 14 88 bf 36 c7 5d bf
       -0.9053918 -1.2481197 -1.063124 -0.86632097
000080 ae 73 71 bf 31 f8 cb bf af 67 95 bf e4 e2 a6 bf
       -0.9431714 -1.5935117 -1.1672267 -1.3037992
000090 1f 16 ad bf b9 c7 81 bf d6 9a 39 40 e1 83 98 bf
       -1.3522376 -1.0139076 2.9000754 -1.1915246
0000a0 7a d3 44 bf c1 b5 14 bf 7a fa 02 3f d5 46 ea be
       -0.7688519 -0.58089834 0.51163447 -0.45757166
0000b0 f3 ed 0b bf 77 d1 7f bf d7 1b a6 bf ea 19 1c bf
       -0.54659957 -0.99928993 -1.2977246 -0.6097704
0000c0 22 e1 99 bf 05 2b 6c bf 0a a3 ce bf e4 d6 89 3f
       -1.202183 -0.9225314 -1.6143506 1.0768704
0000d0 1d be 01 3f c8 cf 53 40 c8 b8 c3 3f c1 3a 84 bf
       0.50680715 3.309557 1.5290766 -1.033043
0000e0 7d cf 7b bf 3f 55 42 bf 9d 37 7e bf 55 7c 9f bf
       -0.98363477 -0.75911325 -0.9930361 -1.2459818
0000f0 fa b8 51 bf 90 ee 7f bf 57 2d 06 40 08 f5 87 bf
       -0.81922877 -0.9997339 2.0965173 -1.0621653
000100 0c 20 79 bf 2f fb c7 bf 01 b4 4b bf 76 75 41 bf
       -0.97314525 -1.562353 -0.7957154 -0.75569856
000110 f2 35 8a 40 33 12 9b bf 22 ed 8d be 1d c2 9d bf
       4.319085 -1.2114929 -0.2771998 -1.2324864
000120 f0 66 93 bf d0 11 35 bf e8 45 07 40 b6 dd 58 bf
       -1.1515789 -0.70730305 2.1136417 -0.84713304
000130 e0 e4 5c bf 12 e2 6a 3f e3 97 64 bf bb 2f a0 bf
       -0.86286736 0.91751206 -0.8929426 -1.2514566
000140 5f ab 97 bf 91 db 9d bf 4a 08 1c bf 38 1e 63 be
       -1.1849173 -1.2332631 -0.6095015 -0.22179496
000150 4e c3 9f bf 79 6b d0 bf 44 77 32 bf 02 36 4e bf
       -1.2481477 -1.6282798 -0.69713235 -0.8055116
000160 f5 a5 6d bf 09 31 dc 3d 31 ef 5e 3f 8c ef bb bf
       -0.92831355 0.1075154 0.8708373 -1.4682479
000170 80 66 11 bf c2 e9 ce be 61 81 68 bf 08 af 50 bf
       -0.5679703 -0.40412718 -0.90822417 -0.81517076
000180 54 1b c5 bf 4d 7b a7 be b2 f6 4d bf c4 fd 48 bf
       -1.5398965 -0.3271126 -0.8045455 -0.78512216
000190 b7 e0 26 bf 13 cc e6 bf a3 59 3c 40 c4 ea 83 bf
       -0.6518664 -1.8031029 2.942971 -1.030602
0001a0 c7 ba e6 bf 0f 29 8d bf 9d a3 12 3f 6d 4b dc bf
       -1.802575 -1.1028155 0.57280904 -1.7210518
0001b0 52 e9 d8 be 13 ca 92 bf cc 73 67 bf bf fc 25 bf
       -0.4236551 -1.1467918 -0.90411067 -0.64838785
0001c0 b2 2f 53 bf 18 3e 52 bf 59 ba 8b bf 22 91 73 3f
       -0.8249465 -0.82126 -1.0916244 0.9514333
0001d0 17 ec e8 be a9 4b 5d 40 b6 12 10 3f 95 cd 1b bf
       -0.45492622 3.457743 0.5627855 -0.6086057
0001e0 aa e6 2a bf d1 c9 d2 be c8 ea a6 bf 7b 08 d5 bf
       -0.66758215 -0.411696 -1.30404 -1.6643213
0001f0 cb 4b 57 bf 08 76 83 bf 10 dc 2c 40 71 37 33 bf
       -0.84100026 -1.0270395 2.7009315 -0.7000647
000200 ab b1 78 bf ea bd 19 be 2a 3b 3b bf a7 46 cb 3c
       -0.971461 -0.15013853 -0.7313715 0.024813963
000210 f9 b4 68 40 83 7a a8 be 99 48 01 c0 6c 9d cd bf
       3.6360457 -0.3290597 -2.020056 -1.6063666
000220 af 5e 71 bf d2 26 47 bf 95 ec d5 3f a3 3f 87 bf
       -0.942851 -0.7779361 1.6712824 -1.0566295
000230 68 e2 21 bf 82 39 f7 3f 9d 56 4c bf 66 ec 68 bf
       -0.63236094 1.9314425 -0.7981966 -0.90985715
000240 09 64 64 bf 90 11 6c bf c2 de 79 bf d7 17 72 bf
       -0.8921514 -0.922143 -0.97605526 -0.94567627
000250 b3 28 ba be 46 92 fa be 75 a1 c4 bf 13 1c 9c bf
       -0.36359176 -0.48939723 -1.5361773 -1.2196068
000260 fd 87 ed be 10 d2 65 3d ee 07 a2 3e e9 ee 35 bf
       -0.46392813 0.056108534 0.31646675 -0.7106767
000270 39 49 a2 bf 81 9a c0 bf aa 9d 85 bf 28 b0 90 bf
       -1.2678596 -1.5047151 -1.043874 -1.1303759
000280 db 18 89 bf 50 51 0e c0 1b 4e d1 bf da 21 94 bf
       -1.071071 -2.223713 -1.6351961 -1.1572831
000290 e4 3d 6d bf 51 e4 b2 3e 9f 5c 2d 40 94 39 d3 bf
       -0.9267256 0.34939817 2.7087781 -1.6501946
0002a0 ac fe 0b bf 37 a8 28 bf c5 67 7f bf c8 32 16 bf
       -0.54685473 -0.65881675 -0.99767715 -0.58671236
0002b0 12 5b 93 bf 51 a2 8d bf 60 2a 30 bf de 67 df bf
       -1.1512167 -1.106516 -0.6881466 -1.7453573
0002c0 42 81 4d bf 78 e5 2c bf 44 2a 9b bf 6a c9 85 bf
       -0.80275357 -0.6753764 -1.2122273 -1.0452092
0002d0 6a 45 d4 bf 4b 3e 80 40 44 25 b3 3f 8f 28 82 bf
       -1.6583683 4.007604 1.3995748 -1.0168628
0002e0 26 5e af bf 84 b9 91 bf fb 67 9e bf 69 19 80 be
       -1.3700607 -1.138474 -1.2375482 -0.25019386
0002f0 c0 ef 97 bf 0f f6 c1 be 94 7d 2d 40 9e 87 49 bf
       -1.1870041 -0.3788304 2.7107897 -0.7872256
000300 af ad 73 bf aa fa 0a c0 cc e9 81 bf fa 8a 95 bf
       -0.95186895 -2.1715493 -1.0149474 -1.1683037
000310 4b 52 76 40 24 1b aa be c9 1e 89 bf 17 0d f4 bf
       3.8487728 -0.33223832 -1.071252 -1.9066495
000320 b4 17 c2 bf da cf 8e bf 26 23 60 3f 07 69 4b bf
       -1.5163484 -1.1157181 0.8755363 -0.79457134
000330 da b8 3e bf cd 23 1d 3f 41 95 45 bf 56 a8 24 3c
       -0.7450081 0.6138275 -0.7718087 0.0100499
000340 96 73 90 bf c0 91 56 bf 84 6a 79 bf 75 97 cc bf
       -1.1285274 -0.83816147 -0.97428155 -1.5983721
000350 a4 d8 d3 bf 72 c7 ba be b3 a9 a4 bf 62 b3 8a bf
       -1.6550488 -0.3648029 -1.2864288 -1.0835993
000360 23 c8 82 bf ce a5 ca bd 08 9d 47 3f 21 38 a3 bf
       -1.0217327 -0.09894906 0.77973986 -1.2751504
000370 7e 8b 0d bf a8 e6 67 bf 25 1b 96 bf 59 1e d4 bf
       -0.55290973 -0.9058633 -1.1727034 -1.6571761
000380 a3 ff 7e bf 2b 17 c9 bf e3 70 ba bf 28 61 6d bf
       -0.9960882 -1.5710195 -1.45657 -0.92726374
000390 48 fb 93 bf 51 07 55 be 3c da 41 40 44 75 ac bf
       -1.156106 -0.20803572 3.028945 -1.3473287
0003a0 71 36 30 bf 9b be a2 be b3 9f d0 3f 07 5e 6c 3c
       -0.6883307 -0.31786045 1.6298736 0.014426715
0003b0 84 ba 96 bf fe a9 8e bf ab 00 6b bf bf 0f 8f bf
       -1.177567 -1.1145627 -0.91797894 -1.117668
0003c0 94 af 38 bf d9 fb 66 bf e3 1b e8 bf 7f df 94 3f
       -0.7214291 -0.9022804 -1.813351 1.1630706
0003d0 45 05 44 3f c2 d8 40 40 9e c2 10 40 67 93 77 bf
       0.7657054 3.0132298 2.2618785 -0.96709293
0003e0 15 a2 b5 bf cf dd 62 bf e9 51 e7 be ab 8a 1a be
       -1.4190089 -0.88619703 -0.4517968 -0.1509196
0003f0 cc 6b 44 bf ff 2e 65 bf 89 f5 14 40 dc 95 45 bf
       -0.76726985 -0.89524835 2.3274863 -0.7718179

fc3.bias f4 [4]
000000 89 6b 51 3f 2b b4 d2 3e 8b e8 c2 3f fa 14 3d 3f
       0.8180471 0.41153082 1.5227216 0.7386013
