NeurPiRL_SA/LunarLander/DQN/Oracle/64x64/7/Policy.pth (torch, 22209 bytes, 6 tensors)

fc1.weight f4 [64, 8]
-0.047729064 -1.1360028 1.2724038 1.0161451 -0.35145777 0.29967588 0.10020972 0.10990499
0.7882723 0.29239437 -0.3909768 0.35568684 -0.27164647 -0.4255452 -0.571628 0.12131486
0.28283104 -0.72386456 0.58456236 -0.56120545 -0.7953164 0.36472005 0.25710878 0.2337509
-0.2186602 0.37139136 0.5165619 -0.65214336 1.5934246 -0.3893955 0.3204212 -0.07220168
0.079072244 0.74690557 0.31145242 0.7889255 -0.069830745 -0.32675174 -0.9632258 -0.730317
0.38094172 0.0078330785 -0.3861819 0.13013913 1.1714611 0.6830165 0.022150705 0.07492678
-0.14998966 -1.4394778 -0.9852031 -0.34626463 1.2296461 0.25692913 0.17460145 0.11185997
-0.3155574 -0.20092142 0.35615185 1.1943306 0.32315016 -0.2793212 0.5826103 0.5006349
-0.16000167 0.10549762 0.163347 -0.4506082 0.70398545 0.5761485 -0.4747338 -0.42270952
0.17409506 0.300653 -0.6080944 1.1672112 0.3924083 0.70993865 0.18293911 -0.4255284
0.965904 -0.58441985 0.2526659 -0.14069858 -0.38377345 -0.5019315 0.3805772 0.054603826
0.42681763 1.1176393 -1.1754869 0.093732096 0.2283912 -0.23476687 -0.48456472 -0.5518413
-0.5410367 0.013528375 0.2005733 0.066894725 0.85797405 0.14119683 -0.8475694 -0.20624141
0.06371965 -0.2727002 0.18113399 -0.35266834 -1.3865626 -0.10136978 0.20386258 0.2836504
-0.03588726 -0.03217336 0.14831893 -0.70820224 -1.5852299 -0.055239126 0.030233752 0.06407962
-0.35023373 0.64968276 1.0425382 -0.31403568 -0.09037745 0.4133613 -0.15661342 -0.8932353
0.46676165 0.42072678 -0.56539154 -0.6849442 -0.2301511 0.17757714 0.61910963 0.3039363
0.14700085 0.4800806 0.33396062 -1.1023546 0.0032474736 -0.0573587 0.34696206 0.036306437
-0.24915582 -0.4282361 -0.29469156 -0.5755136 1.7062366 0.13869253 -0.4312356 -0.39430317
-0.41445252 1.091548 1.7411906 -0.91305465 -0.008739941 -0.1140649 0.5842083 -0.44727454
0.032908265 -1.018926 -0.12411269 -1.2309923 -0.23552862 -0.6607476 0.12464378 -0.32733092
-0.2157527 -0.11091822 2.5023844 -0.6010776 0.20727764 0.57905656 0.052092668 0.10972351
-0.2194305 -0.43995783 -0.10907415 -0.98805606 1.0759673 0.25415006 -0.0021574667 0.2512407
-0.31125847 -0.054417085 -0.14321685 -0.30058977 0.75555956 0.23525056 0.4793673 0.5430049
1.2179576 -0.3977922 0.93063694 -0.88978547 0.06846306 0.053140648 0.11060263 0.005137545
0.11752678 0.5684056 0.00165554 0.83323 -0.37836614 -1.3976271 0.20009983 0.14839374
0.015233599 0.85946226 -0.5083853 1.2700831 0.35350353 0.59465456 0.52197015 0.041957255
1.1511494 0.013463512 0.5400944 -1.0317426 0.52910095 0.11587555 -0.1330762 0.0017095028
0.09683207 0.19653904 -0.01851593 0.2500654 -0.7741251 -0.3421548 -0.75141495 0.5429846
1.2963498 0.6751055 1.1498334 0.14254168 0.39249107 0.52638775 -0.10685252 0.07106625
-0.089415744 -1.1960337 -1.2403412 -1.0717355 0.44118044 0.35015783 0.1788371 0.045090783
0.19901304 0.35003355 -0.06554975 -0.54817605 0.052763384 0.29083967 -0.09249309 0.6704926
00000000: 8d7f 43bd 8a68 91bf 21de a23f 0b11 823f
00000010: 46f2 b3be 1e6f 993e c13a cd3d de15 e13d
00000020: 37cc 493f b7b4 953e 1c2e c8be 961c b63e
00000030: 3f15 8bbe 0fe1 d9be 3656 12bf ed73 f83d
00000040: 3bcf 903e 304f 39bf e1a5 153f 29ab 0fbf
00000050: db99 4bbf 96bc ba3e c3a3 833e 655c 6f3e
00000060: 76e8 5fbe 0227 be3e 673d 043f def2 26bf
00000070: 56f5 cb3f d95e c7be 3f0e a43e 79de 93bd
00000080: a1f0 a13d 3435 3f3f b176 9f3e 06f7 493f
00000090: 6c03 8fbd 014c a7be f795 76bf 0ef6 3abf
000000a0: cb0a c33e 5056 003c a2b9 c5be 3143 053e
000000b0: 70f2 953f 2bda 2e3f 6575 b53c 3673 993d
000000c0: e496 19be cf40 b8bf 4536 7cbf 9949 b1be
000000d0: 0b65 9d3f 378c 833e b9ca 323e d716 e53d
000000e0: bd90 a1be 58be 4dbe 8959 b63e d3df 983f
000000f0: f073 a53e 3003 8fbe f325 153f 9c29 003f
00000100: 7ad7 23be 230f d83d 7044 273e 1eb6 e6be
00000110: 6438 343f 787e 133f 4f10 f3be 626d d8be
00000120: fa45 323e 31ef 993e 13ac 1bbf 2d67 953f
00000130: bee9 c83e 8abe 353f 6454 3b3e dcde d9be
00000140: 7c45 773f 8a9c 15bf 6d5d 813e 4a13 10be
00000150: f47d c4be 957e 00bf 04db c23e 43a8 5f3d
00000160: d787 da3e ce0e 8f3f 5b76 96bf 9df6 bf3d
00000170: 62df 693e ba66 70be de18 f8be 7945 0dbf
00000180: 6281 0abf 1ea6 5d3c 1663 4d3e 1a00 893d
00000190: 30a4 5b3f e795 103e 4ffa 58bf f330 53be
000001a0: 737f 823d 5c9f 8bbe 307b 393e f290 b4be
000001b0: e27a b1bf f69a cfbd 5ac1 503e a03a 913e
000001c0: 85fe 12bd 37c8 03bd ebe0 173e be4c 35bf
000001d0: d0e8 cabf 6c42 62bd c6ac f73c 2d3c 833d
000001e0: d651 b3be 9c51 263f e471 853f 49c9 a0be
000001f0: d017 b9bd 18a4 d33e 455f 20be 12ab 64bf
00000200: 62fb ee3e 8069 d73e 80bd 10bf 8158 2fbf
00000210: bbac 6bbe c8d6 353e f87d 1e3f 8a9d 9b3e
00000220: 6487 163e 20cd f53e e3fc aa3e f519 8dbf
00000230: 91d3 543b f5f0 6abd 03a5 b13e 0fb6 143d
00000240: b422 7fbe c341 dbbe d0e1 96be dc54 13bf
00000250: f665 da3f 6a05 0e3e eaca dcbe 1be2 c9be
00000260: 1f33 d4be d8b7 8b3f 55df de3f f3bd 69bf
00000270: f831 0fbc dc9a e9bd ad8e 153f 2b01 e5be
00000280: d1ca 063d 2b6c 82bf cb2e febd 2891 9dbf
00000290: 6a2e 71be c126 29bf 3d45 ff3d eb97 a7be
000002a0: 47ee 5cbe 1729 e3bd 1127 2040 39e0 19bf
000002b0: 9740 543e 0d3d 143f 1f5f 553d b8b6 e03d
000002c0: 64b2 60be 2742 e1be 4562 dfbd 3ef1 7cbf
000002d0: 4cb9 893f f51f 823e 4964 0dbb 9fa2 803e
000002e0: 455d 9fbe 73e4 5ebd 70a7 12be e7e6 99be
000002f0: 5a6c 413f 86e5 703e a16f f53e 5e02 0b3f
00000300: 09e6 9b3f 6bab cbbe 393e 6e3f fbc8 63bf
00000310: 5c36 8c3d 02aa 593d a283 e23d da58 a83b
00000320: e1b1 f03d 0883 113f b4fe d83a 904e 553f
00000330: 35b9 c1be 72e5 b2bf f8e6 4c3e 87f4 173e
00000340: 5896 793c b805 5c3f 8a25 02bf 1592 a23f
00000350: 6afe b43e 483b 183f d69f 053f 5fdb 2b3d
00000360: dd58 933f 1096 5c3c a043 0a3f 2410 84bf
00000370: 2973 073f 2950 ed3d 2145 08be 6511 e03a
00000380: e44f c63d 8841 493e b8ae 97bc 9208 803e
00000390: 102d 46bf ea2e afbe bb5c 40bf 0a01 0b3f
000003a0: caee a53f b7d3 2c3f be2d 933f 72f6 113e
000003b0: 97f4 c83e 59c1 063f 7ed5 dabd 2f8b 913d
000003c0: 9a1f b7bd a217 99bf 80c3 9ebf a12e 89bf
000003d0: 67e2 e13e e347 b33e 1321 373e 1db1 383d
000003e0: 13ca 4b3e 9937 b33e f33e 86bd 4455 0cbf
000003f0: 6b1e 583d f0e8 943e 046d bdbd 67a5 2b3f

fc1.bias f4 [64]
0.26505002 -0.6429667 0.78751236 0.14336668 0.13603716 -0.2780233 -0.3128171 0.28674003
-0.62837666 0.62541854 0.25949562 -0.3485682 -0.010827501 0.23826706 -0.096071854 -0.27393362
0.79855627 0.8556914 0.28594986 0.3414338 0.2446034 0.10092646 0.27095988 0.14719029
-0.09908346 -0.36545184 0.14009924 0.33522472 -0.34145588 -0.03674613 -0.27834028 0.5935436
0.25393146 0.27819073 0.6108716 0.77640766 0.5166075 -0.06531252 0.7390053 0.090688944
-0.22499116 0.34192097 -0.21824886 0.54765403 -0.3687946 0.18081518 0.39358187 -0.22337236
-0.037958432 0.5681454 -0.5177007 -0.02865225 0.28854087 -0.132477 -0.35081476 0.61790836
-0.33283675 0.26256725 0.26306117 -0.063001856 -0.37407702 0.70054626 -0.28547198 0.29561922
00000000: a3b4 873e 7799 24bf 699a 493f b7ce 123e
00000010: 534d 0b3e 1259 8ebe 9029 a0be 97cf 923e
00000020: 4bdd 20bf 6e1b 203f 9cdc 843e 8877 b2be
00000030: d565 31bc 48fc 733e 52c1 c4bd 0741 8cbe
00000040: 2f6e 4c3f 970e 5b3f 0568 923e 69d0 ae3e
00000050: 5079 7a3e 88b2 ce3d 41bb 8a3e 0db9 163e
00000060: 45ec cabd 811c bbbe 2d76 0f3e 93a2 ab3e
00000070: 4ed3 aebe 1c83 16bd 9e82 8ebe 79f2 173f
00000080: 4e03 823e 046f 8e3e 1562 1c3f a7c2 463f
00000090: 6440 043f 92c2 85bd 742f 3d3f 20bb b93d
000000a0: 1564 66be 4410 af3e a17c 5fbe 0e33 0c3f
000000b0: a5d2 bcbe 9d27 393e 9083 c93e b9bb 64be
000000c0: 4d7a 1bbd fa71 113f 0888 04bf 20b8 eabc
000000d0: a1bb 933e 0da8 07be fe9d b3be 3e2f 1e3f
000000e0: 9469 aabe 376f 863e f4af 863e 1e07 81bd
000000f0: 0687 bfbe 0057 333f 6229 92be 675b 973e

fc2.weight f4 [64, 64]
0.11562699 -0.098453395 0.05028923 -0.15971617 0.32904872 0.94341356 0.21071988 -0.5967236
0.8089156 -0.24239914 0.054907158 -0.15068458 -0.27664176 -0.00091740617 0.10384214 0.0865242
-0.028813792 0.0572393 0.1313956 0.089573026 -0.17684798 -0.031657673 -0.5111126 -0.21741319
0.10155614 0.3056847 -1.6102706 0.5094625 0.55672634 -0.4159676 -0.6832917 -0.37495276
-0.49493566 0.6998734 -0.23368572 0.3158784 0.23915637 0.80883145 0.011704677 -0.7744587
0.08806785 0.12106072 -0.47386336 -0.28820634 -0.13632014 0.26227885 -0.17603637 -0.19546591
-0.5660614 0.14332846 0.9221586 0.11769729 -0.4818038 -0.30553937 -0.21419847 0.10491706
0.039630283 -0.5379855 -0.06450049 0.18426922 -0.4241048 -0.008438236 0.18789092 0.09928717
0.025850715 0.5069169 -0.014038813 0.17955098 0.5157756 0.7662709 1.0625341 -1.3553896
0.6517406 -0.09743611 0.047234043 -0.8862166 0.056485403 -0.10208533 0.8543342 -0.77545196
0.16773732 0.10942857 -0.50489813 0.08802404 -0.15543509 -0.06721483 0.029137041 0.2750631
0.93521845 0.7360988 -0.2135658 -0.018970726 0.41240597 0.42178267 1.0367848 0.11144341
-0.21525049 -0.029638104 0.2268731 -0.1347398 0.077771686 -0.43672806 0.25596765 0.16381443
1.2286016 0.30041143 0.42185345 -0.4670322 0.4502039 -0.34000126 -0.0034956217 0.2705321
0.054612655 0.09907645 0.5631336 -0.49137053 0.111830965 1.1976889 1.5909678 -0.71215564
0.4835947 0.08020212 0.58090717 0.47493717 0.43840402 0.02504882 0.58079594 0.106767155
-0.4060173 0.01230086 0.12507278 -0.039278664 0.28081617 0.7638152 1.2000586 -1.0877545
0.3734339 0.123187974 0.18300353 -0.53767157 -0.15133555 -0.073223315 0.42541626 -0.4811993
0.059053767 0.18770859 0.02081949 0.07069982 -0.085692056 0.10419802 0.10220964 0.24477568
0.31737524 0.23095785 -0.22671607 0.2250606 0.24895501 0.4304853 0.8612791 0.0059496923
-0.33396518 -0.024253465 0.03082027 0.053678665 -0.018969491 -0.4028883 0.19314307 0.08625845
0.8649108 -0.003076822 0.201992 -0.27561072 0.5784974 -0.43541864 -0.1720423 -0.14388546
0.22347523 0.038897168 0.50209093 -0.49991477 -0.21680842 1.116844 0.81740624 -0.82096976
0.51377124 0.009580767 0.43095735 0.49558714 0.36596403 -0.10353937 0.33499813 -0.21961536
0.03263576 -0.07112709 -0.070218 0.043928813 -0.08316723 0.101980865 -0.055818982 0.067590244
-0.039336707 0.043801878 -0.07656562 -0.04521366 -0.044291537 0.05213884 -0.13158642 0.051807467
-0.029230852 -0.11593529 -0.054680523 -0.047655035 -0.048816815 -0.08854448 -0.05368079 -0.008233838
0.04268855 0.008083657 0.059673287 -0.0587483 0.09520789 0.05798787 -0.107134834 0.057117004
0.00045383605 0.04969603 -0.14572269 -0.05328561 -0.12438218 -0.04279677 -0.04953282 -0.11405266
-0.08903492 0.075509645 0.036947306 0.010661647 0.0051699774 0.021789148 -0.0037259255 -0.13921656
-0.04533165 0.07443943 -0.03732975 -0.0036687027 0.0757761 0.037830867 -0.004142184 0.07921108
-0.06338965 -0.028599637 0.07565773 -0.08609481 0.12108263 -0.08505636 -0.07668381 0.088347174
00000000: d8cd ec3d efa1 c9bd 14fc 4d3d a38c 23be
00000010: 1379 a83e 8d83 713f f4c6 573e e1c2 18bf
00000020: 1815 4f3f 7b37 78be 54e6 603d 0f4d 1abe
00000030: fda3 8dbe 167e 70ba 30ab d43d 9a33 b13d
00000040: e70a ecbc c273 6a3d 918c 063e 1072 b73d
00000050: a317 35be 7aab 01bd 46d8 02bf 90a1 5ebe
00000060: aafc cf3d b482 9c3e 591d cebf 226c 023f
00000070: 9e85 0e3f b5f9 d4be 34ec 2ebf cff9 bfbe
00000080: 3568 fdbe e72a 333f 4f4b 6fbe d0ba a13e
00000090: 68e5 743e 940f 4f3f f9c4 3f3c ed42 46bf
000000a0: eb5c b43d afee f73d 389e f2be c88f 93be
000000b0: 8297 0bbe 6a49 863e e142 34be 3728 48be
000000c0: 66e9 10bf b2c4 123e 9612 6c3f 470b f13d
000000d0: fdae f6be a86f 9cbe d856 5bbe c1de d63d
000000e0: 5d53 223d 6bb9 09bf d518 84bd 12b1 3c3e
000000f0: 4424 d9be 8740 0abc 7a66 403e 1257 cb3d
00000100: e1c4 d33c 4ec5 013f 0d03 66bc 36dc 373e
00000110: df09 043f 542a 443f 1e01 883f 687d adbf
00000120: 79d8 263f 958c c7bd 7c78 413d 17df 62bf
00000130: 3d5d 673d 1d12 d1bd a5b5 5a3f 0584 46bf
00000140: 55c3 2b3e 161c e03d 0141 01bf f345 b43d
00000150: 602a 1fbe eea7 89bd ceb0 ee3c 12d5 8c3e
00000160: 7a6a 6f3f f970 3c3f feb0 5abe 7f68 9bbc
00000170: e026 d33e e6f3 d73e 5db5 843f 713c e43d
00000180: a06a 5cbe 9ccb f2bc 6c51 683e 3bf9 09be
00000190: c346 9f3d d29a dfbe 310e 833e f8be 273e
000001a0: d142 9d3f 87cf 993e 2dfd d73e d81e efbe
000001b0: 2081 e63e a514 aebe cd16 65bb 2f83 8a3e
000001c0: 85b1 5f3d 98e8 ca3d 8629 103f eb94 fbbe
000001d0: a207 e53d df4d 993f d5a4 cb3f d54f 36bf
000001e0: b999 f73e 0241 a43d 55b6 143f f72a f33e
000001f0: 7e76 e03e 2f33 cd3c 0baf 143f bda8 da3d
00000200: 80e1 cfbe 8c89 493c 1413 003e aae2 20bd
00000210: 23c7 8f3e 6589 433f 859b 993f 8a3b 8bbf
00000220: ba32 bf3e fa49 fc3d 4765 3b3e d8a4 09bf
00000230: b5f7 1abe 1bf6 95bd 29d0 d93e c15f f6be
00000240: 5de2 713d ae36 403e a38d aa3c 11cb 903d
00000250: 517f afbd c665 d53d 4a53 d13d 7aa6 7a3e
00000260: 027f a23e 3780 6c3e 4228 68be 4976 663e
00000270: 10ee 7e3e 9268 dc3e c97c 5c3f a3f5 c23b
00000280: 7cfd aabe 34af c6bc ca7a fc3c 29de 5b3d
00000290: e865 9bbc 6047 cebe 4cc7 453e 45a8 b03d
000002a0: cb6a 5d3f 82a4 49bb fed6 4e3e d91c 8dbe
000002b0: 6818 143f 31ef debe db2b 30be b656 13be
000002c0: b1d6 643e a352 1f3d 0889 003f d4f4 ffbe
000002d0: 0703 5ebe bff4 8e3f 8941 513f 132b 52bf
000002e0: 8386 033f a6f8 1c3c 71a6 dc3e 99bd fd3e
000002f0: a35f bb3e 730c d4bd e084 ab3e d9e2 60be
00000300: 13ad 053d 14ab 91bd 74ce 8fbd b3ee 333d
00000310: 9553 aabd 58db d03d 72a2 64bd c16c 8a3d
00000320: 871f 21bd 9969 333d 70ce 9cbd f531 39bd
00000330: 0b6b 35bd 898f 553d 97be 06be 1134 543d
00000340: 8a75 efbc 7b6f edbd aff8 5fbd ed31 43bd
00000350: 24f4 47bd cf56 b5bd 63e0 5bbd 38e7 06bc
00000360: 30da 2e3d 5171 043c fa6b 743d 0fa2 70bd
00000370: 5bfc c23d b084 6d3d 8269 dbbd 85f3 693d
00000380: d8f0 ed39 108e 4b3d 5438 15be 0342 5abd
00000390: 16bc febd aa4b 2fbd ede2 4abd 7194 e9bd
000003a0: f157 b6bd cda4 9a3d 0f56 173d 30ae 2e3c
000003b0: ea68 a93b 287f b23c a82e 74bb c98e 0ebe
000003c0: aead 39bd b373 983d 14e7 18bd 9e6e 70bb
000003d0: 8030 9b3d 8af4 1a3d 28bb 87bb 6b39 a23d
000003e0: 6fd2 81bd c949 eabc 71f2 9a3d 7a52 b0bd
000003f0: 2bfa f73d 0732 aebd 670c 9dbd 5def b43d

fc2.bias f4 [64]
-0.11886185 0.1934555 0.22570042 -0.09593515 0.33051476 0.064753294 0.33668813 0.019097209
0.13544309 0.09961751 0.015750002 0.18103111 0.123589694 0.13973698 0.15630412 0.5522058
-0.03379189 0.23034672 0.02363997 0.34685034 0.37304083 0.15392871 -0.07447599 0.40925363
0.2645958 -0.022853374 0.002670679 0.4985164 0.14665562 0.19327089 0.14371143 0.42690316
0.0038560897 0.119284436 0.4286733 -0.0029299257 0.17141068 0.18712907 0.15390716 1.0130086
0.15100636 0.10062835 0.15249747 0.2491351 0.14386912 -0.0055596377 0.00060924236 0.13798138
0.0069439528 -0.07583169 -0.06564537 0.23904362 0.4840775 -0.10174876 -0.12851036 0.11194537
0.06895838 0.06627052 0.15186672 0.020219252 0.024324197 -0.026523922 0.30705673 0.086780585
00000000: d76d f3bd 3319 463e 031e 673e a679 c4bd
00000010: 3b39 a93e 609d 843d 6362 ac3e c071 9c3c
00000020: 98b1 0a3e 4404 cc3d 2606 813c 3860 393e
00000030: 981c fd3d 3617 0f3e 300e 203e 5c5d 0d3f
00000040: 5d69 0abd 03e0 6b3e 9ca8 c13c 5e96 b13e
00000050: 35ff be3e 7d9f 1d3e de86 98bd b189 d13e
00000060: 1a79 873e 0037 bbbc 8f06 2f3b 8b3d ff3e
00000070: e42c 163e cee8 453e 1729 133e 0d93 da3e
00000080: 73b6 7c3b 664b f43d 117b db3e ff03 40bb
00000090: 4886 2f3e c39e 3f3e d799 1d3e 44aa 813f
000000a0: 69a1 1a3e 3d16 ce3d 4c28 1c3e 461d 7f3e
000000b0: 6d52 133e 9f2d b6bb 90b5 1f3a fe4a 0d3e
000000c0: 198a e33b a54d 9bbd 1471 86bd dac7 743e
000000d0: 02d9 f73e a761 d0bd 3898 03be 9d43 e53d
000000e0: 0d3a 8d3d d7b8 873d f382 1b3e d8a2 a53c
000000f0: 8a43 c73c b248 d9bc 8a36 9d3e 05ba b13d

fc3.weight f4 [4, 64]
-0.3026133 -0.5450089 -0.4692031 0.057780355 0.3486332 -0.2635168 2.0354757 -0.759003
-0.5559103 -0.4057681 -0.031932026 -0.4369946 0.18815419 -0.66222584 -0.1784269 2.0405803
-0.11704198 -0.24645121 -0.4541627 -0.62337315 1.6033767 -0.55118656 -0.012750462 3.0088663
1.846678 -0.3664047 -0.4545762 1.5750481 -1.3702911 -0.6923958 -0.2967259 0.43412185
-1.2452298 -0.5469016 -0.67758304 -0.91589653 -0.8424835 -0.7824869 -1.035272 1.4741604
2.8658442 0.69753796 -0.7924992 -0.13154928 -1.0364062 0.113615975 0.04561715 -0.40276778
-0.30877924 0.013237925 3.2113035 -1.6728946 2.6572752 0.062504336 -0.11147609 -0.39394462
-0.42834556 -0.7470897 -0.43534523 -0.3290926 -0.34881434 -0.34765646 -1.4808517 -0.718885
1.2910024 -0.48590624 -0.23659013 0.0505032 -0.06614872 -0.6876038 1.8539566 -0.54230577
-0.6028033 -0.5395446 0.4997401 -0.65802866 0.44108242 -0.39662355 -0.49788588 1.8204355
0.045872528 -0.8503393 -0.6456999 -0.11994081 1.1048262 -0.47393447 0.010721102 2.8530662
2.6618497 -0.54219234 -0.55331874 2.127895 -0.8545285 -0.40533435 -0.65937454 0.504597
-0.27010155 -0.527794 -1.1934884 -0.21505895 -1.0392722 -0.45009038 -0.3463516 1.4256904
3.1388698 1.0684032 -0.3824275 -0.42427453 -0.8129068 -0.03440073 -0.06170897 -0.5975347
-0.40353787 -0.114199474 2.3542864 -2.2289748 2.2714093 0.029407337 -0.06371144 -0.6431109
-0.56009656 -0.57133883 -0.4038238 -0.45242968 -0.5197688 -0.44214618 -0.18066755 -0.32686943
-0.35547072 -0.38992736 -0.7508665 0.060678218 -1.2194897 -0.8861492 2.1560683 -0.4411398
-0.51832676 -0.5498552 -1.6507275 -0.37481958 -1.0058874 -0.48160926 -0.47927365 1.7933896
-0.019615809 -0.25411448 -0.4871227 -1.0190955 1.9314233 -0.37603238 -0.01180473 1.8923157
2.2575316 -0.4341126 -0.47614378 2.0554483 -0.32643276 -0.54816157 -0.6190847 1.0741727
-0.13150159 -0.6360136 -1.2725863 -0.29965657 -0.9474343 -0.5569929 -0.2279977 1.1948646
2.9741836 1.3542035 -0.5129214 -0.88816947 -0.39678138 0.06367703 0.009199506 -0.3679082
-0.41802943 0.0020900364 2.5638237 -0.62282825 2.4158962 -0.10375449 -0.0101798475 -0.58061457
-0.46419707 -0.53292406 -0.5118557 -0.5569228 -0.472809 -0.6059214 -1.1477107 -0.29612458
1.3256778 -0.57012916 -0.49556747 -0.09184961 0.4869545 -0.55972636 1.9881703 -0.51050156
-0.57956856 -0.3942268 0.41154993 -0.7439493 0.23664421 -0.4651411 -0.69673395 2.076602
-0.0035949636 -0.26213384 -0.37775487 -0.25109398 2.663062 -0.5802444 0.019390896 2.2480872
1.8811128 -0.4437457 -0.57731885 1.2529917 -0.69288296 -0.47460294 -0.4834518 0.20472531
-0.7037626 -0.50083953 -1.4150233 -0.79725796 -1.0417796 -0.8962197 -0.69853693 1.504367
2.8042145 -0.2894714 -0.47524664 -0.67476416 -0.53940934 -0.07986223 -0.052563876 -0.65105957
-0.5640823 0.080420345 3.4164727 -1.2347262 2.5123 0.012459401 -0.067593455 -0.3840448
-0.40108576 -0.40058565 -0.4499019 -0.57809305 -0.48368272 -0.46031743 -1.0225906 -0.5940919
00000000: 21f0 9abe b485 0bbf 643b f0be 18ab 6c3d
00000010: 0d80 b23e adeb 86be 3c45 0240 054e 42bf
00000020: 2350 0ebf d6c0 cfbe 28cb 02bd c2bd dfbe
00000030: 7eab 403e a287 29bf 8bb5 36be de98 0240
00000040: b5b3 efbd b55d 7cbe 0388 e8be 6295 1fbf
00000050: 733b cd3f 901a 0dbf 50e7 50bc 4491 4040
00000060: f25f ec3f 6699 bbbe 36be e8be 2d9b c93f
00000070: b365 afbf da40 31bf 75ec 97be 3845 de3e
00000080: b163 9fbf be01 0cbf 1576 2dbf 3278 6abf
00000090: 00ad 57bf 1051 48bf cb83 84bf 4ab1 bc3f
000000a0: fe69 3740 d991 323f 3ae1 4abf dbb4 06be
000000b0: f5a8 84bf 7eaf e83d 0cd9 3a3d 9437 cebe
000000c0: 5018 9ebe e2e3 583c ff85 4d40 6921 d6bf
000000d0: cc10 2a40 4602 803d 944d e4bd 1cb3 c9be
000000e0: 1c50 dbbe 4541 3fbf 92e5 debe d37e a8be
000000f0: cb97 b2be 0700 b2be 8c8c bdbf d908 38bf
00000100: 913f a53f b4c8 f8be af44 72be 72dc 4e3d
00000110: fb78 87bd cd06 30bf 734e ed3f 8dd4 0abf
00000120: 5151 1abf 981f 0abf efdd ff3e 9174 28bf
00000130: 8ed5 e13e 3e12 cbbe e6ea febe 0804 e93f
00000140: d5e4 3b3d d6af 59bf 974c 25bf 87a3 f5bd
00000150: f26a 8d3f 8aa7 f2be 90a7 2f3c a398 3640
00000160: bf5b 2a40 1ecd 0abf 4ca6 0dbf 6f2f 0840
00000170: 61c2 5abf fc87 cfbe c5cc 28bf 452d 013f
00000180: c04a 8abe 821d 07bf 3ac4 98bf 6a38 5cbe
00000190: df06 85bf 3f72 e6be ff54 b1be 067d b63f
000001a0: 3ee3 4840 70c1 883f 8acd c3be 833a d9be
000001b0: a91a 50bf c8e7 0cbd 8cc2 7cbd 09f8 18bf
000001c0: 849c cebe 6ae1 e9bd a1ac 1640 86a7 0ec0
000001d0: c55e 1140 a8e7 f03c 257b 82bd eaa2 24bf
000001e0: 7d62 0fbf 4343 12bf fec1 cebe dda4 e7be
000001f0: 910f 05bf fc60 e2be ea00 39be 6e5b a7be
00000200: 4200 b6be 8fa4 c7be c938 40bf b989 783d
00000210: 3d18 9cbf adda 62bf 06fd 0940 13dd e1be
00000220: 10b1 04bf 4fc3 0cbf 0a4b d3bf 5ae8 bfbe
00000230: ebc0 80bf 7d95 f6be 5b63 f5be ca8d e53f
00000240: 55b1 a0bc 4b1b 82be 2668 f9be b971 82bf
00000250: e138 f73f 5187 c0be a068 41bc 6737 f23f
00000260: 667b 1040 0244 debe 1ec9 f3be 778c 0340
00000270: 3222 a7be 5154 0cbf 567c 1ebf 7e7e 893f
00000280: 5aa8 06be cad1 22bf 1ce4 a2bf 966c 99be
00000290: 0e8b 72bf 1697 0ebf 3b78 69be 53f1 983f
000002a0: 0659 3e40 8a56 ad3f d14e 03bf 135f 63bf
000002b0: ee26 cbbe 1a69 823d 86b9 163c 775e bcbe
000002c0: f407 d6be fef8 083b b015 2440 ac71 1fbf
000002d0: 0b9e 1a40 3c7d d4bd 60c9 26bc 28a3 14bf
000002e0: 3dab edbe b66d 08bf fa08 03bf 7e92 0ebf
000002f0: 0514 f2be aa1d 1bbf 2fe8 92bf a49d 97be
00000300: cfaf a93f fcf3 11bf 05bb fdbe a61b bcbd
00000310: 1a52 f93e 3a4a 0fbf 5d7c fe3f 3bb0 02bf
00000320: 9b5e 14bf 18d8 c9be acb6 d23e 7673 3ebf
00000330: dc52 723e f926 eebe 285d 32bf 0ce7 0440
00000340: 7b99 6bbb 6836 86be 1669 c1be 648f 80be
00000350: 9c6f 2a40 e68a 14bf a8d9 9e3c a9e0 0f40
00000360: 4ec8 f03f a332 e3be 2bcb 13bf 0862 a03f
00000370: c760 31bf 28ff f2be ff86 f7be 83a3 513e
00000380: c929 34bf 0537 00bf 7c1f b5bf 1919 4cbf
00000390: 0959 85bf a76e 65bf 51d3 32bf 198f c03f
000003a0: 4078 3340 9835 94be 8753 f3be 58bd 2cbf
000003b0: bb16 0abf cf8e a3bd 384d 57bd d7ab 26bf
000003c0: b367 10bf 6cb3 a43d 7da7 5a40 820b 9ebf
000003d0: 86c9 2040 8422 4c3c 706e 8abd 85a1 c4be
000003e0: 1d5b cdbe 9019 cdbe 8b59 e6be e8fd 13bf
000003f0: 43a5 f7be baae ebbe 40e4 82bf 6816 18bf

fc3.bias f4 [4]
-0.0032966356 -0.11872436 -0.10830683 0.04256762
00000000: 5e0c 58bb c225 f3bd f9cf ddbd 625b 2e3d
