Setup/PPO_ReLU_2x4_policy.pth (torch, 3435 bytes, 6 tensors)

weight f4 [2, 4]
0	0x3f8fb806	1.1228034
1	0x3d81ac0d	0.06331644
2	0xc05d85a7	-3.4612825
3	0xc00fb096	-2.245153
4	0xbf04adc0	-0.5182762
5	0xbf3a19e6	-0.7269577
6	0xc0c0cc90	-6.024971
7	0xc011b795	-2.27683

bias f4 [2]
0	0x3e3f242b	0.1866614
1	0x3e298c99	0.1655754

weight f4 [4, 2]
0	0xbe5ad35c	-0.2136969
1	0xbe0e541c	-0.13899273
2	0xbf2cefc2	-0.6755334
3	0xbeefc590	-0.46830416
4	0xbe87ca25	-0.26521412
5	0xc038678e	-2.8813205
6	0x3faf9c72	1.3719618
7	0x3fd6a38b	1.6768659

bias f4 [4]
0	0xbef570de	-0.47937673
1	0xbe9da786	-0.30791873
2	0x3f79b842	0.9754678
3	0x3ea0a8ab	0.31378683

weight f4 [2, 4]
0	0xbdd2bd48	-0.10290009
1	0x3ebf915c	0.37415588
2	0xc00d9215	-2.2120411
3	0x3f34ff44	0.70702004
4	0x3ee7cd4a	0.4527381
5	0xbeed7bce	-0.46383518
6	0x3fe88908	1.8166819
7	0xbf47dbc5	-0.78069717

bias f4 [2]
0	0xbe31ad12	-0.17351177
1	0x3ed23b82	0.41061026
