NeurPiRL_SA/LunarLander/DQN/Oracle/64x64/11/Policy.pth (torch, 22209 bytes, 6 tensors)

fc1.weight f4 [64, 8]
000000 3f 69 19 bd 13 ea 4a bd 84 41 aa 3f 48 43 f9 bf
       -0.037453886 -0.049539637 1.3301244 -1.9473658
000010 2c d2 be bd 31 3e 88 3e 96 27 87 3e 48 21 f4 3e
       -0.09317431 0.26609948 0.2639739 0.47681642
000020 90 58 ca 3f 6c f4 6e be 62 6d 5b 3f 21 76 40 bc
       1.5808277 -0.23335427 0.8571378 -0.011746914
000030 26 5c 3f 3e 02 c5 5d 3d 93 35 c1 be fd ef cd bc
       0.18687496 0.05414296 -0.37736186 -0.02513885
000040 c0 f5 ed bd b2 63 ec 3c d5 83 c7 3e ef d8 92 3e
       -0.11619139 0.028856132 0.38967767 0.28681132
000050 72 ac 2b 3f 10 ef 49 3f fd 41 1e 3f 94 89 43 3e
       0.67060006 0.78880405 0.6181944 0.1909545
000060 3b ca dc 3f de 35 9b bf 4a d1 d6 be 8e 60 77 bf
       1.7249216 -1.2125814 -0.4195655 -0.96631706
000070 71 43 73 bf 08 cc 73 be 85 26 9b 3d 04 bc fa bd
       -0.9502478 -0.238083 0.075757064 -0.122428924
000080 93 ab e8 be 41 71 d1 bf 2c ec ee bd 5f 5d 96 bf
       -0.454434 -1.6362687 -0.1166614 -1.1747245
000090 5c b4 1d 3f f4 a8 c1 be 38 76 0f be 2b 13 8b bf
       0.6160333 -0.37824214 -0.1400994 -1.0865225
0000a0 fe b5 38 bf bb 31 d6 3e d0 45 95 be dd 08 9a bf
       -0.721527 0.41834816 -0.29154825 -1.2033955
0000b0 51 7f c8 bf 53 75 80 be 69 a6 8a 3e e4 b5 60 be
       -1.5663854 -0.2508951 0.27080086 -0.21944386
0000c0 93 e1 7d 3d 13 4a 7c bf 18 af 9a 3f 25 28 a2 be
       0.061982702 -0.9855053 1.2084684 -0.31671253
0000d0 f4 44 d5 bf 06 c7 bf be d1 7c b3 bd a9 36 9c 3d
       -1.6661668 -0.3745653 -0.08764041 0.07627613
0000e0 6d 96 b7 bd f2 75 e3 3d d5 35 44 bf f1 bb dd bc
       -0.08964238 0.11106481 -0.7664464 -0.027067157
0000f0 89 0e 0d 3f e3 d5 72 3f fb 46 c7 be 9c 26 13 bf
       0.55100304 0.94857615 -0.3892134 -0.5748079
000100 b7 5e 02 3f 74 46 34 3f ad e2 48 bf 3a 1c b2 3e
       0.50925773 0.7042 -0.7847088 0.3478716
000110 77 b4 44 be 5c 69 da be 4d 70 00 3f 24 80 5b be
       -0.19209467 -0.42658508 0.5017136 -0.214356
000120 9a 17 46 be 7a fb 1c bf e1 b2 0e 3f da c5 72 bf
       -0.19344941 -0.6132122 0.557417 -0.9483315
000130 be c6 c3 be f8 2d 32 be aa 5e 11 3f 87 66 7a 3e
       -0.38237566 -0.17400348 0.5678507 0.24453174
000140 00 da a0 3e 6f 40 8a c0 e7 67 e1 be 4a 9b 8e bf
       0.3141632 -4.3203654 -0.44024584 -1.114114
000150 12 92 aa bd a3 b8 0a 3f 5a 62 9b 3e fb 78 c4 bc
       -0.08328642 0.54187983 0.30348474 -0.02398347
000160 da e8 1f bd 81 f0 a6 be 98 ed 2f bf fc c1 02 bf
       -0.039040424 -0.32605365 -0.68721914 -0.51077247
000170 de f7 2b 3f ad 4d 5d be 3e a9 91 3e 06 52 3b 3f
       0.6717509 -0.21611662 0.28449434 0.7317203
000180 54 b1 4f 3f 55 e5 99 bd 47 89 62 3f a3 0c 8b be
       0.81129956 -0.07514445 0.8849072 -0.2715808
000190 15 15 09 bf d4 3a 88 be 79 09 0c bf d7 cd 37 bf
       -0.53547794 -0.26607382 -0.54701954 -0.7179846
0001a0 d8 61 01 c0 69 60 c7 be 33 54 6e bf 62 85 74 bf
       -2.021597 -0.38940743 -0.9309723 -0.95516026
0001b0 68 29 0a 3f 38 d4 28 bd d9 37 8b ba a1 6f fe 3c
       0.5396943 -0.041218013 -0.0010621502 0.031059088
0001c0 fd a0 53 bf 3a 90 2d be b4 99 8d be a9 c1 2c 3e
       -0.82667524 -0.1694955 -0.2765633 0.1687075
0001d0 be a4 7f 3f 10 e7 3c 3f 47 e2 d4 3e 6a e6 bc be
       0.9986075 0.73790073 0.41578886 -0.36894542
0001e0 0d 87 1b bf 17 8f 22 bf 95 ef 50 3f 8f 44 44 bf
       -0.60752946 -0.6349959 0.81615573 -0.7666711
0001f0 0a 94 4c bf f9 ec 49 be d7 81 1e 3e 48 bb 0a 3e
       -0.7991339 -0.19719304 0.15479217 0.13548005
000200 d9 b1 77 3f 40 11 33 bf d4 aa 59 3e 27 2f 9f be
       0.9675575 -0.69948196 0.21256572 -0.31090662
000210 1b 25 91 bf 2f 83 53 3c 1c b5 15 3d c0 b9 37 3e
       -1.1339449 0.012909695 0.036549672 0.17941952
000220 9a 22 28 bf 46 5e a4 bf 1f be a0 be 55 e2 e1 bf
       -0.656778 -1.284127 -0.3139505 -1.7647196
000230 60 9c 10 3f 3e 6a d7 3c 40 fc aa 3e 47 70 97 3e
       0.5648861 0.026295777 0.33395576 0.29577848
000240 b6 f1 10 bc 8e d2 36 bf 58 c3 1a 3e 98 4e 9a be
       -0.008846691 -0.7141503 0.1511358 -0.30138087
000250 b4 a5 11 3e ba 14 41 bf 2c 19 d7 3d 94 3f 25 3f
       0.14223367 -0.7542225 0.10502848 0.6455014
000260 e1 46 fe be 2c a2 46 bf 25 2b a6 bf e0 d2 4a bf
       -0.4966345 -0.77591205 -1.2981917 -0.7922802
000270 1c 22 8b 3f 80 b6 49 bf 2d 82 28 bd 22 d1 99 3d
       1.0869784 -0.787941 -0.04113977 0.07510592
000280 5a d1 15 3f 73 e3 68 bd 32 0c bf bd 82 54 aa be
       0.5852257 -0.056857537 -0.09328498 -0.332676
000290 e4 29 69 bf 5d f9 45 be 0d 91 ea be e2 94 3c 3d
       -0.91079545 -0.19333406 -0.4581379 0.046040423
0002a0 b1 11 8c be a0 6d 45 be 02 70 d6 3d 9d 17 7d bf
       -0.27357247 -0.192801 0.104705825 -0.98864156
0002b0 13 6e 8c be 98 65 45 bf 90 cf cd be ae c8 b1 3e
       -0.2742773 -0.77108145 -0.4019742 0.3472342
0002c0 f8 ad f7 be 72 b4 2a bf b3 e6 4e be fb 6c 66 bf
       -0.48374915 -0.6668159 -0.20205192 -0.9001004
0002d0 64 1d 75 3f 4b b0 b0 3f 8e 8a 59 3e 7d d5 7a be
       0.9574797 1.38038 0.2124426 -0.24495502
0002e0 8b 0d 7d bd 36 2e 32 be ca 7b 20 3c b5 04 ce bd
       -0.061780494 -0.1740044 0.009795139 -0.100594915
0002f0 61 18 92 3c 69 5e 09 bd a8 75 8a be 2b 01 6c be
       0.01783389 -0.033537302 -0.2704289 -0.2304732
000300 a4 b6 01 3f d4 57 93 be 50 d1 36 3f d7 20 00 bf
       0.5066931 -0.28777945 0.71413136 -0.5005011
000310 2a d0 6d bf b3 0f 78 be b3 fc bb bd da 7a c4 be
       -0.9289576 -0.24224739 -0.09179058 -0.38374978
000320 77 7f 1f bf 40 c3 2a bf 0a f8 2b bf 68 2f 85 bf
       -0.6230387 -0.6670418 -0.6717535 -1.0405092
000330 ea 54 84 bd 64 d5 d7 3e 76 f9 d4 3d d6 65 32 bf
       -0.064615086 0.42154992 0.103991434 -0.6968664
000340 27 09 23 3f 04 32 90 3d c0 fb 37 3e a2 d4 6a 3f
       0.6368584 0.0704079 0.17967129 0.917307
000350 ce a3 d0 be 6e 81 83 bd e3 59 1c 3f 0a 10 4f 3d
       -0.40749973 -0.06421171 0.61074656 0.050552405
000360 b4 75 4b 3f 81 0e 39 3f 8e cd eb 3e 01 c3 7c bd
       0.79476476 0.72287756 0.46055263 -0.061709408
000370 61 b7 89 bf be 5b ff be 09 c5 f3 bd cf e8 2a bf
       -1.0759088 -0.4987468 -0.11902816 -0.6676149
000380 bb 6c 3f 3f 45 a5 a2 c0 9d e3 86 bc 69 2f 6c bf
       0.74775285 -5.0826745 -0.016465956 -0.9225984
000390 d1 7a 23 3e b7 15 18 be d1 d7 fd bc 4d 3d ff 3e
       0.1596482 -0.14852034 -0.030986698 0.49851456
0003a0 79 53 84 bc 88 07 5c 3d be 76 46 be 57 8f b6 3e
       -0.016153084 0.05371812 -0.19381234 0.35656235
0003b0 43 56 99 be 48 8a 89 bb 93 5b 45 be f6 02 74 bd
       -0.29948625 -0.0041973926 -0.19273214 -0.059573136
0003c0 87 8b 49 3f e7 cb a0 3f 29 ea f9 be 0e d5 17 be
       0.78728527 1.2562226 -0.48811463 -0.14827368
0003d0 df 52 e0 be 6b 0b 4d bf 54 4d bd be bc 8c d9 be
       -0.43813226 -0.8009555 -0.3697306 -0.42490184
0003e0 70 56 db be e2 ea 91 3d 72 97 c2 bc 55 ef 1b bd
       -0.42839384 0.071248785 -0.023753855 -0.03807004
0003f0 c6 7e e7 3e 8c ee 80 3f bb c3 1a 3f ae ff 06 bf
       0.45213908 1.0072799 0.6045491 -0.52733886

fc1.bias f4 [64]
000000 c8 3e 98 3c 73 65 a3 3c 79 f9 91 3e 57 bf 5a bd
       0.018584624 0.019945836 0.28510645 -0.053405132
000010 43 86 8e 3f 81 07 f7 3d 49 d4 29 3f 9d 44 1a be
       1.1134723 0.12061978 0.66339546 -0.15065236
000020 62 3e a6 3f 62 de bd be 0d b4 e0 3e da 3e 07 3f
       1.2987788 -0.37083727 0.43887368 0.5283028
000030 1e 93 7a 3e 56 14 0b be 93 66 ff 3e 8a cb 74 be
       0.24470183 -0.13581976 0.49882945 -0.23905769
000040 43 c1 79 be 55 19 01 bf 85 7c 49 3f a9 59 f9 3e
       -0.2439013 -0.5042928 0.78705627 0.48701218
000050 dd 2d ce 3e 2f 2d 00 bf 2c 82 d5 be 26 a0 a4 be
       0.40269366 -0.50068945 -0.41700876 -0.32153434
000060 bf d8 1a 3f a6 81 dd be f7 45 bc 3f 6d 52 4a 3f
       0.6048698 -0.43262976 1.4708852 0.7903202
000070 e3 64 fd 3e f0 cc cc be a3 e3 35 3e 34 5e fc 3d
       0.49491033 -0.40000105 0.17762618 0.12322655
000080 85 3d 6b be b5 f1 f3 3e 4c 07 25 3f eb 3f 0a bd
       -0.22972687 0.47645345 0.6446426 -0.033752363
000090 be 0f 03 3f b7 75 9b 3c b2 b7 b3 3b fb b9 38 3f
       0.51195896 0.01897703 0.0054845447 0.72158784
0000a0 08 3b dd 3c e1 26 e2 3e 44 35 ae 3f 1c 07 e7 bd
       0.027005687 0.44170287 1.3610005 -0.11280653
0000b0 34 21 06 be 16 d4 30 3f 8c 85 08 3e f9 e0 d2 be
       -0.13098603 0.6907362 0.13332194 -0.41187266
0000c0 da 01 85 be f3 75 31 3f ff cb 68 3f cc 93 80 be
       -0.25977975 0.693206 0.90936273 -0.2511276
0000d0 9f c9 ce be 82 d7 26 3f d6 23 4c 3f 63 1e 7a 3e
       -0.403882 0.6517259 0.7974218 0.24425654
0000e0 c0 03 30 be 91 eb 17 3f 34 82 eb 3e ca 21 f9 be
       -0.1718893 0.5934382 0.45997775 -0.48658592
0000f0 35 9a 6c 3f 82 b2 7f 3f 45 c0 6b 3e 81 30 0a 3e
       0.924228 0.99881756 0.23022564 0.13495065

fc2.weight f4 [64, 64]
000000 3c 49 00 3d 5f d2 a3 3f c9 8b 21 3e c3 17 ba 3f
       0.03131984 1.2798575 0.1577598 1.4538502
000010 d2 c5 19 bf 5f d0 f9 3e 8e 59 05 3f 19 c0 ac bf
       -0.60067475 0.48791787 0.52089775 -1.3496124
000020 0f c2 6f be 89 df 86 3e 86 5f dd bd 73 39 87 be
       -0.23413871 0.2634242 -0.10809235 -0.26411018
000030 fb 1e 44 bf 46 5b 9b 3f 01 aa 26 bd 2e 30 81 3f
       -0.7660977 1.213723 -0.040689472 1.0092828
000040 0a 4d 6e 3f 95 21 b4 3e 05 ad 80 bd a0 c5 93 be
       0.930863 0.3518187 -0.06283001 -0.28861713
000050 61 7b fc 3e ce 0d 75 3f 50 1e 69 3d c0 45 95 bb
       0.4931288 0.9572419 0.056913674 -0.004555434
000060 f6 dd c1 3e f0 6c 8a 3f c2 92 81 be d3 42 97 3e
       0.37864655 1.0814495 -0.2530728 0.2954317
000070 2e 1b 6b be a0 83 fe bc 9e 10 c2 be 51 fb 23 bd
       -0.22959587 -0.031068623 -0.37903303 -0.040034596
000080 ca b6 ee 3f df 1d e3 3e 53 19 c2 be d0 bd 81 3e
       1.8649533 0.44358727 -0.37909946 0.25340128
000090 fc 0b 42 3e c2 ca 83 3e 04 45 a5 bf 22 bf b6 3e
       0.18949884 0.2574063 -1.2911687 0.35692698
0000a0 bb 0f 66 3f f3 75 e9 3e 4d ae 99 3b 32 fa c5 be
       0.8986775 0.455978 0.0046899677 -0.38667446
0000b0 1c 1e 41 be da b7 c8 3d a9 6a 3a 3f 90 10 bc bf
       -0.18859142 0.09800692 0.72819 -1.4692554
0000c0 46 41 d2 be f4 bd c4 be 97 d5 ab 3e 74 34 61 3e
       -0.41065425 -0.38426173 0.33561394 0.21992666
0000d0 1b 12 25 be 6e ba 81 be 4f da ad 3c b8 11 aa 3e
       -0.16120188 -0.25337547 0.021222262 0.33216643
0000e0 de 9e 97 bf e1 7f 24 3d 13 7f f4 3e 90 9b 01 3f
       -1.1845357 0.040161017 0.477532 0.50627995
0000f0 3e f4 80 3e 8b 04 bc 3d 19 d3 07 bf 60 db 30 be
       0.25186342 0.09180554 -0.53056484 -0.17271185
000100 20 98 84 3d 80 3e 9b 3d c0 10 f4 bd 98 ef d7 3c
       0.06474328 0.0758028 -0.11917257 0.026359364
000110 3f 35 54 bd 2c b8 0b bd 04 1d 96 3d be ee d8 bd
       -0.051808592 -0.034111187 0.07329753 -0.105924115
000120 ba 01 60 3d e7 aa a6 bd a0 8f 02 3d 3c 2a ca bd
       0.054689147 -0.08138066 0.031875253 -0.09871337
000130 e4 6e c0 bd f9 01 91 3d be 71 f6 bd 56 6e 9a bd
       -0.09396151 0.070804544 -0.12033413 -0.07540576
000140 b8 5a ab 3c 0e ea fc bb 1a 26 c8 3d ee 96 f2 bd
       0.020917282 -0.007718331 0.09772892 -0.11845194
000150 d0 f9 54 bc e6 3d b4 3b 27 24 bd bd 08 73 41 bd
       -0.012999013 0.005500543 -0.09235411 -0.047228843
000160 b4 e2 65 bd a4 da 4d bd 88 3c bd bd 36 aa b7 bd
       -0.056124404 -0.05025734 -0.09240061 -0.08968012
000170 3a 74 27 3d 18 af c8 bc 1d de 1f bd 7c 29 c2 3d
       0.040882327 -0.024497554 -0.039030183 0.09480569
000180 ba 42 96 bd 90 90 9c bc 3e bc a3 3d 90 37 f4 bc
       -0.07336946 -0.019111902 0.07994889 -0.02981165
000190 10 de 0f bc 40 fe 51 3c 7f 71 8c 3c 38 6a b2 bd
       -0.008780971 0.012816966 0.017143963 -0.08711666
0001a0 12 80 aa 3d d4 74 66 bd d0 04 9a bc cc 15 b4 3d
       0.08325209 -0.05626376 -0.018801123 0.0879322
0001b0 5c fd b2 bd bd 6b d0 bd d0 ed e9 bd 16 ec 68 b7
       -0.08739731 -0.101767994 -0.11422312 -1.3883246e-05
0001c0 e5 1e 70 3d c7 aa 45 3b 58 8d b7 bc a8 1f a9 3c
       0.058623213 0.0030161606 -0.022406265 0.020644978
0001d0 7c 92 aa bd 97 1d 00 3d 4c a9 aa bd bf c3 ba 3d
       -0.08328721 0.03127822 -0.08333072 0.09119367
0001e0 de 5f 41 3d 84 00 20 bd 2e bd d7 3d 10 e7 49 bc
       0.047210567 -0.03906299 0.1053413 -0.012323156
0001f0 03 ce 1a 3d f2 57 b1 bd a0 0e ed bc 30 fb 8f 3d
       0.037794124 -0.08659352 -0.028937638 0.07030332
000200 7f cf 6b be 27 e9 92 3f 21 46 12 bd ea 36 96 3f
       -0.23028372 1.1477402 -0.03571141 1.1735508
000210 a6 5c 85 bf b9 31 c9 3e 27 33 3e 3e 51 59 1a 3f
       -1.0418899 0.39295748 0.185742 0.60292536
000220 40 89 11 3e 09 0a ac 3e ab 38 e0 bd 54 5d fa bc
       0.14212513 0.33601406 -0.109483086 -0.03056208
000230 0e 0f ae 3e 02 ce 2e 3f 90 e7 9f bd 6c f4 54 3e
       0.3399586 0.6828309 -0.07807839 0.20796365
000240 84 e4 cb 3f 54 43 0c 3f 7e 63 dd 3d 86 f3 14 bf
       1.5929112 0.54790235 0.10809992 -0.5818409
000250 ba f4 a1 3e 77 e2 7c 3f 2a 65 98 be 50 70 49 bc
       0.31632024 0.9878306 -0.29764682 -0.012294844
000260 b7 d5 e4 3e 5d 49 bf 3f e8 d3 85 bd e0 6a 9e 3e
       0.446943 1.4944264 -0.065345585 0.30940914
000270 e8 59 2b bf ac 5d 6a 3d 1b 47 82 3e dc 36 95 bd
       -0.6693406 0.05721824 0.25444874 -0.07285854
000280 3e 49 10 40 ce 40 3d 3e 6f 4c cb bb 5a 9f 1e bd
       2.2544703 0.18481752 -0.00620418 -0.03872619
000290 20 a6 44 3e ca 1d 10 bd 3b bd b4 bf 03 fb 88 3e
       0.19203997 -0.03518466 -1.4120249 0.26754007
0002a0 dd c4 bf 3e 06 fb 84 3e e8 c8 d0 3d c1 61 62 3e
       0.37454882 0.25972766 0.1019457 0.22107603
0002b0 85 08 d1 bd 1b c9 94 bd 07 57 ca 3e 19 00 d6 be
       -0.10206703 -0.0726492 0.39519522 -0.4179695
0002c0 49 ad 03 bf d9 b8 50 3e c5 92 41 3c 10 62 f5 3e
       -0.5143629 0.20383014 0.011814778 0.47926378
0002d0 91 77 21 be 82 f7 fc bd 4d e6 c6 3d 45 63 9a 3d
       -0.15768267 -0.12351896 0.09711895 0.075384654
0002e0 67 a6 a3 bc 80 2a 7b 3e ee c2 c5 3e 51 fd e2 3c
       -0.019976808 0.24527931 0.38625282 0.027708681
0002f0 f0 3f 26 3e 88 7f 55 bd 8d 35 9b bc 14 55 1d be
       0.16235328 -0.052123576 -0.018946433 -0.15364486
000300 1c 61 86 be 3c e8 8c 3d b3 41 5d 3e 93 15 80 3f
       -0.26245964 0.06880233 0.21607094 1.0006584
000310 e5 0c 89 bf 3c 36 f8 be a2 54 71 bd 2b 3e c9 be
       -1.070706 -0.48478878 -0.058918603 -0.39305243
000320 d1 1f 2e be fd 95 b8 3e 9e cf bd 3c 57 90 41 3d
       -0.17004324 0.36051932 0.023170289 0.047256794
000330 5d ed 00 3f dc 07 2d 3f 55 e1 9f 3e aa 65 40 bf
       0.5036219 0.6759012 0.31226602 -0.7515513
000340 fc 26 e6 3f cc d0 20 3f 56 fd 44 3d 45 84 cf be
       1.7980647 0.628186 0.048093162 -0.405306
000350 5d a8 40 3d 2e 44 03 3f e2 23 1f 3e 86 33 fb bd
       0.047035564 0.5127591 0.15541032 -0.12265687
000360 7c 74 32 3e 21 f7 15 3f f9 ca c4 3d 29 b7 10 3e
       0.17427248 0.58580214 0.096090265 0.1413237
000370 45 2b 03 be 4a 98 e5 3d f2 39 fd bd e5 f8 8e 3e
       -0.12809475 0.112106875 -0.12364568 0.27924266
000380 68 62 06 40 72 4f 09 3e a1 30 ce 3d cc bb 08 3f
       2.0997562 0.13409212 0.10067869 0.53411555
000390 ce 2a 03 3e ab 90 a9 bf e0 fe 3c bf fb 74 05 3e
       0.12809297 -1.3247274 -0.7382641 0.13032906
0003a0 5d 2e b8 be 1b 9d c3 be 07 db 5d 3e 2f c3 02 bf
       -0.35972872 -0.382058 0.21665584 -0.51079077
0003b0 e2 87 8e bd ef d1 1d bd 54 64 c6 bd ab c2 8f bf
       -0.06959511 -0.038530286 -0.09687105 -1.1231283
0003c0 84 4e e6 3d 28 ba a3 bd 1a 32 1e be 5f 6f de 3e
       0.112454444 -0.07994491 -0.154488 0.43444344
0003d0 d0 83 d1 3e f2 59 e3 bd 98 06 3d 3e 69 b1 44 3e
       0.40920877 -0.1110114 0.18459547 0.19208302
0003e0 95 40 07 c0 ed a5 74 3d cc c1 53 bd 18 0a 93 bf
       -2.1133168 0.05972855 -0.05169849 -1.1487455
0003f0 86 27 1e 3c 28 42 d1 3e 76 09 24 bd 17 5d 8c bf
       0.009652978 0.40870786 -0.040048085 -1.0965909

fc2.bias f4 [64]
000000 22 e4 c8 bd 08 ea d4 bd 88 03 cb bd 72 0f e0 3d
       -0.09809138 -0.103962004 -0.09912783 0.10940446
000010 74 82 72 be 8c f3 d8 3c be e9 c9 3e a5 36 f2 bd
       -0.23682576 0.02648332 0.39436144 -0.11826829
000020 59 73 2f 3e bd db 25 3f 37 d1 1c 3f 3e dc e2 bd
       0.17133845 0.6478842 0.61256737 -0.11077164
000030 86 78 8c 3f f5 67 6f be 98 d7 09 3f 2c b0 d6 3e
       1.0974281 -0.233795 0.53844595 0.41931283
000040 0f 3e 95 bc fd 9d 4d be a8 57 39 be 0c a0 fa 3e
       -0.018218068 -0.20079799 -0.18099844 0.4895023
000050 31 aa b0 3d c9 ef 3e 3f 45 25 e0 bd f6 d5 8f bc
       0.086262114 0.74584633 -0.109446086 -0.01755808
000060 ac f7 bf bd 8a 59 d8 3d b0 2a 69 3e 6b c9 90 3e
       -0.093734115 0.10563953 0.2277019 0.2827867
000070 e2 8e a6 3d d0 46 07 3f b5 0a 0a be ea fc 83 3e
       0.081327215 0.52842426 -0.13480647 0.25778896
000080 d6 ca 0e be 01 5a 4a 3e ce e2 86 be 2f 45 7f 3f
       -0.13944563 0.19760896 -0.26344913 0.9971494
000090 49 99 be bd 0e 52 17 be b0 0d 2a 3e ae 46 54 3e
       -0.093065806 -0.14777395 0.16606784 0.20730087
0000a0 83 34 82 be a5 e8 32 3d 87 94 9c bd 42 36 11 be
       -0.25430688 0.0436789 -0.07645517 -0.14180854
0000b0 f1 32 89 3d 22 14 4d 3f 0f 9b a2 3e 67 0a a9 bd
       0.066991694 0.80108845 0.31758925 -0.08253937
0000c0 ba d5 68 3b a6 ed db bd 06 cb 97 be bf f2 33 be
       0.0035527782 -0.10738687 -0.29647082 -0.17573069
0000d0 76 36 16 3f 90 30 8e 3f ab 8f 9a 3d 2e 4f 5c bd
       0.5867685 1.110857 0.07546934 -0.05378645
0000e0 aa ba bc be 4d cf 8e be 7d cd 96 bd 20 9b 99 3e
       -0.36861163 -0.27892533 -0.073634125 0.30001163
0000f0 a0 18 0b be 73 b7 8c be e5 77 fc bd 19 25 53 3f
       -0.13583612 -0.2748371 -0.123275556 0.8247848

fc3.weight f4 [4, 64]
000000 92 16 9f bf 96 9a d0 3d db 22 83 bf fa 5a 0c be
       -1.2428763 0.10185735 -1.0245012 -0.1370658
000010 10 73 3a bf db ec a1 3d c5 fe 67 3f d5 4a 8f bf
       -0.7283182 0.07906505 0.9062312 -1.1194712
000020 e8 51 a5 bf b0 66 6c bf 2d f1 7f 3f 50 3c 0f bf
       -1.2915621 -0.9234419 0.9997738 -0.55951405
000030 7e 5c 6f 3f 94 98 1c bf 9f e4 f7 3f d5 49 ca 3f
       0.93500507 -0.61170316 1.9366645 1.5803782
000040 ad b1 59 bf e8 e9 15 bf 8f b6 0f bf 0d 5a ff 3f
       -0.85036737 -0.5856004 -0.5613794 1.9949356
000050 25 70 60 bf 1a 12 03 3f 08 60 fc be 5b 96 ac bf
       -0.8767112 0.51199496 -0.49292016 -1.3483385
000060 c4 7e ab bd 50 5a 1b bf 35 db 8f bf 8b d5 3d c0
       -0.08373788 -0.6068468 -1.1238772 -2.9661586
000070 d5 b5 2f bf c9 d2 63 3f cf 21 4e bf f8 17 20 be
       -0.6863683 0.8899351 -0.8052034 -0.15634143
000080 3a fd 5a bf 5e 1c cb bf a7 08 6a bf ee 32 dd 3f
       -0.85542643 -1.5868032 -0.9141945 1.7281168
000090 5a 4b 7d be 32 53 df be f5 26 05 bf e6 92 df bf
       -0.24735776 -0.4361816 -0.5201257 -1.7466705
0000a0 16 91 5e bb 6c 7e 6c bf ec 5f 1f bf d3 c7 52 bf
       -0.003396099 -0.92380404 -0.6225574 -0.8233616
0000b0 09 46 e2 3e 9e 3f 4d 3f 31 fc 02 c0 ee 24 89 bd
       0.44194058 0.801752 -2.0466425 -0.06696497
0000c0 c0 e0 cc 3c c4 51 58 be 51 da 46 bf 89 1f ae bf
       0.025009513 -0.21124941 -0.77676874 -1.3603374
0000d0 55 b9 d3 3f d4 cd db 3f c5 d2 96 bf ac 6b 57 bf
       1.6540934 1.7172189 -1.1783072 -0.8414867
0000e0 9a f2 1f bf f6 ab 0d bf 1e 0e 15 bf 87 28 10 40
       -0.62479556 -0.55340517 -0.58224666 2.2524736
0000f0 49 9e 12 c0 71 70 30 bf b8 b4 98 bf 58 2f 88 3f
       -2.290911 -0.6892157 -1.1930151 1.0639448
000100 49 4d 4b bf 20 09 df 3b f6 fd 1e bf d0 f7 a1 bf
       -0.794148 0.0068065077 -0.62106264 -1.2653751
000110 db fa 67 bf 9c 75 4e bd 31 c2 75 3f 45 4a 4d bf
       -0.9061715 -0.05040513 0.9599944 -0.8019145
000120 33 2e b4 bf 6f f1 92 bf 1e 60 93 3f ec 7e 5d bf
       -1.4076599 -1.147993 1.1513708 -0.8652179
000130 22 36 8d 3f 0c c5 3e bf 81 0f 0a 40 6c 7f ea 3f
       1.1032145 -0.7451942 2.1571963 1.8320136
000140 cf 6d 19 bf 48 32 3f bf c0 23 39 bf 41 62 ff 3f
       -0.5993318 -0.746861 -0.72320175 1.995186
000150 f0 6c 27 bf 37 50 21 3f bb 0c 55 bf 39 86 46 bf
       -0.654006 0.63013023 -0.8322255 -0.7754856
000160 72 b5 f1 bd 60 76 4d bf 0d 57 56 bf df 3d 35 c0
       -0.11802186 -0.8025875 -0.8372658 -2.8319013
000170 7e a3 78 bf a3 30 87 3f 90 b6 5e bf 0d ae 6c bd
       -0.9712447 1.0561718 -0.8699732 -0.057783175
000180 88 e2 16 bf 12 b6 0b bf 22 af 35 bf a5 f5 ba 3f
       -0.5893941 -0.5457469 -0.70970356 1.4606215
000190 55 2c aa be bc 64 51 bf 64 d5 5a be 74 bd c8 bf
       -0.33236948 -0.81794333 -0.21370465 -1.5682817
0001a0 0c 9a 4c bf 2e 9b 3e bf cf 1c 93 bf 7c 40 7a bf
       -0.79922557 -0.74455535 -1.1493167 -0.97754645
0001b0 9d c3 6a 3f 61 87 5c 3f ab 30 18 c0 8b c1 21 be
       0.9170473 0.8614407 -2.3779705 -0.15796487
0001c0 18 9f 8c bd 97 8c 05 bf 44 40 20 bf 9f 10 3f bf
       -0.06866282 -0.5216765 -0.6259806 -0.74634737
0001d0 31 0c c3 3f ae 82 cd 3f ab d8 85 bf 67 a8 fb be
       1.5238096 1.6055505 -1.0456747 -0.49151918
0001e0 06 73 36 bf e5 98 27 bf 66 cf 5c bf cd 7a fe 3f
       -0.7126926 -0.65467674 -0.86253965 1.9881226
0001f0 e9 01 f0 be 42 e0 31 bf f3 19 87 bf ba 10 09 3f
       -0.46876457 -0.69482815 -1.0554794 0.5354115
000200 de 55 26 bf d0 e7 2c bd b1 cd 5b bf f0 41 84 bf
       -0.6497477 -0.04221326 -0.85860735 -1.0332623
000210 b3 57 e2 be 97 69 d9 3d 9a 1b 84 3f 04 d2 6a bf
       -0.44207534 0.10615843 1.0320923 -0.9172671
000220 c9 fa e3 be 7d 65 cd bf b9 f2 1c 3f d1 08 14 bf
       -0.4452727 -1.6046597 0.61307865 -0.5782595
000230 9d b8 a8 3f 05 80 59 bf 4f 11 12 40 eb 36 c5 3f
       1.318134 -0.8496097 2.2823064 1.5407385
000240 95 5d 96 be 9e 2f 29 bf 35 55 0a bf 91 9d 09 40
       -0.29368272 -0.66088283 -0.54036266 2.150242
000250 db 9b 8c bf 36 d7 6e 3f ba 05 19 bf 36 55 8e bf
       -1.0985063 0.93297136 -0.59774363 -1.1119754
000260 a0 d3 a7 bc 52 c7 34 bf fa c8 c8 bf c5 a1 12 c0
       -0.020486653 -0.7061664 -1.5686333 -2.2911236
000270 48 b5 e6 be 40 3d a8 3f e1 f2 be be 74 0f ed bf
       -0.45060182 1.3143692 -0.37294677 -1.8520341
000280 c6 73 05 bf 00 15 83 bf 5c a2 6b bf a3 7f b9 3f
       -0.5212978 -1.0240784 -0.92044616 1.4492077
000290 eb 52 1c bf 15 85 a9 bf b9 bb 93 bf ec ff 69 bf
       -0.6106402 -1.3243738 -1.1541663 -0.9140613
0002a0 ec 9d 82 bf 9c 4f 00 bf fd 5d 99 bf 76 93 55 bf
       -1.0204444 -0.50121474 -1.1981808 -0.8342813
0002b0 29 12 b4 bf 9d e7 00 40 db 1b f6 bf 70 c3 94 bd
       -1.4068042 2.0141366 -1.9227251 -0.07263839
0002c0 93 18 c3 3d 34 71 9a bf 15 38 47 bf 14 1f 39 bf
       0.095261715 -1.2065797 -0.7781995 -0.72313046
0002d0 8e 31 1b 3f 1e 23 c1 3f 91 bb 4e bf 7c 57 db be
       0.6062249 1.5088842 -0.80754954 -0.42840183
0002e0 e7 77 3c bf cb f0 d8 be 2c fb 0e bf db ee 06 40
       -0.73620456 -0.4237121 -0.5585201 2.1083286
0002f0 08 ba 48 3d 22 ee 24 bf 0d 25 44 bf 20 66 67 be
       0.04900554 -0.6442586 -0.76619035 -0.22597551
000300 3e 56 a5 bf c5 75 56 bc 39 9d 50 bf be f5 ec bd
       -1.2916944 -0.013089602 -0.814899 -0.11570309
000310 0f a1 59 bf c1 d2 80 bc 10 41 b6 3f 4c 89 3d bf
       -0.8501138 -0.015725495 1.4238605 -0.74037623
000320 03 83 14 3f ec 4c 63 be 36 77 50 3f 17 67 46 bf
       0.5801241 -0.22197312 0.814319 -0.7750105
000330 4e 04 3d 3f ab 9f 54 bf 55 8f ed 3f f3 ef eb 3f
       0.73834693 -0.83056134 1.8559366 1.8432602
000340 3f fa 94 bf 1b 4b 04 bf 9d 42 70 bf 4c cf cb 3f
       -1.1638869 -0.516771 -0.93851644 1.5922637
000350 e9 74 38 bf 2a 75 aa 3e 84 5c 8b bf f1 55 1e bf
       -0.7205339 0.33292514 -1.0887609 -0.61849886
000360 9e 5c b1 bd 64 5f f3 be e7 bc d5 be 89 f9 28 c0
       -0.086602435 -0.47533715 -0.41745684 -2.6402304
000370 e8 6f 2f bf a1 96 6e 3f d9 6b 60 bf 31 54 b4 3f
       -0.6853013 0.9319859 -0.8766456 1.4088193
000380 fe 2b 3c bf c6 70 53 bf b3 ea 62 bf b0 ca f8 3f
       -0.73504627 -0.82593954 -0.8863937 1.9436855
000390 2d 1c 97 be a6 ce f1 be 86 6f a6 bf 15 da 4b c0
       -0.29513684 -0.47227973 -1.3002784 -3.1851857
0003a0 35 fe 4a bf 34 de 8d bf b3 12 de 3d 57 5e 1a bf
       -0.7929414 -1.1083436 0.1084341 -0.603002
0003b0 7c 1e 2a 3e 1c 5a 60 3f cc 52 d1 bf f4 0b 60 3d
       0.16613191 0.87637496 -1.6353393 0.0546989
0003c0 e1 0d 64 bc fa 86 dd be 8c 9b 43 bf 41 83 80 bf
       -0.013919325 -0.4326704 -0.7640922 -1.0040056
0003d0 7c 5a 09 40 1c 48 d5 3f 1f 49 75 be 94 71 6f bf
       2.1461477 1.6662631 -0.23953675 -0.9353268
0003e0 32 d2 48 bf 2e 2c 37 bf 56 5e 41 bf 0d 23 15 40
       -0.7844573 -0.7155179 -0.7553457 2.3302643
0003f0 7a ad b2 bf 3f 3c 8d bf f8 9c 19 bf 6a d5 76 3f
       -1.3959191 -1.1034011 -0.6000514 0.96419394

fc3.bias f4 [4]
000000 a2 ee eb 3e f2 b1 40 3e df 74 c7 3e f0 70 43 3e
       0.460805 0.18817881 0.38956353 0.19086051
