NeurPiRL_SA/LunarLander/DQN/Oracle/64x64/2/Policy.pth (torch, 22209 bytes, 6 tensors)

fc1.weight f4 [64, 8]
0.10610464 0.79666156 0.4365786 -0.12277077 0.45048502 -0.044437014 0.05868014 -0.16052637
1.3341552 -0.10835586 0.3022082 -0.39912063 -1.006118 -0.22633895 0.17560557 -0.10827004
0.31616226 -0.36387566 -0.16237457 -0.5513181 -0.43392766 -0.5267844 -0.07021697 0.7108693
0.87628204 0.0029095428 0.14136744 -0.25547794 -0.4747873 -0.79761046 -0.2719636 -0.044135444
0.24064708 0.6060817 0.45510805 -0.43764275 0.7417999 -0.5367464 -0.0157028 0.04956185
0.33825833 -1.3735218 -0.69171476 -0.11986289 -0.051659297 0.7395944 0.47977003 -0.13232608
0.32985 -0.055606514 0.7141114 0.17169507 -0.6861631 0.35648793 -0.31129837 -1.1237514
-0.38787797 1.1894766 -0.13348746 5.4449334 0.058874536 0.1615697 0.7423459 0.6095567
1.3333268 -1.4811183 0.62685806 -0.60580236 -0.51755565 0.12110777 0.103945844 0.14474824
-0.075081974 0.2646668 0.28289378 -0.03231566 1.0442895 -0.994615 -0.31092206 -0.012518305
0.054659195 -2.222484 -1.164824 -0.42888543 0.45393544 -0.1610735 -0.94674957 -0.02154047
-0.3722643 -1.5718844 -1.551386 -1.5592564 0.24462189 0.18613197 0.21062471 0.11326178
-0.8140865 -1.5326574 -1.1555134 -1.3599243 -0.12680246 -0.16734333 0.18281536 -0.060373
-0.41081107 -0.2458487 0.60323554 0.19928493 -1.900147 -0.09171536 0.5370861 -0.13650607
-0.8063174 -1.0925504 -0.97617984 -0.7868989 0.40658864 0.3395184 0.4993227 -0.2897413
0.0071930536 0.96469444 -0.45599234 1.4447793 -0.8452821 -0.4039823 0.103494816 0.074962534
-0.5156501 -0.5383989 -0.7929537 -0.11300718 0.035783477 -0.30559865 0.23263471 0.15095179
0.10926388 -1.1825058 -0.3274258 -0.4613302 -0.85888135 -0.059053514 0.6085161 0.6320718
0.2126875 0.2140213 -0.16357535 0.2884358 1.7373958 -0.64024067 0.56831616 0.18757012
-0.38872388 0.2225224 0.46665388 -1.014902 -0.34523335 -0.40231702 0.20697023 -0.3550702
-0.35246307 0.80182564 0.69574285 -1.3984276 0.06697567 0.15877001 -0.28876922 0.05996777
-0.66593 -0.54399335 -0.04566022 -0.8487963 1.5987201 0.92563736 -0.32160458 0.042016145
-0.5327216 -0.032661587 0.5588848 -0.32033962 -1.1431334 -0.4609648 -0.12679143 -0.2131286
-0.64549667 -0.27097797 -0.32770658 -0.113533154 -0.1464596 0.74329025 0.4914965 -0.7753744
0.5442518 -0.46063778 -0.39857563 -0.60581553 -0.19266221 -0.30339503 0.33724588 0.19645377
0.21069986 -0.91944546 -0.9999375 -0.93975997 -0.36740294 0.22699258 -0.07261659 -0.6821561
-0.3818847 -1.4390078 -0.38239697 -0.71674454 -0.7783743 -0.3340151 0.011575515 0.19716322
-0.18263097 -0.18876119 -0.53029805 -0.6883345 0.87602484 -0.08320629 0.41729245 0.7346747
0.22680965 -3.196932 -0.6362498 -0.5165343 0.14819783 -0.13418192 0.13008234 0.030136608
0.28487843 0.19941556 -0.13219613 -0.15521307 0.42776892 -0.40657422 0.16432947 0.13006173
-0.5414918 -0.9106275 -0.9176791 0.13985983 0.33391705 0.5908257 0.40039763 0.4820097
-0.16977414 -1.3474609 -0.22948438 -0.7334517 -0.7328402 -0.37155548 -0.19002017 0.24987806
00000000: 644d d93d 03f2 4b3f 3b87 df3e 3e6f fbbd
00000010: f9a5 e63e 9603 36bd 965a 703d 0661 24be
00000020: 99c5 aa3f ade9 ddbd 08bb 9a3e 8a59 ccbe
00000030: 7ac8 80bf 66c5 67be f2d1 333e afbc ddbd
00000040: 05e0 a13e e94d babe 8545 26be 2f23 0dbf
00000050: c42b debe 58db 06bf eacd 8fbd 88fb 353f
00000060: 0554 603f 07ae 3e3b a0c2 103e 01ce 82be
00000070: 5217 f3be 3330 4cbf d03e 8bbe 5ec7 34bd
00000080: 306c 763e 2c28 1b3f ec03 e93e b612 e0be
00000090: 99e6 3d3f 3668 09bf 29a3 80bc 5e01 4b3d
000000a0: 3230 ad3e 90cf afbf 3814 31bf ad7a f5bd
000000b0: b398 53bd 0f56 3d3f 6ba4 f53e 7d80 07be
000000c0: 19e2 a83e a8c3 63bd 01d0 363f d5d0 2f3e
000000d0: 63a8 2fbf 9685 b63e 8062 9fbe 16d7 8fbf
000000e0: f197 c6be c540 983f f0b0 08be e53c ae40
000000f0: 6d26 713d 8772 253e 620a 3e3f e80b 1c3f
00000100: 74aa aa3f 4995 bdbf c579 203f dd15 1bbf
00000110: 877e 04bf 5a07 f83d 8fe1 d43d e238 143e
00000120: 94c4 99bd 6882 873e 74d7 903e 6d5d 04bd
00000130: 47ab 853f 179f 7ebf 2d31 9fbe 9419 4dbc
00000140: 52e2 5f3d 2e3d 0ec0 f418 95bf df96 dbbe
00000150: 3a6a e83e 74f0 24be 2e5e 72bf a475 b0bc
00000160: 6d99 bebe 8233 c9bf d193 c6bf b795 c7bf
00000170: 297e 7a3e 6199 3e3e 01ae 573e cbf5 e73d
00000180: f967 50bf 1e2e c4bf dde7 93bf 0012 aebf
00000190: 81d8 01be 0d5c 2bbe f333 3b3e ae49 77bd
000001a0: d455 d2be c3bf 7bbe a56d 1a3f 5911 4c3e
000001b0: 0438 f3bf 43d5 bbbd 7a7e 093f 3fc8 0bbe
000001c0: d16a 4ebf b1d8 8bbf ece6 79bf 3572 49bf
000001d0: 632c d03e 5bd5 ad3e 3aa7 ff3e f958 94be
000001e0: b5b3 eb3b 37f6 763f d477 e9be 87ee b83f
000001f0: 6864 58bf c5d6 cebe 17f5 d33d f585 993d
00000200: a501 04bf 83d4 09bf 04ff 4abf 4f70 e7bd
00000210: b291 123d 6d77 9cbe cb37 6e3e 1b93 1a3e
00000220: bec5 df3d 5a5c 97bf 5ba4 a7be 7933 ecbe
00000230: a6df 5bbf 19e2 71bd b6c7 1b3f 75cf 213f
00000240: c1ca 593e 6628 5b3e 4c80 27be dbad 933e
00000250: fc62 de3f d0e6 23bf 2b7d 113f 6212 403e
00000260: d106 c7be e9dc 633e 42ed ee3e 4fe8 81bf
00000270: 6dc2 b0be 7ffc cdbe 01f0 533e c3cb b5be
00000280: 0a76 b4be 7244 4d3f 341c 323f adff b2bf
00000290: 8a2a 893d 9b94 223e 8fd9 93be c4a0 753d
000002a0: 637a 2abf 2643 0bbf 3606 3bbd b74a 59bf
000002b0: dca2 cc3f 92f6 6c3f 5ba9 a4be 1f19 2c3d
000002c0: 7160 08bf 28c8 05bd 1313 0f3f 8e03 a4be
000002d0: 3252 92bf 9403 ecbe 9dd5 01be 623e 5abe
000002e0: 453f 25bf a0bd 8abe 28c9 a7be 1284 e8bd
000002f0: 81f9 15be 4548 3e3f 6ea5 fb3e f07e 46bf
00000300: 1654 0b3f b7d8 ebbe 1b12 ccbe ba16 1bbf
00000310: 3e49 45be 9856 9bbe 7eab ac3e 2d2b 493e
00000320: b4c1 573e c760 6bbf e7fb 7fbf 1c94 70bf
00000330: 3d1c bcbe be70 683e 02b8 94bd c8a1 2ebf
00000340: 6486 c3be 6831 b8bf 89c9 c3be 927c 37bf
00000350: 8a43 47bf 0704 abbe 3ba7 3d3c 28e5 493e
00000360: 9d03 3bbe 9d4a 41be 9dc1 07bf b136 30bf
00000370: 2a43 603f 0f68 aabd 5ba7 d53e a413 3c3f
00000380: ca40 683e 899a 4cc0 44e1 22bf 983b 04bf
00000390: 2cc1 173e fc66 09be 4e34 053e 0ce1 f63c
000003a0: 96db 913e 9833 4c3e 6c5e 07be 2df0 1ebe
000003b0: 8704 db3e 7f2a d0be fc45 283e e72e 053e
000003c0: 359f 0abf e21e 69bf 04ed 6abf 6a37 0f3e
000003d0: 2df7 aa3e 5a40 173f eb00 cd3e fac9 f63e
000003e0: 46d9 2dbe 9979 acbf f4fd 6abe 7ec3 3bbf
000003f0: 6a9b 3bbf 853c bebe a694 42be 09e0 7f3e

fc1.bias f4 [64]
0.7864211 -0.12261737 -0.22016847 -0.39586696 0.6442811 0.6952299 0.4904715 0.7019876
-0.17567316 0.34417343 0.4753661 -0.4328155 -0.34297618 0.094356835 -0.32622558 0.03039976
0.91684055 -0.1915558 0.1522219 0.6269987 0.6063906 0.09206243 0.36468872 0.60816634
0.34245962 0.35060364 -0.47381198 -0.5454541 0.64707124 0.68930554 -0.47663787 -0.35644338
-0.41788462 0.19878343 0.31185886 0.45286322 0.35281786 0.37810773 0.1665178 0.3870639
0.49262932 0.7631947 -0.19014019 0.15517439 0.37935135 0.63934314 0.06425506 0.54107577
0.18140621 0.13474876 0.47718582 -0.3240909 -0.08355406 0.63742286 0.28901887 0.38056225
-0.22458808 0.5705142 -0.3661189 0.26489502 -0.032480534 0.22721125 -0.37297407 0.49477506
00000000: e552 493f d11e fbbd d873 61be 13af cabe
00000010: 9bef 243f 96fa 313f 151f fb3e 76b5 333f
00000020: aae3 33be 8037 b03e 2f63 f33e fe99 ddbe
00000030: 939a afbe 283e c13d 0a07 a7be eb08 f93c
00000040: 10b6 6a3f 3427 44be 0fe0 1b3e fd82 203f
00000050: 6a3c 1b3f 3a8b bc3d 7bb8 ba3e cab0 1b3f
00000060: de56 af3e 5282 b33e 7c97 f2be e1a2 0bbf
00000070: 76a6 253f 5476 303f e109 f4be bf7f b6be
00000080: f9f4 d5be e28d 4b3e f7ab 9f3e b0dd e73e
00000090: 8ba4 b43e 5697 c13e a483 2a3e 3d2d c63e
000000a0: e939 fc3e ba60 433f 1cb4 42be 09e6 1e3e
000000b0: 573a c23e feab 233f 2898 833d f183 0a3f
000000c0: 8dc2 393e 94fb 093e b351 f43e 3eef a5be
000000d0: 641e abbd 252e 233f 48fa 933e 0ed9 c23e
000000e0: 6bfa 65be 380d 123f f073 bbbe 52a0 873e
000000f0: 4f0a 05bd 11aa 683e 75f6 bebe 2853 fd3e

fc2.weight f4 [64, 64]
0.62799335 -0.18100931 -2.3779256 -1.3423085 0.7592011 -0.044006724 -0.0887804 0.37331837
-0.1550406 0.79813415 0.6764334 -1.1210607 -0.12368166 0.65246296 -0.5728082 0.8758565
0.11198827 -0.9979338 0.33070195 0.38211986 0.5286532 -0.08027524 0.18107018 -0.2646933
-0.10309281 0.10355029 -0.060003255 -2.0267303 1.2586728 0.44378653 -0.5058315 -0.25093853
-1.4319683 0.17563683 -0.18915996 -0.3121034 -0.33096352 -1.4838834 0.53754103 -0.4654485
-1.8926953 0.58973277 -1.1019245 2.5799356 -0.5693229 0.5574161 0.12880228 0.00028174405
-0.33548653 0.02679028 -0.30541623 -1.0682667 0.26177657 0.35580876 -0.036298487 0.20116742
-0.026194 0.43676567 -1.1310426 -0.19080473 3.179123 -0.82982355 -0.12963484 0.14345832
-0.5509515 0.64409727 0.6699345 0.76351374 -0.16110727 -0.009432351 0.5320227 -0.4642775
0.6402008 -0.10734152 -0.549892 1.5408951 1.0116087 -0.15355192 1.0935408 0.10917778
0.048921436 0.54886 -0.24323687 0.12651351 0.09173806 0.9529439 0.2047217 0.54269105
-0.21512948 -0.121093154 0.59401584 0.41018677 -0.56118965 -0.24915737 0.4898915 0.41244188
0.34254304 0.35539207 0.4598228 -0.08684248 -0.1006 0.2434597 0.21593998 0.31773496
0.47066587 -0.20477235 0.36893475 -1.6326256 0.14724381 -0.35890028 0.6907707 -0.2789432
-0.19444142 -0.23308325 0.86281544 0.4232144 0.07122196 -0.20789808 0.6753721 0.23736021
0.8400468 -0.37188244 0.8670235 0.054626405 -0.5950393 0.51378864 0.5503285 -0.26702818
-0.13421202 0.0068869153 -0.10596493 -0.004509911 -0.058988493 -0.06964446 -0.06639094 0.01685016
0.018005613 -0.10258828 0.104757085 0.064118765 -0.09856066 0.10278071 -0.021687478 -0.07974164
0.038767125 0.01024074 -0.06583135 0.026669266 0.028109888 0.03512737 -0.09422916 -0.10871379
-0.033529602 -0.13313706 0.010317012 -0.13753988 -0.038196422 0.08111565 -0.09975278 -0.045766644
0.03570763 -0.11030892 -0.1342453 -0.06350899 0.011323202 0.016687406 -0.088878825 -0.046982903
-0.04463516 -0.11967634 -0.012874185 -0.028148744 -0.11645496 -0.08020301 0.07599229 0.046993017
-0.121319 0.030706644 -0.1240287 -0.08905588 0.0042055026 -0.028967792 -0.08137028 0.004718412
0.026651219 0.09348142 -0.042310227 0.099408105 0.062354103 -0.049977764 0.094477475 -0.0804146
-0.12501976 0.20104355 0.7761638 0.7670956 0.14551583 -0.6383695 -0.24504386 0.060269095
0.046997588 -0.028665809 -1.1798 -0.5573674 0.08575733 0.17035037 -0.02018223 -0.42330047
0.25795445 0.1893165 -0.33989012 0.2118607 -0.30047083 -0.23658699 0.1255608 0.33077702
-0.0053200396 -0.2831422 0.35737327 0.19905788 -0.4026485 0.31426367 -0.17688762 0.12340402
0.43310294 0.035923366 0.14819954 -0.11001516 0.44090906 0.513244 0.029123876 0.4826393
0.7566855 -0.25596738 0.25531712 -0.44333735 0.3076747 -1.0707101 -0.24379674 0.057162855
-0.17792293 -0.9424946 0.56907815 0.2887239 -1.3680018 -0.4929136 0.27393028 0.071388565
-0.08977182 0.026747432 0.5540171 0.13551468 0.12229739 0.4657829 0.52612835 -0.9020677
00000000: 2cc4 203f 815a 39be ef2f 18c0 c4d0 abbf
00000010: 015b 423f 6540 34bd 80d2 b5bd 9623 bf3e
00000020: f7c2 1ebe 8552 4c3f bd2a 2d3f eb7e 8fbf
00000030: cf4c fdbd d007 273f 8fa3 12bf 2238 603f
00000040: 1b5a e53d 9778 7fbf c451 a93e 37a5 c33e
00000050: d155 073f 5867 a4bd 766a 393e e185 87be
00000060: 5322 d3bd 2d12 d43d f9c5 75bd f3b5 01c0
00000070: 311c a13f fd37 e33e 2c7e 01bf 047b 80be
00000080: bd4a b7bf 24da 333e 26b3 41be 04cc 9fbe
00000090: 0d74 a9be e4ef bdbf 4a9c 093f 444f eebe
000000a0: d743 f2bf baf8 163f dd0b 8dbf aa1d 2540
000000b0: 25bf 11bf d2b2 0e3f bfe4 033e 0cb7 9339
000000c0: e4c4 abbe 4a77 db3c 845f 9cbe f7bc 88bf
000000d0: 9407 863e 912c b63e b9ad 14bd d5fe 4d3e
000000e0: cd94 d6bc c09f df3e 01c6 90bf 5162 43be
000000f0: c076 4b40 516f 54bf ffbe 04be bde6 123e
00000100: 280b 0dbf 8fe3 243f d480 2b3f a375 433f
00000110: 4ef9 24be 268a 1abc a432 083f c8b5 edbe
00000120: 33e4 233f dfd5 dbbd b9c5 0cbf 0d3c c53f
00000130: 657c 813f b73c 1dbe 25f9 8b3f 9a98 df3d
00000140: d861 483d 1782 0c3f 1613 79be c28c 013e
00000150: 2ae1 bb3d 22f4 733f 91a2 513e cded 0a3f
00000160: e74a 5cbe b0ff f7bd 6c11 183f 0004 d23e
00000170: 20aa 0fbf 1c23 7fbe 0fd3 fa3e 952b d33e
00000180: cd61 af3e f3f5 b53e e56d eb3e 78da b1bd
00000190: 5f07 cebd 804d 793e 5f1f 5d3e 28ae a23e
000001a0: 1efb f03e d8af 51be 04e5 bc3e e0f9 d0bf
000001b0: 15c7 163e c7c1 b7be 59d6 303f a5d1 8ebe
000001c0: a71b 47be 60ad 6ebe 79e1 5c3f 8faf d83e
000001d0: d2dc 913d 3ce3 54be 30e5 2c3f 8e0e 733e
000001e0: 4f0d 573f 6067 bebe 41f5 5d3f f0bf 5f3d
000001f0: 7f54 18bf a787 033f 54e2 0c3f ebb7 88be
00000200: e06e 09be a2ab e13b 2404 d9bd e0c7 93bb
00000210: eb9d 71bd c1a1 8ebd f9f7 87bd 5909 8a3c
00000220: 8280 933c ce19 d2bd e28a d63d b350 833d
00000230: 2cda c9bd b17e d23d f0a9 b1bc 964f a3bd
00000240: 47ca 1e3d c7c8 273c 96d2 86bd 8179 da3c
00000250: b546 e63c b8e1 0f3d 38fb c0bd 56a5 debd
00000260: 5656 09bd 1555 08be af08 293c 41d7 0cbe
00000270: da73 1cbd f61f a63d 2f4b ccbd ce75 3bbd
00000280: 2a42 123d a5e9 e1bd 9a77 09be 0011 82bd
00000290: f484 393c 07b4 883c 1a06 b6bd 2571 40bd
000002a0: 5cd3 36bd de18 f5bd 3fee 52bc 3298 e6bc
000002b0: f07f eebd 7a41 a4bd d9a1 9b3d c07b 403d
000002c0: 1976 f8bd 808c fb3c c202 febd ee62 b6bd
000002d0: 50ce 893b dd4d edbc 76a5 a6bd e99c 9a3b
000002e0: a853 da3c 3073 bf3d 7d4d 2dbd 7a96 cb3d
000002f0: 0467 7f3d 7cb5 4cbd 687d c13d 69b0 a4bd
00000300: 2e05 00be 5cde 4d3e acb2 463f 6160 443f
00000310: 1a02 153e 2f6c 23bf c7ec 7abe badc 763d
00000320: 8b80 403d 8fd4 eabc b003 97bf a1af 0ebf
00000330: 8aa1 af3d 5470 2e3e 3455 a5bc d7ba d8be
00000340: 9b12 843e 2fdc 413e 1406 aebe 03f2 583e
00000350: 50d7 99be dc43 72be 0393 003e 9b5b a93e
00000360: ba53 aebb 04f8 90be a1f9 b63e d4d5 4b3e
00000370: f227 cebe 2be7 a03e 0722 35be 3fbb fc3d
00000380: abbf dd3e 6124 133d 9fc1 173e a14f e1bd
00000390: d5be e13e f563 033f 3295 ee3c 801c f73e
000003a0: 24b6 413f 280e 83be edb8 823e 1dfd e2be
000003b0: 8a87 9d3e 070d 89bf daa5 79be 9923 6a3d
000003c0: 6e31 36be 5347 71bf 1baf 113f 9ed3 933e
000003d0: af1a afbf 2c5f fcbe 9740 8c3e 2b34 923d
000003e0: 4ada b7bd 6e1d db3c 11d4 0d3f 5cc4 0a3e
000003f0: 0e77 fa3d 197b ee3e 59b0 063f e9ed 66bf

fc2.bias f4 [64]
0.2786411 -0.028329037 -0.12785766 -0.12664032 0.58738106 -0.0969138 0.014092788 0.012422345
-0.037492037 0.22535513 -0.0137062855 0.20681031 0.5983413 -0.19994444 0.20873418 -0.030317716
-0.1468917 0.107903376 -0.076565996 0.3991521 -0.0027314923 0.38076285 0.10195111 0.013836055
-0.35027313 -0.08047933 -0.07429376 0.12801664 0.43488082 -0.0566288 -0.07393979 0.14362697
0.0068541793 0.10714375 0.14885218 0.7704161 -0.08292586 -0.15314509 0.120954335 0.6987528
-0.12720695 -0.114128135 -0.021374501 0.096644536 -0.12159419 0.9082952 -0.03452573 -0.046164025
-0.42988053 -0.34728056 0.009460139 -0.098314814 0.65318394 0.1426152 -0.029342163 -0.08498036
0.28120694 -0.0373964 0.42371196 0.06275196 0.25554073 -0.116240725 0.4759539 -0.11830473
00000000: 0caa 8e3e 4c12 e8bc 1eed 02be 00ae 01be
00000010: 9b5e 163f be7a c6bd 70e5 663c 1787 4b3c
00000020: 4091 19bd 7fc3 663e 5490 60bc 15c6 533e
00000030: e52c 193f 3cbe 4cbe 6abe 553e dc5c f8bc
00000040: c76a 16be 72fc dc3d a2ce 9cbd aa5d cc3e
00000050: d602 33bb 59f3 c23e becb d03d 9fb0 623c
00000060: 0057 b3be 59d2 a4bd 5427 98bd cb16 033e
00000070: b3a8 de3e 9af3 67bd bf6d 97bd f312 133e
00000080: 0699 e03b 2f6e db3d b56c 183e fd39 453f
00000090: 09d5 a9bd 11d2 1cbe e8b6 f73d 77e1 323f
000000a0: 8a42 02be 03bc e9bd 9419 afbc 92ed c53d
000000b0: 6006 f9bd 0986 683f da6a 0dbd 7d16 3dbd
000000c0: 4d19 dcbe c2ce b1be b3fe 1a3c 4759 c9bd
000000d0: 1037 273f b809 123e fa5e f0bc 2f0a aebd
000000e0: 5bfa 8f3e f82c 19bd c6f0 d83e 1984 803d
000000f0: 3cd6 823e 9e0f eebd 3bb0 f33e c049 f2bd

fc3.weight f4 [4, 64]
1.3652672 -0.32193586 -0.07988319 -0.3223248 -1.5144277 -0.6445729 -0.077217445 0.062109515
-0.47460055 -0.9340563 -0.6963127 1.888447 -0.11686348 -0.3389629 -0.8675666 -0.69439834
-0.5084625 2.764713 -0.116832994 -0.8185304 -0.5995425 -0.89773446 2.0086882 -0.55448055
-0.92361045 -0.38431457 -0.615659 2.1632483 -0.9748631 -0.32543606 -0.27901688 0.7054521
-0.689508 -0.9966775 -1.2595639 1.6620228 -0.47215897 -0.32431504 -0.62879163 0.7023578
-0.5455773 -0.47368756 -0.5512717 1.8977996 -0.30118373 1.443812 -0.5881735 -0.49259636
-0.57487035 -0.4360658 -0.6515989 -0.7224645 1.5115421 0.8596489 0.01784436 -0.6071284
-0.82186645 0.006923929 0.5989636 1.8103244 2.1547425 0.047125563 1.3494331 -0.6814129
0.8338198 -0.54135275 -0.018294722 -1.0012282 -1.5160105 -0.5016255 -0.0060777087 0.08280287
-0.6513781 -0.3855667 -0.53022504 2.1704295 0.364631 -0.336992 -0.9314895 -0.77839124
-0.2577154 3.1661987 0.004313213 -1.2939047 -0.34893775 -0.8751023 2.2398734 -0.56921947
-1.0071027 -0.5405991 -0.42525333 1.9653642 -1.6663901 -0.47157475 -0.5449627 1.4294027
-0.71440274 -0.12432521 -1.2785215 1.4812096 -0.7121167 -0.4280929 -0.67991936 0.6667049
-0.63789326 -0.6649216 -0.34565434 1.9049598 -0.5680616 1.5620362 -0.3789872 -0.5852778
-0.28328687 -1.4781774 -0.59548265 -0.24969193 1.7129318 0.9795697 0.04497762 -0.5328483
-1.1154343 -0.030328512 0.68013483 1.4518287 2.0565362 0.03199385 0.92238295 -0.2410106
1.312475 -0.5910467 -0.055325434 -0.066839255 -0.44777367 -0.2165445 -0.057501063 0.091878675
-0.721041 -0.6754376 -0.25220564 1.8965077 -0.79269063 -0.423965 -0.4735013 -0.46153232
-0.51223296 1.5371804 -0.10083299 -0.18120097 -0.5587381 -1.7572063 1.3733654 -0.49292243
-0.3382028 -0.50358236 -0.14605121 2.407543 -1.2309029 -0.62103325 -0.4003442 0.20194015
-0.6390428 -0.797423 -0.6994467 1.441505 -0.33942258 -0.56007576 -0.43614218 -1.5324953
-0.549091 -0.63481843 -0.6502032 1.8402257 -0.48500028 1.7030255 -0.445761 -0.50377923
0.62979186 -0.91685605 -0.7061033 -0.72968656 1.6912444 2.2301214 0.059616257 -0.18693094
-1.334653 -0.1054126 1.5145142 0.56108344 2.875696 0.06673941 1.2244868 -0.44623572
2.057039 -0.60002667 -0.012729526 0.40479445 -1.6128657 -0.63868225 0.010960028 0.042929962
-0.34783342 -1.5370356 -0.6402974 1.3872991 -0.5286586 -0.5478925 -0.8443752 -0.50977975
-0.62324744 2.8572254 0.0010667099 0.059700407 -0.5112435 -1.0253806 1.8773685 -0.6190133
-1.0181283 -0.599909 -0.5607349 2.1216805 -1.008584 -0.65368724 -0.46256158 1.0794789
-0.37440276 -0.73245966 -0.36325964 1.5175371 -0.49631602 -0.6305013 -0.31027493 1.1758033
-0.7003843 -0.23880221 -0.6792546 1.8305459 -0.5300682 1.0958394 -0.681222 -0.24992768
0.0226083 -0.6078765 -0.19590598 -0.48107386 0.9368351 0.90361446 0.031139493 -0.6021575
-1.2341075 -0.09642544 1.0456665 2.018159 2.0216675 0.1146422 1.1232784 -0.6193093
00000000: 13c1 ae3f c7d4 a4be cc99 a3bd c207 a5be
00000010: c4d8 c1bf bb02 25bf 2e24 9ebd 8c66 7e3d
00000020: d8fe f2be 501e 6fbf 8d41 32bf a2b8 f13f
00000030: 1f56 efbd 8c8c adbe d818 5ebf 17c4 31bf
00000040: 992a 02bf 0ff1 3040 2346 efbd 358b 51bf
00000050: 9e7b 19bf edd1 65bf 598e 0040 70f2 0dbf
00000060: bc71 6cbf e1c4 c4be d49b 1dbf a972 0a40
00000070: a190 79bf 8e9f a6be 4ddb 8ebe 8298 343f
00000080: 9983 30bf 4226 7fbf 6439 a1bf 2abd d43f
00000090: d2be f1be 9f0c a6be 7df8 20bf b9cd 333f
000000a0: f4aa 0bbf 2d87 f2be 2420 0dbf 19eb f23f
000000b0: c134 9abe d5ce b83f 8a92 16bf 9735 fcbe
000000c0: b42a 13bf 0444 dfbe 2fcf 26bf 6ff3 38bf
000000d0: 367a c13f f311 5c3f 562e 923c c46c 1bbf
000000e0: d765 52bf 20e2 e23b ae55 193f b6b8 e73f
000000f0: 4de7 0940 bc06 413d 39ba ac3f 1371 2ebf
00000100: 3775 553f 1896 0abf d0de 95bc 3f28 80bf
00000110: a20c c2bf 876a 00bf 8427 c7bb 8d94 a93d
00000120: b7c0 26bf 0069 c5be d4bc 07bf 51e8 0a40
00000130: eab0 ba3e 378a acbe 1976 6ebf a644 47bf
00000140: 46f3 83be 00a3 4a40 da55 8d3b ab9e a5bf
00000150: f8a7 b2be b406 60bf 165a 0f40 5eb8 11bf
00000160: bee8 80bf b464 0abf ceba d9be 0e91 fb3f
00000170: 454c d5bf 3f72 f1be ad82 0bbf abf6 b63f
00000180: 19e3 36bf 379e febd 98a6 a3bf 4798 bd3f
00000190: 484d 36bf fe2e dbbe 320f 2ebf 2cad 2a3f
000001a0: f94c 23bf 4d38 2abf 9bf9 b0be b9d5 f33f
000001b0: 7c6c 11bf cdf0 c73f 9c0a c2be c4d4 15bf
000001c0: fa0a 91be eb34 bdbf 8d71 18bf 3eaf 7fbe
000001d0: 5941 db3f 14c5 7a3f 743a 383d bf68 08bf
000001e0: 8dc6 8ebf 8073 f8bc 511d 2e3f 86d5 b93f
000001f0: 4a9e 0340 fc0b 033d 4a21 6c3f 7ccb 76be
00000200: 2eff a73f d64e 17bf ec9c 62bd 05e3 88bd
00000210: 9742 e5be d7bd 5dbe 3c86 6bbd e32a bc3d
00000220: 2596 38bf 7be9 2cbf 1921 81be c4c0 f23f
00000230: c6ed 4abf f111 d9be c36e f2be f74d ecbe
00000240: b321 03bf 54c2 c43f 8781 cebd bf8c 39be
00000250: 7609 0fbf 23ec e0bf 70ca af3f 5460 fcbe
00000260: eb28 adbe c6ea 00bf 738e 15be 2f15 1a40
00000270: 3a8e 9dbf 09fc 1ebf eaf9 ccbe 66c9 4e3e
00000280: 4f98 23bf ea23 4cbf f00e 33bf 3c83 b83f
00000290: ccc8 adbe 2061 0fbf 074e dfbe ce28 c4bf
000002a0: 3a91 0cbf 7683 22bf b873 26bf 848c eb3f
000002b0: f551 f8be bdfc d93f c93a e4be adf7 00bf
000002c0: 0a3a 213f 14b7 6abf 30c3 34bf bdcc 3abf
000002d0: b27a d83f 4fba 0e40 2d30 743d d36a 3fbe
000002e0: e9d5 aabf 90e2 d7bd 9adb c13f 2aa3 0f3f
000002f0: 670b 3840 acae 883d fcbb 9c3f 0279 e4be
00000300: 87a6 0340 599b 19bf 808f 50bc 3841 cf3e
00000310: 6272 cebf ae80 23bf b091 333c 54d7 2f3d
00000320: 3917 b2be 95bd c4bf 88ea 23bf 0493 b13f
00000330: 2c56 07bf af42 0cbf f928 58bf ed80 02bf
00000340: 258d 1fbf c8dc 3640 d8d0 8b3a 6a88 743d
00000350: dbe0 02bf ac3f 83bf 9c4d f03f a877 1ebf
00000360: 0752 82bf a393 19bf 538c 0fbf 9dc9 0740
00000370: 4819 81bf 0c58 27bf dfd4 ecbe 5d2c 8a3f
00000380: b8b1 bfbe 7a82 3bbf 2bfd b9be a83e c23f
00000390: 221d febe 8868 21bf 5bdc 9ebe b980 963f
000003a0: 634c 33bf 9188 74be a1e3 2dbf 544f ea3f
000003b0: 8db2 07bf 7744 8c3f 9164 2ebf 0bed 7fbe
000003c0: 0b35 b93c cb9d 1bbf 949b 48be 504f f6be
000003d0: 6dd4 6f3f 4753 673f 4018 ff3c fe26 1abf
000003e0: 3cf7 9dbf b37a c5bd 66d8 853f 8429 0140
000003f0: 0063 0140 88c9 ea3d 96c7 8f3f 0e8b 1ebf

fc3.bias f4 [4]
0.16112839 0.38671798 -0.017293295 -0.22992754
00000000: d7fe 243e e6ff c53e abaa 8dbc 2072 6bbe
