NeurPiRL_BUS/LunarLander/DQN/checkpoints/1500.pth (torch, 4267 bytes, 6 tensors)

fc1.weight f4 [16, 8]
000000 c6 20 b5 bf 30 49 09 be 1e 4a b0 be bb 0b f4 be
       -1.4150627 -0.13406825 -0.34431547 -0.476652
000010 95 03 05 c0 dd 74 ec 3f e1 4a 04 bf 3e ca 6b be
       -2.0783436 1.8473164 -0.51676756 -0.23026368
000020 4b f1 81 40 ba 90 1e bf 03 eb 1c 3f e0 f2 86 c0
       4.0607047 -0.61939585 0.612961 -4.217148
000030 21 0e e0 be 14 91 17 c0 96 4e 45 be 24 1f 5a 3f
       -0.4376078 -2.3682299 -0.1926826 0.85203767
000040 f7 64 55 3f 0c 9f c3 3e 8f 7f e4 3e 5a 57 c0 bf
       0.83357185 0.3820728 0.4462857 -1.5026658
000050 22 a3 20 bf 7e 8a 34 3f fe 32 b4 bd ce 1b 46 3d
       -0.6274892 0.7052382 -0.087987885 0.04836636
000060 80 2c e5 3e 92 5c 45 bf 2f 1d c6 3e f1 bf e5 bf
       0.44760513 -0.77094376 0.3869414 -1.7949201
000070 6a 80 92 3e 00 43 8e bf 52 b0 2b 3e e5 f0 15 40
       0.28613597 -1.1114197 0.1676648 2.342828
000080 35 17 4f 3f 20 6c 55 3f ce c1 a3 bf 7d d8 79 3f
       0.80894786 0.8336811 -1.279352 0.9759596
000090 1b a4 2d c0 43 6a e9 3f 13 a4 9a 3e 26 88 ad be
       -2.7131412 1.8235554 0.30203304 -0.33892936
0000a0 cc fd f6 3f 4f c6 15 3f 5b 8c 24 bf b3 a9 25 3f
       1.9296203 0.5850572 -0.64276665 0.64712065
0000b0 d9 e6 1f c0 ba 68 77 bf fa 9d 34 3e ad b0 8a 3e
       -2.4984648 -0.96644175 0.17638388 0.27087918
0000c0 41 b7 5a c0 40 b5 d4 3f f8 99 07 c0 45 69 87 bd
       -3.417435 1.6617813 -2.1187725 -0.066118754
0000d0 7f a5 9b bf 4c 2f c1 be 66 b0 84 bf f3 7c 50 bc
       -1.215988 -0.37731397 -1.0366333 -0.012725103
0000e0 5f 41 eb bd 3e 65 87 3c 25 b3 97 3f f5 51 2a bf
       -0.11487078 0.016527768 1.1851546 -0.66531307
0000f0 cd c4 52 bd 46 81 8f 3d 17 5e 98 bf 1d 38 e5 bd
       -0.051457215 0.07007079 -1.1903714 -0.111923434
000100 56 21 b8 3f 93 4f 70 c0 35 42 9b bf 8a a0 46 3e
       1.4385173 -3.7548568 -1.212958 0.19397178
000110 f2 d0 aa bf 3c de b3 bf 2f 07 b4 bf 2f e5 2a 3f
       -1.3345015 -1.4052196 -1.4064692 0.66755956
000120 73 e1 0b bc 15 d3 32 3f 73 c5 12 3f 33 b8 80 3f
       -0.008537638 0.69853336 0.57332534 1.0056213
000130 e5 62 8b 3f 47 5f 7a 40 3c 76 c8 3e 80 a1 ce be
       1.0889555 3.9120653 0.39152706 -0.4035759
000140 1f 55 6f 3e 2b 90 a3 3f d2 58 92 bf 25 f7 0e bf
       0.23372315 1.2778372 -1.1433356 -0.5584586
000150 3c 38 64 bf cc 82 81 3f 21 0e 42 3e dd 4a 77 c0
       -0.89148307 1.0118041 0.18950702 -3.8639443
000160 67 9e 1f c0 4d 65 db bf 3a be 6e bf 39 a1 ff bd
       -2.494043 -1.714029 -0.9325901 -0.12481923
000170 55 c7 54 3f 4b 7b 17 40 1f 4f ea 3d af fb 97 bf
       0.83116657 2.3669002 0.114408724 -1.1873683
000180 f7 c2 b5 3c d0 8b b1 3e c8 dc 5b 3f c3 ca 0f c0
       0.022187693 0.3467698 0.8588376 -2.2467506
000190 93 ed d6 be 73 ca 07 3e b2 33 00 3f 6a 89 df 3e
       -0.4197813 0.13260822 0.5007888 0.43659526
0001a0 e5 a2 c0 ba 98 73 c2 3f 4b 4c 6d 40 1f d1 b9 3f
       -0.0014696984 1.5191526 3.7077816 1.4516944
0001b0 68 de 9d bf c6 45 21 40 ed 99 12 bf 93 39 1a 3d
       -1.2333498 2.5198836 -0.5726612 0.037652563
0001c0 6a a1 42 3f 69 15 91 3e 22 e9 a7 3f 90 36 49 bf
       0.7602755 0.28336647 1.3118021 -0.7859888
0001d0 cd 71 cf 3f 13 eb 65 3f 1e ba 91 bf 08 69 14 bf
       1.6206604 0.8981182 -1.1384923 -0.57972765
0001e0 55 9f 41 bf 37 2d a5 be 3a 80 d5 3f fd 36 9a 3f
       -0.75633746 -0.3226106 1.6679757 1.2048031
0001f0 ba 0c c4 bd 9f 00 07 c0 1f 2e 1c 3e e9 f2 18 bf
       -0.0957274 -2.109413 0.15251969 -0.5974565

fc1.bias f4 [16]
000000 8b 01 95 3f 6f 14 a8 3d ee a5 f6 3f fa 4b 4a bb
       1.1641096 0.082070224 1.9269388 -0.003086804
000010 61 01 7a 3f 25 e0 03 3f c3 65 9a bd 2c 7f a5 3f
       0.97658354 0.5151389 -0.07538941 1.2929435
000020 ff 9a 1b 3f 02 d9 03 3f be 99 91 3f 00 75 8c be
       0.6078338 0.51503 1.1375043 -0.27433014
000030 b7 c5 30 3f 31 cb a6 3f ba 7d 33 be af 62 b5 3f
       0.6905169 1.3030759 -0.1752843 1.4170741

fc2.weight f4 [16, 16]
000000 a7 04 e9 3f 63 c8 71 3f f1 40 15 bf 58 f1 d3 3f
       1.8204545 0.9444639 -0.5830222 1.6558027
000010 ec 12 37 c0 c2 8b d9 3f 7c 91 9e 3f 23 29 31 bf
       -2.86053 1.6995776 1.2388148 -0.69203395
000020 6d 76 ba bf ef d7 a5 3f 4e c9 86 3f aa 54 14 40
       -1.4567391 1.2956523 1.0530183 2.3176675
000030 0f 5d a3 bf 99 c7 96 bf d0 b6 83 bf 90 a2 19 bf
       -1.2762774 -1.1779662 -1.0290165 -0.60013676
000040 db 5f 06 bf ea ec 0c 40 9d 3f a8 3e 6a 8e 8e 3e
       -0.52490014 2.20196 0.32861033 0.27843028
000050 30 ff c0 bf b5 eb 1d 40 9a 9b 0f 40 cb 07 b1 3e
       -1.5077877 2.4675114 2.2438722 0.34576258
000060 dd 33 17 3f a5 4d 79 3f e4 31 00 40 f7 c9 8e 3f
       0.5906351 0.973841 2.003045 1.1155385
000070 91 c1 47 3f 01 a5 da 3e f6 a1 95 3f e0 c3 45 3f
       0.78029734 0.42704013 1.1690052 0.77252007
000080 3c 03 d8 be f0 72 a0 3f 63 aa b5 3e a9 85 6b bf
       -0.42189968 1.2535076 0.35481557 -0.92000824
000090 a3 cf c1 3c 97 a6 84 3f 67 e9 d7 3f f1 ce aa 3f
       0.02365858 1.0363339 1.6868104 1.3344404
0000a0 72 ab a4 bf b2 60 ce 3e e4 c5 ce be bd e5 81 3f
       -1.2864821 0.40308148 -0.40385354 1.0148236
0000b0 c5 3c 1a c0 1d 75 ee 3e d0 43 b9 3e 34 d4 99 bd
       -2.409959 0.46573725 0.3618455 -0.07511178
0000c0 42 c9 07 c0 c1 41 d2 3f 72 41 8d bf 06 23 a3 c0
       -2.1216588 1.6426316 -1.1035597 -5.0980253
0000d0 10 0f 57 40 bc 66 05 3f 1a 03 c7 3f 88 7f 79 c0
       3.3602943 0.52109885 1.5547822 -3.898409
0000e0 fb af 0f 3d f2 74 4d c0 90 3b 01 c0 0d b9 73 c0
       0.035079937 -3.2102628 -2.0192604 -3.8081696
0000f0 4a 70 d1 3f f0 9d 29 40 be 0b 62 40 a9 22 d1 bf
       1.6362393 2.6502647 3.5319667 -1.6338702
000100 ce 6d 90 bf 35 0a 96 bf cd b3 9a be 35 fc a6 bf
       -1.128351 -1.1721865 -0.30215302 -1.3045717
000110 c6 7b 41 3f 7f 5d ab 3f 4a a4 1b 40 55 ad cf be
       0.7557949 1.3387908 2.4319024 -0.4056193
000120 11 1a f3 bd 51 73 fe 3f b3 1a 45 40 eb 41 fe 3f
       -0.11870206 1.9878942 3.0797546 1.9863867
000130 5c 3b b1 be 9d b8 89 bf 13 73 12 c0 bc 63 e1 be
       -0.346156 -1.0759465 -2.2882736 -0.44021404
000140 a7 52 ca bf ae 6b 4b 3d 6b 93 26 3f f4 8d 09 3f
       -1.5806473 0.04966324 0.6506869 0.5373223
000150 e2 bd 79 3e c0 e9 b1 3f f2 e9 9c 3c 5d 47 65 3f
       0.24388841 1.389946 0.019154523 0.89562017
000160 6e 17 a4 be 19 b1 9f 3f 6a 09 00 40 da 8b 92 3f
       -0.32049125 1.2475921 2.0005746 1.1448929
000170 87 87 9f bf 3b 03 2a 3f 63 93 42 bf 10 24 32 3f
       -1.2463235 0.6641118 -0.76006144 0.69586277
000180 73 0b f8 be 0f 51 06 3e 82 d6 9f 3f 66 06 94 3f
       -0.48446235 0.13116859 1.2487338 1.1564453
000190 c5 e9 0a c0 12 1e 07 40 70 f9 04 bf 12 73 a7 3f
       -2.1705182 2.1112103 -0.5194311 1.3081992
0001a0 b0 ee b2 3f b7 5e a0 3f 2d 4a ee 3e 6e ed bb 3f
       1.3979092 1.2528905 0.46540967 1.4681833
0001b0 68 eb ee 3e 00 0e 45 3f 07 cd b5 3f e6 f0 97 3d
       0.46663976 0.7697449 1.4203194 0.074189946
0001c0 99 a6 b2 3f 66 df 22 40 ea 5c 44 bf b6 41 7f 3f
       1.3957092 2.5448852 -0.76704276 0.9970964
0001d0 03 c6 31 c0 49 3f db 3f 41 92 4f 3f 0d a2 8e 3e
       -2.7777107 1.7128688 0.8108254 0.2785801
0001e0 ad 83 b4 bf 5b b9 5b bf e2 2a 99 bd 15 9c 1a 3f
       -1.4102684 -0.85829705 -0.07478882 0.6039441
0001f0 00 37 a5 be d6 74 8f 3e 18 8d 43 bf 12 d2 99 bf
       -0.32268524 0.28018826 -0.76387167 -1.2017233
000200 5e 36 16 c0 fd d3 aa be fc 01 84 c0 35 42 11 3f
       -2.3470683 -0.3336486 -4.125242 0.5674165
000210 1a 0d 5f 3e 48 e4 a3 3f e1 46 d0 3e fc 40 d9 be
       0.21782342 1.2804041 0.40679076 -0.42432392
000220 85 8f 3b 40 b6 22 cb 3f a4 f7 02 40 43 0a 70 c0
       2.9306347 1.5869968 2.0463648 -3.7506263
000230 fa c8 a6 be 6c 15 00 bf a4 d3 57 40 ed 7e 1d 40
       -0.32575208 -0.5003269 3.3722925 2.460872
000240 4e 20 bb 3f 23 67 e8 3f 17 7c 4d 40 3e 25 57 bd
       1.4619234 1.8156475 3.2106988 -0.05252575
000250 d3 3f f2 be ec 22 55 bf c9 81 ce 3e 69 3e 80 3f
       -0.4731432 -0.8325641 0.40333393 1.0019046
000260 7f c9 e4 bf 97 b2 cd bd 6e 13 4a 3d 63 74 d8 3e
       -1.7873992 -0.10043829 0.049334936 0.42276296
000270 75 3f 61 3e 97 fe 17 40 ea e9 e1 3e 2d 52 d6 3e
       0.21996863 2.374914 0.44123775 0.4185957
000280 54 17 5c be 7b e1 25 c0 ec 4a 24 40 42 b0 a1 3c
       -0.21493274 -2.5918872 2.5670729 0.019737367
000290 4c d8 2f 3f 82 e2 75 3f 2b 31 29 bf 4b 1e 15 c0
       0.6868942 0.9604875 -0.6609065 -2.329974
0002a0 08 b5 af be ab 6a ed be 2a e5 26 40 c4 23 28 3f
       -0.34317803 -0.46370444 2.607737 0.65679574
0002b0 66 e3 9e bf ca 78 7f c0 bc 71 59 bf 59 f6 7d bf
       -1.2413146 -3.9917474 -0.8493917 -0.9920402
0002c0 fa 79 c9 bf 5e 34 90 3f 22 b3 05 40 3f 51 60 be
       -1.5740349 1.1265981 2.0890584 -0.21905993
0002d0 70 fc c7 bf cb eb b6 3f 07 94 ea 3f 2e e8 a0 3e
       -1.5623913 1.4290708 1.8326424 0.3142714
0002e0 1b 95 45 3f 7a 5d 34 3f 58 6f d2 3f b0 0c c9 3f
       0.7718064 0.70455134 1.644023 1.5706997
0002f0 d8 8f 35 3f f6 62 3a bf 07 99 d6 3e 4b c0 7a be
       0.70922613 -0.7280725 0.41913626 -0.24487416
000300 cb 58 a2 3f 5a 7f 5e c0 00 eb 04 3f 24 9c 68 be
       1.2683347 -3.476523 0.5192108 -0.22715813
000310 9f f1 81 bf 1c 0e 08 bd b3 ae a0 bf 6f 33 b0 3e
       -1.0151862 -0.03321658 -1.2553314 0.3441424
000320 8a 67 69 c0 7f 3b 19 3e 82 fb b9 3f e9 69 06 40
       -3.6469445 0.14964102 1.4529879 2.1002142
000330 0e 1d 60 c0 01 03 22 3e 8f 81 c9 3e 82 d9 bb c0
       -3.5017734 0.15821458 0.39356658 -5.8703012
000340 ad f3 87 3e 0b 19 9b bf 1f 11 3f be 45 65 62 3f
       0.26553097 -1.2117018 -0.18658875 0.88435775
000350 96 cf 62 bf 7c ff dc 3f a6 d1 54 bc f6 5b 89 be
       -0.88598 1.7265468 -0.012989437 -0.26827973
000360 96 fc a4 40 a3 4b 8d 3f ba 3a a4 bf a2 9d 81 c0
       5.1558332 1.1038707 -1.2830422 -4.0504923
000370 09 0c a1 3f 67 a2 23 bf b8 9c 54 40 a5 b9 35 40
       1.2581798 -0.6391968 3.3220654 2.8394558
000380 28 e1 c9 bf 8a b4 8f 3f 5d 3c 4a bf 52 fb 96 bf
       -1.5771837 1.1226971 -0.7899836 -1.1795447
000390 21 29 29 c0 54 2b 8b 3c 84 f0 11 40 39 ea f1 3f
       -2.6431353 0.016988434 2.280305 1.8899604
0003a0 a0 55 bc 3f ab c6 21 40 e6 95 11 3f 3f 5a 13 3f
       1.4713631 2.5277507 0.5686935 0.5755958
0003b0 76 51 8d be 25 ad 28 c0 3c 7e ed 3f a9 c9 07 3e
       -0.27601212 -2.635568 1.8554149 0.13260521
0003c0 3f b6 36 3f b9 fb 9d 3f d5 51 75 3f 6d 38 8b 3f
       0.71371835 1.2342445 0.9582799 1.0876595
0003d0 ad df 20 c0 38 67 3b 40 1d 91 ea bd be 49 db 3f
       -2.513652 2.928175 -0.114534594 1.7131879
0003e0 5b 1c d6 bf 5c 60 04 c0 73 f8 a4 3f a7 c1 99 3f
       -1.6727403 -2.0683813 1.2888321 1.2012223
0003f0 45 9e b1 bc 4a 3e 63 bf db 02 50 c0 d7 1c f7 bd
       -0.021681914 -0.8876692 -3.2501743 -0.12066048

fc2.bias f4 [16]
000000 fc 50 11 c0 0f bf ff bf 5b 93 dc bf 53 34 3c 40
       -2.270568 -1.9980181 -1.7232469 2.9406936
000010 22 7e a4 bd 4b 1e da bf cc bf 7e bf 7b 67 2b c0
       -0.080318704 -1.7040495 -0.9951141 -2.678191
000020 30 b0 67 3f e5 bd 38 3f 55 3f 36 40 eb 25 6a bf
       0.90503216 0.72164756 2.8476155 -0.9146411
000030 d1 ce 42 c0 b1 67 e3 be a7 20 5b bf 95 65 92 bd
       -3.043873 -0.44415048 -0.855967 -0.071482815

fc3.weight f4 [4, 16]
000000 c3 a0 1b c0 80 e6 a0 bf d8 71 55 3e 23 28 e5 40
       -2.431687 -1.2570343 0.20844209 7.1611495
000010 25 f3 02 c0 57 cc a1 bf e2 7f 1b c0 54 02 23 c0
       -2.0460904 -1.2640485 -2.4296803 -2.547017
000020 0d 43 3f 40 79 0b 50 40 f3 ed a0 40 f9 87 0c c0
       2.9884675 3.2507002 5.0290465 -2.195799
000030 3c e6 a9 bf 7d 41 a5 3f ef dc bc bf 46 bd c9 bf
       -1.3273387 1.291061 -1.4754924 -1.5760887
000040 c9 9a 07 c0 64 74 93 bf d0 f4 cd bd 8d 9f eb 40
       -2.1188223 -1.1519895 -0.1005646 7.3632264
000050 86 07 06 c0 03 07 dc bf 80 72 1d c0 e5 59 5d bf
       -2.0942092 -1.718964 -2.4601135 -0.86465293
000060 06 f3 22 40 3c 0b 5c 40 b2 5c a4 40 9d 8e 00 c0
       2.546083 3.4381857 5.1363153 -2.0087044
000070 ea 5a 55 c0 3c 36 a6 3f 74 11 e9 bf d3 a6 be bf
       -3.333674 1.2985301 -1.8208451 -1.4894661
000080 fd 2d 02 c0 da 03 f2 bf 1d 25 e4 bf db 62 fa 40
       -2.034057 -1.8907425 -1.7823826 7.8245673
000090 a9 f4 c0 bf 37 ee 2d c0 87 c8 1c c0 98 74 61 c0
       -1.5074664 -2.7176645 -2.4497392 -3.5227413
0000a0 e8 ca 36 40 56 71 73 40 88 6e 9b 40 e4 e4 ef be
       2.8561344 3.8037925 4.8572426 -0.46854317
0000b0 0b 57 19 c0 bb a5 d6 3f 4a 6c 16 c0 4d 46 c6 bf
       -2.3959377 1.6769327 -2.3503594 -1.5490204
0000c0 4a cb 09 c0 fa 23 f3 bf b5 af 13 3e 33 8c eb 40
       -2.1530328 -1.8995354 0.14422496 7.360864
0000d0 75 d0 dc bf b0 4f cb bf 14 33 04 c0 3b 99 50 bf
       -1.7251116 -1.5883694 -2.0656176 -0.8148381
0000e0 51 9a 3b 40 7f 15 58 40 cf 75 a6 40 d3 b7 de bf
       2.9312937 3.376312 5.201881 -1.7399849
0000f0 3b 20 c6 3e 40 fd d6 3f 1c ea d9 bf 6f fe eb bf
       0.38696465 1.6796036 -1.702457 -1.8437022

fc3.bias f4 [4]
000000 4e 8a 95 40 e6 8c 61 40 78 e1 5f 3f 4a 4f 5a 40
       4.673133 3.5242248 0.87453413 3.4110894
